LIRL results/Robustness experiment/machine_breakdown/ddpg_lirl_pi_multi_run_breakdown/ddpg_lirl_pi_multi_run_20250919_failure_0.0/run_7_seed_42/ddpg_lirl_pi_q_target_20250919_205750.pth (torch, 151793 bytes, 7 tensors)

fc_s.weight f4 [64, 507]
0	0xbdb271b0	-0.087130904
1	0xbd886985	-0.06660751
2	0xbd7fb243	-0.062425863
3	0xbd5295d2	-0.05141241
4	0xbd5ac202	-0.053407677
5	0xbb64a52f	-0.0034888496
6	0x3bb470a0	0.00550659
7	0x3d2eae67	0.04264679
8	0xbc59872a	-0.0132768545
9	0xbd9c2dae	-0.076259
10	0x3d6fcd80	0.05854559
11	0xbd81c00d	-0.06335459
12	0xbc4d2a51	-0.012522296
13	0xbd210c8f	-0.039318617
14	0x3bf487ab	0.007462462
15	0xbc495613	-0.012288588
16	0xbc35d288	-0.011097558
17	0xbd1eccc6	-0.038769506
18	0xbd874ded	-0.0660666
19	0xbd0b5145	-0.03401305
20	0xbe5d2b32	-0.21598509
21	0xbd3b7260	-0.045763373
22	0xbca3ad37	-0.019980056
23	0x3ce1702a	0.027519304
24	0xbd178c86	-0.036999248
25	0xbdc4eb12	-0.096151486
26	0xbc6d49c3	-0.014482918
27	0xbceaa9e3	-0.028645461
28	0x3b136b7d	0.0022494488
29	0xbd3b9fb0	-0.045806587
30	0x3e51b793	0.20480184
31	0xbe07d065	-0.1326309
32	0xbba08c6f	-0.0048995535
33	0xbd023b7d	-0.031795014
34	0xbce86e03	-0.02837277
35	0xbd5fbb99	-0.054622266
36	0x3e0744b6	0.13209805
37	0x3d368317	0.04455861
38	0xbcfa9e44	-0.030593045
39	0xbd72e424	-0.059299603
40	0xbe382da8	-0.17986166
41	0xbd19bfce	-0.037536435
42	0xbbdee49a	-0.006802154
43	0x3c67f99a	0.014158631
44	0x393c2097	0.00017941218
45	0xbdb4cee9	-0.088285275
46	0xbca97bef	-0.020688979
47	0xbd1d342e	-0.03837984
48	0x3c6f5dca	0.014609763
49	0xbd0f69b5	-0.03501292
50	0xbc5f4735	-0.013627817
51	0xbdd5fe5a	-0.10448904
52	0xbd945ce0	-0.07244277
53	0x3ce973ba	0.028497566
54	0x3b9eda0d	0.004847771
55	0x3d99ede7	0.075160794
56	0xbe4cfa0d	-0.20017262
57	0xbd81806a	-0.06323321
58	0xbce2f321	-0.027703824
59	0xbd829c5d	-0.0637748
60	0xbcf49248	-0.029854909
61	0xbdb9abb0	-0.0906595
62	0xbcea33eb	-0.02858921
63	0xbd429e51	-0.047514264
64	0xbc9876e6	-0.018611383
65	0xbdb9b6a0	-0.09068036
66	0xbbb28e98	-0.0054491274
67	0xbd8c812d	-0.06860576
68	0xbd2ccdef	-0.04218858
69	0xbcbb8b5f	-0.022893606
70	0xbc8b58b0	-0.017010063
71	0x3d6e380a	0.05815891
72	0x3db051ef	0.086093776
73	0xbd54b401	-0.051929478
74	0xbe6a212b	-0.22864215
75	0xbe348b52	-0.17631271
76	0xbcf4366c	-0.029811107
77	0x3ca7b85e	0.020473655
78	0x3d4b65f8	0.04965779
79	0x3a9e48bd	0.0012076121
80	0x3d61c9d1	0.055124108
81	0x3ceda41e	0.029008921
82	0xbd86bd45	-0.06579069
83	0xbd7aca6b	-0.061228197
84	0xbd74c9e8	-0.059762865
85	0x3d8dcb46	0.06923537
86	0xbe24872f	-0.16067193
87	0xbe0864d5	-0.13319714
88	0xbdc1d589	-0.09464557
89	0xbd6f0583	-0.058354866
90	0xbd933a52	-0.07188858
91	0xbe2857bf	-0.16439722
92	0xbdce4f49	-0.10073716
93	0xbc88acb5	-0.016683916
94	0xbd03ea85	-0.032206077
95	0xbca5e312	-0.020249877
96	0xbe5ba314	-0.21448928
97	0xbd76d4bc	-0.060261473
98	0xbc80fadf	-0.015744625
99	0xbd3003d0	-0.042972386
100	0xbe88ff4f	-0.26757285
101	0xbe625e73	-0.22106342
102	0xbcecbf7b	-0.028899899
103	0xbd040bb5	-0.032237727
104	0x3a888b46	0.0010417483
105	0xbedb8a02	-0.4287873
106	0xbd1a54e5	-0.037678618
107	0xbcc85780	-0.024455786
108	0xbd1f35a9	-0.038869534
109	0xbce7a860	-0.02827853
110	0x3d62d314	0.05537708
111	0xbeaecc17	-0.34140083
112	0xbe49f539	-0.19722451
113	0xbd508bf2	-0.050914712
114	0xbb825544	-0.0039774496
115	0xbc282ef9	-0.010265105
116	0xbe2f7ef9	-0.1713828
117	0xbd9e0249	-0.077152796
118	0xbe8f9575	-0.28043714
119	0xbe4d5ac1	-0.20054151
120	0x3e03ac96	0.12858805
121	0xbca6d156	-0.020363491
122	0xbdefd821	-0.11711145
123	0xbe73eb64	-0.23820263
124	0xbda62fee	-0.081146106
125	0x3cea01f0	0.028565377
126	0xbcd11ea6	-0.02552731
127	0xbe472e3b	-0.1945123
128	0xbe6e8a0c	-0.23294848
129	0xbe885aad	-0.2663168
130	0xbdd2216a	-0.102602795
131	0xbdd826d2	-0.105542794
132	0xbda606c7	-0.081067614
133	0xbc50f7c2	-0.012754383
134	0xbcbd6728	-0.023120478
135	0xbda7c287	-0.081914
136	0xbd8d63bd	-0.06903789
137	0xbd5f18f2	-0.05446715
138	0x3b1cb985	0.002391429
139	0xbca00ddf	-0.019537864
140	0xbca918b7	-0.020641668
141	0xbd986106	-0.07440381
142	0xbba35d87	-0.0049855146
143	0xbd207fef	-0.039184507
144	0xbbfb49a7	-0.007668692
145	0xbcb76288	-0.02238585
146	0xbc0f1c5d	-0.00873479
147	0x3b89595c	0.0041915607
148	0x3c1017ed	0.008794767
149	0xbd88f6ed	-0.06687722
150	0xbca7d097	-0.020485206
151	0xbd4feee9	-0.05076495
152	0xbd159f8e	-0.036529116
153	0xbd84ebc5	-0.06490282
154	0x3c10052d	0.0087902965
155	0xbd83997d	-0.0642576
156	0xbc01ddbd	-0.007926402
157	0xbc838465	-0.016054342
158	0xbc8d26cd	-0.017230416
159	0xbd640903	-0.055672657
160	0x3c0ea27c	0.0087057315
161	0xbcb36d40	-0.02190268
162	0x3bbb3500	0.005713105
163	0xbd204f10	-0.0391379
164	0x3c98ba2c	0.018643461
165	0xbbda5259	-0.0066626486
166	0xbca6acaf	-0.020346014
167	0x3d1c4031	0.038147155
168	0x3c2239ea	0.009901503
169	0xbcc94af1	-0.024571868
170	0xbcb824a9	-0.022478418
171	0xbb0afee5	-0.0021209058
172	0x3ccb2489	0.024797695
173	0xbc39efb6	-0.011348655
174	0xbccf9615	-0.02534012
175	0xbc792cbe	-0.015208421
176	0xbd07e673	-0.033178758
177	0x3c81bff6	0.015838604
178	0x3d0cce33	0.034376334
179	0xbd2b41d7	-0.041810837
180	0x3c28fea2	0.010314615
181	0x3cbbf238	0.022942647
182	0x3c03f13c	0.00805312
183	0xbc8190a9	-0.01581605
184	0x3cbde489	0.023180263
185	0xbc08960d	-0.008336556
186	0xbc76e2cc	-0.015068721
187	0xbd21b54f	-0.03947955
188	0xbd31e9c0	-0.043435812
189	0xbcdc9082	-0.026924375
190	0xbd21e047	-0.03952053
191	0xbd37f310	-0.044909537
192	0x3ce88e51	0.028388174
193	0x3d1c554a	0.038167275
194	0xbb901194	-0.0043966267
195	0xbc22ea84	-0.009943608
196	0x3a29e2ff	0.00064806634
197	0xbb2dc8bf	-0.002651736
198	0x3c2eeec0	0.01067704
199	0x3c4be8ae	0.012445612
200	0xbd253887	-0.04033711
201	0xbc86435c	-0.016389541
202	0x3d19310a	0.037400283
203	0x3c8dba4a	0.017300744
204	0xbb10c395	-0.0022089232
205	0xbcdb594f	-0.026775984
206	0xbcde962c	-0.027171217
207	0xbd22f2df	-0.0397824
208	0xbc6d2ed7	-0.0144764995
209	0x3c75ba0b	0.014997969
210	0x3ce7faab	0.02831777
211	0x3ca7f978	0.020504698
212	0xbd20cc4c	-0.039257333
213	0xbcdac992	-0.026707444
214	0xbbe5aac6	-0.007008883
215	0x3d2ff866	0.0429615
216	0x3bd28451	0.0064244648
217	0xbc3c6fed	-0.011501295
218	0x3c968486	0.018373739
219	0xbc8a9277	-0.016915543
220	0xbceb7bf6	-0.028745633
221	0x3d04c60b	0.03241543
222	0xbca56deb	-0.020194015
223	0xbc11de0f	-0.008903041
224	0xbd34f6ef	-0.044180807
225	0x3cf37e63	0.029723352
226	0x3d09d235	0.033647735
227	0x3c8497e6	0.016185712
228	0xbcfdae94	-0.030967034
229	0xbd3388b3	-0.04383154
230	0xbd13be4e	-0.03607016
231	0x3d07a670	0.03311771
232	0x3caeabfd	0.021322245
233	0x3d1913ef	0.037372526
234	0x3cbe9815	0.023265878
235	0x3c3828e4	0.011240218
236	0xb9e4046c	-0.00043490843
237	0xbd0a57ed	-0.03377526
238	0xbd1bdaef	-0.03805059
239	0xbd2a2627	-0.04154029
240	0x3c94ef11	0.018180402
241	0xbcb29fac	-0.021804653
242	0xbc127071	-0.008937941
243	0xbcd1614a	-0.025559086
244	0xbc0497cc	-0.008092832
245	0xbd0008d0	-0.031258404
246	0xbcedb9b1	-0.029019209
247	0x3c715da0	0.014731795
248	0xbc58406e	-0.013198955
249	0x3ce099fb	0.027417174
250	0x3d83036d	0.06397138
251	0x3e4e1bd4	0.20127803
252	0xbd954005	-0.072876014
253	0xbe1ae958	-0.15128076
254	0xbd760e89	-0.060072456
255	0xbe28c83f	-0.16482638

fc_s.bias f4 [64]
0	0xbd2b61af	-0.041841205
1	0xbd40f90b	-0.047112506
2	0x3e22ceb6	0.15899166
3	0xbd8f1f7d	-0.06988428
4	0x3dbe736f	0.09299361
5	0x3d6e15e8	0.05812636
6	0xbd5d68ea	-0.054055132
7	0xbd582222	-0.052766927
8	0xbdc64a9c	-0.09682199
9	0xbd03915d	-0.03212105
10	0x3cdea172	0.027176592
11	0x3e4ad5e1	0.19808151
12	0xbdd21995	-0.10258786
13	0x3d323d30	0.043515384
14	0xbd912884	-0.07087806
15	0xbe25ba37	-0.16184317
16	0xbe0269b6	-0.12735638
17	0x3c0e1383	0.008671644
18	0xbcbfa2b9	-0.023393022
19	0x3e8be97c	0.27326572
20	0x3e039bfe	0.12852475
21	0x3cf7cf7b	0.030250302
22	0xbe0ab577	-0.13545786
23	0xbd8eca55	-0.069721855
24	0x3dacd06e	0.08438192
25	0x3e399aee	0.18125507
26	0x3e37b8de	0.17941615
27	0xbd9f58b7	-0.07780593
28	0x3e8713e3	0.2638236
29	0xbdb08111	-0.086183675
30	0xbdb8352a	-0.08994515
31	0xbde68061	-0.11254955
32	0x3e0dff3f	0.138669
33	0xbdbdc1c8	-0.092654765
34	0xbcea5c12	-0.028608356
35	0xbd1924ec	-0.037388727
36	0x3e755eee	0.23961994
37	0x3d577295	0.05259951
38	0xbdf4ed65	-0.11959342
39	0xbcbc627a	-0.022996176
40	0xbc995000	-0.018714905
41	0xbd3eacd9	-0.04655156
42	0xbdbc8aa8	-0.09206134
43	0x3da8787c	0.082261056
44	0x3e9d6033	0.30737457
45	0x3e31fe78	0.17382228
46	0x3c237563	0.009976718
47	0xbe0e19c5	-0.13877018
48	0xbcd05849	-0.025432723
49	0xbde6e2fb	-0.11273762
50	0xbca8d6f9	-0.02061032
51	0xbd6b12f5	-0.057391126
52	0x3a3f013c	0.0007286256
53	0xbd2f8723	-0.042853486
54	0x3dc4e325	0.09613637
55	0xbd9ff48c	-0.078103155
56	0x3d301e75	0.042997796
57	0x3de45784	0.11149505
58	0xbdc50399	-0.09619827
59	0x3ea809c7	0.3281996
60	0xbe00d053	-0.1257947
61	0xbbc84f59	-0.0061129746
62	0xbe2a088f	-0.16604827
63	0xbd9c0c2e	-0.076195106

fc_a.weight f4 [64, 3]
0	0x3d8aaf4a	0.06771715
1	0xbee6baa6	-0.45064276
2	0xbe05543e	-0.13020417
3	0x3e883128	0.26600003
4	0xbe90476e	-0.28179497
5	0x3e903bf4	0.2817074
6	0xbee07243	-0.43837175
7	0x3bf9acdb	0.007619483
8	0xbd9313fd	-0.07181547
9	0xbed9b6e3	-0.42522344
10	0xbdbd4914	-0.09242454
11	0xbe8c8fa7	-0.27453348
12	0xbd9e0363	-0.0771549
13	0x3def70b7	0.116914205
14	0xbe03cc60	-0.12870932
15	0xbd0e881b	-0.03479777
16	0x3f0026b4	0.50059056
17	0x3ef9bb7e	0.48775858
18	0xbe821755	-0.25408426
19	0x3e0ff4a9	0.14058174
20	0x3e6a279b	0.22866671
21	0xbb1104cd	-0.0022128106
22	0x3dc64e51	0.096829064
23	0xbfa8091f	-1.3127784
24	0x3e1c427f	0.15259741
25	0xbe895a5d	-0.26826754
26	0xbddb1b1f	-0.10698532
27	0xbe81aa3d	-0.25325194
28	0x3e4a4c69	0.1975571
29	0x3e4e5099	0.20147933
30	0xbefd4d2d	-0.49472943
31	0xbee91d88	-0.45530343
32	0x3c31d9d7	0.01085516
33	0x3e31b4a3	0.17354064
34	0xbf0d95ff	-0.55307
35	0x3d388d95	0.0450569
36	0xbe712347	-0.23548613
37	0xbe4a268c	-0.19741267
38	0x3f2a4e6a	0.665259
39	0xbebd92f9	-0.37026194
40	0xbe8cfc8e	-0.27536434
41	0x3f0edb1e	0.55803096
42	0xbeaa537f	-0.33266827
43	0xbe54db56	-0.20786795
44	0xbecdb0fc	-0.4017409
45	0xbe9b258a	-0.30302078
46	0x3d8ae76f	0.06782424
47	0x3e9a246b	0.3010591
48	0x3e1214d9	0.14265765
49	0xbe7530ed	-0.23944445
50	0x3e5b44d8	0.2141298
51	0xbf1ca590	-0.6119013
52	0x3ef15ac6	0.47139567
53	0x397962a6	0.0002378324
54	0x3e49a03a	0.19690028
55	0xbedde029	-0.43335083
56	0xbe5fda5b	-0.2186064
57	0xbf3515cf	-0.707364
58	0x3e0f4d2e	0.13994285
59	0x3e5fdad2	0.21860817
60	0xbf1b2987	-0.6061024
61	0x3e4d86e7	0.20070992
62	0xbde44f77	-0.11147969
63	0x3e2bb722	0.16769078
64	0xbea34ceb	-0.3189462
65	0xbed252d8	-0.4107883
66	0xbda242c7	-0.07922893
67	0x3e8b8362	0.27248675
68	0xbf199f07	-0.6000828
69	0xbe8e5dbb	-0.27805886
70	0xbeab5d29	-0.33469513
71	0xbd9f01f6	-0.07764046
72	0xbed42df1	-0.414413
73	0xbe9f3f00	-0.31102753
74	0xbe87d41f	-0.26529023
75	0xbec898e6	-0.39179152
76	0xbead935e	-0.33901495
77	0xbe81207d	-0.252201
78	0xbdc2ba78	-0.09508222
79	0x3f0a8179	0.5410381
80	0x3c6b162c	0.014348548
81	0x3f04d884	0.51892877
82	0x3dcdfe75	0.100582995
83	0x3e684749	0.22683443
84	0x3e82edeb	0.25572142
85	0x3d089eb5	0.03335448
86	0x3f19548c	0.59894633
87	0xbeaace6f	-0.3336062
88	0xbe21804e	-0.157716
89	0x3dd29ea2	0.10284163
90	0x3d3b7445	0.04576518
91	0xbe60666c	-0.21914071
92	0x3ea4eef3	0.32213554
93	0xbf029b4a	-0.510182
94	0x3f0e6e81	0.55637366
95	0x3dfd661f	0.12372994
96	0xbe4bf2a4	-0.19916779
97	0x3edeeeb1	0.43541482
98	0xbec7ed04	-0.39048016
99	0xbeea17f8	-0.45721412
100	0xbea815d8	-0.32829165
101	0x3f0e3c0b	0.5556037
102	0xbeb85094	-0.35998976
103	0x3da31b0a	0.07964142
104	0xbe6daf8d	-0.23211499
105	0x3ed15180	0.40882492
106	0xbe408c62	-0.18803552
107	0x3ee653f4	0.44985926
108	0x3f0782ae	0.52933776
109	0x3d988b7c	0.074484795
110	0xbef99dfb	-0.48753342
111	0x3dc41c30	0.09575689
112	0xbe9412cd	-0.28920594
113	0xbe0fa486	-0.14027604
114	0xbdbefbe4	-0.09325388
115	0xbe07b97c	-0.1325435
116	0x3e1ab1d7	0.15106903
117	0xbcec74d8	-0.02886431
118	0x3e210cf2	0.15727594
119	0xbda6c0e3	-0.08142259
120	0xbf010690	-0.5040064
121	0x3d95879f	0.07301258
122	0x3e57b948	0.21066773
123	0x3eee1f7d	0.465084
124	0xbef17ea1	-0.47166923
125	0xbea985e4	-0.33109963
126	0xbec06721	-0.3757868
127	0xbe67a3ab	-0.22621028
128	0xbe8c6cdd	-0.27426806
129	0x3f0dd390	0.55400944
130	0xbead53bb	-0.33852944
131	0xbed4be25	-0.4155132
132	0xbce00e52	-0.027350578
133	0x3e391cb8	0.18077362
134	0x3ef4442a	0.47708255
135	0x3e1f1572	0.15535524
136	0x3f0f07b0	0.55871105
137	0x3e1f6618	0.1556629
138	0xbef9d3c0	-0.48794365
139	0x3e64020e	0.22266409
140	0x3daee1a7	0.085391335
141	0xbeabb40e	-0.33535808
142	0x3e51f87b	0.20504944
143	0xbc73c174	-0.014877666
144	0x3f22705d	0.634527
145	0xbeb52163	-0.35377035
146	0x3f29eb59	0.6637474
147	0x3e41fbdc	0.18943733
148	0x3e899164	0.26868737
149	0xbec64f40	-0.38732338
150	0xbf18839d	-0.59575826
151	0x3ea49880	0.32147598
152	0xbeff7f69	-0.49901894
153	0xbeec27c3	-0.46124086
154	0xbd11764c	-0.035513207
155	0xbee0dd4b	-0.43918833
156	0x3df66947	0.12031799
157	0x3eff4f9b	0.49865422
158	0xbdef6667	-0.116894536
159	0xbdf4b783	-0.119490646
160	0xbe84d38e	-0.25942653
161	0x3e6811f4	0.22663099
162	0x3e09b4af	0.13447832
163	0x3efe4501	0.4966202
164	0xbf0a1c45	-0.53949386
165	0x3e538490	0.20656037
166	0xbe9f01b3	-0.31055984
167	0x3e953e28	0.29148984
168	0xbe3724bf	-0.17885111
169	0x3f036f97	0.5134215
170	0xbe3c72f0	-0.1840322
171	0xbf10c3ce	-0.56548774
172	0xbe250687	-0.16115771
173	0x3ee0c1f2	0.4389797
174	0xbf2d5991	-0.6771479
175	0x3e08cddf	0.13359784
176	0xbe0843e1	-0.13307144
177	0xbe4a2639	-0.19741143
178	0x3e9818fb	0.2970656
179	0xbe215a0c	-0.15757006
180	0xbecc0359	-0.39846304
181	0x3f0dfcad	0.5546368
182	0xbf04883f	-0.51770395
183	0xbdff39ea	-0.12462218
184	0x3f16e08e	0.58936393
185	0x3bfc6309	0.0077022356
186	0x3e84fb2c	0.2597288
187	0x3ee49f54	0.44652808
188	0xbe050fdf	-0.12994336
189	0xbdc5b14c	-0.09652957
190	0xbd9e5df7	-0.07732766
191	0x3e338374	0.17530614

fc_a.bias f4 [64]
0	0xbd9d0da9	-0.07668621
1	0x3f2d274e	0.676381
2	0xbc88177d	-0.016612763
3	0xbeed3e43	-0.46336564
4	0x3f135ba0	0.57561684
5	0x3e718897	0.23587261
6	0x3e97c55e	0.29642767
7	0x3db0221b	0.08600255
8	0x3f0642bd	0.52445585
9	0xbed40454	-0.41409552
10	0xbe09acd1	-0.1344483
11	0xbf0afa29	-0.54287964
12	0x3e22e6c5	0.15908344
13	0xbf136fb4	-0.5759232
14	0x3f13c9cb	0.57729787
15	0xbef3fd75	-0.4765431
16	0xbdc04d33	-0.093897246
17	0xbe91bc98	-0.28464198
18	0x3e9dc640	0.30815315
19	0x3daf14e1	0.08548904
20	0x3d037bf7	0.032100644
21	0x3efe1f4c	0.49633253
22	0x3f14314c	0.5788772
23	0x3f31e1ca	0.6948515
24	0xbe6173bd	-0.22016807
25	0xbe85c244	-0.26124775
26	0x3f1ee075	0.62061244
27	0x3eb5ed84	0.35532773
28	0x3e44ae05	0.19207008
29	0xbe965b46	-0.2936651
30	0xbee2ffbd	-0.44335738
31	0x3ed84763	0.42241964
32	0x3d79ed77	0.06101748
33	0x3f23372f	0.6375608
34	0xbd9cc279	-0.0765428
35	0x3f0b644b	0.5444991
36	0x3e1e5ea3	0.15465789
37	0x3de06e58	0.109585464
38	0x3e2aedfa	0.16692343
39	0x3f10cb54	0.56560254
40	0x3eefe40c	0.46853673
41	0x3f1b60a0	0.60694313
42	0xbc2f5bd7	-0.010703049
43	0x3edda5e3	0.43290624
44	0x3e5fc79f	0.21853493
45	0x3f06de19	0.52682644
46	0x3eb3e966	0.35139006
47	0xbd8845ce	-0.06653939
48	0x3e6136a5	0.21993501
49	0xbdf10661	-0.11768795
50	0xbe97338b	-0.29531512
51	0xbe84568d	-0.25847283
52	0x3dba3bb9	0.090934224
53	0x3f0b9566	0.5452484
54	0x3f1e0aaa	0.6173502
55	0x3ef8c1fd	0.485855
56	0x3ebb1eac	0.36546838
57	0xbec088b9	-0.3760431
58	0x3da67d08	0.081293166
59	0x3f24789e	0.6424655
60	0x3ed406ce	0.41411442
61	0xbee022d0	-0.4377656
62	0xbee06e34	-0.43834078
63	0x3f2148a7	0.63001484

fc_q.weight f4 [32, 128]
0	0x3ba6b146	0.0050870506
1	0xbdb5a9e8	-0.08870298
2	0x3c144bb5	0.009051253
3	0x3ce18cfe	0.02753305
4	0xbcb3fc38	-0.021970853
5	0x3d47ff97	0.048827734
6	0xbd90453e	-0.07044457
7	0x3c4fdfe2	0.012687655
8	0xbcca4ae9	-0.024693923
9	0xbc86363d	-0.016383285
10	0x3a0be6f5	0.00053368445
11	0x3d268eb6	0.040663444
12	0xbd1ae3fe	-0.037815087
13	0xbdafd35f	-0.08585238
14	0xbd622992	-0.055215426
15	0xbd0bb31b	-0.034106355
16	0x3d94a97b	0.07258888
17	0x3cd6d9b4	0.026226856
18	0xbd8b59dd	-0.068042494
19	0xb96cf17b	-0.00022596672
20	0x3cfd245b	0.030901125
21	0xbd2aca4f	-0.041696843
22	0x3b1eded6	0.0024241707
23	0xbd66cbd2	-0.056346722
24	0xbca61d6f	-0.020277707
25	0xbdb120f8	-0.086488664
26	0xbd2c3ef7	-0.042052235
27	0xbc660ca3	-0.014041099
28	0x3c6d70d2	0.0144922305
29	0xbd8d4124	-0.0689719
30	0xbc170614	-0.009217758
31	0x3d563eba	0.052305914
32	0x3dac4dcf	0.08413278
33	0xbcba5e98	-0.022750184
34	0x3d155fd6	0.03646835
35	0x3bae7c67	0.0053248885
36	0xbd6755a6	-0.056478165
37	0x3c137945	0.009001081
38	0xbd65e542	-0.05612684
39	0xbb837c7e	-0.0040126434
40	0xbd8e11fb	-0.06937023
41	0xbdb9cbb8	-0.090720594
42	0xbccbdaa5	-0.024884531
43	0xbd21f55f	-0.039540645
44	0xbd8f3d48	-0.0699411
45	0xbcf63e4e	-0.030059006
46	0xbdb2e024	-0.08734158
47	0xbda342f7	-0.07971757
48	0xbda7e96c	-0.081988186
49	0xbdd04f02	-0.101713195
50	0xbc89b7e5	-0.01681132
51	0x3d3d2587	0.046178367
52	0x3b84ae7e	0.0040491214
53	0xbdaabae6	-0.08336429
54	0x3d7de2fb	0.061984044
55	0xbd72c5d0	-0.05927068
56	0xbd1a598f	-0.037683066
57	0xbc1e81c6	-0.009674495
58	0xbd22c467	-0.039738085
59	0xbb273a97	-0.00255171
60	0xbcc3fe2d	-0.023924911
61	0xbb619f22	-0.0034427126
62	0xbdaab13b	-0.08334585
63	0xbc1eb61e	-0.009686975
64	0x3c227531	0.009915636
65	0x3c2ba1ee	0.010475619
66	0x38f979e2	0.00011895948
67	0x3d580b7a	0.05274532
68	0xbd29359f	-0.041310903
69	0xb916b4e6	-0.00014372505
70	0xbd9b1856	-0.07573001
71	0xba7f955c	-0.00097497343
72	0xbd2c4537	-0.042058196
73	0xbd88f47c	-0.06687257
74	0x3db3a4d6	0.08771674
75	0x3d773707	0.060355213
76	0x3c50a429	0.012734451
77	0xbd9571bb	-0.07297083
78	0x3d24507e	0.040115826
79	0x3dab2ad1	0.08357776
80	0xbb84ecfc	-0.004056571
81	0xbc1a0b36	-0.009402087
82	0x3d97a051	0.07403625
83	0xbd95754c	-0.07297763
84	0x3dac6c17	0.08419054
85	0xbd85ddf5	-0.065364756
86	0xbdab604f	-0.08367979
87	0xbd1062ee	-0.035250597
88	0x3cd4e5e4	0.025988527
89	0x3c11b54c	0.008893322
90	0x3c58e0c1	0.013237179
91	0xbdea9d63	-0.114558004
92	0xbd4ac2b1	-0.04950208
93	0xbbc92ba9	-0.006139238
94	0xbd797bda	-0.06090913
95	0xbde3c2b3	-0.1112112
96	0xbd9adb66	-0.07561378
97	0xbd7d484c	-0.061836526
98	0x3bdfb2b9	0.0068267253
99	0xbda73f47	-0.08166366
100	0x3d1a5d9d	0.037686933
101	0x3d037468	0.032093436
102	0xbd8e07cd	-0.06935082
103	0xbd622633	-0.05521221
104	0xbdf41efc	-0.11919972
105	0xbb399698	-0.002831852
106	0xbd355e55	-0.044279415
107	0x3ccf0eb0	0.025275558
108	0x3b92a37d	0.0044750557
109	0xbd99ab7e	-0.07503413
110	0xbd05f565	-0.03270473
111	0xbc65deaa	-0.014030138
112	0xbdef6663	-0.116894506
113	0xbdd6320a	-0.10458763
114	0xbd411a55	-0.047144253
115	0x3dac7d1a	0.08422299
116	0xbdd80c42	-0.10549213
117	0xbb61d813	-0.0034461066
118	0xbda1e10f	-0.07904255
119	0xbc515a32	-0.012777852
120	0x3c9ef0b5	0.019401887
121	0x3d765853	0.060142826
122	0xbdaf484f	-0.08558714
123	0xbd227fa7	-0.03967252
124	0xbca6172f	-0.020274727
125	0xbc7211fc	-0.014774796
126	0xbbf87844	-0.007582696
127	0x3d302f8f	0.043014105
128	0xbe8eac74	-0.27865946
129	0xbe323157	-0.17401634
130	0x3e135b24	0.14390236
131	0x3d45a550	0.048253357
132	0x3da261cc	0.079288095
133	0x3dcbffaf	0.09960877
134	0xbcc7ee78	-0.024405703
135	0xbc811e55	-0.015761534
136	0xbdbf3d24	-0.093378335
137	0xbe591f85	-0.2120343
138	0x3da435bb	0.08018061
139	0x3e0ac75b	0.1355261
140	0x3c8a736e	0.016900744
141	0x3e88e8ee	0.2674021
142	0xbe9dd8a7	-0.30829355
143	0xbd518209	-0.0511494
144	0xbe35c7b4	-0.17751962
145	0x3eaaaabf	0.33333394
146	0xbe5bbb7d	-0.2145824
147	0xbd973e83	-0.0738497
148	0xbd868ef1	-0.06570233
149	0xbd984193	-0.07434382
150	0xbe70913b	-0.23492901
151	0x3dfff95c	0.124987334
152	0xbe87ed97	-0.26548454
153	0x3d9f5700	0.07780266
154	0x3dac2a12	0.08406462
155	0xbce113bc	-0.02747523
156	0x3db0b2ac	0.08627829
157	0x3e39d289	0.18146719
158	0x3d9c5fa9	0.07635433
159	0xbe4b9061	-0.19879295
160	0x3e4b038a	0.19825569
161	0xbde74843	-0.1129308
162	0x3e9fb9bc	0.31196392
163	0x3e12ff5f	0.14355229
164	0x3e3f6dc0	0.1869421
165	0x3e4786d0	0.1948502
166	0xbe42a6ad	-0.19008894
167	0xbe8a7d75	-0.2704884
168	0xbe1c9ff5	-0.15295394
169	0xbecb57b3	-0.39715347
170	0xbd00918e	-0.03138881
171	0x3e367ad7	0.17820297
172	0x3df859ec	0.12126526
173	0x3d2d78dc	0.04235159
174	0x3e4645ea	0.19362608
175	0x3e7c7ebb	0.24657719
176	0x3e03b6fa	0.12862769
177	0xbd8549c4	-0.0650821
178	0x3e8b4fcf	0.27209327
179	0xbd3e2ac0	-0.04642749
180	0xbea06b54	-0.31331885
181	0xbe0c213c	-0.13684553
182	0x3e3cb08c	0.18426722
183	0xbdaf2a14	-0.08552948
184	0x3d839584	0.06425002
185	0x3dee5816	0.11637895
186	0x3ca7bb7e	0.020475145
187	0x3d4b25aa	0.049596466
188	0xbd450472	-0.048099943
189	0xbdef28ab	-0.11677679
190	0x3ebd921f	0.37025544
191	0xbeb2c850	-0.3491845
192	0xbce70746	-0.02820171
193	0x3e1cc09b	0.15307848
194	0xbd2476c6	-0.040152334
195	0xbb819086	-0.003953996
196	0x3d25a008	0.04043582
197	0x3c01c26a	0.007919887
198	0x3dde4ec6	0.108548686
199	0x3dd3031b	0.10303327
200	0x3e65b7dc	0.22433418
201	0xbd4ea6a0	-0.050451875
202	0x3d4acf20	0.049513936
203	0x3d853842	0.06504871
204	0x3e12fbe1	0.14353897
205	0xbc87da0d	-0.016583467
206	0x3e56ecb1	0.20988728
207	0xbd43fe3e	-0.047849886
208	0x3db77f2f	0.08959805
209	0xbe2be006	-0.16784677
210	0x3e87c3a9	0.26516464
211	0xbe4eb063	-0.20184474
212	0xbd4d9c8e	-0.05019813
213	0x3ded7b29	0.115957566
214	0x3dc740f3	0.09729185
215	0x3e7d2017	0.24719273
216	0xbd7c0017	-0.061523523
217	0x3be954c2	0.0071206996
218	0x3e4355ef	0.1907575
219	0x3e08eb14	0.13370925
220	0x3e0c7be5	0.13719137
221	0xbd88aef4	-0.06673995
222	0x3d3cf9ba	0.046136595
223	0x3dc606b0	0.09669244
224	0x3db8cbfe	0.090232834
225	0xbc93d5e9	-0.018046336
226	0xbd9589c4	-0.07301667
227	0x3e2d2592	0.16908863
228	0x3e3fcecd	0.18731232
229	0xbe2b9a9c	-0.16758198
230	0x3de679a8	0.11253673
231	0x3e4c64ac	0.19960278
232	0x3da86909	0.08223159
233	0x3e3e361b	0.18575327
234	0x3d455fd7	0.048187103
235	0x3db9068b	0.09034451
236	0x3de393b3	0.11112156
237	0x3e39d076	0.18145928
238	0x3d902fb0	0.07040346
239	0xbe293a15	-0.16526063
240	0xbc79693c	-0.015222844
241	0x3e110bd2	0.14164665
242	0x3b8d1c51	0.004306354
243	0xbb9d2a8d	-0.004796332
244	0x3dcce77b	0.10005089
245	0x3e40bbc9	0.18821634
246	0x3e267485	0.16255386
247	0x3e0c5f9d	0.13708349
248	0x3c414778	0.011796825
249	0x3d0910b5	0.0334632
250	0xbe47cb4b	-0.19511144
251	0x3df2af20	0.11849809
252	0x3d2ee380	0.04269743
253	0xbddc5117	-0.10757654
254	0xbe864b4a	-0.26229316
255	0x3e3f37e5	0.18673666

fc_q.bias f4 [32]
0	0xbd9b33ae	-0.075782165
1	0x3d6d3b47	0.05791786
2	0x3e550b55	0.20805104
3	0xbdbafd30	-0.09130323
4	0xbd393428	-0.045215756
5	0x3e11bfab	0.14233272
6	0x3dfb2097	0.122620754
7	0xbe027d9b	-0.12743227
8	0xbc43a4d1	-0.011941151
9	0x3aa1ae2d	0.0012335234
10	0xbd9ff014	-0.07809463
11	0x3e8ee261	0.27907088
12	0x3e1a5ac1	0.15073682
13	0x3e2054fb	0.15657417
14	0x3d3d6bf0	0.046245515
15	0xbda2806f	-0.07934653
16	0x3d5b7e49	0.05358723
17	0x3c3bda3c	0.011465605
18	0x3dccb918	0.09996241
19	0x3c9688fa	0.018375862
20	0x3e519f83	0.20471005
21	0x3e0e2b08	0.13883603
22	0x3d32332f	0.043505844
23	0xbdc757b1	-0.09733523
24	0x3ca51626	0.020152163
25	0x3e47fb8e	0.19529554
26	0xbc2c7096	-0.010524889
27	0x3df3a8b8	0.11897415
28	0xbd9aff10	-0.075681806
29	0x3dd75939	0.10515065
30	0xbdc8c619	-0.09803409
31	0xbe0e988b	-0.13925378

fc_out.weight f4 [1, 32]
0	0xbd74c94b	-0.05976228
1	0xbe2de707	-0.16982661
2	0xbe0453c6	-0.12922582
3	0xbdce17d0	-0.100631356
4	0xbd229a36	-0.03969785
5	0xbe0c9b1b	-0.13731043
6	0xbe56eafe	-0.2098808
7	0x3d5d3f94	0.05401571
8	0x3ddf04a1	0.10889555
9	0x3e267ca1	0.1625848
10	0x3e18f0c3	0.14935593
11	0xbe99b99a	-0.30024415
12	0xbe71d992	-0.23618153
13	0xbd7b8aec	-0.061411783
14	0xbdaff54f	-0.08591711
15	0xbd985b8d	-0.07439337
16	0x3d405dc0	0.046964407
17	0x3dd032f1	0.10165966
18	0xbe0a2b36	-0.13493046
19	0x3e039fe2	0.12853959
20	0xbe792fec	-0.24334687
21	0xbe4ee197	-0.20203243
22	0x3dc643e8	0.09680921
23	0x3d959a15	0.073047794
24	0x3dd5bff9	0.104370065
25	0xbe25a296	-0.16175303
26	0xbd72a66b	-0.05924074
27	0xbd80400a	-0.062622145
28	0x3e423279	0.18964566
29	0xbe5436ff	-0.20724104
30	0x3c787b63	0.015166136
31	0x3d5fab33	0.054606628
