LIRL results/EV-Charging/lirl/run_9_seed_2025/ddpg_lirl_pi_q_target_20250912_063416.pth (torch, 31921 bytes, 7 tensors)

fc_s.weight f4 [64, 39]
0	0x3eff29a0	0.49836445
1	0x3ed594f8	0.41715217
2	0x3ec66676	0.38750046
3	0x3ecf5c1e	0.40499967
4	0x3edee495	0.4353377
5	0x3ba85733	0.005137348
6	0xbf216fdd	-0.63061315
7	0x3f4656bc	0.77476096
8	0xbe45db88	-0.19322026
9	0xbb2608b6	-0.0025334782
10	0x3d16064c	0.0366271
11	0x3ed00f91	0.40636876
12	0xbee476bf	-0.44621846
13	0xba299948	-0.0006469679
14	0xbdb89fd2	-0.09014858
15	0x3f1a358e	0.6023797
16	0xbee58768	-0.4482987
17	0x37490c6d	1.1983427e-05
18	0xbdda6f2d	-0.10665736
19	0x3f1b80ee	0.60743606
20	0xbebb25a9	-0.3655217
21	0xba5fbd46	-0.0008534979
22	0xbcd7138f	-0.026254443
23	0x3f035741	0.51305014
24	0xbf039b30	-0.5140867
25	0xbafac1c9	-0.0019131239
26	0x3b70e895	0.0036759723
27	0x3f067402	0.52520764
28	0xbf2547da	-0.6456276
29	0xbb8bb2f3	-0.004263276
30	0x3db940d9	0.09045572
31	0x3ec49550	0.38395166
32	0xbf4a994b	-0.79140157
33	0xba86b283	-0.0010276589
34	0x3d100109	0.035157237
35	0x3ed836c2	0.42229277
36	0xbeea6cc2	-0.457861
37	0xc017dae5	-2.3727353
38	0xc010e0d9	-2.2637236
39	0xbe9ee8cd	-0.31036988
40	0xbee71ac2	-0.45137602
41	0xbe888bbe	-0.26669115
42	0x3ed0e6c3	0.40801057
43	0x3f03c664	0.51474595
44	0xb91dc6af	-0.00015046702
45	0x400e3e08	2.222536
46	0xbfae43de	-1.3614461
47	0xbd8d17ac	-0.06889281
48	0xbe15562d	-0.14583655
49	0xbf28a842	-0.6588174
50	0xbd085bb0	-0.033290565
51	0xbf507189	-0.8142324
52	0xbe1cec7f	-0.15324591
53	0xbd07e9e3	-0.033182036
54	0xbe11e2a6	-0.14246616
55	0xbea43c39	-0.32077196
56	0xbd8a672f	-0.06757962
57	0x3c1e64c6	0.009667581
58	0x3ee9b912	0.4564901
59	0xbe658c37	-0.22416769
60	0xbddab158	-0.10678357
61	0x3e00114b	0.12506597
62	0x3e620ef1	0.22076012
63	0xbec237e4	-0.37933266
64	0xbe22de0c	-0.15905017
65	0xbe5a4417	-0.21315037
66	0x3de36661	0.111035116
67	0xbc7926ac	-0.015206974
68	0xbe0bc55e	-0.13649508
69	0x3de125f2	0.109935656
70	0x3f2189ed	0.63101083
71	0x3e2d9f76	0.16955361
72	0xbe693cd0	-0.22777104
73	0xbdfa2e04	-0.12215808
74	0xbea071f1	-0.3133693
75	0xbea0a572	-0.31376225
76	0xbf4aa996	-0.7916502
77	0xbf3761a6	-0.71633375
78	0x3ec3617f	0.3816032
79	0x3e059a7b	0.13047211
80	0x3f07a5e1	0.52987486
81	0x3ecce39c	0.40017402
82	0x3f49da03	0.78848284
83	0x3da0ca5f	0.07851099
84	0x3ea775ec	0.32707155
85	0x3f17274d	0.59044343
86	0xbf2e7e74	-0.681617
87	0x3bd5e09f	0.006527021
88	0xbd8ee0ca	-0.06976469
89	0x3f4bc21e	0.79593074
90	0xbf2169b5	-0.6305192
91	0xbd0fb5de	-0.03508555
92	0x3e8f4ad1	0.27986768
93	0x3f7a2b43	0.9772226
94	0xbf1ed5d2	-0.62045014
95	0xbcbe75ec	-0.023249589
96	0x3e951187	0.29114935
97	0x3f51e608	0.81991625
98	0xbf0a72d2	-0.5408145
99	0x3d8d2b2e	0.068930015
100	0xbe90f7e0	-0.28314114
101	0x3f3e8ce3	0.74433726
102	0xbe03a153	-0.12854509
103	0xbd857206	-0.06515889
104	0x3e0ae254	0.135629
105	0x3f3ce19e	0.73781765
106	0xbece8797	-0.40337822
107	0x3cc9ea21	0.024647774
108	0x3e3f0347	0.18653594
109	0x3f8198a7	1.0124711
110	0xbf46a842	-0.7760049
111	0xbd6435aa	-0.05571524
112	0x3ddf9a92	0.10918154
113	0x3eebc83c	0.46051204
114	0xbf2e1e40	-0.6801491
115	0xbf8e790b	-1.1130689
116	0xbf451207	-0.7698063
117	0x3f18ccb8	0.59687376
118	0x3f2a0395	0.66411716
119	0x3f5db7db	0.86608666
120	0x3f1997e2	0.5999738
121	0x3f253800	0.64538574
122	0x3b45ac1e	0.0030162404
123	0x3e2e3b48	0.17014802
124	0x3f10d386	0.5657276
125	0xbf321aa6	-0.6957191
126	0xbd066f76	-0.03282114
127	0xbe6b4705	-0.2297631
128	0x3f16b3f4	0.58868337
129	0xbf2cc16e	-0.6748265
130	0xbc13f988	-0.009031661
131	0xbe0a036a	-0.13477865
132	0x3eb6dbf5	0.3571469
133	0xbf166d91	-0.58760935
134	0xbbcbe6f8	-0.006222602
135	0xbc4f10e3	-0.012638303
136	0x3f647127	0.89235157
137	0xbf44fb07	-0.7694554
138	0x3c665e3b	0.014060552
139	0x3e06fce3	0.13182406
140	0x3ec9ddd4	0.39427054
141	0xbf03e5c6	-0.5152248
142	0xbc57c53e	-0.013169585
143	0x3d35a5c5	0.044347543
144	0x3f22a85b	0.6353814
145	0xbea467a7	-0.3211033
146	0x3969e3ad	0.00022305427
147	0x3de3c1c3	0.111209415
148	0x3f3a8fb1	0.72875506
149	0xbf20ff90	-0.6288996
150	0x3b66e3c7	0.003523098
151	0x3e8c1b6a	0.27364665
152	0x3f49da04	0.7884829
153	0xbf58439a	-0.8447815
154	0xbfb1edf3	-1.3900741
155	0xbf95129e	-1.1646307
156	0x3f14a0ac	0.58057666
157	0x3f1320f4	0.5747216
158	0x3f15295e	0.58266246
159	0x3f15ff0b	0.5859229
160	0x3f16a614	0.58847165
161	0xb9c80e05	-0.00038157418
162	0x3d978c70	0.07399833
163	0x3eff3f72	0.49853092
164	0xbf14035f	-0.57817644
165	0x39c058ef	0.00036687354
166	0x3c7391e2	0.014866324
167	0x3f0cdfef	0.55029196
168	0xbf0f490d	-0.5597084
169	0x399f7a39	0.00030417906
170	0x3c91ba9d	0.01778918
171	0x3f0b8e86	0.5451435
172	0xbf0e00e3	-0.55470103
173	0x39e42a34	0.00043518993
174	0x3c836666	0.016040038
175	0x3f097535	0.5369447
176	0xbf11772f	-0.56822485
177	0x38d51f0a	0.00010162413
178	0x3ce13939	0.027493106
179	0x3f05906b	0.5217349
180	0xbf11e987	-0.5699696
181	0x3a603339	0.00085525546
182	0xbc1e9702	-0.009679558
183	0x3f12e802	0.57385266
184	0xbf03fcab	-0.51557416
185	0x39856b62	0.00025447743
186	0x3c705054	0.014667589
187	0x3f02dd91	0.51119334
188	0xbf096709	-0.53672844
189	0xb9ae4648	-0.0003324023
190	0x3d01fcad	0.03173511
191	0x3f010eab	0.50413007
192	0xbf14f808	-0.58190966
193	0xc05885b7	-3.3831613
194	0xc06bec7f	-3.6863096
195	0x3f0515c6	0.5198635
196	0x3f0196a8	0.5062051
197	0x3f062ccc	0.52412105
198	0x3f08ec0e	0.5348519
199	0x3f0a8831	0.5411406
200	0xba0c6cbe	-0.000535678
201	0x3d2ca26b	0.04214708
202	0x3efe1a21	0.4962931
203	0xbf0fce12	-0.56173813
204	0x397fb344	0.00024385477
205	0xbc48000e	-0.012207044
206	0x3f0bcff9	0.54614216
207	0xbf07399a	-0.5282227
208	0xb90f87ec	-0.00013688178
209	0x3c5aacc2	0.013346853
210	0x3f0654ef	0.5247335
211	0xbf08604d	-0.53271943
212	0x390e2385	0.00013555407
213	0xbb64a6ff	-0.0034889576
214	0x3f0c37c5	0.547726
215	0xbf09eb21	-0.53874403
216	0xb90f91b6	-0.00013691824
217	0x3b0727f3	0.0020623177
218	0x3f088e4c	0.5334213
219	0xbf091592	-0.5354854
220	0x3996b8b8	0.00028747856
221	0xbc9fb775	-0.019496659
222	0x3f1126d4	0.5669987
223	0xbf06dd0a	-0.5268103
224	0x3994a2f3	0.00028350166
225	0xbbc0d381	-0.005884588
226	0x3f0cc245	0.5498393
227	0xbf0ccb51	-0.54997736
228	0xb4a0ba30	-2.9937792e-07
229	0x3c48a483	0.012246254
230	0x3f0b155f	0.54329485
231	0xbf151804	-0.5823977
232	0xc0441504	-3.0637827
233	0xc04b58fa	-3.1773057
234	0xbd91f252	-0.07126297
235	0xbe541fd6	-0.2071527
236	0xbd8f8fb2	-0.070098296
237	0x3ed473f8	0.41494727
238	0x3e8ec318	0.2788322
239	0xbd0f8f38	-0.035048693
240	0xbf503ff8	-0.8134761
241	0x3f82ddab	1.0223898
242	0x3e53f970	0.20700622
243	0xbd27018a	-0.040772952
244	0xbda173c2	-0.07883407
245	0x3f174e75	0.5910409
246	0xbe5b19e8	-0.21396601
247	0xbcdbf2ef	-0.026849238
248	0x3e71a874	0.23599416
249	0x3eb24d79	0.34824732
250	0x3dd3ffb8	0.10351509
251	0x3d234ca0	0.039867997
252	0xbf05044a	-0.5195967
253	0x3edc6845	0.430483
254	0xbec04831	-0.37555078
255	0x3d4b5078	0.049637288

fc_s.bias f4 [64]
0	0x3f41c72f	0.75694555
1	0xbd9f145f	-0.07767557
2	0x3f9306e0	1.1486473
3	0x3f8fa0be	1.122093
4	0x3f7f3167	0.99684757
5	0x3f572750	0.8404436
6	0x3f23ea21	0.6402913
7	0x3f6eac95	0.9323209
8	0x3e942acf	0.2893891
9	0x3f40691b	0.7516038
10	0x3eeb7948	0.45990968
11	0x3f685b85	0.9076465
12	0x3ee2d213	0.443009
13	0x3e12488c	0.14285487
14	0x3f2d0d26	0.6759819
15	0x3f9ea432	1.2393858
16	0x3f44a504	0.76814294
17	0x3f81b27b	1.0132593
18	0xbee3f695	-0.44524065
19	0xbf330e28	-0.69943476
20	0x3f35bf78	0.70995283
21	0x3f4df0fa	0.80445826
22	0x3f7e5148	0.99342775
23	0x3f3e0f92	0.7424251
24	0x3f6c2364	0.922415
25	0x3f0cb850	0.5496874
26	0x3f8cdf4b	1.1005644
27	0x3eeb1160	0.45911694
28	0xbd1ab6d9	-0.037772033
29	0x3f754fb9	0.9582477
30	0x3f7fe341	0.99956137
31	0xbf026284	-0.5093157
32	0x3fa37751	1.2770787
33	0x3e79dfe1	0.2440181
34	0xbe8241be	-0.25440782
35	0xbe10b6fd	-0.14132304
36	0xbf2751d0	-0.6535921
37	0x3f42dc89	0.7611776
38	0x3ee48090	0.44629335
39	0x3f05d3fa	0.52276576
40	0x3f55b108	0.83473253
41	0x3f46e07e	0.776863
42	0x3f20907a	0.62720454
43	0x3f3cec4c	0.7379806
44	0x3f4eb8fc	0.80751014
45	0x3f941df9	1.1571647
46	0x3e72efa1	0.23724224
47	0x3f32bc85	0.6981891
48	0x3f4fe7ac	0.8121288
49	0x3f4f5813	0.80993766
50	0x3f1690bb	0.5881459
51	0x3f73a928	0.95179987
52	0x3f81dc0e	1.014528
53	0x3f4fbd3b	0.8114812
54	0x3f847af3	1.0350021
55	0x3f84d86e	1.0378549
56	0x3f95ce77	1.1703633
57	0x3f993aac	1.197103
58	0x3f977107	1.1831368
59	0xbec5c53c	-0.3862704
60	0x3fabae8d	1.3412644
61	0xbee90526	-0.4551174
62	0x3f7db573	0.99104995
63	0x3f4941c1	0.7861596

fc_a.weight f4 [64, 3]
0	0xbf54b897	-0.8309416
1	0xbc71416f	-0.014725073
2	0x3ed56f3a	0.41686422
3	0x3c009953	0.007849055
4	0x3f10b32e	0.56523407
5	0xbeb4fcea	-0.35349208
6	0x3f616be6	0.88055265
7	0x3f09136a	0.5354525
8	0x3f06cf53	0.526601
9	0x3ee88a30	0.4541793
10	0x3eca043b	0.39456353
11	0x3f0cad6a	0.5495211
12	0x3ecbeaff	0.39827725
13	0xbe21c044	-0.15796
14	0x3f207efe	0.62693775
15	0x3d784c2c	0.06061952
16	0xbe9616b9	-0.2931421
17	0xbe05599f	-0.13022469
18	0xbea20511	-0.3164449
19	0xbddd731b	-0.1081297
20	0xbe867e5d	-0.26268283
21	0xbd04dacb	-0.03243522
22	0x3e76afe9	0.24090542
23	0x3f2f9513	0.68586844
24	0xbda80886	-0.08204751
25	0xbeaf097d	-0.34186926
26	0x3ef6310a	0.4808429
27	0xbe67c46c	-0.22633523
28	0x3e30765e	0.17232653
29	0x3f031eba	0.5121876
30	0x3f64cf6a	0.8937899
31	0xbe72c000	-0.23706055
32	0x3f1c699c	0.6109865
33	0xbe701d27	-0.2344862
34	0x3efda5d4	0.4954058
35	0xbf52c2d7	-0.8232855
36	0x3e9ec42e	0.31009048
37	0x3f25fb9d	0.64837056
38	0x3e0073b4	0.12544137
39	0x3f28addc	0.6589029
40	0xbeb0c74d	-0.34527054
41	0x3efd674f	0.4949288
42	0x3f41076a	0.7540194
43	0x3f2def7a	0.6794354
44	0x3e0b656e	0.13612911
45	0xbe109628	-0.1411978
46	0xbf0598c6	-0.5218624
47	0xbbd7e17b	-0.0065881587
48	0x3ed4eab9	0.4158533
49	0x3e9a920a	0.30189544
50	0x3de90cfc	0.1137943
51	0x3f536ef6	0.8259119
52	0x3eca5fa3	0.3952609
53	0x3f205013	0.62622184
54	0xbe8ee291	-0.2790723
55	0x3ecbd8d3	0.3981386
56	0xbe66e2f9	-0.2254752
57	0xbf3cd33a	-0.73759806
58	0x3e157ccc	0.14598387
59	0x3e9dc379	0.30813196
60	0x3e41bfd6	0.18920836
61	0x3f212e18	0.6296096
62	0x3f8aa32e	1.0831048
63	0x3f675ac5	0.9037288
64	0x3f1c1690	0.6097193
65	0x3e12bd2d	0.14329977
66	0x3e597d54	0.21239215
67	0xbee01876	-0.43768662
68	0x3e2bdacd	0.16782685
69	0xbf001b62	-0.5004178
70	0xbebe29a4	-0.37141144
71	0xbf042da3	-0.51632136
72	0x3ebd4c07	0.36972067
73	0x3f2741c3	0.6533472
74	0x3eb82a68	0.35969853
75	0xbdbd7daf	-0.09252488
76	0xbe3519d7	-0.17685638
77	0x3f120c6d	0.5705021
78	0xbf23c752	-0.63976014
79	0x3f1345f9	0.57528645
80	0xbe968441	-0.29397777
81	0x3eaa4f9a	0.33263856
82	0xbebe49c4	-0.37165654
83	0x3f1c3e62	0.6103269
84	0x3f3aa233	0.72903746
85	0x3f226040	0.63428116
86	0xbedce4f3	-0.43143424
87	0x3e974aef	0.29549357
88	0x3f1da48b	0.615792
89	0xbe840b20	-0.25789738
90	0x3e94aa07	0.2903597
91	0xbec48faf	-0.38390872
92	0xbec35494	-0.38150465
93	0xbf018240	-0.5058937
94	0xbc028548	-0.007966347
95	0xbe96b8e1	-0.29437926
96	0xbf0846fb	-0.5323331
97	0xbe76127d	-0.2403049
98	0xbe190304	-0.14942557
99	0x3f1671e5	0.5876754
100	0x3ed56f38	0.41686416
101	0x3f3c8462	0.736395
102	0x3d74832b	0.059695404
103	0xbeb78f7d	-0.3585166
104	0x3f17b83e	0.59265506
105	0xbaa7ebb8	-0.0012811339
106	0xbe9e625e	-0.30934423
107	0x3ed4ef93	0.4158903
108	0x3e6fbbea	0.23411527
109	0x3f61b842	0.8817178
110	0x3da057a0	0.07829213
111	0x3f548a88	0.8302388
112	0x3e8aea76	0.27132004
113	0x3da76f26	0.08175497
114	0x3f53f56c	0.8279636
115	0x3c8c0603	0.01709271
116	0x3d5b82ee	0.05359166
117	0xbebc4197	-0.3676879
118	0xbf109260	-0.5647335
119	0x3f15365b	0.58286065
120	0xbe574a3a	-0.21024409
121	0x3ebf82e1	0.3740454
122	0x3ee0226c	0.43776262
123	0x3e9819ab	0.29707083
124	0xbec6fff3	-0.3886715
125	0x3f3f70c7	0.7478146
126	0xbe1a8ff6	-0.15093979
127	0xbd794a06	-0.06086161
128	0xbc6e8b48	-0.014559574
129	0x3e858226	0.26075858
130	0x3e371372	0.17878512
131	0x3f14afec	0.58080935
132	0x3f57255a	0.8404137
133	0xbe8df113	-0.27722988
134	0xbea7c8c2	-0.32770354
135	0x3e11a0ce	0.14221498
136	0x3eb9d93c	0.3629855
137	0xbef3121b	-0.4747475
138	0x3cd54a25	0.026036331
139	0xbe5ce447	-0.21571456
140	0x3e8578d1	0.26068738
141	0x3f47e0dc	0.78077483
142	0xbd753f70	-0.05987495
143	0x3e65fb89	0.22459234
144	0x3f532dfb	0.82492036
145	0x3f0c92a1	0.5491124
146	0xbe4ce5b0	-0.20009494
147	0x3f4ab622	0.7918416
148	0x3f0f64e1	0.56013304
149	0x3d1c97f6	0.03823086
150	0x3e9d27a2	0.306943
151	0xbca35a78	-0.0199406
152	0x3eed6314	0.46364653
153	0xbf014f97	-0.5051207
154	0x3e9cd8fd	0.306343
155	0xbb5ea9cb	-0.0033975716
156	0x3f17cb07	0.5929417
157	0xbe80667b	-0.25078186
158	0x3e1ad7c3	0.15121369
159	0x3ed3eb33	0.4139038
160	0xbdfe40d8	-0.12414712
161	0x3e59da7e	0.21274754
162	0xbe0835aa	-0.13301721
163	0xbf0d1a77	-0.5511851
164	0xbee8421e	-0.45362943
165	0x3f3ac96b	0.7296359
166	0x3ecd31ef	0.4007716
167	0x3ee36f84	0.44421017
168	0x3ea6ff81	0.3261681
169	0x3ea6938b	0.3253444
170	0xbd0a0ceb	-0.033703726
171	0xbe9dbc0c	-0.3080753
172	0xbdbd8794	-0.09254375
173	0x3c8a5e51	0.016890677
174	0xba6fca33	-0.00091472565
175	0xbdb9262f	-0.09040486
176	0xbedfd832	-0.4371963
177	0x3f226946	0.63441885
178	0x3ee94170	0.45557737
179	0x3de42e8a	0.11141689
180	0x3e82079a	0.25396425
181	0xbe9909a1	-0.2989016
182	0x3f3a3ae7	0.7274613
183	0x3f47c07e	0.78028095
184	0x3ea4f9dc	0.32221878
185	0x3f2d6048	0.6772504
186	0x3f3dff81	0.74217993
187	0x3e230e79	0.1592349
188	0x3e336b4a	0.17521396
189	0x3f056d21	0.5211964
190	0xbe4b9161	-0.19879676
191	0x3e66462e	0.22487709

fc_a.bias f4 [64]
0	0x3ed856a9	0.42253616
1	0x3f8eea65	1.1165282
2	0x3f1b8ca3	0.6076147
3	0x3f8c8053	1.0976661
4	0x3f269715	0.6507428
5	0x3a2e294c	0.0006643727
6	0xbe22d1f7	-0.15900408
7	0x3f564bb2	0.8370925
8	0x3f747cd6	0.95502985
9	0x3f809707	1.004609
10	0x3ed02292	0.40651375
11	0x3f757d5c	0.9589441
12	0x3f5cf112	0.86305344
13	0x3f3cd902	0.7376863
14	0x3f945ae3	1.1590236
15	0x3f4f1089	0.80884606
16	0x3f41a46c	0.7564151
17	0x3fa80c1a	1.3128693
18	0xbeecc10b	-0.4624103
19	0x3eb06300	0.3445053
20	0x3d0ac786	0.033881687
21	0x3f8b2a6b	1.087232
22	0x3f881e26	1.06342
23	0x3d720b2e	0.059092693
24	0x3f335001	0.7004395
25	0x3f8c5020	1.0961952
26	0x3f38fd18	0.7226119
27	0x3f6a4612	0.9151317
28	0x3f3c1909	0.734757
29	0x3f86a028	1.0517626
30	0xbf084fa2	-0.5324651
31	0x3da725a1	0.08161474
32	0xbea90cb2	-0.33017498
33	0x3f846f89	1.0346538
34	0x3f88a661	1.0675775
35	0x3fa09d6a	1.2548039
36	0x3f4e3d26	0.80562055
37	0x3f37ca05	0.7179263
38	0x3f1ec449	0.6201826
39	0x3eb1b622	0.3470927
40	0x3f80bedd	1.0058247
41	0x3f823eb2	1.0175383
42	0x3f78e169	0.9721895
43	0x3f5053b4	0.8137772
44	0x3f923baa	1.1424458
45	0xbf0e6246	-0.55618703
46	0x3f9e7313	1.2378868
47	0x3f6ac435	0.9170564
48	0x3f4b1de2	0.7934247
49	0x3f7162e7	0.9429154
50	0x3f965cc8	1.1747065
51	0xbead0ec7	-0.33800337
52	0x3f7f08d9	0.99622875
53	0x3fa561eb	1.2920507
54	0xbe9ce6dd	-0.30644885
55	0x3f5b17ca	0.85583174
56	0x3fa3111f	1.27396
57	0xbef8f509	-0.48624447
58	0x3f9bb201	1.2163697
59	0x3f23c525	0.63972694
60	0x3f25bf1d	0.6474474
61	0x3f204efb	0.62620515
62	0x3f544c28	0.82928705
63	0x3f68aeac	0.9089153

fc_q.weight f4 [32, 128]
0	0x3b17dd26	0.0023172586
1	0x3f282aef	0.6569051
2	0x3e057e21	0.13036396
3	0x3eb45266	0.35219115
4	0xbf307ff8	-0.68945265
5	0xbef1dac8	-0.4723723
6	0x3e17a49e	0.1480889
7	0x3e67b43d	0.22627349
8	0xbe828111	-0.25489095
9	0x3fd6230d	1.6729447
10	0x3d8a6dfe	0.067592606
11	0x40037351	2.0539134
12	0x3eddf441	0.43350413
13	0x3d13aa4d	0.036051083
14	0x3d7f7ccd	0.06237488
15	0x3e36c5d5	0.17848904
16	0x3e068d4d	0.1313984
17	0x3e3e617a	0.18591872
18	0x3cb96070	0.022628993
19	0xbcb7968f	-0.02241066
20	0xbedef8f2	-0.43549305
21	0x402a66ad	2.6625168
22	0x3dc0a7e0	0.094070196
23	0x3fcec6e4	1.6154447
24	0x3def3d44	0.11681607
25	0x3e32b7c1	0.17452909
26	0x3e5d662c	0.21621007
27	0x3e24abc2	0.16081145
28	0x3f015f0a	0.50535643
29	0x3e1b1f3b	0.15148632
30	0x3e96ff67	0.29491732
31	0xbcaa35a2	-0.020777527
32	0x3e141ba7	0.14463674
33	0xbd524767	-0.051337626
34	0x3dc0a6ed	0.094068386
35	0x3c368a72	0.011141406
36	0xbd077235	-0.0330679
37	0x3e6057a5	0.21908434
38	0x3e69532e	0.22785637
39	0x3e919c59	0.28439596
40	0x4019386c	2.3940687
41	0x3de4ad2c	0.111658424
42	0x3fe9be98	1.826129
43	0xbe16d219	-0.14728583
44	0x3fc50dd1	1.5394841
45	0x3dc77ffe	0.097412094
46	0x3ddd3f7b	0.108031236
47	0xbe886f70	-0.2664752
48	0x3e62f095	0.22162087
49	0xbef215a5	-0.47282138
50	0x3eede862	0.46466357
51	0x3eec9e55	0.46214548
52	0x3dc72266	0.09723358
53	0xbe0c3027	-0.13690244
54	0x3da60592	0.08106531
55	0x3e40677c	0.18789476
56	0xbf8ad6c9	-1.0846797
57	0x3e201946	0.15634641
58	0x3f4c1600	0.7972107
59	0x3d968a94	0.073506504
60	0x3e4a5654	0.19759494
61	0x3c6ca4b0	0.014443561
62	0x3e68ee19	0.22747077
63	0x3d7c9d5a	0.0616735
64	0x400188c4	2.0239725
65	0x3f060444	0.5235026
66	0x3e704416	0.23463473
67	0x3e932f8f	0.28747222
68	0x3ed73a87	0.4203684
69	0x3d48eb99	0.04905281
70	0xbd4f5bf4	-0.050624803
71	0x3ea2443d	0.31692687
72	0x3f1c40b6	0.6103624
73	0x3ec4e7e8	0.3845818
74	0x3eb20d45	0.3477575
75	0x3fe1c497	1.763812
76	0x3eaf5fef	0.3425288
77	0x3efb519d	0.49085703
78	0x3ec5e8db	0.38654217
79	0x4035f5e5	2.8431332
80	0x3eb287a1	0.34869102
81	0x3ee0e0a8	0.439214
82	0xbcb6b043	-0.022300845
83	0x3fc40c0b	1.5316175
84	0x3dca08be	0.09864949
85	0x3ea2fbe4	0.31832802
86	0x3f36f77a	0.7147137
87	0x3c1ffe5d	0.009765235
88	0x3e88ff2e	0.26757187
89	0x3f0cc6a1	0.54990584
90	0x3fbfc269	1.4981204
91	0x3ed350d7	0.41272613
92	0x3e9efdc4	0.31052983
93	0x3f02e31f	0.5112781
94	0x3c277d68	0.01022277
95	0xbd866d50	-0.065638185
96	0x3d89b8f8	0.06724733
97	0x3e8795ff	0.26481625
98	0x3f202e80	0.62570953
99	0x3f110dc8	0.56661654
100	0x3dcfb759	0.10142393
101	0x3ec4b81c	0.38421714
102	0x3f093e9f	0.5361118
103	0x3fcdabc4	1.6068044
104	0x3ec1b1b3	0.37830886
105	0x3ee843d4	0.4536425
106	0x3f6b0c01	0.9181519
107	0x3e8ba5af	0.27274844
108	0x3f41801b	0.755861
109	0x3d32fc55	0.043697674
110	0x3f23c71b	0.63975686
111	0x3ed2c9db	0.41169629
112	0x3ee664a1	0.4499865
113	0x3ea77799	0.32708433
114	0x3eec3b96	0.4613921
115	0xbd0dc532	-0.03461189
116	0x3efa7e34	0.4892441
117	0x3f0fafb6	0.5612749
118	0xbcdc5884	-0.026897676
119	0x3e828e9f	0.25499436
120	0x3f0d26c4	0.55137277
121	0x3d75ab5e	0.05997788
122	0x3fbc1d15	1.4696375
123	0x3eabf967	0.33588716
124	0x3ee2076c	0.44146287
125	0x3e55fbcd	0.20896836
126	0x3ec1fad8	0.3788669
127	0x3f1b37b4	0.6063187
128	0xbc763c29	-0.015028992
129	0x3f1b4f23	0.6066763
130	0xbd240f3b	-0.040053587
131	0x3ec230e7	0.37927935
132	0xbf6b90ac	-0.92017627
133	0xbeec1042	-0.46106154
134	0x3caf1170	0.02137062
135	0x3dbf746c	0.093483776
136	0xbeebc9e8	-0.4605248
137	0x3febcff7	1.8422841
138	0xbabb0b08	-0.0014270255
139	0x4008dba6	2.1384063
140	0x3ed6a770	0.4192462
141	0xbe8dbeda	-0.2768467
142	0xbdc90e9d	-0.098172404
143	0x3c265755	0.0101526575
144	0xbde34ac3	-0.11098244
145	0x3e1ca689	0.15297903
146	0xbe06d72d	-0.1316802
147	0xbded5584	-0.115885764
148	0xbf098cd2	-0.537305
149	0x403cfd34	2.9529543
150	0x3b9256bc	0.004465906
151	0x3fe2b27c	1.7710719
152	0x3cd31c9e	0.025770482
153	0x3dcfe771	0.10151566
154	0xbd2adad6	-0.041712604
155	0xbdfce2ea	-0.12347968
156	0x3ed6ed9a	0.4197815
157	0xbdb79983	-0.08964827
158	0x3ed0fc67	0.40817568
159	0xbe85e583	-0.26151666
160	0xbdbf1c88	-0.09331614
161	0xbdde3955	-0.10850779
162	0xbe80da82	-0.25166708
163	0xbe3500e4	-0.17676121
164	0xbddbddc5	-0.107356586
165	0x3d55b2eb	0.052172583
166	0x3df6bc36	0.12047617
167	0x3e12f2e3	0.14350466
168	0x402d89b1	2.711529
169	0x3cfd3fcd	0.030914212
170	0x3ff889bc	1.9417033
171	0x3a8fed79	0.0010980807
172	0x3fd7be96	1.6855037
173	0xbcb09d09	-0.021559255
174	0x3d554331	0.05206603
175	0xbeb6deea	-0.35716945
176	0x3d82b0c7	0.06381374
177	0xbf027c47	-0.5097088
178	0x3eac9a2e	0.3371138
179	0x3f0cd3c0	0.55010605
180	0x3d39bbeb	0.04534523
181	0xbe7e01cc	-0.24805373
182	0x3e3be5d4	0.18349391
183	0x3d5ff719	0.05467901
184	0xbf886169	-1.0654727
185	0xbdb0e5a5	-0.08637551
186	0x3f830ab0	1.0237637
187	0xbdc13bcf	-0.09435236
188	0xbdc2d008	-0.09512335
189	0xbe294f25	-0.16534097
190	0x3ca8b922	0.02059609
191	0xbd19c081	-0.0375371
192	0x4003d612	2.0599408
193	0x3f28bc0e	0.6591195
194	0x3e838f97	0.25695488
195	0x3ec767fa	0.38946515
196	0x3e824e8a	0.25450546
197	0xbaa5bb78	-0.0012644371
198	0xbc6dbaa6	-0.0145098325
199	0x3e6b7e11	0.2299731
200	0x3f16005b	0.5859429
201	0x3eed4d05	0.46347824
202	0x3e6e7953	0.23288469
203	0x3ff5d159	1.9204513
204	0x3ef3044e	0.47464222
205	0x3ec43ae8	0.38326192
206	0x3efa1906	0.48847216
207	0x40322d97	2.7840326
208	0x3eb1eb58	0.34749866
209	0x3ef8da00	0.4860382
210	0xbd87cd0e	-0.06630908
211	0x3fadc013	1.3574241
212	0x3da7e805	0.08198551
213	0x3ec3df70	0.38256407
214	0x3f4bf388	0.79668474
215	0xbd25e21b	-0.040498834
216	0x3ea08273	0.31349525
217	0x3f12eff6	0.573974
218	0x3fbe5a3c	1.4871287
219	0x3ecc2596	0.39872426
220	0x3ef35654	0.475268
221	0x3f1e481f	0.618288
222	0x3c9dbc81	0.019254925
223	0x3d139421	0.03602994
224	0xbd31345e	-0.043262832
225	0x3eda380d	0.42620888
226	0x3f1495f0	0.58041286
227	0x3f09a7b2	0.5377151
228	0x3e8cd327	0.27504846
229	0x3ed03e20	0.40672398
230	0x3eb8bbf6	0.36080903
231	0x3fd390ca	1.6528561
232	0x3ed0cb7d	0.4078025
233	0x3eb1f9af	0.34760806
234	0x3f5f738a	0.87285674
235	0x3eda906f	0.4268832
236	0x3f4bb600	0.79574585
237	0x3cf6f479	0.03014587
238	0x3f0efbbb	0.5585286
239	0x3edad631	0.4274154
240	0x3ee620b0	0.44946814
241	0x3ebefaa5	0.37300602
242	0x3f0a5dd0	0.54049397
243	0xbd200104	-0.03906347
244	0x3f1acd86	0.60469854
245	0x3f25f0ac	0.6482036
246	0x3c4218a8	0.011846699
247	0x3e960aae	0.29305023
248	0x3f07d79b	0.5306336
249	0xbc395c85	-0.011313562
250	0x3fa6aa92	1.3020804
251	0x3ec75dbd	0.38938704
252	0x3e3d1c0d	0.18467732
253	0x3e4c235e	0.19935367
254	0x3ef9fd59	0.488261
255	0x3eeba43f	0.46023747

fc_q.bias f4 [32]
0	0x3f35a219	0.70950466
1	0x3f3cc767	0.73741764
2	0xbd22b3ff	-0.03972244
3	0x3e23b1d0	0.15985799
4	0x3f28fbcf	0.6600923
5	0x3f2f6f7b	0.6852948
6	0xbe93dbcb	-0.28878626
7	0x3f243ec1	0.64158255
8	0x3f1f9ab0	0.6234541
9	0x3d2bc386	0.041934513
10	0x3f112765	0.56700736
11	0x3f1e0631	0.617282
12	0x3c3af496	0.011410853
13	0xbe6a8639	-0.22902764
14	0x3f37bf8c	0.7177665
15	0x3f335655	0.7005361
16	0xbd9cf8ce	-0.07664643
17	0x3f26ff8e	0.65233696
18	0x3f307da4	0.6894171
19	0x3f192058	0.5981498
20	0x3f218502	0.6309358
21	0xbe349806	-0.17636117
22	0xbe0c682d	-0.13711615
23	0xbd1b0c9e	-0.03785383
24	0x3f289294	0.6584866
25	0x3f1fd1af	0.62429327
26	0xbd6febea	-0.058574595
27	0xbdeb66b9	-0.11494202
28	0x3f113688	0.56723833
29	0x3f0c0908	0.5470128
30	0x3f4464be	0.7671622
31	0x3d9d99b0	0.07695329

fc_out.weight f4 [1, 32]
0	0x3f460398	0.77349234
1	0x400d0e7b	2.2040088
2	0xbd85d55c	-0.06534836
3	0xc030d8fa	-2.7632432
4	0x3f341b5e	0.7035426
5	0x3f49385f	0.7860164
6	0xbfc4c3cb	-1.5372251
7	0x3f332b9b	0.6998841
8	0x3f2fdbf3	0.6869499
9	0x39a95e3f	0.0003230441
10	0x3f47f398	0.7810607
11	0x3f2bf559	0.67171246
12	0xbd1ad525	-0.037800927
13	0xc001682d	-2.0219834
14	0x3f3dac69	0.740912
15	0x3f4c3dbe	0.7978171
16	0xbd95930d	-0.07303438
17	0x3f404727	0.7510857
18	0x3f2c33de	0.67266643
19	0x3f43ee3b	0.76535386
20	0x3f2363af	0.6382398
21	0xc018124b	-2.3761165
22	0xbda96f6e	-0.08273207
23	0xbdd260b1	-0.10272349
24	0x3f2ab5bc	0.66683555
25	0x3f9087cc	1.1291442
26	0xc062b072	-3.5420194
27	0xc0283c91	-2.6286967
28	0x3f3c9af7	0.7367396
29	0x3f4ac27d	0.79203016
30	0x3f2538dd	0.6453989
31	0xc02e46c9	-2.7230704
