LIRL results/Robustness experiment/machine_breakdown/ddpg_lirl_pi_multi_run_20250919_failure_0.0/run_3_seed_714/ddpg_lirl_pi_mu_target_20250919_205750.pth (torch, 297353 bytes, 6 tensors)

fc1.weight f4 [128, 507]
-0.1410292 -0.10224814 -0.07649294 -0.06311915 -0.056711268 -0.07832133 -0.046796024 -0.12585384
-0.12441959 -0.12809199 -0.07519953 -0.0057774186 -0.072059855 -0.02637303 -0.07914983 -0.037207227
-0.06871007 -0.06700686 -0.07938974 -0.028623482 -0.05834741 -0.08225971 -0.014039609 -0.019141119
-0.054487266 -0.019110197 0.03999513 -0.046067357 0.003749159 -0.107105926 0.007596908 0.015610192
-0.008934094 -0.04601744 -0.08545899 -0.0003317103 -0.042885955 -0.030189222 -0.050532494 -0.09868676
0.013940496 -0.026935924 -0.039068278 -0.07390312 -0.013837325 -0.005250061 0.02826846 -0.037432127
-0.07548116 -0.07728569 -0.07577471 -0.10028417 -0.06169422 -0.09392733 -0.05836604 0.012415007
-0.09426857 -0.08477502 -0.07921987 -0.09071314 0.05882111 -0.018853527 -0.026435245 0.0050885184
0.011650576 -0.07362895 -0.02519882 0.028183524 -0.025498334 0.013165281 0.02871818 -0.04431498
-0.014897358 -0.009143455 -0.04882482 -0.023331113 -0.012070418 -0.029658742 0.00929023 -0.033191998
-0.017645415 -0.0013755532 -0.073609576 -0.029292917 -0.0073894467 -0.023348091 -0.046189543 -0.06679377
-0.024040624 -0.072924115 -0.06496242 -0.018774549 0.000421485 -0.020856615 0.024517836 -0.031930614
-0.053973176 0.034216452 0.032885034 0.0076202285 -0.006207504 -0.058909934 -0.011476046 0.03437515
-0.0015632613 0.005132756 -0.024023117 -0.041768365 -0.0084015615 0.026698995 -0.016128102 -0.020573495
0.0012254239 0.004263552 0.009249625 -0.036474723 0.007730497 -0.016464869 -0.022501335 0.010582907
-0.018045511 -0.019356813 -0.04603681 -0.04445058 -0.038346313 -0.07537238 -0.04779515 0.025709184
0.015514637 0.036219914 -0.021277947 -0.0062373998 0.010999768 0.030979728 0.013852226 -0.04564491
-0.040395226 0.016081534 -0.047368977 -0.035845153 -0.022943527 0.01879839 0.025165662 -0.011588737
0.0011475884 -0.03985655 0.0047022053 -0.0028740875 -0.040767755 -0.0359584 -0.031903792 0.025501685
0.037237663 0.03738146 -0.019921197 -0.029065302 0.024061114 0.03071486 0.0028246806 -0.0031003992
-0.009658476 -0.025809396 -0.040196296 -0.03227036 -0.03785532 0.0045848587 0.010692244 0.015124227
-0.03781583 -0.023275822 0.01888519 0.032157853 -0.0379641 0.032071427 -0.0005505694 -0.0002833348
-0.021551386 0.032595202 -0.009799666 -0.012020127 0.0384834 0.007796341 0.019842964 0.009824252
0.008056041 0.038449872 -0.047952358 -0.023359641 -0.019600077 -0.01874363 -0.047221456 -0.00271851
-0.032768805 -0.035486035 0.026535453 -0.03777709 0.0007155416 -0.011500448 0.038330663 -0.03240447
0.032144442 -0.0139451735 -0.040860888 -0.040327426 0.029959371 -0.045264184 -0.04733992 0.038663704
-0.007917088 0.021092799 0.029955646 0.03861751 0.0059749526 -0.040138178 -0.014908533 0.0016817257
0.045280576 0.03204461 0.019009989 -0.035461444 0.034337897 0.026352543 -0.004464625 -0.03136865
-0.041500144 -0.01070249 -0.03726598 -0.04368615 0.03243576 0.002090891 -0.0012141315 -0.0066898363
-0.041340705 -0.047209535 0.026882278 0.019100139 -0.030411996 -0.040752854 0.03391768 0.026456105
0.017821992 -0.004797107 0.041495677 -0.019375065 0.0025921294 -0.014185639 0.029390894 0.009423038
-0.020669978 -0.039758198 -0.052337337 -0.057676658 -0.109115444 -0.08571311 -0.17457473 -0.17858015
00000000: f569 10be 7967 d1bd 55a8 9cbd 9d44 81bd
00000010: 134a 68bd ef66 a0bd 30ad 3fbd d4df 00be
00000020: b3cf febd 8c2a 03be 3602 9abd 8050 bdbb
00000030: 1e94 93bd 410c d8bc 4e19 a2bd 9b66 18bd
00000040: ddb7 8cbd e53a 89bd 1797 a2bd cb7b eabc
00000050: b2fd 6ebd c777 a8bd 6306 66bc d6cd 9cbc
00000060: 0a2e 5fbd fd8c 9cbc efd1 233d 20b1 3cbd
00000070: 73b4 753b 5a5a dbbd 7cef f83b e4c1 7f3c
00000080: 4e60 12bc c87c 3cbd 1f05 afbd 67e9 adb9
00000090: 2fa9 2fbd 634f f7bc 29fb 4ebd 491c cabd
000000a0: ae66 643c baa8 dcbc 0f06 20bd 855a 97bd
000000b0: f3b5 62bc b408 acbb 4293 e73c 6e52 19bd
000000c0: de95 9abd f647 9ebd c52f 9bbd c961 cdbd
000000d0: 14b3 7cbd f95c c0bd 3b11 6fbd 5068 4b3c
000000e0: e10f c1bd 879e adbd 073e a2bd d0c7 b9bd
000000f0: 67ee 703d b672 9abc ba8e d8bc 96bd a63b
00000100: 0fe2 3e3c c6ca 96bd c16d cebc 22e1 e63c
00000110: e2e1 d0bc 31b3 573c 6342 eb3c a083 35bd
00000120: 0c14 74bc 6ece 15bc 89fc 47bd e420 bfbc
00000130: 01c3 45bc e4f6 f2bc 0d36 183c 55f4 07bd
00000140: 1e8d 90bc e84b b4ba 9ec0 96bd b3f7 efbc
00000150: 2c23 f2bb 7f44 bfbc 3f31 3dbd 2ccb 88bd
00000160: d8f0 c4bc 3d59 95bd 040b 85bd 15cd 99bc
00000170: c2fa dc39 7edb aabc a1d9 c83c adc9 02bd
00000180: fa12 5dbd 8d26 0c3d 75b2 063d 1cb3 f93b
00000190: 5168 cbbb 8b4b 71bd 0706 3cbc f5cc 0c3d
000001a0: 58e6 ccba ae30 a83b 21cc c4bc 4e15 2bbd
000001b0: b4a6 09bc dab7 da3c 151f 84bc bf89 a8bc
000001c0: 679e a03a 44b5 8b3b bd8b 173c 8566 15bd
000001d0: 1c50 fd3b 55e1 86bc b854 b8bc ee63 2d3c
000001e0: 2ed4 93bc 2e92 9ebc 1891 3cbd d011 36bd
000001f0: 0611 1dbd d65c 9abd d9c4 43bd 119c d23c
00000200: 1b31 7e3c 555b 143d 174f aebc 1a63 ccbb
00000210: 5f38 343c 33c9 fd3c 72f4 623c 28f6 3abd
00000220: 7775 25bd 6cbd 833c f905 42bd 5ed2 12bd
00000230: 10f4 bbbc 15ff 993c 3828 ce3c b0de 3dbc
00000240: ad6a 963a 9f40 23bd f514 9a3b 305b 3cbb
00000250: 17fc 26bd 1e49 13bd 8dad 02bd e9e8 d03c
00000260: 8586 183d 4d1d 193d c731 a3bc 5b1a eebc
00000270: d01b c53c bb9d fb3c 471e 393b 1130 4bbb
00000280: 963e 1ebc 3a6e d3bc dfa4 24bd ed2d 04bd
00000290: 2e0e 1bbd 953c 963b 862e 2f3c 9bcb 773c
000002a0: c6e4 1abd f0ac bebc 1db5 9a3c f4b7 033d
000002b0: 3e80 1bbd 545d 033d 1654 10ba 8e8c 94b9
000002c0: 888c b0bc 8c82 053d c78e 20bc 11f0 44bc
000002d0: c5a0 1d3d 7378 ff3b b68d a23c e6f5 203c
000002e0: 7cfd 033c 9d7d 1d3d b169 44bd b85c bfbc
000002f0: 5790 a0bc 3e8c 99bc 496b 41bd 0829 32bb
00000300: 9538 06bd ce59 11bd e160 d93c 26bc 1abd
00000310: 2f93 3b3a 606c 3cbc 9d00 1d3d 8dba 04bd
00000320: e4a9 033d 4c7a 64bc bf5d 27bd 5f2e 25bd
00000330: 5b6d f53c f066 39bd 81e7 41bd d55d 1e3d
00000340: adb6 01bc ceca ac3c 8b65 f53c 652d 1e3d
00000350: 89c9 c33b ee67 24bd eb42 74bc 5a6d dc3a
00000360: 2078 393d 3541 033d d6ba 9b3c 0540 11bd
00000370: e5a5 0c3d 4ae1 d73c fd4b 92bb 6a7c 00bd
00000380: 0efc 29bd 7f59 2fbc 36a4 18bd 40f0 32bd
00000390: 5cdb 043d 5407 093b 7e23 9fba 6a36 dbbb
000003a0: df54 29bd c95e 41bd 3938 dc3c e577 9c3c
000003b0: 9422 f9bc 77ec 26bd 44ed 0a3d 79ba d83c
000003c0: 6dff 913c 0d31 9dbb 5ff7 293d 75b8 9ebc
000003d0: b7e0 293b e26a 68bc 2cc5 f03c 1663 1a3c
000003e0: 1654 a9bc 7ed9 22bd ad5f 56bd 5c3e 6cbd
000003f0: eb77 dfbd 5b8a afbd b8c3 32be b7dd 36be

fc1.bias f4 [128]
-0.029741384 -0.08307182 0.14417052 0.30908307 -0.003770984 0.058663182 0.06271615 -0.10066564
-0.031370014 0.030843869 0.0012608744 0.26431566 -0.015961686 0.11901844 0.0897965 0.23862144
-0.027688395 -0.037431926 0.06525535 0.10152294 0.031954776 0.13478501 -0.025762085 0.008072136
0.18098582 0.015792735 0.15148798 0.2581987 0.08580053 -0.10467355 0.08762758 -0.16091318
0.050259177 -0.006748474 0.073661275 0.16184503 0.0013523354 -0.018144278 -0.0027677186 0.18515141
0.047389288 -0.021224182 0.18689767 -0.056066047 0.07113201 -0.030800378 0.09726338 0.007934299
-0.029469699 -0.1304665 0.0957724 0.06457745 -0.14345546 0.06949947 0.07908455 0.26780593
0.031645816 0.059834167 0.030346895 0.24269588 -0.05336929 0.027948864 0.016405892 0.013456706
0.022183165 -0.04565744 0.11464095 -3.3784425e-05 0.07961267 0.07312741 0.15955655 0.06589251
0.039570544 0.3370471 0.23296784 -0.009192969 -0.07596712 -0.076697096 0.08170968 -0.017320568
0.23181424 0.038820606 -0.018467959 0.016440997 0.054737564 0.021881185 0.30618253 0.31993693
0.4341134 0.13507693 0.24643311 0.005508328 0.22760826 -0.11833582 0.04795786 -0.003105227
0.32098234 -0.015433439 0.10132988 -0.046862334 0.20730574 0.2511064 -0.017655846 0.3254832
-0.023216598 0.16749345 0.016623268 0.04884409 0.055227946 0.023796234 0.27925745 -0.07150702
-0.17231372 0.09599262 0.18849936 -0.019608729 0.06281754 -0.014055395 0.088249825 0.04510818
-0.098253086 -0.14521942 -0.0648471 0.10708006 -0.024305137 0.090078935 0.034711797 -0.00021202116
00000000: 34a4 f3bc 8f21 aabd 70a1 133e 2340 9e3e
00000010: 9d22 77bb ce48 703d 5371 803d c929 cebd
00000020: d87d 00bd 48ac fc3c ed43 a53a 6254 873e
00000030: 15c2 82bc f1bf f33d 3ae7 b73d 2e59 743e
00000040: c6d2 e2bc 3852 19bd 99a4 853d 42eb cf3d
00000050: 03e3 023d 1505 0a3e 020b d3bc fe40 043c
00000060: 5954 393e c45f 813c aa1f 1b3e 9f32 843e
00000070: 30b8 af3d 165f d6bd 1776 b33d 6dc6 24be
00000080: 91dc 4d3d 4e22 ddbb b9db 963d b4ba 253e
00000090: d940 b13a 4fa3 94bc 9d62 35bb 5598 3d3e
000000a0: 451b 423d 56de adbc 1a62 3f3e 83a5 65bd
000000b0: a9ad 913d 1351 fcbc 0632 c73d ddfe 013c
000000c0: 706a f1bc 0399 05be 5224 c43d 2f41 843d
000000d0: fde5 12be bd55 8e3d 15f7 a13d dc1d 893e
000000e0: 0b9f 013d ac14 753d 0d9a f83c 4585 783e
000000f0: c299 5abd 04f5 e43c a665 863c 8479 5c3c
00000100: 78b9 b53c 4c03 3bbd e0c8 ea3d c0b3 0db8
00000110: f80b a33d d3c3 953d cb62 233e a7f2 863d
00000120: b914 223d 7091 ac3e 1f8f 6e3e 1b9e 16bc
00000130: a694 9bbd 5e13 9dbd 6857 a73d dde3 8dbc
00000140: b660 6d3e 5b02 1f3d 1e4a 97bc 45af 863c
00000150: 7f34 603d 2c40 b33c f5c3 9c3e c6ce a33e
00000160: 1d44 de3e 9b51 0a3e f658 7c3e 347f b43b
00000170: 2412 693e 0d5a f2bd 766f 443d 1081 4bbb
00000180: cc57 a43e 89dc 7cbc 0a86 cf3d b8f2 3fbd
00000190: f547 543e 0591 803e fea2 90bc bca5 a63e
000001a0: bc30 bebc 6783 2b3e 852d 883c be10 483d
000001b0: b336 623d 52f0 c23c d5fa 8e3e 4672 92bd
000001c0: 0273 30be c797 c43d fa05 413e 7ca2 a0bc
000001d0: 7ba6 803d 9948 66bc 53bc b43d 5bc3 383d
000001e0: ea38 c9bd 66b4 14be 8ece 84bd ca4c db3d
000001f0: 911b c7bc 4e7b b83d f52d 0e3d ff51 5eb9

fc2.weight f4 [64, 128]
0.035903268 -0.070879675 -0.027236301 0.12429913 0.005557533 -0.08468849 -0.0017903936 -0.003025288
-0.11630293 0.011887438 0.042905528 -0.07522367 0.10855055 -0.06863895 0.02985509 -0.25768834
-0.09324717 0.050591398 -0.055767108 0.0946626 -0.0752945 -0.09383582 0.04698378 0.050296847
-0.17074381 -0.035271358 -0.003694351 -0.120014235 0.10766466 0.03851035 0.08770253 -0.1455397
-0.041247576 0.025326224 0.1728948 -0.059436772 -0.05822373 -0.00057021424 0.002962342 -0.079743646
-0.039928257 0.048117395 0.060354803 0.047132045 -0.034553476 0.011804344 0.029080635 0.047408465
-0.03903965 -0.012456446 -0.057326235 -0.11814212 -0.007167228 0.10629963 0.06881771 0.009177685
0.05628583 0.13181765 -0.033930987 -0.20708926 0.015701462 -0.03056128 -0.03690424 -0.07161282
0.034201548 0.026393108 0.060641304 -0.033392902 -0.042478025 -0.008678593 -0.011095748 0.007671289
0.030565565 -0.065183446 -0.07818155 -0.092509404 -0.026031686 -0.06361088 0.15865794 0.04715887
-0.07871547 0.03298498 0.0054654125 -0.019058023 0.05749577 0.020050665 0.011065825 0.074403
-0.10603341 -0.1582562 0.026529944 0.029150134 -0.10894746 0.06170869 -0.10494511 -0.031864304
-0.13761249 -0.10606565 -0.05336577 0.074967064 0.014861004 0.15666002 -0.034123316 0.060583
-0.109440595 -0.043035645 -0.068186276 -0.056547742 0.042733952 -0.13754073 -0.038782354 -0.0876286
-0.084020026 -0.06819682 -0.033740673 -0.011743439 0.045621954 -0.038313527 -0.0035890401 0.020120254
0.038680334 0.023452403 0.052625958 0.049623214 -0.024925234 -0.074922726 -0.09563479 -0.034501277
0.15665458 -0.035248358 -0.00091067597 -0.104457475 0.10188753 0.0928609 0.07764539 -0.041415952
-0.08279256 0.03715227 0.024860831 -0.0018794909 -0.046878807 0.14683625 0.06148959 -0.076147854
-0.035600614 -0.002127393 -0.061081547 -0.0015365846 -0.034411464 -0.23052181 0.10690923 -0.1319456
-0.22076298 0.09217462 -0.15646681 0.04319092 0.09921823 -0.01561283 0.012658757 -0.12814508
-0.15299128 0.085095674 0.06443195 -0.059724037 -0.020127885 0.017375102 -0.0037347917 -0.00030332542
-0.054615837 0.098523065 0.16272387 0.08151614 -0.031596433 -0.07628138 -0.115279615 -0.016385594
0.042590782 -0.054193832 -0.053185172 0.22969264 0.038509402 0.011815685 0.13263367 0.083916314
0.056419067 -0.052907456 0.049911503 -0.051297426 0.050996345 -0.011127729 -0.025797026 0.0073491056
-0.025469411 0.045241587 -0.019803729 -0.06204049 0.09354099 0.065141 0.0016382204 0.16288096
-0.03031474 -0.1389604 -0.13821866 0.06641736 0.034163397 0.10225559 0.06606795 0.07263504
0.02649297 0.043960202 -0.042649508 0.088767156 -0.18630993 0.035038564 -0.09014713 0.07155706
0.09659165 -0.03377244 -0.24242485 -0.04056164 -0.051970936 0.055380195 0.020889252 0.068438865
0.20016153 0.095560916 -0.07114704 0.022043124 0.083091564 0.08631449 0.08495235 0.08006241
0.08115048 0.107542396 0.0058660046 -0.06255646 0.014573138 0.024227934 -0.021537859 0.019524822
0.04581162 -0.09658669 0.23677915 -0.009658011 -0.020973332 -0.033359036 -0.13132083 0.0007637748
0.10120952 0.026572336 0.02240616 -0.15578368 -0.019866237 0.10351545 0.020534588 0.065282054
00000000: 4e0f 133d 5d29 91bd aa1e dfbc 8b90 fe3d
00000010: f71b b63b 2971 adbd a4ab eaba e943 46bb
00000020: 3b30 eebd 87c3 423c b5bd 2f3d de0e 9abd
00000030: c04f de3d 9492 8cbd a992 f43c baef 83be
00000040: 5ff8 bebd ed38 4f3d 0d6c 64bd 77de c13d
00000050: 0134 9abd ff2c c0bd 1072 403d 1104 4e3d
00000060: 77d7 2ebe b378 10bd ed1c 72bb 06ca f5bd
00000070: 4a7f dc3d 07bd 1d3d 629d b33d 5c08 15be
00000080: 38f3 28bd f178 cf3c 560b 313e f973 73bd
00000090: 027c 6ebd 6e7a 15ba da23 423b a350 a3bd
000000a0: d08b 23bd bf16 453d 9936 773d 880d 413d
000000b0: f287 0dbd 0267 413c 833a ee3c 612f 423d
000000c0: 0ae8 1fbd 1f16 4cbc eace 6abd 7ff4 f1bd
000000d0: 11db eabb 9fb3 d93d 4df0 8c3d 005e 163c
000000e0: f88b 663d 35fb 063e 38fb 0abd 350f 54be
000000f0: 5aa0 803c a65b fabc e628 17bd bea9 92bd
00000100: ec16 0c3d 5c36 d83c 0463 783d ffc6 08bd
00000110: 70fd 2dbd a830 0ebc f1ca 35bc 705f fb3b
00000120: a364 fa3c e67e 85bd a61d a0bd 9275 bdbd
00000130: 6740 d5bc 6c46 82bd 3a77 223e a929 413d
00000140: 9435 a1bd 421b 073d 3417 b33b 921f 9cbc
00000150: af80 6b3d 4b41 a43c 6f4d 353c 9a60 983d
00000160: 0b28 d9bd ea0d 22be 5355 d93c 43cc ee3c
00000170: d91f dfbd 40c2 7c3d 76ed d6bd 2584 02bd
00000180: 4aea 0cbe f338 d9bd 1196 5abd 5588 993d
00000190: 927b 733c 7c6b 203e e4c4 0bbd e125 783d
000001a0: 6422 e0bd 2546 30bd 3fa5 8bbd 9b9e 67bd
000001b0: cc09 2f3d 7ad7 0cbe 3fda 1ebd a076 b3bd
000001c0: b112 acbd c6aa 8bbd a933 0abd 8e67 40bc
000001d0: 16de 3a3d a5ee 1cbd 1a36 6bbb 3bd3 a43c
000001e0: 456f 1e3d 411f c03c 518e 573d b641 4b3d
000001f0: 0130 ccbc 1671 99bd 2cdc c3bd 3651 0dbd
00000200: 0f6a 203e 9560 10bd 6eba 6eba cded d5bd
00000210: 69aa d03d db2d be3d 8c04 9f3d c6a3 29bd
00000220: 258f a9bd fb2c 183d f1a8 cb3c 4059 f6ba
00000230: fe03 40bd 3e5c 163e 82dc 7b3d 68f3 9bbd
00000240: f3d1 11bd bb6b 0bbb a530 7abd 3967 c9ba
00000250: 09f3 0cbd e90d 6cbe 3af3 da3d bf1c 07be
00000260: b10f 62be 0cc6 bc3d d638 20be f6e8 303d
00000270: ed32 cb3d f5cc 7fbc ad66 4f3c 7738 03be
00000280: bfa9 1cbe a446 ae3d e6f4 833d 31a1 74bd
00000290: 3ce3 a4bc 3b56 8e3c 68c3 74bb a607 9fb9
000002a0: dbb4 5fbd 76c6 c93d 16a1 263e eff1 a63d
000002b0: 436b 01bd 6a39 9cbd b817 ecbd 153b 86bc
000002c0: ac73 2e3d 5afa 5dbd b2d8 59bd 8c34 6b3e
000002d0: 09bc 1d3d 9396 413c 1fd1 073e 51dc ab3d
000002e0: ae17 673d 7db5 58bd 0170 4c3d 401d 52bd
000002f0: 8be1 503d 1451 36bc 4954 d3bc c4d0 f03b
00000300: 3aa5 d0bc 3e4f 393d 6e3b a2bc 2b1e 7ebd
00000310: 6b92 bf3d a568 853d 8eb9 d63a 44ca 263e
00000320: 9e56 f8bc a34b 0ebe 3189 0dbe d305 883d
00000330: ebee 0b3d 616b d13d a24e 873d aec1 943d
00000340: c907 d93c 9d0f 343d 40b1 2ebd 8ecb b53d
00000350: 08c8 3ebe 9984 0f3d 0f9f b8bd 828c 923d
00000360: d8d1 c53d f854 0abd 383e 78be f623 26bd
00000370: 7adf 54bd 58d6 623d f01f ab3c ad29 8c3d
00000380: 25f7 4c3e 71b5 c33d 8ab5 91bd c893 b43c
00000390: e92b aa3d a7c5 b03d 7ffb ad3d c3f7 a33d
000003a0: 3932 a63d 303f dc3d 9d37 c03b 9a1d 80bd
000003b0: 2cc4 6e3c a979 c63c 2a70 b0bc 85f2 9f3c
000003c0: f7a4 3b3d 3ecf c5bd 3c76 723e a23c 1ebc
000003d0: 44d0 abbc 7ca3 08bd f878 06be 0f38 483a
000003e0: f046 cf3d 3aae d93c 208d b73c c285 1fbe
000003f0: 85be a2bc e9ff d33d 2738 a83c 99b2 853d

fc2.bias f4 [64]
-0.071279384 -0.040438063 0.077312656 -0.11940834 -0.055409815 0.017478392 -0.081475906 0.19986808
-0.09127691 -0.06035415 -0.09532953 0.26681906 -0.12073462 -0.065473534 0.04153529 -0.010804091
0.039158687 -0.11705544 0.107803926 0.24703954 -0.029523756 0.00026031362 0.13916199 -0.07856212
0.09380597 -0.059407976 -0.05443671 -0.06242453 0.03479809 -0.11932441 0.060867965 0.18019804
-0.07077341 0.16259593 -0.12585683 0.029967707 0.04718884 0.10817729 0.153932 0.17770953
0.018373933 -0.0123785 0.09076082 -0.085579686 0.1596396 0.13088928 0.05189384 0.10790047
0.10124055 -0.11759934 0.003222747 -0.1843797 0.10469398 0.09826569 0.024768919 -0.06003031
-0.059461437 0.04331493 0.1419573 -0.077840045 0.048024874 -0.10227598 -0.015454233 0.13011742
00000000: edfa 91bd 62a2 25bd 1956 9e3d 5c8c f4bd
00000010: 67f5 62bd d82e 8f3c d7dc a6bd 38aa 4c3e
00000020: 63ef babd ea35 77bd 213c c3bd 829c 883e
00000030: b643 f7bd fd16 86bd e920 2a3d a403 31bc
00000040: dc64 203d c3ba efbd 4ec8 dc3d eff7 7c3e
00000050: cedb f1bc b47a 8839 7b80 0e3e 2de5 a0bd
00000060: 581d c03d c755 73bd 07f9 5ebd ddb0 7fbd
00000070: 7188 0e3d 5b60 f4bd b050 793d d685 383e
00000080: a6f1 90bd 8c7f 263e 9de0 00be d67e f53c
00000090: 1649 413d 0e8c dd3d 5aa0 1d3e 7df9 353e
000000a0: ee84 963c 31cf 4abc cfe0 b93d 6744 afbd
000000b0: 9078 233e d707 063e a38e 543d ecfa dc3d
000000c0: 3557 cf3d ecd7 f0bd b934 533b 08ce 3cbe
000000d0: cc69 d63d 863f c93d 30e8 ca3c 58e2 75bd
000000e0: d68d 73bd ff6a 313d 415d 113e 9a6a 9fbd
000000f0: bbb5 443d 1276 d1bd c033 7dbc 803d 053e

fc_mu.weight f4 [3, 64]
-0.25986174 -0.18615386 -0.0135339 -0.16037391 -0.045066822 -0.06055875 -0.011724711 -0.06265606
-0.16652809 -0.076679766 0.038204007 -1.5681403 0.07157854 -0.06504438 -0.044512257 0.09556794
-0.7517286 0.10458017 -0.12698038 -2.5150251 0.06829432 -0.01509871 -0.059432115 -0.14169745
-0.07254716 -0.8920654 0.104318954 -0.10240163 -0.02612694 0.000171234 -0.4137031 -0.19483113
0.18148588 -0.33836845 0.08703553 -0.27457374 -0.13517854 0.032974247 -0.06124511 -0.18288986
-0.046252877 -0.049891 -0.0108423745 -0.042650606 -0.25907928 -0.91788334 -0.07522486 -0.64895564
-0.43726116 0.09130918 -0.5393749 0.06268962 -0.037710715 0.101127975 0.114167586 0.09290361
-0.05494846 -0.11669186 -0.23568165 -0.03657829 -0.06119277 -0.35474887 -0.21189323 -0.4164074
0.0022807838 0.037829217 0.19873846 -0.08343392 0.02538853 -0.00851342 0.07843606 0.0023617076
-0.5405968 0.014870417 -0.00985331 -0.29963946 -0.011000513 -0.029546982 -0.052138634 0.025672989
-0.045242626 0.025086686 0.021650793 -0.024421638 0.09273504 -0.1825528 -0.034056086 0.10962256
0.08202288 0.33230487 0.008976584 -0.07844868 -0.009739073 0.01937247 -0.09063312 0.0016334159
-0.82194287 -0.04509252 0.08496873 0.028808968 0.157676 -0.051881354 -1.11588 -0.10725662
-0.035704803 -0.0066455984 -0.08275243 0.08283145 -0.049426384 -0.030759754 0.011751494 -0.04351354
-1.8852336 0.026934804 -0.8158479 -0.0066827578 -0.04904152 0.009722224 0.025310576 0.004284097
0.04685786 0.059247933 -1.2864834 0.029641232 -0.045594282 0.09457572 0.0033165128 -0.007420459
-0.0337753 -0.032355968 -0.0031921095 0.06465694 -0.06642524 0.028439747 -0.029220274 0.1867102
0.104053855 -0.20796117 0.08688056 0.0023940345 0.009460637 0.07001689 0.0077526905 0.10356642
-0.26379007 -0.14884038 -0.0831227 0.09023179 -0.1013859 0.10079974 -0.2501484 -1.1445214
0.13826811 0.08563784 -0.22630762 -0.010208471 0.062173363 -0.26177257 0.054629076 -0.067971386
0.2207099 -0.07069286 -0.114048384 0.0076588537 -0.0128106745 0.073960535 -0.0073506595 -0.086802624
-0.0016597481 -0.013958024 -0.08721136 0.038345985 -0.043724716 0.054501634 -0.03388949 -0.06410669
0.118583575 -0.055486392 0.00820255 -0.7796831 -0.567052 0.08002618 0.011231295 0.069461845
0.058778077 -0.08380205 -0.05159252 0.0069558006 -0.07460844 -0.044781838 0.005506761 0.0011577738
00000000: 990c 85be 1e9f 3ebe 4abd 5dbc 0f39 24be
00000010: fd97 38bd 740c 78bd 0119 40bc d251 80bd
00000020: 5786 2abe 480a 9dbd ce7b 1c3d d2b8 c8bf
00000030: c597 923d fd35 85bd 7c52 36bd 20b9 c33d
00000040: 4971 40bf 212e d63d 2507 02be 2cf6 20c0
00000050: e4dd 8b3d 9460 77bc 176f 73bd 2319 11be
00000060: 9b93 94bd 665e 64bf 2da5 d53d f2b7 d1bd
00000070: 2a08 d6bc 478d 3339 e5d0 d3be d081 47be
00000080: 6fd7 393e a13e adbe af3f b23d ee94 8cbe
00000090: 3e6c 0abe 0110 073d 27dc 7abd 7b47 3bbe
000000a0: a873 3dbd 815a 4cbd 37a4 31bc 67b2 2ebd
000000b0: 0aa6 84be 67fa 6abf 7e0f 9abd f521 26bf
000000c0: b2e0 dfbe 4f00 bb3d 7914 0abf 6a63 803d
000000d0: 8d76 1abd 2f1c cf3d b2d0 e93d 3f44 be3d
000000e0: a311 61bd 24fc eebd 8856 71be 1ed3 15bd
000000f0: 45a5 7abd a5a1 b5be 8afa 58be 5a33 d5be
00000100: 3479 153b cff2 1a3d 1882 4b3e 67df aabd
00000110: 9bfb cf3c df7b 0bbc 16a3 a03d e1c6 1a3b
00000120: 8d64 0abf 0da3 733c c76f 21bc 586a 99be
00000130: 7f3b 34bc 830c f2bc 528f 55bd 2950 d23c
00000140: 5550 39bd 9882 cd3c 015d b13c e30f c8bc
00000150: deeb bd3d 1fef 3abe 657e 0bbd cb81 e03d
00000160: 9dfb a73d dd23 aa3e 8612 133c b4a9 a0bd
00000170: a290 1fbc 04b3 9e3c db9d b9bd 5818 d63a
00000180: d96a 52bf efb2 38bd 1604 ae3d c900 ec3c
00000190: d175 213e 8b81 54bd 28d5 8ebf 5ca9 dbbd
000001a0: 333f 12bd 52c3 d9bb 1b7a a9bd 89a3 a93d
000001b0: 5273 4abd e1fb fbbc 5789 403c 413b 32bd
000001c0: 564f f1bf 61a6 dc3c 68db 50bf 09fb dabb
000001d0: c3df 48bd f749 1f3c 2058 cf3c 9c61 8c3b
000001e0: 07ee 3f3d f6ad 723d 7dab a4bf 2bd2 f23c
000001f0: 12c1 3abd eab0 c13d da59 593b 5227 f3bb
00000200: f857 0abd b187 04bd b632 51bb dc6a 843d
00000210: f509 88bd 79fa e83c 5b5f efbc f530 3f3e
00000220: 301a d53d c6f3 54be 6fee b13d 3ce5 1c3b
00000230: ca00 1b3c 0465 8f3d 480a fe3b a21a d43d
00000240: 7e0f 87be 9d69 18be 3c3c aabd 72cb b83d
00000250: 69a3 cfbd 1870 ce3d 7313 80be ad7f 92bf
00000260: 2896 0d3e e462 af3d 2fbd 67be 6e41 27bc
00000270: 7fa9 7e3d 0e07 86be bdc2 5f3d 9534 8bbd
00000280: c701 623e 6bc7 90bd 3392 e9bd 1ff7 fa3b
00000290: dde3 51bc 9f78 973d cddd f0bb 93c5 b1bd
000002a0: e88b d9ba 32b0 64bc df9b b2bd ae10 1d3d
000002b0: b018 33bd 1b3d 5f3d b5cf 0abd 5e4a 83bd
000002c0: f2db f23d b345 63bd fd63 063c 5099 47bf
000002d0: 522a 11bf c4e4 a33d 7703 383c 0342 8e3d
000002e0: 48c1 703d 69a0 abbd ae52 53bd 7ced e33b
000002f0: 4fcc 98bd 296d 37bd 0f72 b43b 71c0 973a

fc_mu.bias f4 [3]
-0.026309874 -0.11127011 0.058184825
00000000: ce87 d7bc 95e1 e3bd 3653 6e3d
