LIRL results/EV-Charging/lirl_fenceng/run_10_seed_1993/ddpg_lirl_pi_q_20250926_090300.pth (torch, 31823 bytes, 7 tensors)

fc_s.weight f4 [64, 39]
0	0x3eba36af	0.36369845
1	0x3eb72496	0.357701
2	0x3ea2f286	0.31825656
3	0x3ee9011d	0.45508662
4	0x3f22b373	0.6355507
5	0xbbfab898	-0.0076514
6	0x3e9cbb8d	0.3061184
7	0xbe10f6ed	-0.14156695
8	0xbe35a4fc	-0.17738718
9	0x3d3b325e	0.04570233
10	0x3bad5c12	0.0052905167
11	0x3f0d9f1f	0.55320925
12	0x3e22630a	0.15858093
13	0xbceeb890	-0.02914074
14	0x3d751ccd	0.05984192
15	0x3ed09d9c	0.40745246
16	0xbeda56b2	-0.42644268
17	0xbc13083a	-0.008974129
18	0xbd9eae1f	-0.07748055
19	0x3f00197e	0.500389
20	0xbe0c47cc	-0.13699263
21	0x3c16e3fe	0.009209631
22	0xbd0038e8	-0.03130427
23	0x3f0c4cfd	0.54804975
24	0xbdf26fc2	-0.11837722
25	0x3d7212df	0.059100028
26	0x3e033dc7	0.12816535
27	0x3f2fdb4b	0.6869399
28	0xbeca23cd	-0.3948044
29	0xbd31fc37	-0.04345342
30	0x3e67bbed	0.22630282
31	0x3e9ba53d	0.30399504
32	0xbef749c2	-0.4829846
33	0xbd031035	-0.031997878
34	0x3d72d86e	0.059288435
35	0x3e53aecc	0.20672148
36	0xbdd335da	-0.10313006
37	0xbfe1ca23	-1.7639812
38	0xbfe19152	-1.7622473
39	0x3e52ba5f	0.20578907
40	0x3e429b07	0.1900445
41	0x3e3464bb	0.1761655
42	0x3d83d70b	0.064375006
43	0x3e5c1574	0.21492559
44	0x3d67f8d1	0.056633774
45	0x3ec90c1f	0.3926706
46	0x3ee5af3b	0.44860253
47	0xbe05a624	-0.13051659
48	0xbdd7d520	-0.10538697
49	0xbc8a82e0	-0.01690811
50	0x3ec9226b	0.3928407
51	0xbebde48b	-0.37088427
52	0x3c870b6e	0.016484942
53	0x3c942c55	0.018087545
54	0x3e55d77d	0.20882984
55	0xbeaaa82a	-0.33331424
56	0x3d3ad1ae	0.045610122
57	0x3d3e3100	0.04643345
58	0x3ec882bd	0.39162245
59	0xbdf809ae	-0.12111221
60	0xbce6a1b7	-0.028153284
61	0x3e1bc8a8	0.15213263
62	0x3f3e9199	0.74440914
63	0x3cfa3d11	0.030546697
64	0xbd8b679c	-0.06806871
65	0xbe240897	-0.16018902
66	0x3ea8c469	0.3296235
67	0xbf006dcf	-0.50167555
68	0x3cf5ac9b	0.029989531
69	0xbdbd7acb	-0.092519365
70	0xbb2fcc04	-0.0026824484
71	0xbed8ab59	-0.42318228
72	0x3d8fbfbf	0.070189945
73	0xbdf1f3f3	-0.11814108
74	0x3f08e6e6	0.53477323
75	0xbe8430ec	-0.25818574
76	0xbfa84aaa	-1.3147786
77	0xbfb46721	-1.4093972
78	0x3e911078	0.28332877
79	0xbec9dd90	-0.3942685
80	0x3eca1e57	0.39476272
81	0x3d63624f	0.055513676
82	0x3d5b5f1b	0.053557497
83	0xbe38c77d	-0.18044849
84	0xbd102b60	-0.035197616
85	0x3e40bcf4	0.1882208
86	0x3e26ae3e	0.16277406
87	0xbddb778e	-0.107161626
88	0x3ee0a697	0.43877098
89	0x3e77c820	0.24197435
90	0xbd16e947	-0.036843564
91	0xbd691c7f	-0.05691194
92	0x3da2dda1	0.079524286
93	0x3c5ea7b5	0.013589789
94	0xbaab3976	-0.0013063389
95	0xbe09ff39	-0.13476266
96	0x3e7b3431	0.24531628
97	0x3e08240b	0.13295
98	0x3e01a87b	0.12661926
99	0xbcb5828e	-0.02215698
100	0x3dfa4b0f	0.122213475
101	0xbd0faa3e	-0.035074465
102	0xbe98556e	-0.29752678
103	0xbe218639	-0.15773858
104	0x3d8c8ce5	0.06862811
105	0x3e15825c	0.1460051
106	0x3ced752c	0.028986536
107	0x3d585ab2	0.05282087
108	0x3e860a92	0.2617994
109	0x3ea01d79	0.31272486
110	0x3dda8d27	0.10671454
111	0xbca16a5a	-0.019704033
112	0x3d92fbcb	0.07176932
113	0x3e8ea041	0.2785664
114	0x3a7e28a8	0.00096953893
115	0xbf5508e3	-0.83216685
116	0xbf68146a	-0.9065615
117	0x3e806832	0.25079495
118	0x3dc658ce	0.09684907
119	0x3e767530	0.24068141
120	0x3ef11c9c	0.4709214
121	0x3cc6711c	0.024223857
122	0xbcdca9ae	-0.026936378
123	0x3df7c04d	0.12097225
124	0x3e46b572	0.19405153
125	0xbe8b85a7	-0.27250406
126	0x3d88b31e	0.06674789
127	0x3e3faa0b	0.1871721
128	0x3ef87595	0.48527208
129	0xbebccd15	-0.36875215
130	0xbd964f82	-0.07339384
131	0x3e7a76a7	0.24459325
132	0x3ef32d9c	0.47495735
133	0xbe936934	-0.287912
134	0xbd9ed61d	-0.077556826
135	0x3e9d3e17	0.30711433
136	0x3ef040aa	0.46924335
137	0xbe86b725	-0.26311603
138	0x3d89449f	0.067025416
139	0x3e8ccd43	0.27500352
140	0x3e8b9fe5	0.27270427
141	0xbe3babe2	-0.18327287
142	0x3d0f74d0	0.03502351
143	0x3ec49b90	0.38399935
144	0x3eae429f	0.34035203
145	0xbd2875ac	-0.041127846
146	0x3d874e48	0.06606728
147	0xbda33b5f	-0.079703085
148	0x3efee28b	0.49782214
149	0xbe39330b	-0.18085878
150	0xbba8fb4f	-0.0051569114
151	0xbe1ec7dc	-0.15505928
152	0x3eb22572	0.34794194
153	0xbf0afd03	-0.54292315
154	0xbfdbf09c	-1.7182803
155	0xbfd37286	-1.6519325
156	0x3e861bb9	0.26193026
157	0x3d926b34	0.071493536
158	0x3d457b6e	0.048213415
159	0x3d9d6146	0.07684569
160	0xbbf35d8f	-0.0074269245
161	0xbc3af2a3	-0.011410388
162	0xbd31ad3f	-0.04337811
163	0x3ef04709	0.46929196
164	0xbe973eba	-0.29540044
165	0x3bff3791	0.0077886065
166	0xbdca5fba	-0.0988154
167	0x3e998028	0.29980588
168	0xbee98373	-0.456081
169	0xb9df51b5	-0.0004259475
170	0x3d91a490	0.07111466
171	0x3ea88fe8	0.32922292
172	0xbf1dfba4	-0.617121
173	0x3c9a1f79	0.018813835
174	0xbc25698d	-0.010095966
175	0x3eee02c2	0.4648648
176	0xbf00a77c	-0.5025556
177	0x3c8038c3	0.015652066
178	0xbdb0ffa9	-0.08642513
179	0x3eafa14a	0.3430274
180	0xbec47de2	-0.3837729
181	0x3c334876	0.010942569
182	0xbd9afa51	-0.07567275
183	0x3ed47b03	0.415001
184	0xbf099367	-0.53740543
185	0x3c2d5b15	0.010580798
186	0xbe11096a	-0.14163747
187	0x3ef71d2c	0.48264444
188	0xbf06c5e5	-0.52645713
189	0xbc181efb	-0.00928473
190	0x3e4bad9c	0.19890445
191	0x3f1e2cba	0.61787
192	0xbf0b3066	-0.54370725
193	0xc00aba31	-2.1676142
194	0xc00bf395	-2.186742
195	0x3e692e3d	0.22771545
196	0x3e98e709	0.29863766
197	0x3e8527c6	0.26006907
198	0x3e1c847e	0.15284917
199	0xbd7408fd	-0.059578884
200	0xbcceef54	-0.025260605
201	0xbe030d34	-0.12798005
202	0x3efc072d	0.49224225
203	0xbec77aba	-0.3896082
204	0xbcf5ef6a	-0.030021388
205	0x3deb49d4	0.11488691
206	0x3ef378ff	0.4755325
207	0xbe8b1166	-0.2716171
208	0x3dafbef7	0.085813455
209	0x3cbdc83b	0.023166766
210	0x3e8b3e6d	0.27196065
211	0xbf02f18a	-0.5114981
212	0x3db3237c	0.087470025
213	0x3e1a8782	0.15090755
214	0x3f0daf27	0.55345386
215	0xbe3d5c8c	-0.18492335
216	0x3cbb95e7	0.022898627
217	0x3e1aa1d5	0.15100797
218	0x3eae8678	0.34086967
219	0xbe99e724	-0.3005916
220	0xbcedccec	-0.029028378
221	0xbde1a0f6	-0.11017029
222	0x3e8546aa	0.26030475
223	0xbe0bac9b	-0.13640063
224	0x3dac8589	0.08423907
225	0xbc774702	-0.015092613
226	0x3ea447ab	0.32085928
227	0xbe759104	-0.239811
228	0xbc80f50a	-0.015741844
229	0x3cfb4225	0.030671189
230	0x3e5c76b3	0.21529655
231	0xbe860894	-0.2617842
232	0xbfcab467	-1.5836304
233	0xbfb97757	-1.4489545
234	0xbe3d7638	-0.18502128
235	0xbd8379a4	-0.064196855
236	0xbe83be19	-0.2573097
237	0xbe6ca5a3	-0.2311006
238	0xbec4fa54	-0.38472235
239	0x3dc1f082	0.09469701
240	0xbf096784	-0.5367358
241	0xbd03566d	-0.032064844
242	0x3f18b5b9	0.59652287
243	0x3c565b8c	0.01308335
244	0x3e02bdcc	0.12767714
245	0xbece87df	-0.40338036
246	0x3e922190	0.2854123
247	0x3cad2fe6	0.021141004
248	0x3de1a045	0.11016897
249	0xbe2908e5	-0.16507299
250	0x3ea9179d	0.33025828
251	0xbdccc9fb	-0.09999462
252	0x3e350f4e	0.1768162
253	0xbc7311ef	-0.014835819
254	0x3eedfff4	0.4648434
255	0x3dc37c95	0.095452465

fc_s.bias f4 [64]
0	0x3f321d40	0.6957588
1	0x3f09db61	0.5385037
2	0x3e926100	0.2858963
3	0x3ee92f64	0.4554397
4	0x3ed80f28	0.42199063
5	0x3f03913f	0.513935
6	0xbf00019a	-0.50002444
7	0x3f1da946	0.61586416
8	0x3f1ea803	0.61975116
9	0x3ee3d49b	0.44498143
10	0x3f184433	0.59479064
11	0x3f276c02	0.6539918
12	0x3ef0d93e	0.47040743
13	0x3f148804	0.58020043
14	0x3e8b9673	0.2726322
15	0x3f1197c0	0.5687218
16	0xbea8064b	-0.328173
17	0xbf1f6cc6	-0.6227535
18	0x3f2a299a	0.6646973
19	0xbf23b688	-0.63950396
20	0x3f29479a	0.6612488
21	0xbed22aec	-0.41048372
22	0x3ed48e20	0.41514683
23	0x3f08235a	0.5317894
24	0x3f470cd4	0.7775395
25	0x3ee34091	0.44385198
26	0x3f2a45cc	0.6651275
27	0x3f169bd5	0.5883153
28	0x3ee28e3b	0.44249138
29	0x3f179636	0.5921358
30	0xbefbe38e	-0.49197048
31	0x3e82c9c5	0.25544563
32	0x3f1f8047	0.6230511
33	0x3eae87bb	0.3408793
34	0x3f48c52d	0.78425866
35	0x3ebfe29b	0.37477574
36	0x3f090c8a	0.5353476
37	0x3f17b9c3	0.59267825
38	0x3f0877a9	0.53307587
39	0x3ed25005	0.41076675
40	0xbec848ff	-0.39118192
41	0x3f5a9a06	0.8539127
42	0x3f1159a3	0.567774
43	0x3f25166e	0.6448735
44	0x3f242359	0.64116436
45	0x3f4a053a	0.78914225
46	0x3edadb98	0.42745662
47	0xbef9228b	-0.48659167
48	0x3f14b304	0.58085656
49	0xbe94d822	-0.29071146
50	0x3f0be46c	0.5464542
51	0x3f07d5db	0.5306069
52	0x3eef9977	0.46796772
53	0x3f17ff50	0.5937395
54	0x3eb82b20	0.35970402
55	0x3f30e64c	0.69101405
56	0x3f079305	0.5295871
57	0x3f0d08ae	0.5509137
58	0x3f098081	0.53711706
59	0x3f14604f	0.57959455
60	0x3f17b4c2	0.5926019
61	0x3ebe700c	0.3719486
62	0x3f04739a	0.51738894
63	0x3eaa5cf9	0.33274058

fc_a.weight f4 [64, 3]
0	0x3df6b536	0.12046282
1	0x3eca2db8	0.39488006
2	0xbf12476f	-0.5714025
3	0x3f29d1f3	0.6633598
4	0xbe4af521	-0.19820072
5	0x3e7f071f	0.2490506
6	0xbef32954	-0.47492468
7	0xbd3b5a80	-0.045740604
8	0x3efcdd79	0.4938772
9	0xbde49555	-0.11161295
10	0xbdc4dc32	-0.096123114
11	0xbea7cd40	-0.3277378
12	0x3f011f5a	0.50438464
13	0x3d9a0d4d	0.07522068
14	0x3f06c52c	0.5264461
15	0x3ec24f17	0.37950966
16	0x3eb9bada	0.3627537
17	0x3ef1a05f	0.47192666
18	0xbec39f37	-0.3820741
19	0x3e8fe1f9	0.2810209
20	0x3f1e126f	0.6174688
21	0xbe31b5c6	-0.17354497
22	0xbebea480	-0.3723488
23	0xbef11551	-0.47086576
24	0xbe8bd1dc	-0.27308547
25	0x3e2d206f	0.16906904
26	0xbf1294f0	-0.5725851
27	0xbe60a42a	-0.21937624
28	0xbdd08b4c	-0.10182819
29	0xbea91472	-0.3302341
30	0xbf42f2d8	-0.761518
31	0x3eb53163	0.35389242
32	0x3e72a58e	0.23695967
33	0x3f2ae860	0.66760826
34	0x3bc942ea	0.00614201
35	0x3e7e2bd8	0.24821413
36	0x3efe9c91	0.49728826
37	0xbf348875	-0.70520717
38	0xbe241e27	-0.16027127
39	0x3d32b342	0.043627985
40	0x3f100561	0.5625821
41	0x3e9935a7	0.29923746
42	0x3f2e5373	0.68096083
43	0xbeb433a2	-0.35195643
44	0x3c950996	0.018193047
45	0xbde1ef0b	-0.11031922
46	0x3e7606cb	0.24026029
47	0x3f26d47f	0.65167993
48	0xbea58a57	-0.32332107
49	0xbe82273a	-0.25420552
50	0xbcd9d6e0	-0.026591718
51	0xbe951164	-0.2911483
52	0xbe78dc32	-0.24302748
53	0x3ec2aafb	0.38021073
54	0x3e3dbeb1	0.18529774
55	0x3e2a95dc	0.1665873
56	0xbe5f1c2a	-0.21788087
57	0x3ee34710	0.44390154
58	0x3d9d2fc3	0.076751254
59	0x3f2606cd	0.6485413
60	0xbef020ba	-0.46899968
61	0xbeca2b11	-0.39485982
62	0xbeb7cb30	-0.35897207
63	0x3dcaf4b9	0.099099584
64	0xbe55c152	-0.20874527
65	0xbe39ea55	-0.18155797
66	0x3e8dbf4d	0.27685013
67	0x3e5a0ad0	0.21293187
68	0xbe820efe	-0.25402063
69	0x3f0cfdc6	0.5507473
70	0x3e57d839	0.21078576
71	0xbe0102f8	-0.12598789
72	0x3f344279	0.7041393
73	0xbdc8c223	-0.09802654
74	0x3d341073	0.043961
75	0x3e9f3963	0.3109847
76	0x3f2b1dd9	0.6684242
77	0x3f05dfb8	0.5229449
78	0x3e5e09bc	0.21683401
79	0xbe64f33e	-0.22358415
80	0xb9ead000	-0.0004478693
81	0x3f1e1312	0.6174785
82	0xbf0d5e2d	-0.55221826
83	0xbee9feb6	-0.45702142
84	0x3e5b1670	0.21395278
85	0xbe1c09b4	-0.15238076
86	0xbe568881	-0.2095051
87	0xbe6d1cf2	-0.23155573
88	0x3f12c57c	0.5733259
89	0x3d0327b8	0.0320203
90	0x3e99ccc5	0.3003904
91	0xbec0f71d	-0.37688532
92	0xbe5daf45	-0.21648891
93	0x3f24f631	0.6443816
94	0x3ed3c563	0.41361532
95	0x3f4393f8	0.7639766
96	0xbe12c290	-0.14332032
97	0xbf0fad1f	-0.56123537
98	0x3d953768	0.072859585
99	0xbd2944f0	-0.04132551
100	0xbecfb855	-0.40570322
101	0x3e4f3bc4	0.20237643
102	0x3e20edc2	0.15715697
103	0x3e5718de	0.2100558
104	0x3f402702	0.7505952
105	0x3bf28106	0.0074006347
106	0xbf007cc4	-0.5019038
107	0xbf14dc0a	-0.5814825
108	0xbe940d3e	-0.28916353
109	0xbe58e5c3	-0.21181397
110	0x3e96177a	0.29314786
111	0xbeaf809a	-0.34277803
112	0x3edb1028	0.42785764
113	0xbeaf83ce	-0.34280246
114	0xbf0dadb7	-0.5534319
115	0x3d0e3100	0.0347147
116	0xbcb364a0	-0.021898568
117	0xbf4719cf	-0.77773756
118	0x3e41b626	0.1891714
119	0x3e15faf8	0.14646518
120	0xbf17e67d	-0.5933607
121	0x3d198c42	0.037487276
122	0x3ec74914	0.38922942
123	0xbe5d247c	-0.21595949
124	0x3e68d73e	0.22738358
125	0x3f3f21bd	0.74660856
126	0xbe10fb78	-0.14158428
127	0x3d0d7b80	0.034541607
128	0xbeb85795	-0.3600432
129	0x3f24475f	0.64171404
130	0xbe31138e	-0.17292616
131	0x3f113df1	0.5673514
132	0x3f3102fd	0.69145185
133	0xbc08cf51	-0.008350209
134	0x3f244837	0.6417269
135	0x3dc57940	0.09642267
136	0x3e9fa6c0	0.31181908
137	0xbe7e32fc	-0.24824136
138	0xbece9900	-0.40351105
139	0xbf103f83	-0.5634691
140	0x3bb17100	0.005415082
141	0xbd16d68b	-0.036825698
142	0xbe0a8ec9	-0.1353103
143	0x3e783ce8	0.24241984
144	0xbe1cb56b	-0.1530358
145	0xbeaa2d3f	-0.33237645
146	0x3f2d5f31	0.67723376
147	0x3e1fcea9	0.15606178
148	0x3ebad203	0.3648835
149	0x3f0d9006	0.5529789
150	0x3edd26c1	0.4319363
151	0xbec9e136	-0.39429635
152	0x3ec78c81	0.38974383
153	0x3e912c9c	0.28354347
154	0xbe6109a5	-0.21976335
155	0x3f3f7677	0.7479014
156	0x3d3edecf	0.046599206
157	0x3ef679ed	0.48139897
158	0x3e568ca4	0.20952088
159	0x3f33ca21	0.702303
160	0xbe1154c6	-0.14192495
161	0x3e32287b	0.17398255
162	0x3ee48d11	0.44638875
163	0x3f0d5121	0.5520192
164	0xbed850f7	-0.4224927
165	0x3f032dc2	0.51241696
166	0x3e36bd39	0.1784562
167	0x3ec18515	0.37796846
168	0x3e006344	0.12537867
169	0xbdfd10e0	-0.12356734
170	0xbe22f1e6	-0.1591259
171	0x3dd81998	0.105517566
172	0xbee6f346	-0.45107478
173	0xbef66c87	-0.48129675
174	0xbef6cc37	-0.4820268
175	0x3f178891	0.5919276
176	0xbe4dc3e6	-0.2009426
177	0x3e8f75e7	0.2801964
178	0x3e967838	0.29388595
179	0xbdb53712	-0.088483945
180	0x3f139d9c	0.5766237
181	0x3e942de0	0.2894125
182	0x3e79aece	0.24383089
183	0x3f129b0a	0.5726782
184	0xbe43e502	-0.19130328
185	0xbd28e601	-0.041234974
186	0xbecee72e	-0.4041075
187	0x3e0244a4	0.12721497
188	0xbde83510	-0.11338246
189	0x3f1f9860	0.6234188
190	0xbf341405	-0.7034305
191	0xbeb45fe5	-0.35229412

fc_a.bias f4 [64]
0	0xbe7e5091	-0.24835421
1	0x3f16212d	0.5864437
2	0xbefd6e3f	-0.49498174
3	0x3f89a704	1.0754094
4	0x3f2943c6	0.6611904
5	0x3f8e7c4f	1.1131686
6	0x3f537834	0.8260529
7	0xbcdb6f80	-0.026786566
8	0x3f8161d0	1.0107975
9	0xbea566de	-0.32305044
10	0xbe61d422	-0.22053578
11	0x3ea7eea1	0.32799247
12	0xbe5ebaad	-0.21750899
13	0x3f03f46a	0.5154482
14	0x3f86c6f6	1.0529468
15	0x3f7cd30c	0.9875953
16	0xbe2f290c	-0.17105502
17	0x3eeac9fc	0.45857227
18	0x3f89d2c8	1.076745
19	0x3e02a927	0.12759839
20	0xbee168c0	-0.4402523
21	0x3f8e2520	1.110508
22	0x3f5739bc	0.8407247
23	0x3f32395e	0.69618785
24	0x3f811bfe	1.0086668
25	0x3f831ba0	1.0242805
26	0xbf0eb2d6	-0.5574163
27	0x3ec20551	0.3789468
28	0x3f81279d	1.0090214
29	0x3f8ce287	1.1006631
30	0x3f7998a2	0.97498524
31	0x3f8d1185	1.1020972
32	0xbf0b0e4f	-0.5431871
33	0xbf0c9900	-0.5492096
34	0x3f1a3278	0.6023326
35	0x3f8c4ee4	1.0961576
36	0x3f8b7f4b	1.0898222
37	0xbe03c9d2	-0.12869957
38	0xbde5376c	-0.111922115
39	0xbe24f64a	-0.16109577
40	0x3ee7b725	0.45256916
41	0x3f1f6f63	0.6227934
42	0xbefc44b6	-0.49271172
43	0x3e51823e	0.2045984
44	0x3e6f87da	0.23391667
45	0xbf063c7e	-0.52436054
46	0xbeb3e652	-0.35136658
47	0x3f565b22	0.8373281
48	0x3f838420	1.0274696
49	0x3ddb84ec	0.10718712
50	0x3f8475d1	1.0348455
51	0x3f6f83a2	0.9356023
52	0x3f8c41f2	1.0957625
53	0x3f68d34e	0.90947425
54	0x3efd239d	0.49441233
55	0xbeab35df	-0.33439538
56	0xbe88a302	-0.26686865
57	0xbe3000ec	-0.17187852
58	0x3f274b4b	0.6534926
59	0x3f4b26fd	0.79356366
60	0x3ecf3766	0.40471953
61	0x3f21706c	0.6306217
62	0xbecec456	-0.40384167
63	0x3ed57c61	0.41696456

fc_q.weight f4 [32, 128]
0	0xbd402a24	-0.04691519
1	0x3d9ca29a	0.07648201
2	0x3d41d920	0.047326207
3	0x3d3f4d09	0.046704326
4	0xbd2eba4d	-0.04265814
5	0xbc418da6	-0.011813557
6	0xbc481b31	-0.012213514
7	0x3d1ddb98	0.0385395
8	0x39871d59	0.00025771072
9	0x3c2c68f6	0.0105230715
10	0xbd29b8b0	-0.041435897
11	0xbd8be4e7	-0.06830769
12	0xbd1500f2	-0.036377855
13	0xbd99157e	-0.074748024
14	0xbca47c81	-0.0200789
15	0xbd028075	-0.031860787
16	0x3d194d46	0.03742721
17	0xbdb8cc50	-0.090233445
18	0xbd18aac3	-0.037272226
19	0xbda84041	-0.082153805
20	0xbdc36e00	-0.09542465
21	0xbdc27238	-0.09494442
22	0xbcf781f1	-0.030213328
23	0xbab44c32	-0.0013755618
24	0xbd840c87	-0.06447702
25	0x3b898869	0.0041971696
26	0xbd1da733	-0.03848953
27	0xbdc1a722	-0.09455706
28	0x3ccefb20	0.02526623
29	0xbcfcf9ba	-0.030880798
30	0x3cd043ca	0.02542295
31	0x3c76c49c	0.015061524
32	0xbdcc8957	-0.09987133
33	0x3c75da86	0.015005713
34	0xbca0f0f2	-0.019646142
35	0xbd34aab3	-0.044108104
36	0xbd848bbf	-0.06471967
37	0xbd9314a6	-0.07181673
38	0xbd1817d2	-0.03713209
39	0xbd4371d7	-0.047715988
40	0xbd4b3447	-0.049610402
41	0xbdfc8ec4	-0.12331918
42	0xbdb17908	-0.08665663
43	0xbd9a6b85	-0.07540039
44	0x3d2028b6	0.039101325
45	0xbd0d6eb1	-0.03452939
46	0xbd619874	-0.05507703
47	0xbdb20115	-0.08691613
48	0xbccd4fa6	-0.025062393
49	0x3d3fac43	0.04679514
50	0xbcf15228	-0.02945812
51	0x3d164e56	0.0366958
52	0x3ab86a26	0.0014069721
53	0xbdad74fd	-0.08469579
54	0x3ca4b431	0.020105453
55	0x3bb1f983	0.0054313554
56	0xbd2cc438	-0.042179316
57	0xbdae84d2	-0.08521427
58	0x3cff3c61	0.03115672
59	0xbd5f1d07	-0.054471042
60	0x3d5aa6a2	0.05338157
61	0xbd80b0f9	-0.06283755
62	0xbdb90ae8	-0.09035283
63	0xbd82be42	-0.06383945
64	0x3c836951	0.01604143
65	0x3d2272be	0.039660208
66	0xbd9a4379	-0.07532401
67	0xbde9b472	-0.1141137
68	0x3d281ee8	0.0410451
69	0xbd636f28	-0.05552593
70	0xbd380cb9	-0.04493401
71	0x3b2c9ba0	0.0026337877
72	0xbdb52b5b	-0.0884616
73	0xbd8905ca	-0.06690557
74	0x3da96dcf	0.082728975
75	0xbdf6f00c	-0.12057504
76	0xbd5813f6	-0.05275341
77	0xbd288968	-0.041146666
78	0xbde6321c	-0.11240026
79	0xbc6571fa	-0.014004225
80	0x3d2defca	0.04246501
81	0xbc7cd4cc	-0.015431594
82	0xbcc31fce	-0.023818877
83	0xbd5c09f6	-0.053720437
84	0xbda2f588	-0.079569876
85	0x3d146117	0.036225405
86	0xbd58f604	-0.052968994
87	0x3cdf8dc7	0.027289284
88	0xbd43262e	-0.047643833
89	0x3bc9f789	0.0061635417
90	0xbd4caf98	-0.049972147
91	0xbd71279d	-0.05887567
92	0xbcfc390d	-0.030788923
93	0x3ca5f4dd	0.020258361
94	0x3cc15b2b	0.023603043
95	0xbdf9e14e	-0.122011766
96	0x3cd5ca1c	0.02609735
97	0x3d1aa4ba	0.03775475
98	0xbd2a4347	-0.041568067
99	0xbd50a59e	-0.050939195
100	0xbbb6f588	-0.005583469
101	0x3d183b36	0.037165843
102	0xbb7dfec0	-0.003875658
103	0xb9b053a7	-0.00033631662
104	0x39dc8f36	0.0004206837
105	0xbbb4bcc5	-0.005515667
106	0x3d384632	0.04498882
107	0xbd2a44bf	-0.041569468
108	0x3cc51473	0.024057603
109	0xbbe2baa0	-0.00691922
110	0x3d11c82e	0.035591297
111	0xbdac01cc	-0.0839878
112	0xbd4258c1	-0.047447924
113	0x3cde7427	0.027154995
114	0x3c5389fb	0.012911315
115	0xbd5ceafe	-0.053935044
116	0x3d478e3e	0.048719637
117	0xbdbf2dd3	-0.09334912
118	0x3c97bd81	0.01852298
119	0xbdaa4482	-0.08313848
120	0xbc8c6f30	-0.017142862
121	0x3d8110b3	0.06302013
122	0x3d7ad103	0.061234485
123	0x3bfd9f16	0.007739912
124	0x3cef6863	0.02922458
125	0xbd8a2a08	-0.06746298
126	0xbd0e5ad9	-0.034754608
127	0xbd2c89ca	-0.042123593
128	0xbdcf754e	-0.10129796
129	0xbdba3e0d	-0.090938665
130	0xbd5e3d99	-0.054257963
131	0x3b2967c7	0.002584921
132	0x3cba178e	0.02271631
133	0xbdab6f8a	-0.08370884
134	0x3d5b0b78	0.053477734
135	0xba93f4fc	-0.0011288221
136	0xbba319c9	-0.004977439
137	0x3d6b90aa	0.05751101
138	0x3d95cee6	0.07314853
139	0xbda59ed2	-0.08086933
140	0x3c009bff	0.007849692
141	0xbda8ced9	-0.08242578
142	0xbd03732a	-0.03209225
143	0x3d365507	0.044514682
144	0xbd139381	-0.036029343
145	0x3d54e3f4	0.051975206
146	0xbc491e8a	-0.0122753475
147	0xbd6cd0b0	-0.057816207
148	0x3d5663ad	0.052341152
149	0xbd5b7851	-0.05358154
150	0xbd7dd4e0	-0.06197059
151	0x3d7fc9e0	0.062448382
152	0x3cfee667	0.031115724
153	0xbd60bfd7	-0.054870453
154	0x3ca2260c	0.019793533
155	0x3cc86636	0.0244628
156	0x3d8d742e	0.06906925
157	0xbc3ef9eb	-0.011656265
158	0x3aabb595	0.001310038
159	0xbdc58074	-0.09643641
160	0xbc9b05ec	-0.018923722
161	0xbd02539f	-0.03181803
162	0xbd0eb507	-0.03484061
163	0xbd935373	-0.07193651
164	0xbbc33cce	-0.005958176
165	0xbc4debad	-0.0125683965
166	0xbc66ed6d	-0.014094693
167	0xbc9b5c04	-0.018964775
168	0xbbee19a6	-0.007266241
169	0xbdad2b61	-0.084555395
170	0x3c6b80b8	0.014373951
171	0xbdcaf5e4	-0.09910181
172	0xbd9fc6be	-0.07801579
173	0xbd127a0b	-0.03576092
174	0xbc9fada3	-0.019491976
175	0x3cd3c6da	0.025851656
176	0xbd9d014d	-0.07666264
177	0xbdbcf2e8	-0.09226018
178	0x3d706aea	0.05869571
179	0xbd9de6e3	-0.07710054
180	0x3cf7df92	0.030257974
181	0x3c787a58	0.015165888
182	0xbc1f1687	-0.009709961
183	0xbc690c68	-0.014224149
184	0x3d0d9d04	0.03457357
185	0xbdc57fb9	-0.09643502
186	0x3cac2085	0.0210116
187	0x3c79d8b9	0.015249425
188	0x3d3ce058	0.04611239
189	0xbd97a7c6	-0.07405047
190	0x3d754da3	0.059888493
191	0x3d7c781e	0.06163799
192	0x3c06e08d	0.008232248
193	0xbb63bf0b	-0.0034751322
194	0xbd9217f5	-0.07133476
195	0xbc546b9a	-0.012965107
196	0xbda0c01b	-0.07849141
197	0xbc31891b	-0.010835911
198	0x3c57763e	0.01315075
199	0x3c88a72c	0.016681276
200	0x3cdd6e0c	0.027030014
201	0xbcff12ec	-0.031136952
202	0x3d156971	0.03647751
203	0xbd864d76	-0.06557743
204	0xbd79cdc5	-0.060987253
205	0x3c949fdc	0.018142633
206	0x3bc488e8	0.005997766
207	0x3c9ea9df	0.01936811
208	0x3d40c232	0.0470602
209	0xbdabfb09	-0.083974905
210	0x3cf38feb	0.029731711
211	0xbbb416d3	-0.005495885
212	0x3d35c9ae	0.04438179
213	0x3cb26fbf	0.0217818
214	0xbc8d28b7	-0.017231328
215	0x3c9b239b	0.018937876
216	0xbc066143	-0.0082019
217	0xbd248512	-0.04016597
218	0x3d54fbd2	0.051997967
219	0x3d5fae02	0.054609306
220	0xbceadc16	-0.028669398
221	0xbcbfce6e	-0.023413863
222	0xbab4aa42	-0.0013783651
223	0x3d79f777	0.061027016
224	0xbdad52db	-0.08463069
225	0x3d183d86	0.03716805
226	0x3cc7bdfd	0.024382586
227	0xbd8b7b34	-0.068106085
228	0x3c94ff37	0.018188102
229	0x3d8a01bb	0.06738611
230	0x3d192dc6	0.03739717
231	0xbdb002bb	-0.08594271
232	0x3d4d31c1	0.050096277
233	0x3d23e50e	0.040013365
234	0x3d8993d5	0.0671765
235	0xbdb371c5	-0.08761934
236	0x3d1345d4	0.035955265
237	0xbd8f0c33	-0.06984749
238	0x3d25657a	0.04037998
239	0xbcad39b1	-0.021145673
240	0x3af4e60b	0.0018684281
241	0xbcb45d27	-0.022017075
242	0x3c28748b	0.010281692
243	0x3ce86ac7	0.028371228
244	0xbd83d735	-0.06437532
245	0x3d1871de	0.037217967
246	0x3d830bf2	0.06398763
247	0x3d7ff1e6	0.06248655
248	0x3a8e5f00	0.0010862052
249	0xbc91ea0c	-0.017811798
250	0x3ad9f3c0	0.0016628429
251	0x3d5a35c9	0.05327395
252	0xbd8c8702	-0.06861688
253	0xbd836727	-0.06416159
254	0xbdb44353	-0.088019036
255	0xbd50209e	-0.050812356

fc_q.bias f4 [32]
0	0xbd226ef5	-0.039656598
1	0xbc371319	-0.011173987
2	0x3f083ad9	0.53214794
3	0xbe808c5c	-0.25107086
4	0x3f1b172f	0.6058225
5	0x3cc5f9e1	0.024167003
6	0xbe25aaaa	-0.16178384
7	0x3f152102	0.5825349
8	0x3f040088	0.5156331
9	0x3ed79dde	0.4211263
10	0xbd2fd2bc	-0.04292558
11	0xbda7061f	-0.081554644
12	0x3efb4eca	0.4908355
13	0x3ef9a437	0.48758098
14	0xbe0fc066	-0.14038238
15	0x3ef2f198	0.47449946
16	0x3f0aeb6d	0.5426548
17	0xba944b07	-0.0011313864
18	0x3efe2f28	0.49645352
19	0xbd7cf38f	-0.061755713
20	0x3ed06d1d	0.40708247
21	0xbd466d0f	-0.04844385
22	0x3f0a9163	0.5412809
23	0x3eef917c	0.46790683
24	0xbdfbc03e	-0.12292527
25	0x3ed98040	0.4248066
26	0x3d0ff123	0.035142075
27	0x3d936749	0.071974345
28	0x3eeb58e2	0.4596625
29	0x3f05f245	0.523228
30	0xbd9e7884	-0.0773783
31	0x3f0a672b	0.5406367

fc_out.weight f4 [1, 32]
0	0xbe0a87cb	-0.13528363
1	0xbd851d32	-0.06499709
2	0x3eef51c5	0.46742073
3	0xbf1a08d7	-0.6016974
4	0x3f1a5b52	0.60295594
5	0xbd58f38b	-0.052966636
6	0xbf152c72	-0.58270943
7	0x3edcec4d	0.43149033
8	0x3f022def	0.5085134
9	0x3f873d01	1.0565492
10	0xbd254a3b	-0.040353995
11	0xbf13b258	-0.57694006
12	0x3f018355	0.5059102
13	0x3f0d4e9c	0.55198073
14	0xbf1856b4	-0.595073
15	0x3f0c0fe9	0.54711777
16	0x3edc2232	0.4299484
17	0xbdfb3e9c	-0.12267801
18	0x3f1ce075	0.61279994
19	0xbe1a094d	-0.1504261
20	0x3ef086d6	0.46977872
21	0xbf0e21ba	-0.5552021
22	0x3f1e2913	0.61781424
23	0x3f14514d	0.57936555
24	0xbe206c08	-0.1566621
25	0x3ee5a647	0.44853422
26	0xbe221f40	-0.15832233
27	0xbd8a765e	-0.06760858
28	0x3ed469d7	0.41487
29	0x3f10a50b	0.56501836
30	0xbe038ee3	-0.12847476
31	0x3f092247	0.5356793
