LIRL results/baseline/ddpg_lirl_pi_multi_run_20250827_200238/run_3_seed_714/ddpg_lirl_pi_mu_20250827_200238.pth (torch, 553269 bytes, 6 tensors)

fc1.weight f4 [128, 1007]
0.09709682 0.05268577 0.051694456 0.08959849 0.023479104 0.06320821 0.024166366 0.033164088
0.030746805 -0.00075942784 0.0485541 0.04550765 0.044620436 0.0007843489 0.026227077 0.016071675
0.051229477 0.00689763 0.030092956 0.0041631646 0.058132596 0.028515063 0.03218844 0.0056408364
0.017027367 0.008674849 -0.02325253 -0.022882916 0.038600042 0.032243546 0.027224362 0.0056626536
0.007812897 -0.011532575 -0.008171483 0.012866349 -0.02708733 -0.03653759 -0.03289555 -0.02597533
-0.08068958 -0.04392404 -0.06030748 -0.053505067 -0.06939054 -0.10012492 -0.07082444 -0.026421145
-0.08026409 -0.044581626 -0.120607294 -0.061802916 -0.093610674 -0.056011084 -0.06489219 -0.06718678
-0.08674295 -0.08473431 -0.06345323 -0.07094914 -0.02060911 -0.06670246 -0.02832426 -0.047940854
-0.055712815 -0.070398495 -0.029571615 0.027896272 -0.05733714 -0.030975286 -0.03867071 -0.016133133
-0.04425764 -0.0375927 -0.037424292 -0.08653668 -0.08062413 -0.086256094 -0.06738863 -0.019778112
-0.009401026 -0.040883463 -0.070558935 -0.027146798 -0.02119705 -0.054963768 -0.03617298 0.001347646
-0.032182664 -0.0351422 -0.031312555 -0.0050268252 -0.061644252 -0.031891823 -0.062079657 -0.06342557
-0.051293537 -0.043172523 -0.055192776 -0.031002007 -0.08811541 -0.025099682 -0.03525056 -0.04622618
-0.063636445 -0.01975806 -0.07718984 -0.04850183 -0.040196974 -0.06641175 -0.048735354 -0.07443567
-0.08977297 -0.039420154 -0.039829534 0.07512182 -0.09124449 -0.065203786 -0.06153308 -0.087713495
-0.01509862 -0.029131616 -0.024743248 -0.07299206 -0.035885293 0.026131254 -0.02699382 0.014554969
-0.0152054615 -0.043120112 -0.044902038 0.02695221 0.00073889183 -0.023796516 -0.026658012 -0.02058528
-0.028733194 -0.02214137 0.011692394 -0.004277489 -0.029647605 0.027626572 -0.011019761 -0.027435565
0.012661069 0.008722571 0.005191763 -0.017234568 -0.026192248 0.014988109 -0.019876678 -0.0669186
-0.051035598 -0.045913007 0.0010375503 -0.027390482 -0.04744106 -0.026520528 -0.057265677 -0.040101092
0.061985314 -0.02396177 0.006519558 0.02033393 0.016440693 0.024714248 0.0050047855 0.0023578212
0.0024278315 0.020968249 0.0018245355 0.020145278 -0.014436387 0.03006102 0.022466673 0.06674025
-0.009019966 -0.005659835 0.013850031 0.029621003 0.029042544 -0.0059389053 0.0075132144 0.058072507
0.009057174 0.013516767 -0.010841957 0.013118805 0.013656906 0.05621282 0.08557496 0.019920181
0.028018417 0.058469184 0.018968474 0.078680515 0.07024035 0.016446728 0.043279354 0.035252247
0.08794855 0.07964377 0.027965533 0.04754924 0.0448756 0.046452064 0.046340887 0.053179443
0.034021705 0.07883521 0.07895324 0.07340641 0.063315175 0.07459682 0.084913 0.15406124
0.06588217 0.07523831 0.05312994 0.07579688 0.12227535 0.13972561 0.058827892 0.023630846
0.0493899 0.09882667 0.054967552 0.0954979 0.07658527 0.090664506 0.10860969 0.068942934
0.104828574 0.10515221 0.06504791 0.1079453 0.06349994 0.091082156 0.023242697 0.043292463
0.009408805 -0.005201049 -0.009046813 0.015021698 -0.0017770777 0.012916541 -0.028394222 0.019888988
-0.03125504 0.0030940152 -0.0013393533 0.023153577 -0.038369674 -0.017740093 0.009063747 -0.031395983
00000000: b3da c63d 09cd 573d 91bd 533d 6a7f b73d
00000010: 4057 c03c 4e73 813d 8bf8 c53c 11d7 073d
00000020: b9e0 fb3c 5714 47ba aae0 463d 3b66 3a3d
00000030: ebc3 363d c39c 4d3a 2bda d63c bfa8 833c
00000040: 00d6 513d 8405 e23b 8185 f63c 286b 883b
00000050: 721c 6e3d 6c98 e93c 07d8 033d c4d6 b83b
00000060: fa7c 8b3c f420 0e3c 177c bebc f474 bbbc
00000070: 141b 1e3d cf11 043d a005 df3c c88d b93b
00000080: aa01 003c 20f3 3cbc afe1 05bc 61cd 523c
00000090: 40e6 ddbc 71a8 15bd 7cbd 06bd 37ca d4bc
000000a0: 9440 a5bd b2e9 33bd fa04 77bd 2128 5bbd
000000b0: a11c 8ebd 4b0e cdbd 670c 91bd 2871 d8bc
000000c0: 8061 a4bd 399b 36bd f500 f7bd 0e25 7dbd
000000d0: f4b6 bfbd e16b 65bd 32e6 84bd 3999 89bd
000000e0: 4aa6 b1bd 2f89 adbd c4f3 81bd c84d 91bd
000000f0: 70d4 a8bc 4d9b 88bd 4708 e8bc a15d 44bd
00000100: 1f33 64bd 162d 90bd 2c40 f2bc b986 e43c
00000110: 59da 6abd e2bf fdbc 2e65 1ebd a229 84bc
00000120: 8047 35bd cefa 19bd 374a 19bd 253a b1bd
00000130: 441e a5bd 09a7 b0bd 0d03 8abd b505 a2bc
00000140: c306 1abc 6b75 27bd 3481 90bd f662 debc
00000150: 70a5 adbc b021 61bd 1e2a 14bd 7fa3 b03a
00000160: f8d1 03bd 44f1 0fbd 9841 00bd 11b8 a4bb
00000170: af7e 7cbd 00a1 02bd 3d47 7ebd 44e5 81bd
00000180: 2c19 52bd acd5 30bd d211 62bd ecf7 fdbc
00000190: da75 b4bd d99d cdbc e462 10bd aa57 3dbd
000001a0: d353 82bd a8db a1bc b515 9ebd dba9 46bd
000001b0: 95a5 24bd e202 88bd b99e 47bd bb71 98bd
000001c0: e4da b7bd 0777 21bd 4b24 23bd 78d9 993d
000001d0: 64de babd 9089 85bd 1c0a 7cbd 22a3 b3bd
000001e0: 3460 77bc 6da5 eebc 5ab2 cabc dc7c 95bd
000001f0: 75fc 12bd 3611 d63c 2522 ddbc f777 6e3c
00000200: 5420 79bc b79e 30bd 33eb 37bd e2ca dc3c
00000210: 31b2 413a e9f0 c2bc e761 dabc 76a2 a8bc
00000220: e061 ebbc d261 b5bc 7491 3f3c 2e2a 8cbb
00000230: 89df f2bc 1f51 e23c 3a8c 34bc 8dc0 e0bc
00000240: 5f70 4f3c 1de9 0e3c aa1f aa3b 822f 8dbc
00000250: 2091 d6bc af90 753c 6ad4 a2bc 9e0c 89bd
00000260: b40a 51bd 470f 3cbd 69fe 873a 0162 e0bc
00000270: 8f51 42bd 9441 d9bc 6a8f 6abd 0b41 24bd
00000280: 50e4 7d3d 794b c4bc 04a2 d53b 5893 a63c
00000290: a2ae 863c 8975 ca3c 2fff a33b ad85 1a3b
000002a0: 411c 1f3b 9bc5 ab3c 4125 ef3a b607 a53c
000002b0: 9986 6cbc 8742 f63c 070c b83c 1daf 883d
000002c0: 7bc8 13bc 2376 b9bb 3eeb 623c bfa7 f23c
000002d0: a1ea ed3c 269b c2bb 6931 f63b 70dd 6d3d
000002e0: 8b64 143c 6e75 5d3c 77a2 31bc 42f0 563c
000002f0: 37c1 5f3c 6a3f 663d ed41 af3d a62f a33c
00000300: e186 e53c 627d 6f3d c663 9b3c 4023 a13d
00000310: 2cda 8f3d 4abb 863c b145 313d a964 103d
00000320: 5f1e b43d 461c a33d f917 e53c fec2 423d
00000330: 7acf 373d 8544 3e3d f1cf 3d3d b0d2 593d
00000340: 585a 0b3d 5b74 a13d 3cb2 a13d 1a56 963d
00000350: 63ab 813d 38c6 983d dee6 ad3d 3bc2 1d3e
00000360: 3bed 863d 8b16 9a3d c89e 593d 653b 9b3d
00000370: 806b fa3d 3b14 0f3e 84f5 703d 7a95 c13c
00000380: 104d 4a3d a365 ca3d a825 613d 6794 c33d
00000390: bdd8 9c3d 50ae b93d c26e de3d f431 8d3d
000003a0: 5db0 d63d 0b5a d73d d737 853d 6d12 dd3d
000003b0: 420c 823d 4889 ba3d 7867 be3c 7053 313d
000003c0: 6327 1a3c 906d aabb 1539 14bc 911d 763c
000003d0: d5ec e8ba e69f 533c 009b e8bc 3bee a23c
000003e0: 4905 00bd f6c4 4a3b 3d8d afba 92ac bd3c
000003f0: 8529 1dbd ac53 91bc 1c80 143c 1399 00bd

fc1.bias f4 [128]
0.066707335 0.13567583 0.04227301 -0.052023634 0.2514951 0.058631606 -0.059911355 -0.018204238
0.08474761 0.080876775 0.034716904 -0.027868124 0.09185811 0.07981288 0.07515849 -0.07478462
-0.0010462923 0.12877117 -0.0022287918 0.0941335 -0.01450433 0.09950677 0.10517587 0.03386031
0.024655292 0.13346617 0.06909004 0.09815193 0.04645516 0.24174921 0.11713623 0.06648352
-0.010336756 -0.046578806 0.084233694 -0.002178984 0.1013912 -0.061999515 0.092117116 0.05343961
0.019055793 0.059927873 0.08657973 -0.009025357 0.00741109 0.041812927 0.084915765 0.01788224
0.2695383 0.08356788 0.008933308 0.054389395 0.11048407 -0.040768478 0.06021892 0.017830307
0.11364376 -0.10365264 -0.048713285 -0.09338618 0.45094797 0.06569744 0.016079161 0.19868861
0.0012320491 0.0108955605 0.06368778 0.062756985 0.0675293 0.062277365 -0.021712843 -0.019300193
-0.009773896 0.016725397 -0.004511833 -0.006970067 0.008116619 0.005363485 0.045679715 0.067684405
0.035441887 0.05576482 0.09742113 -0.039706074 0.050453614 0.07374941 0.06627657 0.020408299
0.12782757 0.07810183 0.16047874 -0.0106726345 0.13200356 0.07947755 -0.029139552 -0.023766814
0.013688826 0.106922105 0.00024513341 0.12855195 0.17006539 0.026396552 -0.024892857 -0.0139788715
-0.029388756 -0.050548032 0.3456471 0.095459394 0.02019623 0.22348401 -0.1198149 -0.038462453
0.02285162 0.09331816 -0.090020254 0.06494136 -0.031021515 -0.05078843 -0.0015966094 0.071707524
0.004205246 0.15917243 -0.030608527 0.3101205 0.0237402 -0.032673936 0.15334113 0.014366201
00000000: db9d 883d 9bee 0a3e 7726 2d3d bc16 55bd
00000010: f7c3 803e b227 703d 9c65 75bd 0e21 95bc
00000020: 2890 ad3d b9a2 a53d 5033 0e3d b14b e4bc
00000030: 1b20 bc3d ef74 a33d b2ec 993d ae28 99bd
00000040: be23 89ba 97dc 033e ec10 12bb 10c9 c03d
00000050: 92a3 6dbc 35ca cb3d 7266 d73d 1cb1 0a3d
00000060: e5f9 c93c 5bab 083e 147f 8d3d e103 c93d
00000070: c447 3e3d 1b8d 773e 1fe5 ef3d 8328 883d
00000080: 7f5b 29bc 6bc9 3ebd b782 ac3d 49cd 0ebb
00000090: 31a6 cf3d 34f3 7dbd e6a7 bc3d 7ee3 5a3d
000000a0: e51a 9c3c ee76 753d b750 b13d 17df 13bc
000000b0: bbd8 f23b 0844 2b3d 51e8 ad3d c67d 923c
000000c0: ed00 8a3e a325 ab3d 025d 123c 6ac7 5e3d
000000d0: 7945 e23d d9fc 26bd 1da8 763d dd10 923c
000000e0: 0fbe e83d d647 d4bd 9587 47bd 4141 bfbd
000000f0: a7e2 e63e 618c 863d 72b8 833c 0775 4b3e
00000100: b57c a13a 4b83 323c bd6e 823d bc86 803d
00000110: cd4c 8a3d 8d16 7f3d 22df b1bc 701b 9ebc
00000120: b122 20bc b303 893c 00d8 93bb 2965 e4bb
00000130: 91fb 043c 2cc0 af3b a71a 3b3d 1f9e 8a3d
00000140: 832b 113d a769 643d bb84 c73d d6a2 22bd
00000150: 73a8 4e3d ee09 973d 03bc 873d 4e2f a73c
00000160: 3be5 023e daf3 9f3d 8a54 243e 46dc 2ebc
00000170: f12b 073e 20c5 a23d 12b6 eebc 9fb2 c2bc
00000180: 1947 603c faf9 da3d 4085 8039 1fa3 033e
00000190: 9f25 2e3e 953d d83c 1bec cbbc a307 65bc
000001a0: b0c0 f0bc 740b 4fbd a8f8 b03e 3780 c33d
000001b0: 9072 a53c fed8 643e 8461 f5bd ce8a 1dbd
000001c0: 5233 bb3c 971d bf3d 8a5c b8bd faff 843d
000001d0: d520 febc 8707 50bd 5245 d1ba 65db 923d
000001e0: 29cc 893b 19fe 223e bcbe fabc 1dc8 9e3e
000001f0: cf7a c23c 1bd5 05bd 7505 1d3e 3760 6b3c

fc2.weight f4 [64, 128]
-0.032428157 0.01101502 0.078845665 -0.074716784 -0.0072949585 -6.0604736e-05 0.12364364 0.05592796
-0.07429524 -0.05504346 -0.029159509 -0.0800346 -0.07939155 0.01640878 0.10201051 -0.044144846
-0.0340552 -0.0949258 0.012905592 -0.2081941 0.010210393 -0.01626396 0.09233302 -0.06285266
0.10100075 -0.16522326 0.02878059 -0.08752373 0.03693119 -0.053174123 0.06522681 0.1417657
-0.0006974197 0.085551284 -0.046953574 0.022630788 0.038024776 -0.062508486 -0.13252248 0.028246371
0.018465333 -0.056408342 -0.08297819 -0.04472821 0.057671893 -0.12877521 -0.14391613 0.040017117
-0.14662881 0.08383677 -0.11349737 0.036221106 0.09830005 -0.075852856 -0.19712256 0.050986953
-0.016914636 -0.051416904 0.05817008 0.040286116 -0.12421148 0.515957 0.069997646 -0.097455606
0.065773904 0.05810601 -0.2634618 0.06372445 -0.0406906 0.12409599 0.035201818 -0.06037717
-0.011049612 -0.1506266 -0.02130949 0.001474844 -0.09131942 0.17235726 0.24551596 0.046527192
-0.103557624 -0.09700575 0.08348735 -0.074699625 -0.059842378 0.017420903 -0.03287469 0.06095686
-0.12621874 0.04167114 0.033025857 0.07678018 0.098548576 0.049400352 0.051770996 -0.026710797
-0.3195241 0.21456923 -0.026061956 0.043578975 0.027533924 0.03282394 -0.10531032 0.0374481
0.033813607 0.024333077 0.009774989 -0.020614432 0.020833367 0.0047443155 -0.046587866 0.066450216
-0.011263137 0.035599064 0.010768225 -0.067609936 -0.11451675 0.053584192 0.027625473 0.056301765
-0.025578957 0.51722765 -0.007006839 0.008292106 -0.06600486 -0.07813611 0.011978889 -0.12040662
-0.0059925257 0.14339566 0.011140034 0.014322986 -0.015872404 -0.046203744 0.033102892 0.0108403275
-0.025581835 -0.053595822 0.009181367 0.1363373 -0.059844676 -0.053366445 0.11164064 0.113593936
0.047330186 -0.026874408 0.14935708 -0.008958581 0.09914499 -0.032568824 0.04919487 -0.117157154
-0.14343624 -0.13619967 -0.02151736 0.09207861 -0.01650864 -0.07497969 -0.07369979 -0.028937995
-0.043522373 -0.04233171 -0.14959508 -0.0124746235 -0.028325176 0.013332664 0.037334874 0.1378773
-0.11837347 -0.033956412 0.045662865 0.081392534 0.09599455 -0.10225277 0.0065796915 0.01941734
-0.086694464 -0.026746212 0.05276865 -0.0124233095 0.17373583 0.044866245 0.06753785 0.0865387
0.032456424 0.1317732 -0.034678172 0.05835924 0.049082857 0.07011071 -0.079234354 -0.090809815
-0.039499488 0.16549532 0.10343436 -0.07122594 0.09707234 -0.034631103 0.010604608 0.033165816
-0.011431599 -0.05723966 0.010191108 0.08295047 -0.026722254 0.06991522 -0.0026776132 0.0459182
0.031518582 0.08328579 -0.06247032 0.009533904 0.0355677 -0.16447638 0.022547934 0.060673613
0.038130384 0.019398801 0.0941156 -0.0773242 0.048035856 -0.030589396 0.06820567 -0.045617245
-0.1469711 0.23283833 0.03310305 0.07157969 -0.040977463 -0.010692041 -0.06792708 -0.05315825
-0.052718963 0.0308198 0.121304385 -0.16197462 0.07507756 -0.071694754 0.017127024 -0.08132266
-0.034930814 0.088772774 -0.02575102 0.03202948 0.054508448 -0.057497844 0.09601707 0.014103267
0.1327909 0.032779735 -0.027238924 -0.031134395 -0.09464399 0.025692724 0.058917616 -0.0008555026
00000000: 63d3 04bd 5878 343c d679 a13d 1d05 99bd
00000010: 8c0a efbb d731 7eb8 e038 fd3d b714 653d
00000020: 1a28 98bd 4075 61bd ecdf eebc 2ee9 a3bd
00000030: 0998 a2bd b56b 863c e3ea d03d 3ad1 34bd
00000040: 777d 0bbd 7568 c2bd fa71 533c d630 55be
00000050: 7e49 273c ff3b 85bc 1819 bd3d e5b8 80bd
00000060: 7bd9 ce3d 4930 29be 46c5 eb3c a43f b3bd
00000070: 2945 173d 1ccd 59bd a295 853d 072b 113e
00000080: 0bd3 36ba 8335 af3d 6452 40bd 3464 b93c
00000090: debf 1b3d 7304 80bd f9b3 07be ef64 e73c
000000a0: 9c44 973c 6f0c 67bd 78f0 a9bd ed34 37bd
000000b0: 5d39 6c3d a6dd 03be c05e 13be fde8 233d
000000c0: dd25 16be 9db2 ab3d 4f71 e8bd 955c 143d
000000d0: 8951 c93d be58 9bbd 7fda 49be b2d7 503d
000000e0: 9090 8abc 889a 52bd c043 6e3d 0e03 253d
000000f0: 9762 febd c215 043f ed5a 8f3d ce96 c7bd
00000100: 78b4 863d 9100 6e3d 77e4 86be f781 823d
00000110: 30ab 26bd 0a26 fe3d c82f 103d 0d4e 77bd
00000120: 6f09 35bc dc3d 1abe 3d91 aebc 8d4f c13a
00000130: ad05 bbbd 6c7e 303e 8968 7b3e 4c93 3e3d
00000140: 0516 d4bd f3aa c6bd 6afb aa3d 1efc 98bd
00000150: 481d 75bd 48b6 8e3c 9ca7 06bd e7ad 793d
00000160: 7c3f 01be 5baf 2a3d 1f46 073d ed3e 9d3d
00000170: d6d3 c93d 0658 4a3d d30d 543d 9ad0 dabc
00000180: aa98 a3be 09b8 5b3e e27f d5bc de7f 323d
00000190: d38e e13c 6572 063d f0ac d7bd 2e63 193d
000001a0: 2380 0a3d 2956 c73c 4727 203c 99df a8bc
000001b0: bdaa aa3c 3476 9b3b ebd2 3ebd 0d17 883d
000001c0: 0589 38bc 53d0 113d 366d 303c 1477 8abd
000001d0: c287 eabd 197b 5b3d d14e e23c ae9c 663d
000001e0: f68a d1bc 0869 043f a099 e5bb 9ddb 073c
000001f0: 8e2d 87bd d305 a0bd 1a43 443c bf97 f6bd
00000200: f35c c4bb 50d6 123e b084 363c f5aa 6a3c
00000210: d806 82bc 2340 3dbd e696 073d a19b 313c
00000220: ff90 d1bc 4b87 5bbd 726d 163c 019c 0b3e
00000230: b11f 75bd c696 5abd d9a3 e43d f0a3 e83d
00000240: 4cdd 413d b827 dcbc 10f1 183e 03c7 12bc
00000250: 870c cb3d e366 05bd 8f80 493d 17f0 efbd
00000260: f3e0 12be ed77 0bbe 2d45 b0bc b693 bc3d
00000270: 213d 87bc f48e 99bd eaef 96bd 600f edbc
00000280: 8444 32bd 0464 2dbd 742f 19be 5d62 4cbc
00000290: 330a e8bc 3f71 5a3c 74ec 183d b52f 0d3e
000002a0: ca6d f2bd e115 0bbd fc08 3b3d 21b1 a63d
000002b0: ca98 c43d e669 d1bd 749a d73b 1d11 9f3c
000002c0: de8c b1bd df1a dbbc f123 583d 238b 4bbc
000002d0: cee7 313e abc5 373d 4951 8a3d 343b b13d
000002e0: 07f1 043d 8eef 063e b30a 0ebd 190a 6f3d
000002f0: 1b0b 493d 3496 8f3d 9f45 a2bd 7ffa b9bd
00000300: 37ca 21bd 9b77 293e 65d5 d33d e8de 91bd
00000310: ddcd c63d 58d9 0dbd f3be 2d3c e1d8 073d
00000320: 9a4b 3bbc 2274 6abd 9bf8 263c f0e1 a93d
00000330: a1e8 dabc b62f 8f3d e57a 2fbb b914 3c3d
00000340: a119 013d be91 aa3d e1e0 7fbd 1734 1c3c
00000350: 70af 113d 7f6c 28be 72b6 b83c e584 783d
00000360: 9b2e 1c3d 3cea 9e3c aebf c03d 265c 9ebd
00000370: 3fc1 443d 9d96 fabc 6aaf 8b3d 26d9 3abd
00000380: 987f 16be 2c6d 6e3e 1097 073d 5f98 923d
00000390: fcd7 27bd ac2d 2fbc 5a1d 8bbd 77bc 59bd
000003a0: d7ef 57bd ce79 fc3c 6f6e f83d addc 25be
000003b0: 44c2 993d b3d4 92bd f94d 8c3c 7f8c a6bd
000003c0: 9d13 0fbd 80ce b53d cef3 d2bc 5831 033d
000003d0: 4044 5f3d dc82 6bbd 99a4 c43d 6411 673c
000003e0: 56fa 073e 0b44 063d 2a24 dfbc 8f0d ffbc
000003f0: b5d4 c1bd 8c79 d23c 9953 713d cf43 60ba

fc2.bias f4 [64]
-0.069422826 0.20100978 -0.042114064 0.06227334 -0.07300447 -0.019131659 -0.09585479 -0.073599175
-0.100755736 -0.17144223 -0.0005686327 -0.056582328 0.048984904 0.119269565 0.0018426047 0.07456184
0.18896142 0.037745025 -0.0021138426 0.060480915 0.07510924 -0.101032 0.10852608 0.15633121
-0.034506604 -0.059766106 -0.004090161 -0.10892804 -0.07716329 -0.08080684 -0.054139175 0.009431336
-0.0480996 0.004970862 0.13236202 0.015479303 -0.046610475 0.054208573 -0.11103089 -0.047530133
0.07747504 0.054093886 -0.06492902 -0.030326769 0.0017064795 0.10711481 -0.1544866 0.20298965
0.034330785 -0.085071474 -0.04519877 -0.032987963 0.034507107 0.078320086 0.16052915 -0.14012119
-0.06101718 -0.14309226 -0.039876793 0.06659052 -0.008330702 0.07336084 0.20304424 0.011731786
00000000: 8e2d 8ebd 82d5 4d3e cc7f 2cbd 5412 7f3d
00000010: 5e83 95bd ffb9 9cbc 844f c4bd 2abb 96bd
00000020: 0659 cebd 8d8e 2fbe 4b10 15ba dfc2 67bd
00000030: 65a4 483d 9a43 f43d 8e83 f13a e1b3 983d
00000040: 1a7f 413e 879a 1a3d 6588 0abb d6ba 773d
00000050: e0d2 993d dde9 cebd ec42 de3d 4a15 203e
00000060: cc56 0dbd 4ecd 74bd c206 86bb aa15 dfbd
00000070: c907 9ebd 0e7e a5bd 0ac1 5dbd e485 1a3c
00000080: 1604 45bd 9de2 a23b e989 073e e79c 7d3c
00000090: a0ea 3ebd cf09 5e3d 2a64 e3bd f5ae 42bd
000000a0: 3cab 9e3d 8d91 5d3d 82f9 84bd d86f f8bc
000000b0: f3ab df3a 025f db3d bc31 1ebe 85dc 4f3e
000000c0: 709e 0c3d f439 aebd 5822 39bd 631e 07bd
000000d0: 5357 0d3d 4866 a03d c161 243e ee7b 0fbe
000000e0: 27ed 79bd c786 12be d955 23bd 9c60 883d
000000f0: 7f7d 08bc 353e 963d d4ea 4f3e ad36 403c

fc_mu.weight f4 [3, 64]
0.019554233 0.07557572 -0.063248895 0.004570665 -0.8908987 0.01480098 -1.0489119 -0.4112855
-0.6376504 -0.54105985 -0.078840666 -0.34726173 0.16547859 0.024045797 -0.007940554 0.13280919
0.38354594 -0.001881934 -0.088651605 0.007952955 0.0755503 -0.7618951 -0.034122825 0.05419761
0.046212588 0.008262361 -0.08155784 -0.63256985 0.003131815 0.06601863 0.027489705 0.038647328
-0.00505254 0.0106335785 0.08815054 0.045731794 -0.0047353115 -0.12628013 -0.5712515 -0.97113734
-0.08303487 -0.0280885 0.05415869 -0.9373568 -0.19146758 -0.023424555 -0.58815914 0.02806713
-0.14539519 -1.1050003 -0.91141284 -0.7636528 -0.035751086 0.02336119 -0.035061024 -0.56992555
-0.32635677 -0.69389546 0.1794883 0.041779984 -0.08611983 0.07739791 0.31178343 0.022734413
-0.4902851 -0.11225298 0.09813216 -0.013564647 -0.5846671 -0.0152619295 -0.92301977 -0.42602962
-0.48065484 -0.5777279 0.10893677 -0.17144692 -0.041171517 -0.10589987 0.029141307 0.17815506
0.10755692 0.0141256675 0.07794379 0.00090557325 0.01869338 -0.89316833 0.16008829 -0.07666497
0.032153636 -0.009946889 0.08082014 -0.410563 -0.4312076 -0.11334108 -0.038756713 0.035780147
0.013097809 -0.00019911621 0.0374026 0.05384788 0.015081313 0.044696696 -0.25647688 -0.6117541
-0.0658775 0.055372134 0.0126461 -0.6048207 -0.4518827 0.0605515 -0.53076607 -0.042915005
0.06665362 -0.40650463 -0.2447255 -0.28862384 0.037038557 -0.016592953 0.12594852 -0.5693465
0.10752914 -0.6128619 0.09295593 -0.04472897 0.11307309 -0.12150053 0.13401909 -0.14301707
-0.031936683 -0.84812903 -0.1341425 -1.2326525 -0.10513417 -1.0538034 -0.04454947 -0.07829474
-0.10780888 -0.005173752 -0.41633642 -0.101653405 -1.3352783 -0.28035733 -0.35169435 -0.008613875
0.011559909 0.045163672 -0.0008672016 -0.7019238 -0.6461759 -0.049689967 -0.0205607 -0.48212582
-0.05816412 -0.18899657 -0.7815508 -0.06367787 -0.077501014 -0.00756009 -0.2726878 0.08064907
-0.9883289 -0.3656657 -0.5730531 -0.76343626 -0.23226345 -0.6197284 -0.08762446 -0.25732753
-0.95511645 -0.25341856 0.007310468 -0.002181656 -0.23268157 -0.45018235 -0.25440803 -0.43748364
-0.115456976 -0.113334015 -0.058285143 0.03182679 -0.12537596 -1.0472125 -0.14042273 -0.026309185
-0.087102324 -0.05342097 0.0084793195 -0.4857794 -0.10520224 -0.21638292 -0.060988106 -0.21491599
00000000: 3330 a03c 71c7 9a3d a388 81bd 84c5 953b
00000010: f011 64bf cf7f 723c bf42 86bf 0394 d2be
00000020: 0e3d 23bf e682 0abf 3777 a1bd 4acc b1be
00000030: 3873 293e b1fb c43c 1919 02bc 22ff 073e
00000040: 2260 c43e 3aab f6ba f98e b5bd 1c4d 023c
00000050: 1eba 9a3d 8f0b 43bf 60c4 0bbd 50fe 5d3d
00000060: 6949 3d3d db5e 073c cc07 a7bd 19f0 21bf
00000070: 233f 4d3b c734 873d 1732 e13c a94c 1e3d
00000080: c78f a5bb 7638 2e3c 4588 b43d 4351 3b3d
00000090: ac2a 9bbb 944f 01be 8a3d 12bf 759c 78bf
000000a0: 300e aabd db19 e6bc 81d5 5d3d 9ef6 6fbf
000000b0: 1410 44be dae4 bfbc 9991 16bf 0aed e53c
000000c0: 7ae2 14be a670 8dbf 5a52 69bf c07e 43bf
000000d0: bb6f 12bd f75f bf3c 269c 0fbd a4e6 11bf
000000e0: 3c18 a7be 22a3 31bf c8cb 373e 7d21 2b3d
000000f0: 985f b0bd cc82 9e3d 14a2 9f3e 853d ba3c
00000100: a606 fbbe e4e4 e5bd 84f9 c83d 413e 5ebc
00000110: beac 15bf 2c0d 7abc 064b 6cbf 8e20 dabe
00000120: 6418 f6be fae5 13bf 3e1a df3d c88f 2fbe
00000130: 77a3 28bd 08e2 d8bd c0b9 ee3c 486e 363e
00000140: cd46 dc3d 586f 673c fea0 9f3d fe63 6d3a
00000150: dc22 993c aea6 64bf 2fee 233e 8602 9dbd
00000160: 88b3 033d 47f8 22bc 0885 a53d 5035 d2be
00000170: 3ec7 dcbe 5e1f e8bd 5cbf 1ebd 348e 123d
00000180: 3198 563c dac9 50b9 7833 193d 988f 5c3d
00000190: 9d17 773c e213 373d f050 83be eb9b 1cbf
000001a0: c8ea 86bd e4cd 623d 9631 4f3c 88d5 1abf
000001b0: 2b5d e7be da04 783d 49e0 07bf a5c7 2fbd
000001c0: b181 883d 6021 d0be 5299 7abe 81c6 93be
000001d0: beb5 173d f2ed 87bc a6f8 003e b1c0 11bf
000001e0: 3d38 dc3d 84e4 1cbf ae5f be3d b935 37bd
000001f0: dd92 e73d 45d5 f8bd 4d3c 093e 1173 12be
00000200: 0ad0 02bd fc1e 59bf a75c 09be 8fc7 9dbf
00000210: 9550 d7bd 08e3 86bf 8179 36bd fe58 a0bd
00000220: e7ca dcbd 9488 a9bb 0c2a d5be a92f d0bd
00000230: 66ea aabf ff8a 8fbe 4811 b4be 3621 0dbc
00000240: c665 3d3c 8bfd 383d ea54 63ba 47b1 33bf
00000250: c96b 25bf b587 4bbd ea6e a8bc 32d9 f6be
00000260: 803d 6ebd 5188 41be b713 48bf 8b69 82bd
00000270: dab8 9ebd a2ba f7bb bc9d 8bbe 572b a53d
00000280: 1f03 7dbf 8938 bbbe 9cb3 12bf 8f70 43bf
00000290: 78d6 6dbe 85a6 1ebf 7474 b3bd 6fc0 83be
000002a0: 8382 74bf 14c0 81be a68c ef3b 1dfa 0ebb
000002b0: 1444 6ebe 4d7e e6be c541 82be dbfd dfbe
000002c0: b574 ecbd aa1b e8bd 67bc 6ebd cf5c 023d
000002d0: 8e62 00be 0f0b 86bf faca 0fbe 5c86 d7bc
000002e0: b462 b2bd f2cf 5abd d8ec 0a3c 14b8 f8be
000002f0: 4674 d7bd 7c93 5dbe aace 79bd f012 5cbe

fc_mu.bias f4 [3]
-0.024959076 -0.10838312 -0.2827611
00000000: fa76 ccbc f8f7 ddbd 10c6 90be
