LIRL results/CityFlow/Algs_compare/hppo_multi_run_20250914_193429/seed_294/low_policy.pth (torch, 167736 bytes, 7 tensors)

log_std f4 [2]
-0.40760687 -0.403738
00000000: d9b1 d0be bfb6 cebe

mean_network.0.weight f4 [64, 607]
0.015265932 -0.010324855 -0.008266314 -0.023156853 0.041427 0.014807084 -0.018930824 0.009223505
-0.00034024706 -0.0073255654 -0.022913825 0.02635706 0.042149078 0.0051126 -0.017399598 0.033543855
-0.013079305 -0.006895091 0.046538748 -0.021527816 0.027736869 0.023210814 -0.012026225 -0.01707307
0.046659764 0.038508367 0.021550527 -0.023569643 0.00557347 -0.0033358885 0.029058944 0.006857617
-0.026601845 0.009052749 -0.030252859 -0.017269544 0.026155755 0.029598946 -0.019066326 0.0070887255
0.0022008182 -0.02042859 0.019790897 0.008224706 -0.026956053 0.007247374 -0.019029776 -0.010835929
-0.00026255567 -0.037368674 0.022901796 -0.0155834425 0.022013584 -0.020138588 0.04125417 0.015368375
0.0014781643 0.010890321 0.032959465 0.037909035 0.037473466 0.01521094 0.02546729 -0.015565282
-0.024882771 -0.01944056 -0.0050470685 -0.03202064 0.074983336 0.026670342 -0.01089914 0.04847512
0.012897613 -0.030313091 -0.029290318 0.02942817 0.038149584 0.017174078 0.043502323 0.013254099
-0.01678434 -0.0152245145 -0.013686058 0.0057577486 -0.005804768 -0.0013037585 0.013689693 -0.024789376
0.009527444 -0.00201216 0.026061168 0.024430398 0.067390345 0.004582022 0.035355162 0.022297755
-0.0025840353 -0.016481962 -0.01597199 -0.0180676 0.02292448 -0.023276825 0.030164028 0.046915926
-0.014879376 0.020215213 0.02179977 -0.014186798 -0.011161053 0.031653963 -0.032217883 -0.02556511
0.021567421 0.03554802 0.029962167 0.03884751 -0.0074952 0.03438015 0.030742371 -0.0069772815
0.0022473633 -0.02357312 -0.0069795125 -0.02129929 0.05807707 -0.013253343 0.016854286 -0.020523619
0.008877327 -0.02050246 -0.024211181 0.04955854 0.011978036 0.022124285 -0.038724106 0.011937844
0.04184819 0.02330562 0.021186773 -0.021805082 0.0354994 -0.027012177 -0.015280298 0.027440084
-0.024001615 -0.009830233 0.026626252 -0.010782593 0.011390279 0.02447207 0.029063366 0.017346738
-0.0038877642 0.027040824 0.0136466 0.049609922 -0.0011048908 0.056758296 -0.004054938 0.02465975
0.04276623 0.018735562 0.035538502 -0.030049924 0.00051968655 -0.010958041 0.025328932 0.031293754
-0.019811809 0.0010614686 0.02452398 0.026773455 0.01489722 -0.016905848 0.020097205 0.029752249
-0.00233748 0.051473692 -0.022304557 -0.029216362 0.006207423 -0.029031746 0.03111355 -0.018523576
0.028552182 0.0056528836 0.041554604 0.034868494 0.03487743 -0.0074301497 0.026097288 0.031310733
0.0018295607 -0.023513671 -0.032984227 0.014484538 0.019511629 -0.030781396 0.024257103 -0.012841555
0.007509261 0.015132687 0.04034488 0.04647739 0.022818066 0.0142133795 -0.030702736 -0.012900555
0.019728143 -0.027769828 -0.0017348377 0.037739083 0.021914084 0.027405443 -0.019659098 0.03332382
0.038778055 0.024329403 0.04419699 0.03332222 0.06497347 0.038827285 -0.022046357 0.034753487
-0.006460468 0.01450163 0.035074834 0.004355313 -0.012675322 -0.02438413 -0.010874579 -0.02892387
-0.02792825 0.0023702602 0.0018421655 -0.005084011 0.054871075 0.0050425185 0.021089561 -0.013820104
0.008581201 -0.025022984 -0.0012984226 -0.021336593 0.060487695 -0.017366633 -0.00128287 0.017122986
-0.0062153325 -0.012978002 0.03418008 0.045005813 0.058745965 0.02917181 0.036053322 -0.023973268
00000000: f61d 7a3c 9529 29bc 6f6f 07bc 71b3 bdbc
00000010: 5caf 293d 6999 723c d114 9bbc 2f1e 173c
00000020: 3063 b2b9 4c0b f0bb c6b5 bbbc c3ea d73c
00000030: 83a4 2c3d 9987 a73b 9a89 8ebc 4865 093d
00000040: 954a 56bc 37f0 e1bb 6a9f 3e3d 1a5b b0bc
00000050: 6e38 e33c 9b24 be3c a509 45bc d3dc 8bbc
00000060: 4f1e 3f3d f3ba 1d3d bb8a b03c 2015 c1bc
00000070: a8a1 b63b ec9e 5abb 060d ee3c dcb5 e03b
00000080: 1dec d9bc fb51 143c d8d4 f7bc dc78 8dbc
00000090: 9844 d63c 7d79 f23c fc30 9cbc 8a48 e83b
000000a0: 9a3b 103b dc59 a7bc 8520 a23c ebc0 063c
000000b0: f1d2 dcbc 617b ed3b 55e4 9bbc 2e89 31bc
000000c0: a0a7 89b9 e50f 19bd 8c9c bb3c b251 7fbc
000000d0: d555 b43c aef9 a4bc 22fa 283d a3cb 7b3c
000000e0: f7be c13a 516d 323c 8100 073d 8146 1b3d
000000f0: c77d 193d 4e37 793c c7a0 d03c 8605 7fbc
00000100: f4d6 cbbc cf41 9fbc e161 a5bb 1328 03bd
00000110: dd90 993d c37b da3c 4e92 32bc d98d 463d
00000120: 8350 533c 2953 f8bc 40f2 efbc 5813 f13c
00000130: bd42 1c3d a7b0 8c3c 7e2f 323d b827 593c
00000140: 507f 89bc 3e70 79bc 7d3b 60bc 7fab bc3b
00000150: ec35 bebb e0e2 aaba bc4a 603c 1713 cbbc
00000160: ff18 1c3c 71de 03bb 3b7e d53c 4222 c83c
00000170: f303 8a3d c924 963b 93d0 103d c8a9 b63c
00000180: eb58 29bb 2e05 87bc b1d7 82bc 8102 94bc
00000190: 1ecc bb3c 0aaf bebc 8d1a f73c ea2a 403d
000001a0: a0c8 73bc 609a a53c 6e95 b23c be6f 68bc
000001b0: d9dc 36bc 96a7 013d e6f6 03bd ec6d d1bc
000001c0: 29ae b03c cd9a 113d 3873 f53c 911e 1f3d
000001d0: 4b9a f5bb 33d2 0c3d 6dd7 fb3c aea1 e4bb
000001e0: 8048 133b 6a1c c1bc 65b4 e4bb d97b aebc
000001f0: 39e2 6d3d 8d24 59bc 0012 8a3c 2621 a8bc
00000200: 3572 113c c6f4 a7bc 8756 c6bc e5fd 4a3d
00000210: 863f 443c fd3d b53c 2b9d 1ebd f296 433c
00000220: 0269 2b3d 6deb be3c e28f ad3c 92a0 b2bc
00000230: d267 113d a448 ddbc 375a 7abc 07ca e03c
00000240: 099f c4bc fc0e 21bc 4c1f da3c 79a9 30bc
00000250: 4b9e 3a3c a779 c83c 4c16 ee3c bf1a 8e3c
00000260: dcc9 7ebb b884 dd3c fd95 5f3c c633 4b3d
00000270: fcd1 90ba 637b 683d 49df 84bb 3e03 ca3c
00000280: a42b 2f3d 527b 993c d290 113d 422b f6bc
00000290: 933b 083a 5b89 33bc 9f7e cf3c e12d 003d
000002a0: 604c a2bc fa20 8b3a 84e6 c83c 0154 db3c
000002b0: 7813 743c 227e 8abc e5a2 a43c fdba f33c
000002c0: 6830 19bb 14d6 523d 0cb8 b6bc 2757 efbc
000002d0: a367 cb3b fcd3 edbc d8e1 fe3c c1be 97bc
000002e0: 44e6 e93c d33b b93b 2935 2a3d 44d2 0e3d
000002f0: a3db 0e3d 9d78 f3bb fbc9 d53c af3f 003d
00000300: dfcd ef3a be9f c0bc 781a 07bd 8e50 6d3c
00000310: dad6 9f3c 4429 fcbc d5b6 c63c 6365 52bc
00000320: 3f10 f63b 17ef 773c ac40 253d 135f 3e3d
00000330: f4ec ba3c 3cdf 683c 4e84 fbbc d95c 53bc
00000340: ea9c a13c 8d7d e3bc 7e63 e3ba 4c94 1a3d
00000350: 2a85 b33c 6181 e03c 1e0c a1bc 8f7e 083d
00000360: bdd5 1e3d 754e c73c e707 353d e17c 083d
00000370: d010 853d 5c09 1f3d 909a b4bc ac59 0e3d
00000380: 55b2 d3bb 3f98 6d3c a1aa 0f3d 03b7 8e3b
00000390: 27ac 4fbc 3ac1 c7bc 4a2b 32bc c0f1 ecbc
000003a0: c9c9 e4bc 5e56 1b3b d174 f13a c697 a6bb
000003b0: 7ec0 603d b63b a53b 04c4 ac3c b86d 62bc
000003c0: 2a98 0c3c 00fd ccbc d52f aaba 14ca aebc
000003d0: f2c1 773d 7844 8ebc f925 a8ba 8145 8c3c
000003e0: fda9 cbbb b0a1 54bc 6900 0c3d 0458 383d
000003f0: 9c9f 703d b8f9 ee3c a6ac 133d 9663 c4bc

mean_network.0.bias f4 [64]
0.032012206 0.0006678999 0.030372586 0.04910657 0.034849066 0.038997456 -0.013304408 0.060980327
-0.003253708 0.021251692 -0.025291435 -0.008024743 0.0054953797 0.023363998 0.0374342 0.02173747
-0.027840119 -0.029155402 0.05965158 0.04511274 0.03508823 -0.036435418 -0.02159101 -0.0011298278
0.033639487 -0.00799972 0.013216944 0.028718282 0.04098886 0.006453344 -0.0267365 0.022537272
0.00082072476 0.029435672 0.036726147 0.014255897 0.032843083 0.06089674 0.01143145 -0.028913531
0.01684679 0.0128484145 0.023164142 -0.040846966 -0.03876666 0.041883025 0.05776964 -0.0029067951
0.003854877 -0.018818352 0.054327626 0.007160008 -0.020004088 0.024173535 0.0043408726 -0.0370365
0.0026331178 0.04019373 -0.033900093 -0.01203263 0.008546541 0.026218463 0.03514602 -0.03188802
00000000: 3b1f 033d 0116 2f3a eecf f83c f923 493d
00000010: e5bd 0e3d ccbb 1f3d bbfa 59bc 82c6 793d
00000020: 293c 55bb 0718 ae3c fc2f cfbc 367a 03bc
00000030: 9612 b43b db65 bf3c 9b54 193d c712 b23c
00000040: f610 e4bc 4fd7 eebc 3755 743d 23c8 383d
00000050: adb8 0f3d 4e3d 15bd a1df b0bc bb16 94ba
00000060: 8fc9 093d 4211 03bc e28b 583c 9a42 eb3c
00000070: efe3 273d 9376 d33b 8106 dbbc 16a0 b83c
00000080: e825 573a 1423 f13c 286e 163d 9191 693c
00000090: 7886 063d dc6e 793d fa4a 3b3c 12dc ecbc
000000a0: 4802 8a3c 2882 523c bac2 bd3c 264f 27bd
000000b0: cac9 1ebd 898d 2b3d dc9f 6c3d ee7f 3ebb
000000c0: 1ba2 7c3b f228 9abc a586 5e3d 809e ea3b
000000d0: 9ddf a3bc 9407 c63c e13d 8e3b 96b3 17bd
000000e0: 6390 2c3b 2ea2 243d d3da 0abd 8224 45bc
000000f0: cb06 0c3c 1ac8 d63c 46f5 0f3d 039d 02bd

mean_network.2.weight f4 [32, 64]
-0.033392902 -0.07702722 -0.059944455 -0.042126533 0.041752774 -0.115983695 0.040153872 0.10695591
-0.09189239 -0.020383092 0.0010411012 0.03655223 -0.021076877 -0.01504678 0.08631481 -0.09808272
-0.018907398 -0.01780141 0.041945573 0.13285862 0.07905187 -0.1156713 0.033903304 -0.11095401
0.048649505 -0.060150255 -0.08326323 0.027270162 0.08958935 -0.07631628 -0.041270968 -0.11000655
-0.06910369 -0.04305056 0.020488149 0.02942332 0.091345444 0.10056001 0.112213075 0.018725267
0.047377866 0.09072642 0.12479031 0.117442 -0.019174412 0.0017592885 0.10602227 -0.10684102
0.007607751 0.03868515 0.09216919 -0.043549974 -0.103463665 -0.045562226 0.0654675 -0.120436214
-0.043272704 0.08283827 0.011098668 0.038210098 -0.0015771944 -0.0882075 -0.067817084 0.08528945
0.0021370654 0.07436634 0.12026629 -0.018605843 0.011334065 0.081784815 0.043221213 0.040360842
-0.030926788 0.024947489 0.102375545 0.106353134 0.08278781 0.12714455 0.055522513 -0.06251598
-0.09651269 -0.065502144 -0.09597756 0.07366542 -0.00032137023 0.066194214 -0.00525401 0.08508681
0.07985454 -0.03199993 0.08972705 0.10357282 0.028176183 0.10908604 0.10095215 0.050741255
0.026420299 -0.061525226 0.052563027 0.11788518 -0.020363826 0.12344359 -0.012921848 -0.11474338
0.0067276736 0.11870802 -0.01230941 0.06342653 0.07788382 -0.030986294 -0.047313917 -0.0496269
0.107108876 0.09879701 -0.010617941 0.12330821 -0.116549656 0.008786899 -0.060926147 -0.025084829
-0.016681654 0.048996784 0.102302246 -0.11707538 0.0106415795 0.02041875 0.016905261 0.09674811
-0.020771345 -0.06891332 -0.08068007 -0.10723985 0.07427793 -0.08626878 -0.010881944 -0.0922986
0.09978328 0.0010177888 -0.10863353 0.0007826808 -0.10352198 0.07962759 -0.018507462 -0.11627369
-0.013881102 0.064362995 -0.015112572 -0.01205914 -0.075038165 0.09539555 -0.13223232 -0.05569427
-0.058416862 0.009883912 0.102242015 0.04136069 -0.032555524 -0.07529236 -0.0537121 0.04969294
-0.06351352 -0.04357828 -0.073736764 0.06368369 -0.074097365 0.051175002 0.07719278 0.04084969
0.025569996 0.010328585 -0.028915575 -0.0539084 -0.02587263 0.04501574 -0.05616718 -0.05041743
-0.13567823 -0.10271156 0.05840339 0.028668001 0.09051993 -0.019550314 0.049763944 0.03815113
-0.099107 -0.11914055 0.10082361 0.036253307 0.107359275 0.088022426 0.09572228 0.110033914
0.096061856 0.049456246 -0.11840865 0.023231748 0.018784981 0.059125442 0.033542458 -0.11118673
-0.02016899 -0.08290093 0.04617277 0.016132006 -0.029287733 0.12391183 -0.05870947 0.033400316
0.060964175 0.10468013 -0.003708972 -0.114955835 0.006106394 -0.047875993 -0.06791425 -0.041253824
0.08065363 -0.008370436 0.018281622 0.041491672 0.10727068 0.12880573 -0.06582216 0.059399158
-0.06112789 0.034675654 -0.051076513 -0.052986283 0.12246361 -0.032807495 -0.012281397 -0.06854362
-0.10580849 -0.09291063 0.07085187 -0.00015288036 0.04293805 -0.09165561 -0.10430961 -0.087630965
-0.129553 -0.010532162 0.060749803 -0.1145528 -0.08924091 0.061182704 -0.0652857 0.10796617
0.09732233 -0.0441834 0.13050908 0.11936322 0.036968175 -0.103968084 0.09727228 -0.121195555
00000000: ffc6 08bd 72c0 9dbd 5188 75bd df8c 2cbd
00000010: f504 2b3d dc88 edbd 6378 243d b30b db3d
00000020: 1432 bcbd 71fa a6bc 8f75 883a cbb7 153d
00000030: 6aa9 acbc c586 76bc d2c5 b03d 98df c8bd
00000040: b0e3 9abc 43d4 91bc 1fcf 2b3d 170c 083e
00000050: f2e5 a13d 13e5 ecbd 31de 0a3d db3b e3bd
00000060: b444 473d 1d60 76bd ea85 aabd ad65 df3c
00000070: 9f7a b73d b64b 9cbd bf0b 29bd 1d4b e1bd
00000080: 3c86 8dbd c955 30bd c3d6 a73c 2d09 f13c
00000090: 5213 bb3d 68f2 cd3d f8cf e53d bb65 993c
000000a0: 4b0f 423d c6ce b93d 1092 ff3d 6e85 f03d
000000b0: a813 9dbc ed97 e63a 3422 d93d 77cf dabd
000000c0: 714a f93b 5274 1e3d 33c3 bc3d 7561 32bd
000000d0: c2e4 d3bd 759f 3abd d313 863d 43a7 f6bd
000000e0: b83e 31bd 1ca7 a93d 30d7 353c 3182 1c3d
000000f0: ddb9 ceba 22a6 b4bd afe3 8abd 3cac ae3d
00000100: 020e 0c3b 614d 983d 2c4e f63d 486b 98bc
00000110: 84b2 393c cc7e a73d ba08 313d 6951 253d
00000120: 2d5a fdbc ad5e cc3c 45aa d13d accf d93d
00000130: a88c a93d 2e32 023e 936b 633d 6108 80bd
00000140: 72a8 c5bd fd25 86bd e28f c4bd e5dd 963d
00000150: 957d a8b9 d590 873d d529 acbb fe41 ae3d
00000160: c78a a33d 5c12 03bd d1c2 b73d fd1d d43d
00000170: bdd1 e63c 8068 df3d 00c0 ce3d 10d6 4f3d
00000180: 626f d83c e001 7cbd 544c 573d c96d f13d
00000190: 0ad2 a6bc fecf fc3d 29b6 53bc 94fe eabd
000001a0: d173 dc3b 311d f33d 68ad 49bc c5e5 813d
000001b0: 8d81 9f3d f8d6 fdbc 3dcc 41bd 9445 4bbd
000001c0: e65b db3d 1656 ca3d dff6 2dbc 0489 fc3d
000001d0: 96b1 eebd edf6 0f3c b28d 79bd b37e cdbc
000001e0: f7a7 88bc dab0 483d d783 d13d 38c5 efbd
000001f0: 055a 2e3c 3945 a73c e77c 8a3c e023 c63d
00000200: ab28 aabc 6d22 8dbd 983b a5bd 91a0 dbbd
00000210: 071f 983d b0ad b0bd 2e4a 32bc 0c07 bdbd
00000220: 2d5b cc3d 5367 853a 427b debd d22c 4d3a
00000230: 5503 d4bd ca13 a33d f69c 97bc e620 eebd
00000240: 906d 63bc bfd0 833d b99a 77bc b393 45bc
00000250: 9cad 99bd be5e c33d e967 07be ad1f 64bd
00000260: 8546 6fbd 22f0 213c 4364 d13d d469 293d
00000270: f158 05bd e132 9abd 3801 5cbd d38a 4b3d
00000280: 6013 82bd 237f 32bd 4d03 97bd 986c 823d
00000290: 5cc0 97bd e19c 513d 4017 9e3d 0152 273d
000002a0: 2b78 d13c 3a39 293c 5be0 ecbc 0ecf 5cbd
000002b0: d6f2 d3bc 6d62 383d 8f0f 66bd 8282 4ebd
000002c0: 3cef 0abe 705a d2bd 6538 6f3d 28d9 ea3c
000002d0: 8362 b93d fb27 a0bc 47d5 4b3d 5c44 1c3d
000002e0: 9cf8 cabd f6ff f3bd 9c7c ce3d 597e 143d
000002f0: 2edf db3d 1a45 b43d 0b0a c43d 7659 e13d
00000300: 14bc c43d a292 4a3d 3c80 f2bd 8250 be3c
00000310: f6e2 993c 852d 723d d163 093d deb5 e3bd
00000320: 7039 a5bc f6c7 a9bd a91f 3d3d 4527 843c
00000330: d4ec efbc 7cc5 fd3d 5779 70bd c5ce 083d
00000340: 92b5 793d 8962 d63d 3912 73bb f76d ebbd
00000350: 2518 c83b 9e19 44bd a016 8bbd c5f9 28bd
00000360: bb2d a53d 2724 09bc 57c3 953c 2cf3 293d
00000370: bbb0 db3d a6e5 033e c5cd 86bd 884c 733d
00000380: 3d61 7abd 0f08 0e3d 9b35 51bd 2508 59bd
00000390: 33ce fa3d 2761 06bd ea37 49bc 9960 8cbd
000003a0: 1fb2 d8bd ee47 bebd c91a 913d 824e 20b9
000003b0: cfdf 2f3d f0b5 bbbd 47a0 d5bd dd77 b3bd
000003c0: 8ba9 04be 178f 2cbc c9d4 783d a99a eabd
000003d0: f0c3 b6bd b79a 7a3d 82b4 85bd 5e1d dd3d
000003e0: ee50 c73d a7f9 34bd 2ca4 053e b474 f43d
000003f0: f16b 173d 38ed d4bd b036 c73d 6035 f8bd

mean_network.2.bias f4 [32]
-0.01821159 0.037369784 -0.019628055 -0.016641138 -0.015373037 0.020386167 -0.10515502 0.080390975
0.0919713 0.046033874 -0.11311833 0.04222929 0.14657567 0.13623656 -0.0737632 0.11638732
0.096414044 0.098650284 0.093541995 0.0010819176 0.0477253 0.031511918 0.007048052 -0.07062963
-0.04244812 0.11294311 -0.090860225 0.15765655 -0.052098196 0.013243512 -0.028117448 0.050869294
00000000: 7930 95bc 0f11 193d 04cb a0bc ff52 88bc
00000010: 31df 7bbc e400 a73c 845b d7bd 06a4 a43d
00000020: 735b bc3d 048e 3c3d 95aa e7bd 9ff8 2c3d
00000030: ef17 163e 9981 0b3e 2911 97bd 7a5c ee3d
00000040: ba74 c53d 2909 ca3d f292 bf3d 21cf 8d3a
00000050: 9b7b 433d a412 013d 58f3 e63b 44a6 90bd
00000060: 14de 2dbd b84e e73d ed14 babd b870 213e
00000070: eb64 55bd 51fb 583c 9056 e6bc 525c 503d

mean_network.4.weight f4 [2, 32]
-0.033647325 -0.059686825 0.13469087 -0.17005444 -0.04934284 0.05063729 -0.091365136 0.14362082
-0.09868348 0.15574725 -0.024362613 -0.07370397 0.17851019 0.11869456 -0.05867761 -0.045713983
0.11887724 0.07205165 0.18820378 0.14950402 -0.12552094 0.10906978 0.14185193 0.1782442
0.19267024 -0.14675975 -0.024977265 0.14962175 0.010604069 0.1138067 0.08481963 0.088545494
0.0954817 0.06660826 -0.033121895 -0.13858502 -0.13273358 -0.15130068 0.16155547 0.205019
0.1384233 0.13078503 0.07208462 -0.10098762 0.17910793 0.0035013238 -0.14106512 0.07339087
-0.07567748 0.12563688 -0.004159699 -0.106820635 -0.08547942 0.048425496 -0.07422684 -0.09297497
0.19981292 0.05677599 -0.12645793 0.14589156 0.066004574 0.07849167 -0.14622805 -0.15886547
00000000: c7d1 09bd 2c7a 74bd 67ec 093e c022 2ebe
00000010: b81b 4abd 0c69 4f3d a51d bbbd 5611 133e
00000020: 901a cabd 357c 1f3e 1a94 c7bc 1bf2 96bd
00000030: 60cb 363e 2216 f33d ef57 70bd 963e 3bbd
00000040: e975 f33d d18f 933d 7eb8 403e 9517 193e
00000050: 9088 00be fa5f df3d a241 113e a685 363e
00000060: 594b 453e 3048 16be 1f9d ccbc 7236 193e
00000070: b0bc 2d3c 7d13 e93d eab5 ad3d 5757 b53d
00000080: e98b c33d e969 883d d3aa 07bd 3be9 0dbe
00000090: 50eb 07be 91ee 1abe cc6e 253e 80f0 513e
000000a0: d6be 0d3e 83ec 053e 1aa1 933d 99d2 cebd
000000b0: 1268 373e 7776 653b 6073 10be f44d 963d
000000c0: cbfc 9abd f4a6 003e 164e 88bb c7c4 dabd
000000d0: d60f afbd d059 463d 3e04 98bd a969 bebd
000000e0: c29b 4c3e f18d 683d 307e 01be 9964 153e
000000f0: 682d 873d 3ec0 a03d cebc 15be a1ad 22be

mean_network.4.bias f4 [2]
-0.026377575 0.030888684
00000000: c915 d8bc 440a fd3c
