LIRL results/Robustness experiment/machine_breakdown/ddpg_lirl_pi_multi_run_20250921_failure_0.6/run_8_seed_114514/ddpg_lirl_pi_mu_20250921_110140.pth (torch, 297269 bytes, 6 tensors)

fc1.weight f4 [128, 507]
-0.0374186 0.041525804 0.050107416 0.05210844 0.0503835 -0.02259577 -0.13221997 -0.05197297
-0.06824487 -0.056408614 -0.005858256 -0.08401935 -0.0079998365 -0.099312544 -0.055094343 0.072200015
-0.019441653 0.06959311 0.08999209 0.0327229 0.051959585 0.10613321 0.041549772 0.0029331716
-0.023112265 0.0065953424 0.012306302 -0.05606765 -0.24712032 -0.24504144 -0.0005323118 -0.16651787
-0.15692629 -0.06702505 -0.19653346 -0.044842266 -0.055875067 -0.14597565 -0.16476345 -0.12623182
0.10963746 -0.017868163 -0.07944179 -0.06727365 -0.09748288 0.08326959 0.08954806 -0.063200235
-0.124241054 -0.10746533 -0.016745104 -0.046153966 -0.13915937 -0.19650765 -0.15831329 0.060194958
0.028573824 -0.07429975 -0.1207555 -0.06764186 0.10247906 -0.14101085 -0.17504497 -0.10388901
-0.035748135 0.11044185 -0.089200474 -0.053500596 -0.04310543 0.019892443 0.11595092 -0.14618209
-0.17405903 -0.17912596 -0.22820157 0.06580641 -0.1251144 -0.21006212 -0.1710575 -0.21128629
0.010248586 -0.12372459 -0.21014221 -0.18645468 -0.17372473 -0.058722794 -0.19593121 -0.14065893
-0.08677561 -0.07437848 0.1470419 -0.10640924 -0.094330885 0.009124554 -0.11974697 0.06507874
0.002532246 -0.04033858 0.026738074 -0.02778277 0.09549411 0.10783759 0.083323956 0.04431255
-0.05981598 0.056325924 0.009463489 0.010045806 -0.0070978114 -0.008298339 0.14734529 0.019321254
0.048147332 -0.11337361 -0.10682937 -0.007614942 0.022934193 -0.098597564 -0.03774422 -0.049624115
0.042434406 0.09297162 0.04550161 -0.10325158 -0.02631995 -0.015912242 0.010036311 -0.059952408
-0.14632042 -0.111670084 0.037799347 0.040831063 -0.03414679 0.025803711 -0.052252308 0.03616602
0.010620913 0.032466214 0.0062186075 0.020173917 0.040167253 0.026656356 0.016381731 -0.085796714
0.015113668 0.011084292 -0.040650856 -0.022572756 0.040455457 0.032770224 0.015227969 0.083963856
-0.009123039 -0.06879099 -0.06439983 -0.08618525 -0.06878693 -0.017307105 -0.022612771 -0.03608068
0.05630944 0.06529968 -0.08968765 -0.027118132 0.028511427 -0.07307673 -0.025139708 -0.021819556
-0.08384787 -0.0287373 -0.076192714 -0.026009697 -0.09105785 -0.06989828 -0.049360845 -0.0705233
-0.07071367 -0.008765896 -0.013427989 -0.001813803 0.0072598956 -0.011419462 0.0067463154 -0.015406198
-0.0052550784 -0.0073889527 -0.020430392 -0.021176992 -0.0116662495 -0.050530646 -0.012167027 0.022923527
0.017342068 0.025475312 -0.005001154 -0.06771447 -0.042516533 -0.06467059 -0.04877231 -0.03973101
-0.04621137 9.6491836e-05 -0.06437866 -0.036427975 -0.06139963 -0.034888998 -0.045974806 -0.0094775455
-0.006184575 -0.06581134 -0.012858338 0.001223462 -0.03438447 -0.0002772078 0.015386458 -0.03551329
-0.003687644 0.009497943 0.0032739572 0.020904627 0.031423982 0.02977057 -0.033052456 -0.00093989854
-0.006100464 0.023759821 -0.030586822 -0.041920934 -0.011995474 0.0007619751 -0.047354296 0.03255626
-0.0149829425 0.03723449 -0.04974506 -0.033498187 -0.021189786 -0.018319739 0.015033263 0.005706761
0.011364578 0.019113738 0.0057701925 -0.01767025 -0.042567395 -0.032272704 -0.017346408 0.024605
-0.04735299 0.017503466 0.029949695 -0.028634023 -0.07354176 -0.04899428 -0.010265747 -0.15050629
00000000: 3f44 19bd f616 2a3d 6f3d 4d3d a96f 553d
00000010: ee5e 4e3d c41a b9bc ac64 07be 9ce1 54bd
00000020: f7c3 8bbd b80c 67bd 9df6 bfbb 5612 acbd
00000030: bf11 03bc 6064 cbbd 9baa 61bd 9add 933d
00000040: 1a44 9fbc d586 8e3d c64d b83d 7308 063d
00000050: 93d3 543d 5e5c d93d 1830 2a3d 743a 403b
00000060: ef55 bdbc be1d d83b 5fa0 493c 31a7 65bd
00000070: 1c0d 7dbe 25ec 7abe d78a 0bba a983 2abe
00000080: 49b1 20be 6e44 89bd 1140 49be 86ac 37bd
00000090: 41dd 64bd a47a 15be c0b7 28be ea42 01be
000000a0: 9b89 e03d 4160 92bc 61b2 a2bd c4c6 89bd
000000b0: 1ba5 c7bd 3f89 aa3d f964 b73d 206f 81bd
000000c0: 1872 febd c816 dcbd 072d 89bc f10b 3dbd
000000d0: cb7f 0ebe 4d39 49be e11c 22be fd8e 763d
000000e0: a713 ea3c 782a 98bd a94e f7bd d187 8abd
000000f0: 8be0 d13d 2665 10be fd3e 33be c3c3 d4bd
00000100: a36c 12bd 562f e23d bdae b6bd 7123 5bbd
00000110: 528f 30bd 7af5 a23c ad77 ed3d c2b0 15be
00000120: 883c 32be cc6c 37be acad 69be 83c5 863d
00000130: fd1d 00be 861a 57be b329 2fbe 6f5b 58be
00000140: afe9 273c 5163 fdbd 852f 57be faed 3ebe
00000150: e5e4 31be 5087 70bd 31a2 48be e508 10be
00000160: 69b7 b1bd bf53 98bd 2792 163e 16ed d9bd
00000170: 8d30 c1bd 277f 153c e63d f5bd 0148 853d
00000180: 0af4 253b 113a 25bd ce09 db3c b198 e3bc
00000190: 6a92 c33d f4d9 dc3d c0a5 aa3d 1481 353d
000001a0: 9a01 75bd 03b6 663d c00c 1b3c 2a97 243c
000001b0: c294 e8bb c2f5 07bc afe1 163e 9b47 9e3c
000001c0: 2336 453d 6c30 e8bd 5bc9 dabd c386 f9bb
000001d0: 7de0 bb3c 85ed c9bd af99 1abd a842 4bbd
000001e0: b3cf 2d3d e867 be3d e55f 3a3d 9075 d3bd
000001f0: f09c d7bc 645a 82bc 576f 243c a890 75bd
00000200: 05d5 15be 49b3 e4bd 7dd3 1a3d 793e 273d
00000210: 81dd 0bbd 4e62 d33c 8406 56bd d222 143d
00000220: 5603 2e3c 4bfb 043d 76c5 cb3b c543 a53c
00000230: 6b86 243d 6e5e da3c fb32 863c 30b6 afbd
00000240: 519f 773c e49a 353c 8381 26bd 80ea b8bc
00000250: 9fb4 253d 123a 063d bb7e 793c 3ef5 ab3d
00000260: cd78 15bc 4ae2 8cbd 0fe4 83bd e481 b0bd
00000270: 29e0 8cbd a1c7 8dbc 6b3e b9bc 56c9 13bd
00000280: baa4 663d d7bb 853d 29ae b7bd d826 debc
00000290: cc90 e93c 41a9 95bd caf1 cdbc edbe b2bc
000002a0: 6fb8 abbd 7c6a ebbc ed0a 9cbd 4a12 d5bc
000002b0: 8a7c babd d426 8fbd 992e 4abd 856e 90bd
000002c0: 54d2 90bd d59e 0fbc 1101 5cbc 21bd edba
000002d0: 6be4 ed3b b218 3bbc 3210 dd3b 476a 7cbc
000002e0: cb32 acbb 071f f2bb a35d a7bc 5f7b adbc
000002f0: cc23 3fbc 39f9 4ebd 3658 47bc 1fca bb3c
00000300: f410 8e3c 9ab1 d03c b8e0 a3bb e2ad 8abd
00000310: d125 2ebd 0472 84bd 79c5 47bd fcbc 22bd
00000320: 2248 3dbd a95b ca38 f5d8 83bd 8035 15bd
00000330: 2e7e 7bbd c4e7 0ebd 1450 3cbd b547 1bbc
00000340: faa7 cabb 19c8 86bd c7ab 52bc 935c a03a
00000350: bbd6 0cbd 3356 91b9 7b17 7c3c 6276 11bd
00000360: 66ac 71bb 439d 1b3c e38f 563b 2e40 ab3c
00000370: 6fb6 003d 69e1 f33c 0362 07bd 8663 76ba
00000380: 67e6 c7bb f5a3 c23c 3791 fabc 49b5 2bbd
00000390: aa88 44bc 49bf 473a 94f6 41bd b659 053d
000003a0: 047b 75bc 3183 183d 7ac1 4bbd 6535 09bd
000003b0: 3496 adbc 4713 96bc 134e 763c c8ff ba3b
000003c0: 7f32 3a3c 6a94 9c3c e213 bd3b 33c1 90bc
000003d0: 265b 2ebd 6230 04bd 0e1a 8ebc 6d90 c93c
000003e0: 35f5 41bd 6e63 8f3c 1059 f53c e691 eabc
000003f0: 109d 96bd 3aae 48bd aa31 28bc 521e 1abe

fc1.bias f4 [128]
0.14569181 0.20369968 0.31124946 -0.0320838 0.2888176 0.033631288 -0.011364299 0.14078906
0.09758813 0.13839296 0.20373702 -0.02086328 -0.09964978 -0.2318137 -0.008263689 0.06503984
0.16024789 -0.13612565 0.11876309 0.22940883 0.011087701 0.042144842 -0.056009535 0.051879995
-0.17522155 0.010891198 -0.100352585 -0.21561018 0.086549416 0.04605552 -0.021857504 0.16044591
-0.010057374 0.15456541 -0.004574279 -0.044607326 0.103872165 0.021305671 -0.14249034 -0.023586022
0.02249766 -0.02880781 -0.095920786 0.08470368 0.16201928 0.062049735 -0.13064972 0.09560272
0.016903086 0.15267025 0.28166488 -0.104843214 -0.066307686 0.02113835 -0.07177219 0.008401451
-0.12680508 0.08976656 -0.045486584 0.18811432 0.0054593394 0.23538347 0.4028078 -0.19975284
0.0792427 0.06367143 0.10378531 0.048531715 0.10739734 0.095629126 0.4417634 0.05056091
0.1563004 -0.033892084 0.055297125 -0.10234629 0.112911575 -0.06997078 0.032844216 -0.025679924
0.020067466 -0.1355208 0.069936834 0.040062223 0.14162736 0.17447162 -0.045552354 0.030328173
-0.105288714 -0.0755635 0.00045499956 0.19477294 0.3364183 0.29022095 0.040913448 0.026314927
0.056241956 0.06907292 0.11220407 -0.004790212 0.12763032 0.15550935 -0.0051832576 -0.04252739
-0.026335308 -0.04100729 0.055251237 0.11030567 0.014294189 0.103168204 -0.13162541 -0.12070984
-0.04986509 0.18559672 -0.040962268 -0.05447899 -0.09208295 0.015429815 -0.08243559 0.21549882
0.08364857 0.12826009 -0.027302807 0.016009264 -0.014184317 0.11301087 -0.045583528 0.120929465
00000000: 3c30 153e a696 503e 175c 9f3e 4d6a 03bd
00000010: e7df 933e f6c0 093d 5331 3abc 022b 103e
00000020: 49dc c73d e2b6 0d3e 70a0 503e 78e9 aabc
00000030: 2f15 ccbd 9260 6dbe 6c64 07bc 9c33 853d
00000040: 0618 243e 8664 0bbe 103a f33d 26ea 6a3e
00000050: 30a9 353c 12a0 2c3d 416a 65bd 1e80 543d
00000060: 476d 33be ff70 323c a885 cdbd eac8 5cbe
00000070: d240 b13d b7a4 3c3d 820e b3bc ef4b 243e
00000080: afc7 24bc 6546 1e3e d5e3 95bb 2cb6 36bd
00000090: eeba d43d 3b89 ae3c fde8 11be 7937 c1bc
000000a0: 034d b83c 5bfe ebbc 1e72 c4bd 1f79 ad3d
000000b0: 62e8 253e dd27 7e3d 0ac9 05be 5ccb c33d
000000c0: 5778 8a3c 9755 1c3e 6136 903e 0ab8 d6bd
000000d0: 53cc 87bd 552a ad3c 4cfd 92bd 3da6 093c
000000e0: 31d9 01be 88d7 b73d 2450 3abd 0aa1 403e
000000f0: 42e4 b23b 5d08 713e d33c ce3e 028c 4cbe
00000100: ff49 a23d 2b66 823d 658d d43d 31c9 463d
00000110: 23f3 db3d 34d9 c33d d02e e23e f518 4f3d
00000120: 360d 203e 6dd2 0abd 3d7f 623d ef9a d1bd
00000130: 2f3e e73d d74c 8fbd a887 063d b45e d2bc
00000140: 8764 a43c f7c5 0abe 0b3b 8f3d 4918 243d
00000150: c306 113e b0a8 323e 1b95 3abd ca72 f83c
00000160: 9ca1 d7bd 09c1 9abd 028d ee39 8f72 473e
00000170: 053f ac3e d797 943e dc94 273d 6792 d73c
00000180: f75d 663d 1a76 8d3d 3fcb e53d 36f7 9cbb
00000190: 86b1 023e d83d 1f3e 51d8 a9bb 3331 2ebd
000001a0: 25bd d7bc 43f7 27bd 1f4f 623d f0e7 e13d
000001b0: 2d32 6a3c da49 d33d d0c8 06be b836 f7bd
000001c0: 563f 4cbd 110d 3e3e 0dc8 27bd 5d25 5fbd
000001d0: fc95 bcbd 56cd 7c3c fed3 a8bd b9ab 5c3e
000001e0: f14f ab3d 9d56 033e 23aa dfbc dc25 833c
000001f0: 5665 68bc 3e72 e73d cbb5 3abd dea9 f73d

fc2.weight f4 [64, 128]
-0.06472796 -0.064610764 -0.06420858 0.052462004 -0.000293827 0.037516847 0.025798688 0.051308222
-0.04471344 -0.060116354 -0.046140295 0.11854626 -0.0574922 0.014706536 0.10222209 0.027114669
-0.14813066 0.05516578 -0.026034644 -0.012245154 0.011555451 -0.039680216 -0.1040365 0.07375094
0.011810086 0.1620455 -0.12209062 0.01919138 -0.0047476348 -0.0074571995 0.17149165 0.042895406
0.18239014 0.1060582 -0.09397836 0.12460151 0.054222427 -0.03709575 -0.10233959 0.01057287
-0.03325947 -0.02721807 0.029415442 0.017696852 0.04986552 -0.0021015804 -0.05716136 -0.06978062
-0.06499518 -0.032481827 0.060773015 0.115459636 -0.057105858 0.1318523 -0.06843058 -0.059040207
0.008437576 0.010506947 0.07919083 -0.14985314 0.012898266 0.17629996 -0.043500967 -0.033122566
0.06956118 -0.028615428 0.08162849 -0.02760421 0.010671069 0.041971304 0.027115386 0.03720532
-0.039803337 -0.065609135 0.09573212 0.0052711903 0.06646183 0.095522046 0.013352682 0.14386228
-0.013109566 0.04616435 0.00914968 0.017406488 0.0036953092 -0.094639115 0.09354495 0.03969712
0.00020618014 0.01517555 0.061615422 0.1669882 -0.0029903664 -0.0059425123 0.061854526 -0.003890189
0.051788434 -0.0025092084 -0.069413684 0.040126413 -0.053095877 0.016549371 -0.04873855 0.035536885
0.029756743 0.04751631 0.023727031 -0.010590743 -0.005034498 -0.09394566 -0.050752245 -0.043809727
-0.019366302 0.08233465 -0.10731209 0.046576165 -0.035926417 -0.0068489984 0.04205693 -0.14455365
-0.049294777 0.00011486276 0.0799133 -0.043547913 0.15831485 0.06860252 -0.15423806 -0.07390288
0.038275708 0.029208338 -0.009149811 -0.07439904 0.05092717 0.07573185 -0.037544727 0.08624014
-0.050324842 -0.0255482 0.07906586 -0.040605117 0.057692368 -0.025159732 0.05280226 0.05571849
0.12677848 0.04264755 0.010706163 0.18668228 -0.06647544 0.09054657 -0.023767892 0.017069075
0.2251975 -0.09069159 0.02003652 -0.013662119 -0.09187156 -0.004279681 0.1422848 0.10604936
-0.02435395 -0.03240982 -0.0078682285 0.0059714434 0.0764193 -0.022913119 0.05751314 0.06596773
0.04766978 0.025155712 0.013734696 0.046873886 0.0512437 -0.052587885 -0.031835787 0.06838374
-0.010280545 0.08668593 0.033456627 -0.07839763 -0.055905588 0.09506672 0.033971563 -0.04009288
0.024527539 0.12120523 0.019106027 -0.025416777 0.07552879 -0.07043847 0.09423977 0.07253548
0.0038438337 -0.078343585 0.09730649 0.104528435 -0.024548056 0.099484876 0.005872853 0.016419373
0.05531129 -0.0021844243 -0.085022174 0.061424147 0.08811727 0.05607222 -0.009853472 0.10551844
0.029521467 0.06769679 0.07366424 0.018635321 0.023548536 -0.072551325 -0.0052810423 -0.04541646
0.05889363 0.04634323 0.06657547 0.14489841 0.0641305 0.102760136 0.03177292 -0.04895681
-0.10569913 -0.0073131435 -0.04305772 0.100426115 -0.022572182 0.05420569 0.03862024 0.012027969
-0.06398864 -0.026801322 0.0647234 -0.03805527 -0.0055699046 0.06588305 0.14495507 0.09040987
-0.03252076 0.07083169 -0.06435792 0.102621496 0.050203264 0.051331762 0.079332456 0.021135662
0.15517679 -0.004054534 0.07800195 0.034038514 0.09618188 -0.03976525 0.070237964 0.0234002
00000000: 1890 84bd a652 84bd ca7f 83bd 66e2 563d
00000010: cb0c 9ab9 44ab 193d c557 d33c 9228 523d
00000020: 7125 37bd 913c 76bd 9bfd 3cbd 62c8 f23d
00000030: f17c 6bbd aff3 703c d159 d13d 951f de3c
00000040: 90af 17be 83f5 613d 9b46 d5bc e69f 48bc
00000050: 1353 3d3c b987 22bd 1711 d5bd bc0a 973d
00000060: 177f 413c 41ef 253e a60a fabd 3e37 9d3c
00000070: 0c92 9bbb 865b f4bb 829b 2f3e 18b3 2f3d
00000080: 7bc4 3a3e 0b35 d93d ba77 c0bd 142f ff3d
00000090: 5618 5e3d b7f1 17bd 6b97 d1bd d539 2d3c
000000a0: 153b 08bd 6ef8 debc a7f8 f03c fdf8 903c
000000b0: ca3f 4c3d abba 09bb 0822 6abd 24e9 8ebd
000000c0: 311c 85bd aa0b 05bd 20ed 783d 1a76 ec3d
000000d0: d5e7 69bd 4a04 073e 5525 8cbd 25d4 71bd
000000e0: c23d 0a3c 5425 2c3c cd2e a23d 1a73 19be
000000f0: 4053 533c fa87 343e 122e 32bd 87ab 07bd
00000100: 1876 8e3d e76a eabc d62c a73d 3922 e2bc
00000110: b5d5 2e3c 1aea 2b3d 1621 de3c 9b64 183d
00000120: d308 23bd 155e 86bd 340f c43d f3b9 ac3b
00000130: 241d 883d 10a1 c33d 35c5 5a3c a250 133e
00000140: 81c9 56bc d416 3d3d 8ae8 153c 0d98 8e3c
00000150: 002d 723b 27d2 c1bd 7f94 bf3d 7399 223d
00000160: 0f32 5839 dfa2 783c 7460 7c3d f4fe 2a3e
00000170: 06fa 43bb 68b9 c2bb 2c5b 7d3d 8bf2 7ebb
00000180: 1c20 543d 8871 24bb c328 8ebd 985b 243d
00000190: 107b 59bd 8c92 873c 13a2 47bd 208f 113d
000001a0: 6ac4 f33c 76a0 423d 315f c23c cc84 2dbc
000001b0: 6ef8 a4bb 9566 c0bd 96e1 4fbd d471 33bd
000001c0: 14a6 9ebc 129f a83d 71c6 dbbd a6c6 3e3d
000001d0: 9427 13bd 906d e0bb e343 2c3d df05 14be
000001e0: 52e9 49bd 7ae2 f038 96a9 a33d 4c5f 32bd
000001f0: 4a1d 223e 7a7f 8c3d 95f0 1dbe 655a 97bd
00000200: fdc6 1c3d 5346 ef3c 17e9 15bc 865e 98bd
00000210: 0299 503d 4d19 9b3d 80c8 19bd ac9e b03d
00000220: 6c21 4ebd 754a d1bc 48ed a13d 8d51 26bd
00000230: d54e 6c3d c81b cebc 2f47 583d 1239 643d
00000240: 38d2 013e 33af 2e3d e768 2f3c a429 3f3e
00000250: 4724 88bd 7b70 b93d e2b4 c2bc 72d4 8b3c
00000260: 2c9a 663e 83bc b9bd a123 a43c 15d7 5fbc
00000270: 2827 bcbd 913c 8cbb 1bb3 113e 6830 d93d
00000280: ef81 c7bc 29c0 04bd bee9 00bc 19ac c33b
00000290: b981 9c3d 4bb4 bbbc e692 6b3d 171a 873d
000002a0: 6341 433d 5a13 ce3c 7e07 613c d5fe 3f3d
000002b0: eae4 513d 6566 57bd 3e66 02bd c60c 8c3d
000002c0: bb6f 28bc 6588 b13d d109 093d f08e a0bd
000002d0: 42fd 64bd 57b2 c23d c425 0b3d 6f38 24bd
000002e0: faed c83c 733a f83d 3e84 9c3c d836 d0bc
000002f0: d7ae 9a3d 0b42 90bd c800 c13d 7b8d 943d
00000300: d4e8 7b3b 9a72 a0bd a048 c73d 0113 d63d
00000310: 0119 c9bc babe cb3d 1071 c03b ec81 863c
00000320: 178e 623d 8f28 0fbb 1b20 aebd e397 7b3d
00000330: d476 b43d fcab 653d 7570 21bc 0d1a d83d
00000340: 01d7 f13c 9da4 8a3d 47dd 963d 1aa9 983c
00000350: dce8 c03c ca95 94bd 980c adbb 9c06 3abd
00000360: 723a 713d 66d2 3d3d b858 883d 4060 143e
00000370: da56 833d e873 d23d 5224 023d f086 48bd
00000380: c978 d8bd 18a3 efbb 4b5d 30bd 35ac cd3d
00000390: 4ce9 b8bc c906 5e3d 4230 1e3d f510 453c
000003a0: 7a0c 83bd 728e dbbc b48d 843d d8df 1bbd
000003b0: bf83 b6bb b1ed 863d 1a6f 143e cf28 b93d
000003c0: 7d34 05bd 3510 913d 16ce 83bd 382b d23d
000003d0: f0a1 4d3d 4141 523d 0e79 a23d b224 ad3c
000003e0: aae6 1e3e e5db 84bb 7dbf 9f3d f86b 0b3d
000003f0: 01fb c43d e3e0 22bd ecd8 8f3d c7b1 bf3c

fc2.bias f4 [64]
-0.027917916 0.3245361 -0.12053957 0.24361958 -0.016658397 -0.022113089 -0.14624584 -0.15060584
0.09120596 0.32166234 -0.17003785 0.056583486 -0.040104423 0.07905814 -0.116902284 0.19801515
0.08991906 0.07237535 0.24727295 -0.026061678 -0.20159055 -0.079101466 -0.005324837 -0.10360152
-0.09457015 -0.11576339 -0.11075046 -0.20331614 -0.013785976 -0.10315586 -0.1438555 -0.032720882
-0.03861897 0.033125445 -0.0033196146 -0.09830263 -0.11298312 0.29272157 0.22489679 0.03433413
-0.057892717 0.013074578 -0.049656335 -0.15145728 0.2950446 -0.13270073 -0.1951507 -0.15974276
0.19975479 0.32277387 -0.038444996 0.2862856 -0.12123276 -0.027031023 -0.010747797 -0.14430605
-0.09571918 -0.15414646 -0.24876092 0.15503071 0.00024596395 -0.06674685 -0.09195201 0.30324408
00000000: 1db4 e4bc 9829 a63e 73dd f6bd 6977 793e
00000010: 3177 88bc 8226 b5bc 78c1 15be 6b38 1abe
00000020: 31ca ba3d edb0 a43e 671e 2ebe 16c4 673d
00000030: 8944 24bd 3ce9 a13d 776a efbd 7cc4 4a3e
00000040: 7c27 b83d 8739 943d 1f35 7d3e 4d7f d5bc
00000050: c16d 4ebe f3ff a1bd f87b aebb 092d d4bd
00000060: ffad c1bd 5b15 edbd 23d1 e2bd 1b32 50be
00000070: 93de 61bc 6143 d3bd db4e 13be 5506 06bd
00000080: ed2e 1ebd 8cae 073d e48d 59bb e452 c9bd
00000090: b263 e7bd 9adf 953e 584b 663e f2a1 0c3d
000000a0: ea20 6dbd c136 563c 7164 4bbd 9e17 1bbe
000000b0: 1610 973e b3e2 07be 96d5 47be 9b93 23be
000000c0: 858c 4c3e 9e42 a53e 8078 1dbd 0794 923e
000000d0: e248 f8bd 2a70 ddbc 8717 30bc f7c4 13be
000000e0: 6b08 c4bd 92d8 1dbe 2fbb 7ebe 5fc0 1e3e
000000f0: b9f4 8039 93b2 88bd 5651 bcbd cf42 9b3e

fc_mu.weight f4 [3, 64]
-0.64526993 -0.26442382 0.10663098 -0.4854372 -0.07406333 -0.077910475 -0.11758322 -0.30977622
-0.31344754 -0.23622383 -0.02649018 0.030536344 -0.7014132 0.040036876 -0.05034546 -0.12224414
0.04021092 0.09906027 0.03824638 -0.7624152 0.057826933 -0.38221687 -0.16485146 -0.41957265
-1.1783609 -0.06168845 -0.11862077 -0.06497571 -0.12853345 -0.004418978 -0.6181015 -0.3070868
-1.0135541 -0.17942393 -1.0958604 -0.585864 0.048044164 -0.31818908 -0.31557876 -0.05293467
-0.32962805 -0.08922143 0.04403573 0.010489664 0.0013650525 -0.042923853 -0.036702655 -0.031080427
-0.101804495 -1.5750337 0.09676198 -0.018737337 -0.7859304 -0.10832215 -0.21356112 -0.44128713
-0.5761647 -0.6329278 0.051810954 -0.4491117 0.026083844 0.02867368 -0.09808715 -0.33530107
-0.013877417 -0.09478778 -0.20854715 -0.029734718 0.008492793 0.12094922 0.035282806 0.015504998
-0.021070499 -0.13009928 0.0543108 -0.02919196 0.017531484 -0.1802514 0.03467612 -0.0049768686
-0.040127877 0.0006926813 -0.21959378 -0.014843095 -0.049121402 -0.03364459 -0.013700696 0.05536781
0.16892804 -0.2726841 -0.09971865 -0.05389801 -0.0047439206 0.022424847 -0.07214924 -0.0798546
0.20238817 -0.0011721354 -0.013057278 -0.027792098 0.021228671 -0.21853532 -0.11550814 -1.426146
-0.07787138 -0.021292876 0.009261921 -0.010629216 -0.07793906 -0.063237645 -0.0015626611 0.0028088132
-0.053576514 -0.024511395 -0.061723225 -0.42983162 -0.020991104 -0.9737992 -0.044186153 0.047795143
0.056177642 -0.042113576 -0.0013990711 -0.026934661 -0.3120137 -0.01679352 -0.47744167 -0.09986141
0.00037563377 -0.09390312 -0.0049389713 -0.049192667 0.04504488 0.008299156 0.013074771 -1.6637152
-0.019565424 -0.08389778 -0.60034996 -0.014662288 0.0059272232 -0.024434822 -0.0437919 -0.030940522
-0.049088035 -0.0103248935 -0.032777846 -0.14449577 -0.0022601255 0.03299579 -0.018105472 -0.009299175
-0.10708489 0.008309544 0.028815104 0.1279909 -0.024090014 0.074079975 0.0048678494 -0.010148555
0.019618308 -0.018149387 0.009433624 -0.3366656 0.114331536 -0.101926945 -0.084688455 0.04606224
0.10303613 -1.2614437 -0.04710861 0.070371345 -0.029530315 -0.55156267 0.0007752473 -0.43240649
-0.0007373119 -0.012137328 -0.042244416 -0.03492087 0.08241057 -0.004896793 7.6783464e-05 -0.33454823
-0.10205425 0.045793064 0.016951822 -0.11352117 0.0009844209 0.071871564 -0.002761414 -0.10803403
00000000: 6930 25bf 8f62 87be 5861 da3d 3a8b f8be
00000010: 84ae 97bd 878f 9fbd 79cf f0bd fd9a 9ebe
00000020: 327c a0be a9e4 71be ef01 d9bc 5b27 fa3c
00000030: d18f 33bf b5fd 233d 0b37 4ebd 235b fabd
00000040: 35b4 243d 1ce0 ca3d 3ca8 1c3d a42d 43bf
00000050: efdb 6c3d eeb1 c3be d2ce 28be 3ad2 d6be
00000060: 88d4 96bf 07ad 7cbd 72ef f2bd fc11 85bd
00000070: 469e 03be 13cd 90bb e63b 1ebf 7b3a 9dbe
00000080: 24bc 81bf e8ba 37be 2745 8cbf 2ffb 15bf
00000090: f5c9 443d aee9 a2be 8a93 a1be 06d2 58bd
000000a0: 02c5 a8be bab9 b6bd cf5e 343d d7dc 2b3c
000000b0: 90eb b23a ecd0 2fbd 8655 16bd 619c febc
000000c0: e07e d0bd b49a c9bf 252b c63d 0b7f 99bc
000000d0: bc32 49bf 01d8 ddbd c4af 5abe 63f0 e1be
000000e0: 887f 13bf 8e07 22bf b937 543d f8f1 e5be
000000f0: c9ad d53c 11e5 ea3c eae1 c8bd 95ac abbe
00000100: 1b5e 63bc 1820 c2bd 628d 55be 3996 f3bc
00000110: 5b25 0b3c 3ab4 f73d b484 103d ad08 7e3c
00000120: 0a9c acbc bf38 05be 0075 5e3d fa23 efbc
00000130: 309e 8f3c d393 38be 8c08 0e3d 0015 a3bb
00000140: 215d 24bd 0e95 353a 31dd 60be 7430 73bc
00000150: 8633 49bd e9ce 09bd e278 60bc 5bc9 623d
00000160: 79fb 2c3e 409d 8bbe 4b39 ccbd 29c4 5cbd
00000170: e472 9bbb 50b4 b73c fbc2 93bd cf8a a3bd
00000180: d83e 4f3e 56a2 99ba 31ee 55bc 41ac e3bc
00000190: c0e7 ad3c b9c7 5fbe 888f ecbd f48b b6bf
000001a0: 087b 9fbd 666e aebc 50bf 173c 2a26 2ebc
000001b0: 849e 9fbd bd82 81bd 35d2 ccba 1114 383b
000001c0: 0c73 5bbd 1fcc c8bc 7ed1 7cbd e412 dcbe
000001d0: 89f5 abbc e84a 79bf 8afc 34bd d7c4 433d
000001e0: 871a 663d 497f 2cbd 0961 b7ba 14a6 dcbc
000001f0: 42c0 9fbe 9092 89bc 3c73 f4be 2484 ccbd
00000200: b6f0 c439 4750 c0bd 18d7 a1bb 407e 49bd
00000210: fb80 383d 2ff9 073c 9037 563c 9ff4 d4bf
00000220: ab47 a0bc 99d2 abbd 89b0 19bf 183a 70bc
00000230: 2739 c23b 892b c8bc 235f 33bd fa76 fdbc
00000240: 8910 49bd be29 29bc 1042 06bd b3f6 13be
00000250: 9d1e 14bb 9826 073d ed51 94bc 915b 18bc
00000260: 534f dbbd c124 083c a70d ec3c 0c10 033e
00000270: 6c58 c5bc 3eb7 973d 7b82 9f3b 2046 26bc
00000280: 93b6 a03c 06ae 94bc 7d8f 1a3c 6f5f acbe
00000290: a726 ea3d 13bf d0bd 2471 adbd c2ab 3c3d
000002a0: 9b04 d33d fd76 a1bf f5f4 40bd da1e 903d
000002b0: 8fe9 f1bc 3633 0dbf f739 4b3a 6264 ddbe
000002c0: 2a48 41ba a5db 46bc 7b08 2dbd 3009 0fbd
000002d0: dfc6 a83d 4775 a0bb cf06 a138 e849 abbe
000002e0: d201 d1bd 8291 3b3d 8cde 8a3c ca7d e8bd
000002f0: af07 813a 6631 933d d7f8 34bb f240 ddbd

fc_mu.bias f4 [3]
-0.37728643 -0.24034531 -0.23802064
00000000: b02b c1be 151d 76be afbb 73be
