LIRL results/EV-Charging/hppo/run_5_seed_1386/hppo_high_policy.pth (torch, 63169 bytes, 6 tensors)

network.0.weight f4 [128, 39]
0	0x3d5f2d7d	0.05448674
1	0x3d3bdbd2	0.045863934
2	0xbe224ddd	-0.15850015
3	0xbd93e4e6	-0.07221393
4	0xb8caec66	-9.676143e-05
5	0x3d4f010d	0.05053811
6	0xbddab969	-0.106798954
7	0x3db79e81	0.08965779
8	0xbd90f699	-0.07078285
9	0xbd66810b	-0.05627541
10	0x3e025d6b	0.12730949
11	0x3e08a4b9	0.13344087
12	0x3db3da4f	0.087818734
13	0xbb0abd39	-0.0021169914
14	0x3df40e12	0.11916746
15	0xbda86c02	-0.08223726
16	0x3df8f846	0.121567294
17	0x3d91ade9	0.07113249
18	0x3cd65f23	0.026168412
19	0xbdbe3401	-0.09287263
20	0xbe14d584	-0.14534575
21	0xbc21f0ea	-0.009884099
22	0xbcd903ef	-0.026491133
23	0x3e03c6b6	0.12868771
24	0xbd9763f8	-0.073921144
25	0x3da7475e	0.08167909
26	0xbdcf55f4	-0.10123816
27	0x3e14944b	0.14509694
28	0xbd907b44	-0.07054761
29	0x3e11a4ae	0.14222977
30	0x3e0649e7	0.13114129
31	0xbd8f6ba0	-0.0700295
32	0xbda682a8	-0.081303895
33	0x3ce1fc25	0.027586052
34	0x3b48e02d	0.0030651197
35	0x3d3f0fe2	0.046646006
36	0xbdb754d9	-0.0895173
37	0xbcb6055d	-0.022219354
38	0xbd702a0a	-0.05863384
39	0x3daca372	0.08429612
40	0x3d91b013	0.071136616
41	0x3d00ee9f	0.031477567
42	0xbde6b1e2	-0.11264397
43	0xbe00c3a3	-0.1257463
44	0xbe002433	-0.12513809
45	0xbda7a84b	-0.08186396
46	0xbd81c492	-0.06336321
47	0x3da7d81e	0.08195518
48	0xbd59d08c	-0.0531774
49	0x3dd62cbf	0.104577534
50	0x3dfca5a3	0.1233628
51	0x3e02d53c	0.12776655
52	0xbe15e1d1	-0.14636923
53	0xbd6b16d2	-0.05739481
54	0x3ce81139	0.028328525
55	0xbd881883	-0.066453
56	0x3dc52e8a	0.09628017
57	0xbc63524b	-0.013874601
58	0xbe1fcb6b	-0.15604942
59	0x3dd8da2f	0.1058849
60	0x3d9c1599	0.07621307
61	0xbe0fbdb5	-0.14037211
62	0xbdca0a39	-0.09865231
63	0xbdd27bd9	-0.10277528
64	0x3de78643	0.11304905
65	0xbe06a876	-0.131502
66	0xbdf9e784	-0.12202361
67	0x3e064448	0.13111985
68	0x3d1ff7af	0.03905457
69	0xbe09b10a	-0.13446441
70	0xbca8eff8	-0.020622239
71	0xbe12f892	-0.14352635
72	0x3dded430	0.10880315
73	0xbd3ec1aa	-0.04657141
74	0x3ac71309	0.0015188168
75	0x3cf3aa14	0.029744186
76	0xbc23585a	-0.009969795
77	0xbdf7f3ac	-0.121070236
78	0xbd26dea2	-0.040739663
79	0x3c3642cc	0.011124324
80	0xbdc4afbf	-0.096038334
81	0xbd4e42d4	-0.0503567
82	0x3c87e01e	0.01658636
83	0xbe112526	-0.14174327
84	0xbd94a752	-0.07258476
85	0xbe0baeca	-0.13640895
86	0xbe2476e0	-0.16060972
87	0x3e016a6d	0.12638254
88	0xbde6c772	-0.1126851
89	0x3dbbb50f	0.091653936
90	0xbd9aef34	-0.075651556
91	0x3d1b59d5	0.037927467
92	0x3cc5759f	0.024103938
93	0xbca38f6e	-0.019965854
94	0x3e07a1f9	0.13245381
95	0xbe1cd112	-0.15314129
96	0x3dee649d	0.11640284
97	0xbd74557c	-0.059651837
98	0x3e03b33f	0.12861346
99	0xbe16a854	-0.1471265
100	0x3e171140	0.14752674
101	0xbdc7d773	-0.097578906
102	0xbe12b19d	-0.14325567
103	0x3df987c1	0.12184096
104	0x3d03d1af	0.03218239
105	0xbde96d77	-0.11397832
106	0x3e03f907	0.12887965
107	0xbc34d332	-0.011036681
108	0xbdfcfa68	-0.12352449
109	0xbd372ad6	-0.044718586
110	0xbd9a49a8	-0.0753358
111	0x3dad13ba	0.08451028
112	0xbd7e9eb0	-0.062163055
113	0x3bf148c0	0.007363409
114	0x3d84da11	0.06486905
115	0xbe0c2ef6	-0.13689789
116	0x3d7df9bc	0.062005743
117	0x3c13ff3c	0.009033021
118	0xbc6350a4	-0.013874207
119	0x3e074ec8	0.13213646
120	0xbe228fd7	-0.15875183
121	0xbc34ccfa	-0.011035198
122	0x3da35d07	0.07976728
123	0x3e10d46a	0.1414353
124	0x3e09de9c	0.13463825
125	0x3cfd4bb6	0.03091989
126	0x3e0c11e4	0.136787
127	0x3e09b352	0.13447312
128	0x3d512905	0.05106451
129	0xbd78ecda	-0.060772754
130	0x3d5863e6	0.052829646
131	0xbe154aff	-0.1457939
132	0x3e020e54	0.12700778
133	0xbdcfb580	-0.1014204
134	0x3dae4517	0.085092716
135	0x3da40bb9	0.080100484
136	0xbdd61a4b	-0.10454234
137	0x3dbd4e49	0.09243447
138	0x38e91196	0.000111135814
139	0x3dc36ea6	0.09542589
140	0x3cf2f1e3	0.029656356
141	0xbd8f3391	-0.069922574
142	0xbd8ed488	-0.06974131
143	0xbdc8124b	-0.09769114
144	0x3d07ab3b	0.033122282
145	0xbd6eee17	-0.05833253
146	0xbe165186	-0.14679536
147	0xbcf06090	-0.02934292
148	0xbe0b9efa	-0.13634863
149	0x3d8d084a	0.06886347
150	0x3d3a5bbd	0.045497645
151	0xbdcda718	-0.10041636
152	0x3d834281	0.06409169
153	0xbdb5ddb5	-0.08880178
154	0xbca34b99	-0.019933509
155	0xbda1ba20	-0.07896829
156	0xbcdeff83	-0.027221447
157	0xbdf30af2	-0.11867322
158	0xbb1892f2	-0.0023280946
159	0xbbfd3f40	-0.0077284873
160	0xbd259270	-0.040422857
161	0xbd85f7f6	-0.065414354
162	0x3e0e14d3	0.13875131
163	0xbc5e06b5	-0.013551404
164	0x3dec402d	0.11535678
165	0xbde010c7	-0.109407
166	0x3d082502	0.03323842
167	0xbd4d8057	-0.050171223
168	0x3e07615f	0.13220738
169	0xbcc720fb	-0.024307719
170	0xbd9c7140	-0.07638788
171	0xbdee49f2	-0.11635198
172	0xbded340d	-0.115821935
173	0x3d8d60f7	0.0690326
174	0x3e17e809	0.14834608
175	0x3e1b4c62	0.15165856
176	0x3d082f39	0.03324816
177	0x3e02c509	0.12770475
178	0x3daeb8d1	0.08531345
179	0xbe1cde86	-0.15319261
180	0x3d1f0071	0.03881878
181	0xbddd57ef	-0.108077876
182	0xbe1935c1	-0.14961912
183	0xbd02e6b3	-0.031958293
184	0x3da5284a	0.08064325
185	0xbde55697	-0.11198156
186	0x3dd5ce38	0.10439724
187	0xbd06df2e	-0.032927684
188	0xbd0ed19d	-0.03486787
189	0x3d2ab251	0.041673962
190	0x3d59f779	0.053214524
191	0x3e050ac6	0.12992391
192	0xbdf44098	-0.11926383
193	0xbdccd1b7	-0.100009374
194	0x3c944c0f	0.018102674
195	0xbd68ace1	-0.056805495
196	0x3db6c113	0.08923545
197	0xbc04cdf0	-0.00810574
198	0x3d845b00	0.064626694
199	0xbdc5cb54	-0.096579224
200	0xbd0d11ff	-0.03444099
201	0x3e00fa33	0.12595443
202	0x3b9b513e	0.0047399094
203	0xbe11cc11	-0.14238001
204	0xbd9fb59a	-0.077983096
205	0xbd7a04ba	-0.061039664
206	0xbc23c52f	-0.009995743
207	0x3d79a7f6	0.060951196
208	0x3dfb3c2d	0.12267337
209	0xbdcff7f4	-0.10154715
210	0xbc57f790	-0.013181582
211	0x3d2e183a	0.042503573
212	0x3dd59e1c	0.104305476
213	0x3e0f8db2	0.14018896
214	0x3d7a3ab9	0.06109116
215	0xbc9de2fe	-0.019273277
216	0x3dc3cec0	0.09560919
217	0x3d06f78e	0.03295093
218	0x3db225da	0.08698626
219	0x3c78c448	0.015183516
220	0x3e131127	0.14362012
221	0x3da26fa3	0.07931449
222	0x3da8c6b9	0.08241028
223	0x3d6a262c	0.05716531
224	0xbd19cc46	-0.037548326
225	0x3c12bdf5	0.008956422
226	0x3d5ca56c	0.053868696
227	0x3d7f8d06	0.06239035
228	0xbe085e56	-0.13317236
229	0xbd9eb64f	-0.07749616
230	0x3dbb5126	0.09146337
231	0xbddf551f	-0.109049074
232	0x3cd74c16	0.026281398
233	0x3e21305e	0.15741107
234	0xbb7a4a0d	-0.003819111
235	0xbd84fa96	-0.06493108
236	0x3e0ba868	0.1363846
237	0xbd8274c5	-0.06369928
238	0x3e265387	0.162428
239	0xbe04636b	-0.1292855
240	0x3e25df1e	0.16198394
241	0xbe0d63d0	-0.13807607
242	0x3d66470b	0.056220096
243	0xbd41ea15	-0.04734238
244	0xbe1e9f05	-0.15490349
245	0x3e25c8cc	0.16189879
246	0xbddb23d4	-0.10700193
247	0x3daee921	0.085405596
248	0xbd078f58	-0.033095688
249	0xbcce3a5b	-0.02517431
250	0xbdb6c65f	-0.08924555
251	0xbdd1be28	-0.102413476
252	0x3e1c3866	0.1525589
253	0x3dc1dcb2	0.094659224
254	0x3e0da64f	0.13832973
255	0xbdfcfb6c	-0.123526424

network.0.bias f4 [128]
0	0xbe2e3b01	-0.17014696
1	0x3dc4600b	0.09588631
2	0xbc1723db	-0.009224857
3	0xbe3246c0	-0.17409801
4	0x3e057b72	0.13035372
5	0xbdac5ac8	-0.08415753
6	0xbd83c4cb	-0.0643402
7	0xbda69aa9	-0.08134968
8	0x3d47bd63	0.048764598
9	0x3d86b781	0.06577969
10	0x3d9b2e40	0.07577181
11	0x3dd44a55	0.1036574
12	0xb9b14318	-0.0003381006
13	0x3e0b7c7f	0.1362171
14	0xbe0d18f4	-0.1377905
15	0x3bb5901e	0.0055408617
16	0x3dabff22	0.08398272
17	0x3ddabc83	0.10680487
18	0xbe035571	-0.12825562
19	0xbd828d99	-0.06374664
20	0x3e0a1be6	0.13487205
21	0x3d53117c	0.051530346
22	0x38c7de16	9.530426e-05
23	0xbdc4fb8b	-0.096182905
24	0x3c82b464	0.015955158
25	0x3d850f54	0.06497064
26	0x3d8057f7	0.06266778
27	0xbd3d9092	-0.04628045
28	0xbd8d8edb	-0.06912013
29	0xbd812e39	-0.063076444
30	0xbbfc8a1b	-0.007706893
31	0xbd90225c	-0.070378035
32	0xbda894fa	-0.0823154
33	0x3d618d6a	0.055066504
34	0x3daf5a33	0.08562126
35	0xbd914edb	-0.070951186
36	0x3dcef61b	0.10105535
37	0xb60417b8	-1.968334e-06
38	0xbd92f518	-0.07175654
39	0xbe1603c0	-0.14649868
40	0x3b82e81d	0.003994955
41	0x3e2d76de	0.16939875
42	0x3e02cc01	0.12773134
43	0xbdcd9080	-0.10037327
44	0x3dbd83b5	0.09253637
45	0xbe0a3209	-0.1349565
46	0xbdb77507	-0.08957868
47	0x3dc24e89	0.09487636
48	0x3e103df0	0.14086127
49	0x3df18bf3	0.11794271
50	0xbdc7cf67	-0.09756356
51	0xbd6e5058	-0.05818209
52	0x3d3678f8	0.04454896
53	0x3d0c36c6	0.034231924
54	0xbd326a88	-0.043558627
55	0xbd5632cd	-0.05229454
56	0x3c917c7d	0.017759556
57	0xbdd3cefd	-0.10342214
58	0xbd662297	-0.05618533
59	0xbccb8767	-0.024844838
60	0xbd6c634b	-0.05771188
61	0x3e1d827c	0.15381807
62	0xbdc6d337	-0.09708255
63	0x3e0e2eeb	0.13885085
64	0xbd9c1bea	-0.07622512
65	0xbddfc49e	-0.109261736
66	0xbc2e4fc7	-0.010639138
67	0xbe2584fc	-0.16164011
68	0x3dfe23be	0.12409161
69	0xbe02b25c	-0.12763351
70	0xbe011ce3	-0.12608676
71	0xbccb9e43	-0.024855739
72	0xbe0fe686	-0.14052781
73	0x3dc23b51	0.0948397
74	0xbda2ac6d	-0.07943044
75	0x3d6ab478	0.057301015
76	0xbd4bbfc7	-0.04974344
77	0x3da4b3d3	0.08042111
78	0x3c9ee8a9	0.01939805
79	0xbd8b8679	-0.06812758
80	0xbdc21258	-0.09476155
81	0xbdda115e	-0.10647844
82	0xbe423444	-0.1896525
83	0x39e83e03	0.0004429669
84	0x3e04c80c	0.12966937
85	0x3de88a71	0.113545306
86	0xbe02abc5	-0.12760837
87	0xbd9db7d5	-0.07701079
88	0xbd563e10	-0.05230528
89	0x3cd4a999	0.025959777
90	0x3d53f54e	0.051747613
91	0x3d918ab8	0.071065366
92	0xb83c1e4c	-4.485091e-05
93	0xbdbea33b	-0.093084775
94	0xbda1eec8	-0.07906872
95	0x3d0a40f5	0.033753354
96	0xbe2a740e	-0.16645834
97	0x3e17f4ce	0.1483948
98	0xb950cf44	-0.00019913638
99	0xbc137f25	-0.009002482
100	0xbde56614	-0.112011105
101	0xbe23366b	-0.15938728
102	0xbd22c094	-0.039734438
103	0x3da01c7e	0.078179345
104	0xbe05e60a	-0.13076034
105	0xbbec5743	-0.007212551
106	0x3bc00b92	0.0058607543
107	0xbc8bace6	-0.017050218
108	0x3e0e4890	0.13894868
109	0xbdd21072	-0.10257043
110	0x3e1667e9	0.14688076
111	0xbc832162	-0.01600713
112	0xbe294389	-0.16529669
113	0xbddee824	-0.10884121
114	0xbd89eccb	-0.06734618
115	0x3e23572c	0.15951222
116	0xbd409cba	-0.047024466
117	0x3d5692bb	0.052386027
118	0xbdb9e73a	-0.09077306
119	0xbe10121d	-0.1406941
120	0xbd8e1a58	-0.069386184
121	0x3d993e49	0.07482583
122	0x3e0d2a41	0.1378565
123	0x3e0820b9	0.13293733
124	0x3d8c55b6	0.068522856
125	0xbad15d0c	-0.0015973165
126	0xbd212d14	-0.03934963
127	0xbd4698b7	-0.048485484

network.2.weight f4 [64, 128]
0	0xbd3980ab	-0.045288723
1	0xbdc6bdb0	-0.09704149
2	0xbdbbfaaa	-0.0917867
3	0x3d82b0c9	0.06381375
4	0xbaaa4776	-0.0012991268
5	0xbdc5add8	-0.09652299
6	0x3d92798f	0.07152092
7	0xbd6e78f8	-0.058220834
8	0x3ca77d24	0.020445414
9	0xbc25f200	-0.010128498
10	0x3d16dfe6	0.03683462
11	0xba98de8d	-0.0011663005
12	0x3c62c7f5	0.013841619
13	0xbb89f000	-0.0042095184
14	0xbd0042a4	-0.031313553
15	0xbd56fa34	-0.052484706
16	0x3c10bca2	0.008834036
17	0xbdb8dffb	-0.09027096
18	0xbcac2ccc	-0.021017455
19	0x3d1ecb7f	0.038768288
20	0x3aed8d25	0.0018123729
21	0x3d90fdb7	0.07079642
22	0x3d0cd759	0.03438506
23	0xbc3423b2	-0.010994839
24	0xbcfe1e04	-0.031020172
25	0x3d2ba64e	0.041906647
26	0x3b10e7ce	0.0022110823
27	0xbd5a06de	-0.053229205
28	0x3d36a4d2	0.04459078
29	0x3d9ad69d	0.075604655
30	0xbc94bbd6	-0.018155973
31	0xbdb7db08	-0.08977324
32	0x3d625c3a	0.055263735
33	0x3d8806e6	0.06641941
34	0xbcbae581	-0.022814514
35	0xbd9ba44d	-0.07599697
36	0x3c870fe6	0.016487073
37	0x3d760b87	0.060069587
38	0x3d47799e	0.048699968
39	0x3c3027b1	0.010751651
40	0x3d2da588	0.04239419
41	0xbd8b26a1	-0.06794477
42	0x3d6a3e81	0.057188515
43	0xbd2a3333	-0.041552734
44	0xba7b2403	-0.00095802563
45	0xba16e3a6	-0.0005755968
46	0xbd5a5000	-0.05329895
47	0x3c4dce70	0.012561426
48	0x3c3030e8	0.010753848
49	0x3d28e13c	0.041230425
50	0x3c0bcfe1	0.008533449
51	0xbdb583cd	-0.0886303
52	0xbc1b65e1	-0.009484739
53	0xbd3972c9	-0.045275483
54	0x3d8bb537	0.06821673
55	0x3ca45629	0.020060616
56	0xbcbebb11	-0.02328256
57	0x3cb9d245	0.022683272
58	0xbcecc493	-0.028902328
59	0xbd424da1	-0.047437314
60	0xbcc9112d	-0.024544323
61	0xbda42c60	-0.08016276
62	0x3c304b71	0.010760174
63	0x3d551e05	0.052030582
64	0xbdb2f3e6	-0.08737926
65	0x3c1e529c	0.00966325
66	0xbd1c4e9a	-0.038160898
67	0xbd888eda	-0.06667872
68	0x3bb344d0	0.0054708496
69	0x3d37841a	0.044803716
70	0xbdbf1481	-0.09330083
71	0xbd8534cc	-0.06504211
72	0x3cafd113	0.021461999
73	0xbd916a0d	-0.07100306
74	0x3d81cc06	0.063377425
75	0x3c20360b	0.00977851
76	0xbd784079	-0.06060836
77	0x3c30a674	0.010781873
78	0xbdbf8294	-0.09351078
79	0xbc473893	-0.012159484
80	0x3d7edf60	0.062224746
81	0x3d5306b3	0.05152006
82	0xbd663356	-0.0562013
83	0xbd87a1ab	-0.066226326
84	0x3d8ad69c	0.06779215
85	0xbc0dc959	-0.008653962
86	0x3d8e3d99	0.069453426
87	0x3dc76f25	0.09737996
88	0x3bea6423	0.0071530505
89	0xbd8f5718	-0.06999034
90	0x3c679897	0.014135501
91	0xbba7bca2	-0.0051189223
92	0x3d74c122	0.0597545
93	0xbbaa339e	-0.0051941415
94	0xbd95a868	-0.073075116
95	0x3d23cc63	0.03998984
96	0x3d87571e	0.06608413
97	0xbc1f9be8	-0.009741761
98	0x3d5b6556	0.05356344
99	0xbd92d8da	-0.071702674
100	0xbbdb1547	-0.006685886
101	0xbcc56dc1	-0.024100186
102	0xbdb16a52	-0.08662857
103	0xbd9a4f7a	-0.0753469
104	0x3cc4e316	0.024034064
105	0xbda1ae27	-0.07894545
106	0x3c2d62d7	0.010582647
107	0xbcd7982b	-0.026317677
108	0xbc040f37	-0.008060268
109	0x3d71e4e9	0.059056196
110	0x3d823b9c	0.06359026
111	0xbccd8d34	-0.025091745
112	0xbd5460bc	-0.051850066
113	0xbd6d7050	-0.057968438
114	0xbb6b55cd	-0.0035909296
115	0x3c0635e6	0.008191561
116	0x3baf4d6f	0.005349807
117	0x3d4d261c	0.050085172
118	0x3b198e2f	0.0023430695
119	0xbd100941	-0.035165075
120	0xbd7b2ab7	-0.061320033
121	0x3c508fbd	0.012729582
122	0xbd006b3f	-0.031352278
123	0x3d8a941e	0.06766532
124	0xb8c8fbc2	-9.583637e-05
125	0xbd18fcb9	-0.03735039
126	0xbbcda6c6	-0.0062759845
127	0x3d1dba39	0.038507674
128	0xbcc5f4db	-0.024164608
129	0x3ba6abe1	0.0050864075
130	0x3c7cc814	0.015428562
131	0x3d4c6f59	0.049910877
132	0xbda1d673	-0.07902231
133	0xbd47d706	-0.048789047
134	0xbcaebf3f	-0.021331428
135	0x3ce6d7a0	0.02817899
136	0xbd1e692a	-0.03867451
137	0xbd502c29	-0.050823364
138	0xbd0a84b8	-0.033817977
139	0xbdada956	-0.08479564
140	0xbd079537	-0.033101287
141	0x3d971abf	0.07378148
142	0x3da3e724	0.08003071
143	0x3c82eed9	0.015983032
144	0x3d70f2dc	0.05882536
145	0xbd950459	-0.0727622
146	0xbc8c7b88	-0.017148748
147	0x3b7233d6	0.0036957166
148	0x3d1f06ac	0.038824722
149	0xbd87c38b	-0.06629094
150	0xbcd95875	-0.026531437
151	0x3d969717	0.07353037
152	0x3a2fa6b7	0.00067005627
153	0xbc4180b8	-0.011810474
154	0x3d9e8ff8	0.077423036
155	0x3d9b101a	0.075714305
156	0xbdb01ad7	-0.08598869
157	0x3cf1b48c	0.029505037
158	0xba035dbd	-0.00050112215
159	0xbd58da6b	-0.052942675
160	0xbd6ccacd	-0.057810593
161	0xbda7681f	-0.081741564
162	0x3c969915	0.018383542
163	0x3d03ea5e	0.03220593
164	0x3cc6fcd4	0.02429048
165	0x3d7afc99	0.061276052
166	0x3d8e771a	0.069563106
167	0x3d25012a	0.040284313
168	0xbd91f94f	-0.0712763
169	0xbda4adf5	-0.08040992
170	0xbba038f2	-0.004889601
171	0x3b63e580	0.0034774244
172	0xbd4b3d59	-0.049619053
173	0x3d326284	0.043550983
174	0xb8a1930c	-7.704468e-05
175	0x3d278f42	0.040908106
176	0x3ad216b0	0.001602849
177	0xbcb0956c	-0.021555625
178	0xbd235870	-0.039879262
179	0x3d804e92	0.06264986
180	0x3d92e903	0.0717335
181	0xbd1ddbea	-0.038539805
182	0x3d8ed9af	0.069751136
183	0xb924ee60	-0.0001572906
184	0x3c29885b	0.010347451
185	0x3d8e8014	0.06958023
186	0x3b148775	0.0022663746
187	0xbc9ee6df	-0.019397197
188	0x3bf52334	0.007481003
189	0xbdb6e10e	-0.089296445
190	0xbd33231b	-0.04373465
191	0x3cb31273	0.021859383
192	0xbd7ad8c9	-0.0612419
193	0xbdc65268	-0.096836865
194	0xbd9d1f91	-0.076720364
195	0xbda2d8ca	-0.079515055
196	0xbd105776	-0.03523966
197	0xbd9ea6e5	-0.07746676
198	0xbda321a0	-0.07965398
199	0x3d78783f	0.06066155
200	0x3d4b3cbd	0.04961847
201	0xbd9eebeb	-0.077598415
202	0xbd5f694f	-0.05454379
203	0xbdacd47e	-0.08438967
204	0x3da204ec	0.07911095
205	0x3d73aad8	0.0594891
206	0xbd9d52f5	-0.076818384
207	0x3d54e897	0.051979627
208	0x3ca16687	0.01970221
209	0x3d919780	0.071089745
210	0x3da2cf0f	0.079496495
211	0x3c594170	0.01326023
212	0xbd212138	-0.03933832
213	0x3c031226	0.007999932
214	0xbd8ed7af	-0.06974732
215	0xbd94743b	-0.07248732
216	0x3cf49160	0.029854476
217	0xbd8bdfd2	-0.068298
218	0xbd8fe120	-0.07025361
219	0x3daf8639	0.08570523
220	0xbc3d2c7f	-0.011546253
221	0xbd577bf4	-0.052608445
222	0xbc172948	-0.009226151
223	0x3d94de0e	0.07268916
224	0xbd45bfa9	-0.048278484
225	0x3d93dd0e	0.07219897
226	0xbcf3cb8a	-0.02976014
227	0xbca12a3a	-0.019673456
228	0xbd9de70a	-0.07710083
229	0x3db17496	0.08664815
230	0x3d2ced24	0.042218342
231	0xbc834627	-0.016024662
232	0x3da58667	0.08082276
233	0x3d6bb5bc	0.057546362
234	0x3bcf17da	0.006319982
235	0xbdb5ef40	-0.08883524
236	0xbd91a398	-0.07111281
237	0x3c99e176	0.018784266
238	0xbda21a80	-0.07915211
239	0xbd89326c	-0.0669907
240	0x3d32bbe3	0.043636214
241	0x3c2a88f6	0.010408631
242	0x3d96d045	0.07363943
243	0xbd900cee	-0.07033716
244	0xbcc34021	-0.02383429
245	0x3d255709	0.040366206
246	0x3d187268	0.03721848
247	0x3b283c67	0.0025670768
248	0x3d4bae7c	0.04972695
249	0x3c9f1848	0.019420758
250	0x3c7c4d69	0.015399315
251	0x3da7990c	0.08183488
252	0xbc907dc5	-0.017638097
253	0x3da07481	0.07834721
254	0x3d0e3f4b	0.03472833
255	0xbc163071	-0.009166823

network.2.bias f4 [64]
0	0xbd611b80	-0.054957867
1	0xbcae940e	-0.021310832
2	0x3c00ab88	0.007853396
3	0xbce04f56	-0.02738158
4	0xbd6fdecc	-0.058562085
5	0xbcc4fc82	-0.024046186
6	0x3d5afc6b	0.05346338
7	0xbd976aaa	-0.073933914
8	0x3d866c71	0.06563652
9	0x3ccdd2bf	0.025124906
10	0x3d005bd5	0.031337578
11	0xbc4a8894	-0.012361664
12	0x3cd34046	0.025787484
13	0x3d794d59	0.06086478
14	0xbd6005f6	-0.054693185
15	0x3d5bc6d3	0.05365641
16	0x3d1a8fdb	0.037734848
17	0x3d2c74ce	0.04210358
18	0xbd13b4ac	-0.036060974
19	0xbcbdca6c	-0.023167811
20	0x3d409298	0.047014803
21	0xbdb4abc8	-0.08821827
22	0xbd98e95d	-0.074663855
23	0xbd62590d	-0.055260707
24	0x3bcba782	0.006215037
25	0xba11aae9	-0.00055567786
26	0xbd515398	-0.05110511
27	0x3d551333	0.052020263
28	0x3d6a4a19	0.05719957
29	0x3da2cb37	0.079489164
30	0x3c1b43e9	0.00947664
31	0x3da83e95	0.082150616
32	0xbd75f7c7	-0.060050752
33	0xbdb02d17	-0.0860235
34	0xbd61f185	-0.05516197
35	0xbdc1058d	-0.09424887
36	0xbd5ac329	-0.053408775
37	0x3c49d97e	0.012319921
38	0x3ce30d7c	0.02771639
39	0xbceaae89	-0.028647678
40	0xbd80dd1d	-0.06292174
41	0xbd827804	-0.063705474
42	0x3cb79a8c	0.02241256
43	0xbbd8578d	-0.0066022337
44	0xbcbeea18	-0.023304984
45	0xbcfcf29e	-0.030877408
46	0x3d95175a	0.072798446
47	0xbdb1bad7	-0.08678215
48	0xbd37c73c	-0.04486774
49	0x3d365681	0.04451609
50	0xbc875cf9	-0.016523825
51	0xbd33bfe1	-0.04388416
52	0xbd8aca1d	-0.06776831
53	0x3d68328f	0.05668884
54	0xbc7bd528	-0.015370645
55	0xbc887ed0	-0.016662031
56	0x3cf12f29	0.029441433
57	0x3d9b5ef2	0.07586469
58	0xbd1e744e	-0.038685136
59	0x3d45b11e	0.048264615
60	0x3b6899ce	0.0035492065
61	0xbd48a0af	-0.048981365
62	0x3bc81f70	0.0061072633
63	0xbdbe62a9	-0.09296162

network.4.weight f4 [25, 64]
0	0xbb91e8bf	-0.0044527943
1	0xbdaa27f7	-0.08308404
2	0xbd152a33	-0.036417197
3	0x3dbbb7df	0.0916593
4	0x3ca23c2c	0.019804083
5	0x3d0ac071	0.033874933
6	0xbdb46a3d	-0.08809326
7	0xbcf1ffdf	-0.029540954
8	0x3db05810	0.086105466
9	0xbaff1e92	-0.0019464067
10	0xbdd7a1b3	-0.105288886
11	0x3d587504	0.05284597
12	0xbd25f841	-0.040519956
13	0xbd9ceae9	-0.07661993
14	0xbd8ab650	-0.067730546
15	0x3db4da99	0.08830757
16	0xbca35ee5	-0.01994271
17	0xbd2b83be	-0.041873686
18	0x3d9dfd30	0.07714307
19	0xbcfc8e46	-0.03082956
20	0x3c5e2e01	0.013560773
21	0x3db6a5ba	0.089183286
22	0x3ab978dd	0.00141504
23	0xbdbf1332	-0.09329833
24	0xbb899b0a	-0.0041993903
25	0xbdaa9656	-0.083294556
26	0xbdeab6ec	-0.11460671
27	0xbdb05931	-0.08610762
28	0x3dbdf6bb	0.09275576
29	0xbded7248	-0.11594063
30	0xbd6ef491	-0.058338705
31	0x3ddf3302	0.10898401
32	0xbdeef77b	-0.11668297
33	0xbdcd4a2c	-0.10023913
34	0xbdecadbd	-0.115565754
35	0xbd8ce224	-0.068790704
36	0xbdd2405e	-0.10266183
37	0x3d711f12	0.05886752
38	0xbc78b320	-0.0151794255
39	0x3dc03fae	0.09387146
40	0x3d884d3c	0.06655356
41	0xbe04dc72	-0.12974718
42	0xbd249c98	-0.040188402
43	0x3cd31f39	0.025771724
44	0xbb1e2d33	-0.0024135828
45	0x3d794da4	0.06086506
46	0xbc8f22f6	-0.017472725
47	0x3c679eae	0.014136953
48	0x3dc2bf4f	0.095091455
49	0x3da46157	0.080263786
50	0xbcd8146f	-0.026376931
51	0x3dd80e5a	0.10549612
52	0xbe0a1ea3	-0.1348825
53	0xbd8483a2	-0.064704195
54	0xbded185f	-0.11576914
55	0xbdc0232e	-0.0938171
56	0x3d758015	0.0599366
57	0x3d75d330	0.060015857
58	0xbd168e19	-0.03675661
59	0xbd99f397	-0.07517164
60	0x3c48ea71	0.012262926
61	0xbd3caf92	-0.046065874
62	0xbcf05723	-0.029338425
63	0x3bb4ea37	0.0055210846
64	0x3dc47b73	0.095938586
65	0xbdda903b	-0.10672041
66	0xbd720de1	-0.059095267
67	0xbdf6f741	-0.12058879
68	0x3dd42e67	0.10360413
69	0x3db8b698	0.09019202
70	0xbd947268	-0.07248384
71	0xbd281a87	-0.041040923
72	0x3d95eb9d	0.0732033
73	0xbd46a885	-0.048500556
74	0xbdc4dff5	-0.09613029
75	0x3d7c9f1a	0.06167517
76	0x3d03e942	0.032204874
77	0x3de2f57c	0.11081979
78	0xbd5c0179	-0.053712342
79	0xbd4db113	-0.0502177
80	0x3dc35e76	0.09539501
81	0xbd988476	-0.0744714
82	0x3c845fc5	0.016158948
83	0xbdb85a42	-0.0900159
84	0x3bc7e023	0.006099717
85	0x3da8f8f9	0.08250613
86	0xbc63c8db	-0.013902868
87	0x3bee1cc0	0.007266611
88	0xbdc08a68	-0.09401399
89	0x3caa6bca	0.020803351
90	0xbd8f2479	-0.069893785
91	0xbdfecd6d	-0.124415256
92	0x3bb23ef9	0.005439636
93	0x3dce7569	0.10080988
94	0xbcfdded3	-0.03099004
95	0x3da536cd	0.08067093
96	0x3c93af2b	0.018027863
97	0xbda0e5bb	-0.078563176
98	0xbc68d7ef	-0.014211639
99	0xbd3e0023	-0.04638685
100	0x3cd001bb	0.02539145
101	0x3de5defc	0.112241715
102	0xbdf883f9	-0.12134547
103	0xbdc0d177	-0.09414952
104	0xbd94dbec	-0.07268509
105	0xbde5e4d5	-0.11225287
106	0x3cdb68fb	0.026783457
107	0xbbdc23f9	-0.0067181555
108	0x3d382a96	0.044962488
109	0xbc56e1b3	-0.013115334
110	0x3d40fe58	0.04711756
111	0x3dd71e39	0.105038114
112	0xbdebb27b	-0.11508652
113	0x3d846990	0.06465447
114	0xbd53c84b	-0.051704686
115	0x3dd748f0	0.105119586
116	0xbdc8a79b	-0.09797593
117	0x3c9f4b0c	0.019444965
118	0xbd244421	-0.040104035
119	0xbc2c3326	-0.010510242
120	0xbdf6ddef	-0.12054049
121	0xbe044b77	-0.12919413
122	0x3d12282c	0.035682842
123	0xbdfd8810	-0.123794675
124	0xbe09a83f	-0.13443087
125	0x3d13d97f	0.036096092
126	0x3dbb65a9	0.091502495
127	0x3ca34b22	0.019933287
128	0xbd900d0b	-0.07033738
129	0x3d22cbe1	0.039745215
130	0xbde75bf3	-0.11296835
131	0x3dc15b25	0.094412126
132	0xbd72d070	-0.059280813
133	0xbda9bd61	-0.08288074
134	0xbc4082ce	-0.011749936
135	0x3db90c6c	0.090355724
136	0xbdaf56ab	-0.085614525
137	0x3dc5689d	0.09639094
138	0xbde50ec9	-0.11184461
139	0xbda68ebb	-0.081326924
140	0x3d42213b	0.047394972
141	0xbc5e59d3	-0.01357122
142	0xbcf3ffeb	-0.029785117
143	0x3c819274	0.015816905
144	0x3d6308bd	0.055428255
145	0xbdcc561f	-0.09977364
146	0xbd06c817	-0.032905664
147	0x3d98b215	0.074558415
148	0x3cae9b16	0.021314185
149	0x3d2f3b32	0.042781062
150	0xbce2e2cc	-0.027696036
151	0x3ca86d30	0.020559877
152	0xbd093f49	-0.03350762
153	0xbdafe1b7	-0.085879736
154	0xbd056a96	-0.03257235
155	0xbd73dc01	-0.059535984
156	0xbdb2d04a	-0.08731134
157	0x3db7f3c8	0.089820445
158	0x3d832f77	0.064055376
159	0xbd1f413c	-0.03888057
160	0x3d905cc2	0.07048942
161	0x3d9a0e40	0.07522249
162	0x3db48116	0.08813684
163	0xbe04640c	-0.1292879
164	0x3d89b375	0.06723682
165	0xbde811dd	-0.11331532
166	0x3c7bb1d9	0.015362226
167	0xbd94818e	-0.07251273
168	0xbca1192e	-0.019665327
169	0x3dd9f044	0.1064153
170	0xbb462208	-0.0030232687
171	0x3de5bb10	0.1121732
172	0x3c45563b	0.012044485
173	0xb95bd888	-0.00020966132
174	0xbd102425	-0.03519072
175	0x3bf31bb2	0.007419073
176	0xbc3662e7	-0.011131979
177	0x3cf4e06c	0.029892169
178	0xbd524148	-0.05133179
179	0x39ef4301	0.00045635554
180	0xbdd882cc	-0.105718225
181	0x3b291f81	0.0025806131
182	0xbd319579	-0.04335544
183	0xbdaf2a8f	-0.08553039
184	0xbce5c5aa	-0.028048355
185	0x3daae621	0.08344675
186	0xbd88f265	-0.06686858
187	0xbdadc5ac	-0.084849685
188	0xbdea9626	-0.1145442
189	0xbba3db3b	-0.0050004995
190	0x3deee128	0.11664039
191	0xbb46fa90	-0.003036175
192	0xbd712561	-0.058873538
193	0xbbd50d00	-0.006501794
194	0xbcd8ffe6	-0.02648921
195	0x3c2a98af	0.010412379
196	0xbcfb91f2	-0.03070924
197	0xbc0c3677	-0.008557907
198	0x3df44a65	0.11928252
199	0x3d95321a	0.07284947
200	0xbdec4e0f	-0.11538326
201	0x3cad53ac	0.021158062
202	0xbde07ee9	-0.10961706
203	0xbd721d1c	-0.059109792
204	0x3d4bc968	0.049752623
205	0x3ce81a3d	0.028332824
206	0xbd4f159b	-0.050557714
207	0x3da7ce33	0.08193626
208	0x3ddb0c9c	0.106957644
209	0x3dd64a3a	0.10463376
210	0xbdc6669f	-0.09687542
211	0xbd7702ee	-0.06030553
212	0xbd55bcc9	-0.052181993
213	0x3dd819bc	0.105517834
214	0x3d8513e4	0.064979345
215	0xbdde5b4b	-0.108572565
216	0x3d82d736	0.063887045
217	0xbd168c9c	-0.03675519
218	0xbd9b4352	-0.075812
219	0xbd488875	-0.04895826
220	0x3d93bdd0	0.07213938
221	0xbd2a427e	-0.04156732
222	0xbdc4c3f1	-0.09607685
223	0xbd88283f	-0.06648301
224	0x3c100e8c	0.008792531
225	0x3ce27b94	0.027646817
226	0xbd9a52ac	-0.075353
227	0xbddf8556	-0.10914104
228	0xbda8e7a5	-0.08247308
229	0xbd8cbdda	-0.06872149
230	0x3dbeaff5	0.09310905
231	0x3d19fe43	0.037596
232	0x3d839288	0.06424433
233	0x3d748745	0.059699316
234	0x3dc49cce	0.096002206
235	0xbc9d7f19	-0.019225644
236	0x3d67c68e	0.05658584
237	0xbdaf629b	-0.085637294
238	0xbc98469d	-0.018588359
239	0x3d444c67	0.047924425
240	0xbdbf7f43	-0.09350445
241	0xbd8ca7fb	-0.06867977
242	0x3d8d42d1	0.0689751
243	0xbdacc6a2	-0.08436324
244	0x3dccd7bc	0.100020856
245	0x3d333ae1	0.043757323
246	0x3d9a9aef	0.075490825
247	0xbd8074c9	-0.06272275
248	0xbda0a8cc	-0.078446954
249	0xbc91552f	-0.017740814
250	0x3d87745d	0.066139914
251	0xbda175a0	-0.07883763
252	0xbd049bb0	-0.032375038
253	0xbd53d3c7	-0.05171564
254	0x3d80d386	0.06290345
255	0xbcb406e2	-0.021975938

network.4.bias f4 [25]
0	0xbd3f7131	-0.046738807
1	0xbd4cb71f	-0.049979325
2	0xbda6ecdc	-0.08150646
3	0xbdc8027a	-0.09766097
4	0x3cc8000a	0.024414081
5	0xbca7dcc7	-0.020491017
6	0xbdafeba1	-0.085898645
7	0xbcd62469	-0.026140409
8	0x3da8e67d	0.08247087
9	0x3cc97c1e	0.024595316
10	0xbd264ddf	-0.040601607
11	0x3ab48c34	0.0013774694
12	0x3d02f9cb	0.031976502
13	0x3e09fcd0	0.13475347
14	0x3d979dee	0.074031696
15	0x3dddf0df	0.10836958
16	0x3daa9c54	0.083305985
17	0x3d70bf17	0.058775987
18	0x3d21533e	0.039386027
19	0x3db8c788	0.090224326
20	0x3cfb140b	0.030649206
21	0x3d20e150	0.039277375
22	0x3c51a052	0.012794571
23	0xbdebf795	-0.11521832
24	0xbd2fff56	-0.042968117
