LIRL results/Ablation result/ddpg_mask_multi_run_10_3/run_10_seed_1993/ddpg_mask_mu_20250905_140315.pth (torch, 95445 bytes, 9 tensors)

fc1.weight f4 [128, 105]
0	0x3d821c82	0.06353094
1	0xbcbe37c7	-0.023219956
2	0x39fbe49c	0.00048044778
3	0x3d23469e	0.039862268
4	0xbd13d8b0	-0.03609532
5	0x3dad07f9	0.08448786
6	0xbe0c91f5	-0.13727553
7	0xbd66764d	-0.056265164
8	0x3dc5defc	0.096616715
9	0xbd8a8913	-0.06764426
10	0x3dc13e83	0.09435751
11	0x3e074f0e	0.1321375
12	0x3cf8e249	0.030381339
13	0x3e49c081	0.1970234
14	0x3dce0ce0	0.100610495
15	0xbcdb89c9	-0.0267991
16	0x3df00f82	0.11721708
17	0x3dc5f039	0.096649595
18	0x3df08e6b	0.11745914
19	0xbbf1ff00	-0.0073851347
20	0x3ca6cbb0	0.020360798
21	0xbd8508fb	-0.064958535
22	0xbe600bde	-0.21879527
23	0xbd4f8aa0	-0.050669312
24	0xbd06dca8	-0.032925278
25	0xbd30939e	-0.04310953
26	0xbccc3bf5	-0.024930933
27	0x3cafb253	0.021447336
28	0xbcb0cf18	-0.021583125
29	0xbe0fc94b	-0.14041631
30	0xbda9c340	-0.08289194
31	0x3dd5e8e7	0.10444813
32	0x3cbea236	0.023270708
33	0xbbec48b0	-0.0072108135
34	0xbe185c45	-0.14878948
35	0x3d8a6b09	0.067586966
36	0x3c701b28	0.014654912
37	0x3e002cce	0.12517092
38	0x3dd3e7ed	0.10346971
39	0x3e901a2a	0.28144962
40	0xbe170c80	-0.14750862
41	0xbe4b4156	-0.19849142
42	0xbeac2860	-0.33624554
43	0xbdbb9633	-0.091595076
44	0xbbd93892	-0.006629058
45	0x3d7ad4b3	0.061238002
46	0x3d36e3ab	0.044650715
47	0xbe0c5067	-0.13702546
48	0xbe8da8e0	-0.27667904
49	0xbe0a544f	-0.13508724
50	0x3e7cb04c	0.24676627
51	0x3e94f670	0.29094267
52	0x3ea4bcb2	0.32175213
53	0x3ac15521	0.0014750102
54	0xbd7a3a8e	-0.061091
55	0xbd84f51c	-0.064920634
56	0x3c0d8621	0.008637936
57	0xbdf1ea59	-0.118122764
58	0x3cbddb7b	0.023175946
59	0xbd0bba26	-0.03411307
60	0xbd91beb5	-0.071164526
61	0xbdb7140b	-0.0893937
62	0xbd5e3868	-0.054253012
63	0x3e14cfff	0.14532469
64	0xbe023ace	-0.12717745
65	0xbe3d098a	-0.1846067
66	0xbdbb5d07	-0.09148603
67	0xbdf2d383	-0.11856749
68	0x3dc67e63	0.09692075
69	0xbe528714	-0.2055934
70	0xbe184728	-0.14870894
71	0xbe0be5e2	-0.13661912
72	0xbe28a8b8	-0.16470611
73	0x3c03978f	0.00803174
74	0xbe2bb856	-0.16769537
75	0xbe4197bd	-0.1890554
76	0xbd2455ab	-0.04012076
77	0x3d8ab4c7	0.06772762
78	0xbe2fa5f8	-0.17153156
79	0xbe249eb6	-0.16076168
80	0xbb2c8c8a	-0.0026328885
81	0x3cda5602	0.02665234
82	0xbdc8193d	-0.09770439
83	0xbd7d0e2e	-0.0617811
84	0xbd4d2fa0	-0.050094247
85	0xbdee23b8	-0.116279066
86	0xbe07c533	-0.1325882
87	0xbe81be78	-0.2534063
88	0x3d1add3d	0.037808646
89	0xbe7689fd	-0.24076076
90	0xbd24fd84	-0.040280834
91	0xbd3dd39d	-0.04634439
92	0x3b56797c	0.003272622
93	0xbbe241e4	-0.0069048274
94	0xbe1f4da9	-0.15556969
95	0xbeb18ff1	-0.3468013
96	0xbe5e91a8	-0.21735251
97	0xbdedf7d3	-0.11619534
98	0xbd339e5f	-0.043852206
99	0xbd8f23e1	-0.06989265
100	0xbe1fc4b9	-0.15602387
101	0xbe9647fa	-0.2935179
102	0xbe87a8f9	-0.26496103
103	0x3e81bf6c	0.25341356
104	0x3eb7fb4a	0.35933906
105	0x3e1561b7	0.14588057
106	0x3b882369	0.004154612
107	0x3e01f700	0.1269188
108	0x3d9ca8d9	0.07649393
109	0xbd529b58	-0.05141768
110	0x3da1fdf4	0.07909766
111	0x3ce1a40e	0.027544048
112	0x3da0c7e1	0.07850624
113	0x3d2db537	0.042409148
114	0xbdccdba2	-0.10002829
115	0x3de2e8f9	0.11079592
116	0x3e4a5025	0.19757135
117	0x3e3f540b	0.18684404
118	0x3e99f6d3	0.30071124
119	0x3dd9614b	0.1061426
120	0x3da9ecef	0.082971446
121	0x3d4af893	0.049553465
122	0x3e28c6d0	0.16482091
123	0x3d57f7f2	0.052726693
124	0x3c80c920	0.015720904
125	0x3e1c14d3	0.15242319
126	0x3e41edc4	0.18938357
127	0x3e20f923	0.15720038
128	0x3e2e8f2a	0.170468
129	0x3dc0b408	0.09409338
130	0x3dea6fdf	0.11447119
131	0x3e90aa0f	0.28254744
132	0x3e911703	0.2833787
133	0x3e0aad57	0.13542686
134	0xbbd5e94a	-0.0065280544
135	0x3de08346	0.109625384
136	0x3c8741a3	0.01651079
137	0x3a63e055	0.0008692791
138	0xbe2561b6	-0.16150555
139	0x3d20a328	0.039218098
140	0x3dd34f33	0.103178404
141	0x3d79c863	0.06098212
142	0x3e0825d4	0.1329568
143	0x3db73fc0	0.08947706
144	0x3d8b82a0	0.06812024
145	0xbd305f97	-0.04305991
146	0xbd0526ca	-0.032507695
147	0xbe30af05	-0.17254265
148	0xbe555428	-0.20832884
149	0xbe51de5b	-0.20494978
150	0xbdc6643b	-0.09687086
151	0x3e11a3c3	0.14222626
152	0x3dc1700c	0.09445199
153	0x3e5f524f	0.21808742
154	0x3e0f256a	0.13979116
155	0x3e024174	0.12720281
156	0x3e03d8a8	0.12875617
157	0x3db6d384	0.08927062
158	0x3de5b053	0.11215272
159	0x3dc9c911	0.098528035
160	0x3ccc0b9a	0.024907876
161	0xbd7c52ec	-0.061602518
162	0xbe0255a1	-0.12727977
163	0x3db7284f	0.08943235
164	0x3e221121	0.15826847
165	0x3d9ad327	0.07559805
166	0xbd824ad0	-0.063619256
167	0xbd650417	-0.055912104
168	0x3da3370d	0.079694845
169	0x3cd3ad09	0.025839346
170	0x3da252ba	0.07925935
171	0x3d40f43f	0.04710793
172	0x3de1f768	0.11033517
173	0x3dca9fd2	0.098937646
174	0x3e0990c7	0.13434134
175	0xbc71749e	-0.014737276
176	0xbd5a3b67	-0.053279307
177	0xbdfe62a1	-0.12421156
178	0x3de62bd9	0.11238832
179	0x3dc6add0	0.09701121
180	0xbcefe4c0	-0.029283881
181	0xbd7b2e86	-0.061323665
182	0x3c34f9f4	0.011045922
183	0x3d87b18d	0.06625662
184	0x3dc6e018	0.09710711
185	0x3e015058	0.12628305
186	0x3e0fd5eb	0.14046447
187	0x3e0d14a9	0.13777412
188	0x3dd0b60c	0.10190973
189	0x3de471ce	0.11154519
190	0x3ce0761c	0.027400069
191	0x3dc4fd07	0.09618574
192	0xbd7b1b84	-0.061305538
193	0x3df57739	0.119856305
194	0x3d970e98	0.073758304
195	0x3d7ed356	0.062213264
196	0x3db87241	0.09006167
197	0x3e1ed70f	0.15511726
198	0x3d6ef82b	0.05834214
199	0xbd71e06b	-0.059051912
200	0xbde29835	-0.110641874
201	0xbe2a2c28	-0.16618407
202	0xbe2e52c7	-0.17023765
203	0xbddb0e44	-0.1069608
204	0xbdc4571d	-0.09586928
205	0xbd8ea962	-0.06965901
206	0xbc51cd93	-0.01280536
207	0xbd09995d	-0.033593524
208	0x3e3b5b0d	0.18296452
209	0x3e873745	0.26409355
210	0xbe521dea	-0.20519224
211	0xbe99a2f3	-0.30007133
212	0xbe98e2e3	-0.298606
213	0xbeb5c2e7	-0.3550026
214	0xbe78fc8e	-0.24315092
215	0xbd709497	-0.058735456
216	0xbc0322ef	-0.008003934
217	0x3e0242a8	0.1272074
218	0x3ddac5b4	0.1068224
219	0xbd47dabd	-0.04879259
220	0xbcca5401	-0.02469826
221	0xbe024f59	-0.12725581
222	0x3cad74ef	0.021173922
223	0x3d532eb9	0.05155823
224	0xbc932bd9	-0.017965244
225	0x3d767556	0.060170494
226	0x3e39c4a1	0.18141414
227	0x3c03abfc	0.00803661
228	0xbd983aae	-0.07433067
229	0xbe62377c	-0.22091478
230	0xbe07de50	-0.13268399
231	0xbe5a4002	-0.2131348
232	0xbe321cc5	-0.17393787
233	0xbd8ff12f	-0.07028424
234	0xbd830397	-0.06397169
235	0x3dbb5587	0.091471724
236	0x3e343e8b	0.17601983
237	0x3e4ab171	0.19794251
238	0x3c33683e	0.010950146
239	0x3c9a2d33	0.01882038
240	0xbe810f7a	-0.2520712
241	0xbdb2a35c	-0.087225646
242	0x3aaa7217	0.0013003972
243	0xbd04d56b	-0.032430094
244	0x3d01ae9b	0.031660657
245	0xbd73ff79	-0.05956981
246	0xbe5db0de	-0.216495
247	0xbec7c384	-0.39016354
248	0xbe70b7a1	-0.23507549
249	0xbe75a597	-0.23988949
250	0x3dd36182	0.103213325
251	0xbe02bf82	-0.12768367
252	0xbe2c2f22	-0.16814855
253	0xbec4bab0	-0.3842368
254	0xbe936365	-0.2878677
255	0x398d125e	0.000269073

fc1.bias f4 [128]
0	0x3edc6614	0.4304663
1	0x3e04df35	0.12975772
2	0x3df8a160	0.12140155
3	0xbcc22723	-0.023700302
4	0x3eba3400	0.36367798
5	0xbcad91fa	-0.021187771
6	0x3e4efdbb	0.20213978
7	0xbe01ea39	-0.12687005
8	0x3e4c2b65	0.19938429
9	0x3e7606c4	0.24026018
10	0x3dd4301d	0.103607394
11	0x3cbf6ca2	0.02336723
12	0x3e9a16dc	0.30095565
13	0x3e0129c0	0.12613583
14	0x3da7fa26	0.08202009
15	0x3e81a9ea	0.25324947
16	0x3e557171	0.20844056
17	0xbe01e27a	-0.1268405
18	0x3e21b151	0.15790297
19	0x3ea214d8	0.31656528
20	0x3e95fc26	0.29293936
21	0x3cd69bc8	0.02619733
22	0xbf14cc91	-0.58124644
23	0x3e9dff9d	0.3085908
24	0xbdebefd1	-0.11520351
25	0xbe3d89d0	-0.18509603
26	0x3e1753df	0.14778088
27	0x3ef877a2	0.48528773
28	0xbd8ca599	-0.06867523
29	0xbdb50c87	-0.0884028
30	0xbdfa2152	-0.122133866
31	0xbc5031af	-0.012707158
32	0x3f1200f9	0.57032734
33	0x3ef34d62	0.47519976
34	0x3e894c00	0.26815796
35	0x3e69aa3b	0.22818844
36	0x3e51bccf	0.20482181
37	0xbe69fc0e	-0.22850057
38	0xbeda3071	-0.42615083
39	0x3d9e5a87	0.077321105
40	0x3e36855b	0.17824309
41	0x3a0c8016	0.00053596625
42	0x3c38238f	0.011238947
43	0x3dec9c44	0.11553243
44	0x3d50ef1b	0.05100928
45	0xbd4ad0fd	-0.049515713
46	0x3d5ad436	0.053425036
47	0xbce95f22	-0.028487746
48	0xbe598bfb	-0.21244805
49	0xbe794702	-0.24343494
50	0xbeba87b0	-0.36431646
51	0x3d3f433a	0.04669497
52	0x3e57c021	0.21069385
53	0x3e9d9041	0.3077412
54	0x3d9083cb	0.070563875
55	0x3cb92732	0.022601698
56	0x3d6cc8b1	0.05780858
57	0x3de12110	0.10992634
58	0x3ebaef7f	0.36510846
59	0x3e641157	0.2227224
60	0xbd0230df	-0.03178489
61	0x3d7cf999	0.061761472
62	0x3e5a086b	0.21292274
63	0x3ec01a05	0.3751985
64	0x3e74775c	0.23873657
65	0xbf12ae2b	-0.5729701
66	0xbcf5501b	-0.029945424
67	0x3e9701c9	0.2949355
68	0x3dbfe812	0.09370436
69	0x3e4050db	0.18780844
70	0x3e9bdd05	0.30442062
71	0x3d06709c	0.032822236
72	0x3e7aa2af	0.24476121
73	0x3eb805d3	0.35941944
74	0x3e9293ac	0.2862829
75	0x3dad1a61	0.08452297
76	0x3d96365e	0.073345885
77	0x3dc8bbf9	0.09801478
78	0x3d273c5a	0.04082904
79	0x3e43082c	0.19046086
80	0x3e0e9fdc	0.13928169
81	0xbd54e0aa	-0.05197207
82	0x3d59d2d1	0.053179566
83	0x3e7ce9b7	0.2469853
84	0x3e817537	0.2528474
85	0xbd8a63a1	-0.06757284
86	0xbb9b238e	-0.004734463
87	0x3dfb30ff	0.12265205
88	0x3d804cb2	0.062646285
89	0xbc2cb9ce	-0.010542346
90	0x3d8da4c5	0.06916193
91	0x3e2239db	0.15842383
92	0x3eb44bed	0.35214177
93	0x3e7e4a14	0.24832946
94	0x3e35117b	0.1768245
95	0xbe236b10	-0.1595881
96	0xbde0dea0	-0.10979962
97	0x3dc6e769	0.09712107
98	0xbe1f4cd1	-0.15556647
99	0x3c637539	0.0138829285
100	0x3d9c66f6	0.07636826
101	0x3d44380f	0.047905024
102	0x3e19cfbf	0.15020655
103	0xbcc7a09e	-0.02436858
104	0xbdd58c3c	-0.10427138
105	0x3e93e4b0	0.28885412
106	0x3cb291a2	0.021797959
107	0xbd34808e	-0.04406791
108	0xbd10f78c	-0.03539233
109	0x3e16e1fb	0.14734642
110	0x3e2b2f6a	0.16717306
111	0xbdba12d4	-0.090856224
112	0x3dc7da6a	0.09758456
113	0x3e04221a	0.12903634
114	0x3e21b409	0.15791334
115	0x3e482529	0.19545425
116	0x3d64ed84	0.055890575
117	0x3b5ac3d0	0.0033380874
118	0x3d07ac31	0.0331232
119	0xbd275a99	-0.040857885
120	0xbc2985db	-0.010346855
121	0x3e93fccf	0.28903815
122	0x3db8a9c6	0.09016757
123	0x3ea540ee	0.322761
124	0x3e54f71b	0.20797388
125	0xbd07f07c	-0.03318833
126	0x3dbd9a67	0.092579655
127	0x3c2028b5	0.00977533

fc2.weight f4 [64, 128]
0	0xbc413675	-0.011792769
1	0xbe0053f0	-0.1253202
2	0xbd2f7180	-0.04283285
3	0xbd7d3ff1	-0.061828557
4	0x3d82fbd8	0.06395692
5	0xbdb5a213	-0.08868804
6	0xbdb15615	-0.08658997
7	0x3cf1984f	0.029491572
8	0xbce2eb58	-0.027700111
9	0xbd164a1c	-0.03669177
10	0xbda200db	-0.079103194
11	0xbc6c1fcd	-0.014411879
12	0x3d41456a	0.04718534
13	0xbd2ee6a1	-0.042700414
14	0x3bd22e58	0.006414216
15	0xbdca869b	-0.09888955
16	0x3d3cf4ba	0.046131827
17	0xbd716839	-0.058937285
18	0x3d9e1eed	0.077207424
19	0xbd4b850e	-0.049687438
20	0xbdbda0a0	-0.092591524
21	0xbdbcb908	-0.092149794
22	0xbc28574a	-0.010274718
23	0xbdb28fe0	-0.08718848
24	0xbd4585f8	-0.048223466
25	0x3d4a3e9e	0.049376123
26	0xbd7e404f	-0.06207305
27	0x3cb0fe71	0.021605702
28	0x3d503a99	0.050837133
29	0x3d00a80c	0.031410262
30	0x3d158108	0.036500007
31	0xbc92e574	-0.017931677
32	0x3dae3eff	0.08508109
33	0x3d15fdda	0.036619045
34	0xbb413ba2	-0.0029485007
35	0x3ce5cb21	0.028050961
36	0x3d95a5dd	0.073070265
37	0xbd47f654	-0.0488189
38	0x3cc40339	0.023927318
39	0x3d3b1693	0.045675825
40	0x3d244e2b	0.04011361
41	0x3d8b7e7c	0.06811234
42	0x3d6212e0	0.05519378
43	0xbc148db6	-0.00906699
44	0x3c9819a9	0.018566923
45	0xbd3a4233	-0.04547329
46	0xbd922e1f	-0.07137703
47	0xbc8f76d6	-0.01751272
48	0xbd2daf75	-0.042403657
49	0xbdb162bc	-0.0866141
50	0xbc4c759c	-0.012479212
51	0xbcd74532	-0.026278112
52	0xbcbbd827	-0.022930218
53	0xbcd0b003	-0.025474554
54	0xbcf0973d	-0.029368991
55	0xbc5a0ee2	-0.013309212
56	0xbc609035	-0.013706257
57	0xbd2cff22	-0.0422355
58	0xbd41edfd	-0.047346104
59	0xbd981ce8	-0.074273884
60	0x3b8dc9f8	0.004327055
61	0x3cad73d3	0.021173393
62	0xbbee4465	-0.007271337
63	0xbd9cdd1b	-0.0765936
64	0x3cf6abd4	0.03011123
65	0xbdb514d4	-0.08841863
66	0xbba213ba	-0.0049461992
67	0x3bfa64f0	0.007641427
68	0xbd3526c4	-0.044226423
69	0xbd5961db	-0.053071838
70	0xbd8fe198	-0.070254505
71	0xbdabf4e0	-0.083963156
72	0xbce8eff7	-0.028434737
73	0x3d2665d8	0.04062447
74	0xbcd4458f	-0.025912074
75	0x3d3f649d	0.04672681
76	0xbd871b2b	-0.06596979
77	0xbd270eb8	-0.04078552
78	0xbccb98ca	-0.024853129
79	0xbd71cc06	-0.059032463
80	0xbd549e17	-0.05190858
81	0xbdc42024	-0.09576443
82	0xbd408eed	-0.047011305
83	0x3caa8305	0.020814428
84	0x3b05ff64	0.0020446414
85	0x3c99ed01	0.01878977
86	0x3d8631a9	0.06552441
87	0xbb8f12bb	-0.0043662465
88	0x3cdf8bd9	0.027288364
89	0x3d080100	0.03320408
90	0xbd20f111	-0.0392924
91	0xbdb26142	-0.08709957
92	0xbdbe6921	-0.092973955
93	0xbd4e5ec7	-0.050383355
94	0x3d354596	0.044255815
95	0xbdc44432	-0.0958332
96	0xbdb38d28	-0.08767158
97	0xbd36c981	-0.044625763
98	0xbd1a21da	-0.03762994
99	0xbd34085d	-0.04395329
100	0xbd8ccff1	-0.06875599
101	0xbc9f96dc	-0.019481115
102	0xbce31943	-0.027722007
103	0x3ca108d8	0.019657537
104	0xbde9e3a5	-0.11420373
105	0x3cde73f4	0.0271549
106	0xbdc1cc86	-0.09462838
107	0x3ca89393	0.020578181
108	0xbd80ffd7	-0.062987976
109	0xbd613725	-0.05498423
110	0x3cf93fca	0.030425925
111	0xbc3548dc	-0.011064734
112	0xbd15c9af	-0.036569294
113	0xbdb6e972	-0.08931245
114	0xbd9991b1	-0.074984916
115	0xbde37ce1	-0.11107803
116	0xbd97aa4a	-0.07405527
117	0xbdc14d52	-0.09438576
118	0x3c62bd33	0.013839054
119	0xbdc685ab	-0.09693464
120	0x3d9c866a	0.07642825
121	0x3d052a48	0.032511026
122	0xbdad6c8f	-0.084679715
123	0x3b47d0d7	0.0030489468
124	0x3d86a40c	0.06574258
125	0xbda85c0a	-0.0822068
126	0xbdb7e06a	-0.089783505
127	0xbc1b574e	-0.009481264
128	0x3dd510ac	0.104035705
129	0xbcd62314	-0.026139773
130	0x3e43a61c	0.19106334
131	0x3dae5f45	0.08514265
132	0x3dac869e	0.08424114
133	0xbbce4352	-0.0062946463
134	0xbd105913	-0.035241198
135	0x3e1d07b9	0.15334977
136	0x3c86a7b3	0.016437387
137	0x3e379e4b	0.17931478
138	0x3ea420df	0.3205633
139	0x3d6b1edc	0.057402477
140	0xbdd29fb4	-0.10284367
141	0xbd88ae07	-0.06673818
142	0xbddcff23	-0.10790851
143	0x3e15b08e	0.14618132
144	0x3e48737b	0.19575302
145	0x3ce36b6e	0.027761187
146	0x3e8cf55a	0.27530938
147	0xbca98aca	-0.020696063
148	0x3d80cb34	0.06288758
149	0xbc5aa55f	-0.013345092
150	0xbebd1265	-0.36928096
151	0x3de8b13e	0.11361931
152	0x3cf14ab7	0.029454572
153	0xbd783d32	-0.060605235
154	0xbdb4f94a	-0.088366106
155	0x3d754c9f	0.059887525
156	0xbe250c9a	-0.16118088
157	0x3da52fa4	0.08065727
158	0x3d806c73	0.06270685
159	0xbd38c6da	-0.045111515
160	0x3cde0e29	0.027106361
161	0x3dc5b291	0.096531995
162	0x3f0cd5b3	0.5501358
163	0xbde2e566	-0.110789105
164	0xbe81ba73	-0.25337562
165	0xbd52e6d6	-0.051489674
166	0xbeb581ed	-0.35450688
167	0x3d805fbf	0.06268262
168	0xbc442a98	-0.011973046
169	0x3e66c77e	0.22537038
170	0x3e45a598	0.1930145
171	0x3d8fd006	0.07022099
172	0x3e9e57cc	0.3092636
173	0x3c6658d6	0.014059266
174	0x3e61849c	0.22023243
175	0x3dd6304f	0.10458433
176	0xbe237336	-0.15961918
177	0x3c84893b	0.016178718
178	0xbe6161ca	-0.2200996
179	0xbe30651c	-0.1722607
180	0x3e5f3be4	0.2180019
181	0xbe266c0d	-0.16252156
182	0xbd77c83b	-0.06049369
183	0x3e4babc4	0.19889742
184	0x3d9f9517	0.077921085
185	0x3e2b8ef8	0.16753757
186	0xbe591b4f	-0.21201824
187	0xbc388de3	-0.011264297
188	0x3e06d03d	0.13165374
189	0x3e04025d	0.12891527
190	0x3e613425	0.21992548
191	0x3e3b9688	0.18319142
192	0x3d851973	0.06498995
193	0xbea50ec3	-0.32237825
194	0x3e3c1f55	0.18371327
195	0xbe375ee3	-0.1790729
196	0x3e5fc852	0.2185376
197	0x3e82eca3	0.25571164
198	0x3e724956	0.23660788
199	0x3e8f64e5	0.28006664
200	0x3d22406f	0.03961223
201	0x3dddc9dd	0.10829518
202	0x3e2d6a5c	0.16935104
203	0x3ecddc33	0.4020706
204	0xbe96e0e3	-0.2946845
205	0x3e4a8a19	0.19779243
206	0x3ed29a14	0.41133177
207	0x3dd024f0	0.10163295
208	0xbe7b6c49	-0.24553026
209	0xbc6c9e71	-0.014442072
210	0x3e4c20c7	0.19934379
211	0x3e19cbad	0.15019102
212	0x3d7519b4	0.059838966
213	0xbd67a510	-0.0565539
214	0x3e0ab4ae	0.13545486
215	0x3e550e51	0.20806243
216	0xbcc16125	-0.023605892
217	0xbe0e5cdd	-0.13902612
218	0xbcd13db7	-0.025542123
219	0x3ea30a50	0.31843805
220	0xbd543460	-0.05180776
221	0x3e7ce898	0.24698102
222	0xbe2defb3	-0.16985969
223	0xbd59c3ad	-0.053165127
224	0xbd503857	-0.05083498
225	0x3dc1fb32	0.0947174
226	0x3b27aa45	0.0025583666
227	0x3e7a0507	0.2441598
228	0x3efdc9d9	0.4956806
229	0x3d012aee	0.03153508
230	0xbdba682a	-0.09101899
231	0x3e080413	0.13282804
232	0xbbf78894	-0.007554123
233	0x3e38d2cd	0.18049164
234	0xbedf46dd	-0.43608752
235	0xbd880271	-0.06641091
236	0xbdfa0e79	-0.12209792
237	0x3d27230a	0.0408049
238	0x3d28430c	0.041079566
239	0x3aeee2ad	0.0018225514
240	0xbc6c3fa3	-0.014419469
241	0x3cc0ee03	0.023550993
242	0x3e6b94dc	0.23006004
243	0xbdd783c4	-0.10523179
244	0x3e30d93e	0.17270371
245	0x3d40700d	0.04698186
246	0xbe093bdb	-0.1340174
247	0x3e0a147c	0.13484377
248	0xbd8213d5	-0.06351439
249	0xbd5a603d	-0.053314436
250	0xbcf4bdfa	-0.029875744
251	0x3e05743f	0.13032626
252	0x3c431720	0.011907369
253	0x3ea663da	0.32498056
254	0x3d83ae51	0.064297326
255	0x3d5a6534	0.05331917

fc2.bias f4 [64]
0	0xbe1930aa	-0.1495997
1	0x3e34d050	0.1765759
2	0x3c34870c	0.011018526
3	0xbe0f9458	-0.14021432
4	0x3d34fa6b	0.04418413
5	0xbda35e55	-0.07976977
6	0xbdec998f	-0.115527265
7	0x3d11a136	0.035554133
8	0xbe2c07da	-0.1679987
9	0x3deb3e99	0.11486549
10	0x3b965ced	0.0045887143
11	0x3e11a319	0.14222373
12	0x3d145915	0.036217768
13	0x3d8b0252	0.06787552
14	0x3e012260	0.1261077
15	0xbd25c8ba	-0.04047463
16	0x3e117a61	0.1420684
17	0x3db80f3e	0.08987282
18	0xbde88dc0	-0.11355162
19	0x3e3d3a25	0.18479212
20	0x3df06850	0.11738646
21	0x3e31c32a	0.17359605
22	0xbd42fe6d	-0.04760592
23	0x3e499474	0.19685537
24	0xbcad5c5b	-0.021162203
25	0x3e4462f1	0.19178368
26	0x3c4fa254	0.012672979
27	0xbe07aa39	-0.13248529
28	0x3e1c70a1	0.1527734
29	0x3d50c966	0.05097332
30	0x3c994e45	0.01871408
31	0x3e242aff	0.16032027
32	0xbd9914a3	-0.07474639
33	0x3bee957e	0.0072810045
34	0x3d9db457	0.07700413
35	0xbce5f287	-0.028069748
36	0x3b137236	0.0022498495
37	0x3e0852a0	0.13312769
38	0x3e0f7b2a	0.14011827
39	0x3d12b88b	0.035820525
40	0xbd73ea47	-0.059549596
41	0xbd88569d	-0.06657145
42	0x3def88d7	0.11696022
43	0xbd13c8a6	-0.036080025
44	0x3d2c1d82	0.04202033
45	0x3ce90be4	0.028448053
46	0x3dc91cd0	0.09819949
47	0xbd6da36e	-0.058017187
48	0xbdf46c86	-0.11934762
49	0x3e25f9c8	0.16208565
50	0x3ddd6c9b	0.108117305
51	0xbd389872	-0.04506726
52	0xbd638214	-0.055543974
53	0x3d9ea2e2	0.07745911
54	0xbd83580e	-0.064132795
55	0xbd7bf5c0	-0.061513662
56	0x3daa68fe	0.08320807
57	0xbb61bdce	-0.0034445408
58	0x3dc6415e	0.096804366
59	0x3dd2649b	0.10273095
60	0xbd281d51	-0.041043583
61	0x3d73aea6	0.05949273
62	0xbdc0aed7	-0.09408348
63	0xbcc2b89d	-0.023769671

job_head.weight f4 [10, 64]
0	0xbdd1355d	-0.10215256
1	0xbe9a043d	-0.3008136
2	0xbe370cd1	-0.17875983
3	0xbf66ef80	-0.902092
4	0xbe1bd732	-0.15218809
5	0x3d4ddc77	0.05025908
6	0x3e190892	0.14944676
7	0xbd61663c	-0.05502914
8	0xbd8897d4	-0.06669584
9	0x3cae747a	0.021295775
10	0x3e0bb41b	0.13642924
11	0xbdcba420	-0.09943414
12	0xbdbff6af	-0.09373223
13	0xbcdbf15d	-0.02684849
14	0xbcb7a5a6	-0.022417855
15	0xbe85db11	-0.26143697
16	0xbd1f0a8a	-0.03882841
17	0xbea61a5b	-0.32441983
18	0xbe22ce0a	-0.1589891
19	0xbd7866e3	-0.060644995
20	0xbd7dd5f5	-0.061971623
21	0x3e6a2aa2	0.22867826
22	0x3bc701ad	0.006073198
23	0xbd929de6	-0.07159023
24	0x3e6ee01e	0.23327681
25	0xbdfd0389	-0.1235419
26	0xbe8be501	-0.27323154
27	0x3e802616	0.25029057
28	0xbdce6cbf	-0.100793354
29	0xbed19f49	-0.40941837
30	0x3cddcbb0	0.027074665
31	0xbe26619d	-0.16248174
32	0x3ea26120	0.31714725
33	0xbe876d38	-0.26450515
34	0xbdfe4f96	-0.124175236
35	0xbcf9f29e	-0.030511197
36	0x3de1490a	0.11000259
37	0xbe3f4868	-0.18679965
38	0xbc79cd4c	-0.0152467005
39	0x3d8ac50d	0.06775866
40	0xbd9b6859	-0.07588262
41	0x3c86e7d2	0.016467962
42	0xbb9eea8e	-0.0048497384
43	0x3c59d94d	0.013296437
44	0x3d16ff54	0.036864594
45	0x3d49e6de	0.049292438
46	0xbd3d470e	-0.04621034
47	0xbe3fdc96	-0.1873649
48	0xbe4dd89b	-0.2010216
49	0xbe537e21	-0.20653583
50	0xbde07121	-0.109590776
51	0x3e4b48ee	0.19852039
52	0x3df256e0	0.11832976
53	0x3d2efda0	0.042722344
54	0xbe53f1db	-0.2069773
55	0x3e2856b6	0.16439328
56	0x3d43697d	0.047708023
57	0xbe74d0aa	-0.23907724
58	0xbe237192	-0.15961292
59	0xbcdf21ba	-0.027237762
60	0x3e07eb81	0.13273431
61	0xbd2596ae	-0.040426902
62	0xbe8e7531	-0.27823785
63	0xbf4a5794	-0.79039884
64	0xbd2748c2	-0.04084087
65	0xba3d3b4e	-0.0007218615
66	0xbf709d63	-0.93990153
67	0xbe3efa5a	-0.18650189
68	0xbdd0dca2	-0.10198332
69	0x3e7974ba	0.24360934
70	0xbd6f02d3	-0.058352303
71	0x3e2efc59	0.1708845
72	0xbe13cd6e	-0.14433834
73	0xbe14bf10	-0.1452601
74	0x3de08472	0.10962762
75	0xbd9a0b4f	-0.07521688
76	0x3cba0eb4	0.02271209
77	0x3a510ccc	0.0007974624
78	0xbd26dd60	-0.040738463
79	0xbef5f1d7	-0.48036072
80	0xbd694f13	-0.056960177
81	0xbe12a8ba	-0.14322177
82	0x3ce5d9bf	0.028057931
83	0xbda64e5d	-0.08120415
84	0xba7fccde	-0.00097580056
85	0x3e6c7762	0.23092416
86	0xbdfb6072	-0.12274255
87	0x3d28362b	0.041067284
88	0x3d0b57c6	0.034019254
89	0xbd836abf	-0.064168446
90	0xbf68dc62	-0.9096128
91	0x3c82ece2	0.015982095
92	0x3e012f89	0.1261579
93	0xbf3d226a	-0.73880637
94	0xbc664f2b	-0.014056961
95	0xbd0107ba	-0.03150151
96	0xbd2c51fb	-0.04207037
97	0xbe5d981c	-0.21640056
98	0xbdfbd097	-0.12295645
99	0x3c7df030	0.01549916
100	0xbd0ceadd	-0.03440367
101	0x3cf8ed32	0.030386541
102	0x3e1835e5	0.14864309
103	0xbb5504a8	-0.0032503996
104	0xbd068c71	-0.03284878
105	0x3ca9b38e	0.020715501
106	0xbd6678c6	-0.056267522
107	0xbcfb1384	-0.030648954
108	0x3d7f6b96	0.06235846
109	0x3da9aeee	0.08285318
110	0x3cb5fd3e	0.022215482
111	0x3cb2840e	0.021791484
112	0x3eb1d861	0.34735397
113	0x3d7d2d49	0.061810765
114	0xbec0937a	-0.37612516
115	0x3d227ae2	0.03966797
116	0xbc271862	-0.010198684
117	0xbd1fda54	-0.039026573
118	0xbedbcb7d	-0.42928687
119	0x3da88619	0.08228702
120	0x3c1e7314	0.009670991
121	0xbdd06494	-0.10175434
122	0xbd86df19	-0.06585521
123	0xbf3c5d1b	-0.7357957
124	0x3d09b87e	0.03362321
125	0xbed04058	-0.4067409
126	0xbe5602fd	-0.20899577
127	0xbdff1ada	-0.124562934
128	0x3c0fab16	0.008768817
129	0xbda15883	-0.078782104
130	0x3d138739	0.03601763
131	0xbd35b035	-0.044357497
132	0xbc803230	-0.015648931
133	0xbcf56ab1	-0.029958101
134	0x3e0fef6e	0.14056179
135	0x3e372afd	0.17887492
136	0x3c7ba294	0.015358586
137	0x3d5b1890	0.05349022
138	0xbd66bdd9	-0.056333397
139	0xbdc70bc8	-0.09719044
140	0xbcab5b0f	-0.020917444
141	0xbdd1e9b3	-0.10249653
142	0x3d51f07d	0.051254738
143	0x3a32349f	0.0006798002
144	0xbd81d6ed	-0.06339822
145	0x3c1451ac	0.009052675
146	0xbdfea536	-0.12433855
147	0x3d932572	0.071848765
148	0x3bef67c3	0.0073060705
149	0x3d8ac59d	0.06775973
150	0x3d0e53a2	0.034747727
151	0xbcf19d26	-0.02949388
152	0xbd964248	-0.07336861
153	0x3da84452	0.08216156
154	0xbcc40c0a	-0.023931522
155	0xbe89f92f	-0.26947924
156	0xbdebb01e	-0.11508201
157	0xbde07d3d	-0.10961387
158	0x3dff98bf	0.12480306
159	0x3d030859	0.031990383
160	0xbd07a21d	-0.033113588
161	0xbfc4fa67	-1.5388917
162	0x3c23b9d4	0.009993035
163	0xbc3550fc	-0.011066671
164	0x3d3d0329	0.046145592
165	0xbced8934	-0.028996088
166	0xbd63b598	-0.055593103
167	0x3c2dccd0	0.010607913
168	0xbd94aa5f	-0.07259058
169	0xbee67a42	-0.4501515
170	0xbde3399b	-0.11094972
171	0xbd60bc3c	-0.054867014
172	0xbccf5308	-0.025308147
173	0x3f3fa86e	0.7486638
174	0xbd25add6	-0.040448986
175	0x3d173046	0.03691127
176	0xbea384c5	-0.31937233
177	0x3cf4a338	0.029862985
178	0x3c8935ff	0.01674938
179	0x3d97774c	0.07395801
180	0xbca6a7fb	-0.020343771
181	0x3d5f9d42	0.054593332
182	0x3de9df26	0.11419515
183	0xbb6f7764	-0.0036539668
184	0xbcceb12d	-0.025230968
185	0x3cc3b858	0.023891613
186	0x3db12abf	0.08650731
187	0x3d6056cb	0.054770272
188	0xbc0fde41	-0.008781017
189	0x3cc5bd5b	0.024138143
190	0x3cbfee44	0.023429044
191	0xbe0f48c1	-0.13992597
192	0xbd29bf6f	-0.04144233
193	0xbd8ed83b	-0.069748364
194	0x3e0e3118	0.13885915
195	0xbea09297	-0.3136184
196	0x3dbd62db	0.09247371
197	0x3a65caad	0.0008765858
198	0x3d90c3ac	0.070685714
199	0xbf808f83	-1.0043796
200	0xbd0c497a	-0.03424976
201	0xbe112a5c	-0.14176315
202	0x3de51d0a	0.111871794
203	0xbe60be32	-0.21947554
204	0xbd9cb02f	-0.07650792
205	0xba709fb5	-0.00091790716
206	0xbe6388a6	-0.22220096
207	0xbd06954b	-0.03285722
208	0xbe0a18b3	-0.13485985
209	0xbcb9c853	-0.02267853
210	0xbe410adf	-0.18851803
211	0xbe386eff	-0.18011092
212	0x3a19dada	0.0005869098
213	0xbdb432e7	-0.08798771
214	0x3d00d264	0.031450644
215	0xbc98c967	-0.018650724
216	0xbb164163	-0.0022927157
217	0xbd945a6d	-0.0724381
218	0xbd4e2f81	-0.050338272
219	0xbda29a45	-0.07939581
220	0xbd454372	-0.048160024
221	0xbd9a681b	-0.07539388
222	0x3cedb349	0.029016154
223	0x3d22d6d8	0.039755672
224	0x3e89a683	0.2688485
225	0x3bcab7c0	0.0061864555
226	0xbf31adec	-0.6940601
227	0x3cb630f5	0.022240141
228	0xbccd0d7f	-0.02503085
229	0xbd0b8b34	-0.0340683
230	0xbd6316a1	-0.055441502
231	0xbe506c6d	-0.20353861
232	0xbe387f20	-0.18017244
233	0xbc410fff	-0.011783599
234	0xbd684b36	-0.05671235
235	0x3bf4bbb6	0.007468666
236	0xbde5b359	-0.112158485
237	0xbf2919fe	-0.66055286
238	0xbe1bd8a4	-0.1521936
239	0xbe21808f	-0.15771697
240	0x3e436ff3	0.19085674
241	0xbdc452b4	-0.09586087
242	0xbdfc16b8	-0.12309021
243	0xbf44437f	-0.7666549
244	0xbd9127b2	-0.070876494
245	0xbd5291af	-0.051408466
246	0xbea22725	-0.3167049
247	0xbdf224e7	-0.11823445
248	0xbe01ac60	-0.12663412
249	0xbead0539	-0.33793047
250	0xbca71966	-0.020397853
251	0xbe14a7d4	-0.14517146
252	0x3d4deae0	0.050272822
253	0xbe0ddc3b	-0.13853543
254	0x3e982ce8	0.2972176
255	0x3daa821b	0.08325597

job_head.bias f4 [10]
0	0xbdbae4ab	-0.09125646
1	0x3cefabc1	0.029256703
2	0x3bb87acb	0.0056298724
3	0xbe70be8c	-0.23510188
4	0xbc74b395	-0.014935394
5	0xbdd641c0	-0.104617596
6	0xbc90037d	-0.017579788
7	0xbd479db1	-0.04873437
8	0xbe437e6e	-0.19091198
9	0x3d7689df	0.060190078

robot_head.weight f4 [3, 64]
0	0xbd08fcef	-0.03344434
1	0x3cd743b2	0.026277397
2	0xbd9eb4ff	-0.07749366
3	0xbc3569cd	-0.011072588
4	0x3d98dad5	0.07463614
5	0x3d05e3f1	0.032688085
6	0xbe039865	-0.12851103
7	0xbd82a0b8	-0.06378311
8	0x3da01f3a	0.07818456
9	0xbb93fffa	-0.004516599
10	0xbc4dab5c	-0.012553062
11	0xbd9e9e8c	-0.07745084
12	0x3d97a987	0.07405382
13	0xbcdf468e	-0.027255323
14	0x3c2e7d65	0.010650014
15	0xbdf199cb	-0.11796912
16	0xbe13f058	-0.14447153
17	0x3da4066c	0.080090374
18	0x3d6ec96f	0.05829757
19	0xbd9a41e5	-0.075321
20	0xbe076cde	-0.13225123
21	0x3e182550	0.14857984
22	0x3a46a816	0.00075781473
23	0xbda26c3f	-0.079308026
24	0x3e324160	0.17407751
25	0xbc28c81d	-0.010301617
26	0xbd8fbc2b	-0.07018312
27	0xbdeecce6	-0.11660175
28	0x3ac92196	0.0015345092
29	0x3d585ae1	0.052821044
30	0x3ce2872e	0.02765235
31	0x3dc30e64	0.09524229
32	0x3d41a0e6	0.047272585
33	0xbe433097	-0.19061504
34	0xbe4c6e8c	-0.19964045
35	0xbd0647cf	-0.032783326
36	0xbd249069	-0.040176783
37	0xbd5787b3	-0.052619647
38	0xbcf6d8da	-0.0301327
39	0xbe15a75f	-0.14614628
40	0x3b6ad4e8	0.0035832468
41	0xbdf6290c	-0.12019548
42	0xba608ad7	-0.00085656106
43	0xbdba4916	-0.09095971
44	0xbde35ee9	-0.11102087
45	0xbd8ca271	-0.06866921
46	0xbd0f9b3e	-0.03506016
47	0x3c594d24	0.013263021
48	0x3c33d7d8	0.010976754
49	0xbcdc28be	-0.026874896
50	0xbceec844	-0.029148228
51	0xbe1d77ed	-0.1537778
52	0x3dea68d3	0.11445775
53	0xbdc21105	-0.094759025
54	0x3dc11477	0.094277315
55	0x3df032e9	0.1172846
56	0xbb67457d	-0.003528922
57	0xbbb6f19d	-0.0055830018
58	0x3de3c55c	0.11121628
59	0x3d65b66a	0.056082167
60	0xbd50856b	-0.050908487
61	0xbdd41522	-0.10355593
62	0xbd97498a	-0.07387073
63	0x3c5ccbd0	0.013476327
64	0xbdeeb52f	-0.11655652
65	0x3c349da3	0.011023912
66	0xbdff42ed	-0.12463937
67	0x3e1ccd3f	0.1531267
68	0xbcf33cec	-0.029692136
69	0x3e8b30a1	0.27185538
70	0x3e4d5883	0.20053296
71	0xbdd672c5	-0.10471109
72	0xbe460357	-0.19337212
73	0xbc1eb2eb	-0.009686212
74	0x3d610de0	0.054944873
75	0x3b641182	0.0034800475
76	0xbdb16abd	-0.08662937
77	0x3dbed141	0.09317256
78	0xbcfee479	-0.031114804
79	0xbef13a87	-0.47114965
80	0x3d8425ca	0.0645252
81	0xbd871521	-0.06595827
82	0xbf085528	-0.5325494
83	0xbcc9dfa8	-0.02464278
84	0xbd7e9bb7	-0.06216022
85	0x3d0fd184	0.03511192
86	0x3d7d3524	0.061818257
87	0xbdbfde0c	-0.09368524
88	0x3abf8cde	0.0014614125
89	0xbc717830	-0.014738128
90	0x3dd2c36b	0.10291179
91	0x3d30cf40	0.0431664
92	0xbdb3657c	-0.08759591
93	0x3c27eb75	0.010249008
94	0x3dd390ba	0.10330339
95	0x3d057249	0.032579694
96	0xbdf949e0	-0.12172294
97	0xbed5a7a1	-0.41729453
98	0xbdc78926	-0.09742956
99	0xbce90908	-0.02844669
100	0xbdbee091	-0.093201764
101	0xbccf7ea6	-0.025328945
102	0x3c7d4957	0.01545938
103	0xbbef28a6	-0.007298547
104	0xbcba9035	-0.022773841
105	0x3dca678a	0.0988303
106	0x3e1f74df	0.15571927
107	0x3cb8d6ed	0.022563422
108	0xbdfb6385	-0.12274841
109	0xbc096edf	-0.00838825
110	0x3d23d857	0.04000124
111	0xbc943b6d	-0.018094743
112	0xbd94091d	-0.07228301
113	0x3ce8e449	0.028429167
114	0xbd99c089	-0.07507426
115	0x3da9dc64	0.08293989
116	0x3db9d650	0.0907408
117	0xbdeb5a3a	-0.11491819
118	0x3daf5cb3	0.08562603
119	0x3cb8fe43	0.022582179
120	0xbcdc5898	-0.026897714
121	0x3c884ac8	0.016637221
122	0xbdb08aba	-0.0862021
123	0x3dc635b5	0.096782126
124	0xbf111142	-0.5666696
125	0xbe404052	-0.18774536
126	0x3d952e11	0.07284177
127	0xbea0a6f9	-0.3137739
128	0xbdb4da95	-0.08830754
129	0xbde909ce	-0.11378823
130	0xbe9df76d	-0.30852833
131	0x3d9519d9	0.07280321
132	0xbe0561c4	-0.13025576
133	0xbb2c08c5	-0.0026250344
134	0x3c20ce2d	0.009814781
135	0x3d815829	0.06315643
136	0x3c8f1331	0.017465206
137	0xbbaa06ea	-0.0051888125
138	0xbf9ec115	-1.2402674
139	0xbe6fe8eb	-0.23428695
140	0xbe81e77d	-0.25371924
141	0xbe5760b1	-0.21032979
142	0xbd7301e8	-0.05932799
143	0xbe288df4	-0.16460401
144	0xbe783212	-0.2423785
145	0x3d38ab07	0.04508498
146	0x3d58e659	0.05295405
147	0xbc4c9056	-0.012485584
148	0xbe087970	-0.13327575
149	0xbda99636	-0.082806036
150	0x3c71996d	0.014746052
151	0xbe475110	-0.19464517
152	0xbf1588c2	-0.584118
153	0xbd854fdb	-0.06509372
154	0xbda5fd78	-0.08104986
155	0x3caacc33	0.020849323
156	0xbe15bfa0	-0.1462388
157	0xbc9a8c13	-0.01886562
158	0x3e8a355e	0.2699384
159	0xbd1acded	-0.037794042
160	0x3e47572e	0.1946685
161	0x3e2843b1	0.16432072
162	0xbf3926b7	-0.723247
163	0xbe004b94	-0.12528831
164	0x3d972815	0.07380692
165	0xbe1319f4	-0.14365369
166	0xbe5147e2	-0.20437577
167	0x3c4d3aa5	0.012526189
168	0xbe15cae0	-0.14628172
169	0xbd60fe7f	-0.054930206
170	0xbea8b1c2	-0.32948118
171	0xbe0659d0	-0.13120198
172	0xbd7320d3	-0.059357475
173	0xbefea976	-0.49738663
174	0xbdd8dcc6	-0.10588984
175	0xbe8a53b1	-0.27016976
176	0xbe4c790d	-0.19968052
177	0xbe777c26	-0.24168453
178	0xbe47baf1	-0.19504906
179	0x3df973b1	0.121802695
180	0xbdbc086c	-0.09181294
181	0xbec19f13	-0.37816676
182	0xbf184c61	-0.59491545
183	0x3d9e7ace	0.07738267
184	0xbe168f79	-0.14703168
185	0x3c0f580d	0.00874902
186	0xbe339f68	-0.17541277
187	0xbcb31035	-0.021858314
188	0x3e6d4b88	0.23173344
189	0xbe3fffdc	-0.18749946
190	0x3e5756a4	0.21029145
191	0xbea456e7	-0.3209755

robot_head.bias f4 [3]
0	0x3d6889a1	0.05677188
1	0x3c4219f8	0.011847012
2	0xbe387d34	-0.18016511

param_head.weight f4 [1, 64]
0	0x3d9a83ce	0.07544671
1	0xbc45a752	-0.012063818
2	0xbd45eb49	-0.04832009
3	0x3d87a007	0.0662232
4	0x3da8913e	0.08230828
5	0x3dae7e6a	0.08520205
6	0x3c364700	0.011125326
7	0x3b811820	0.0039396435
8	0xbe2da283	-0.16956525
9	0xbd39629e	-0.045260064
10	0xbca28c7c	-0.019842379
11	0xbe0813ca	-0.13288799
12	0x3da6bdb2	0.0814165
13	0xbd4ab077	-0.049484696
14	0x3cb206ba	0.021731723
15	0xbd8eebb8	-0.069785535
16	0x3d4087f4	0.047004655
17	0xbd521aeb	-0.051295202
18	0xbdb90989	-0.09035022
19	0x3c8700b7	0.016479833
20	0xbd865787	-0.06559663
21	0xbe0f1edc	-0.13976616
22	0x3cd83cbc	0.026396148
23	0xbe07791d	-0.13229795
24	0x3c302db6	0.010753086
25	0xbda6a69c	-0.08137247
26	0x3d19d82f	0.037559684
27	0x3c88dd58	0.016707107
28	0x3c9170fe	0.017754074
29	0x3cd7e770	0.026355475
30	0x3e163415	0.14668305
31	0x3cf8a6eb	0.03035303
32	0xbf314b56	-0.6925558
33	0x3e4d8269	0.20069279
34	0xbe16209b	-0.14660875
35	0xbe629aee	-0.22129413
36	0xbc9a0ec9	-0.018805878
37	0x3d10a7e2	0.035316356
38	0xbb943152	-0.004522481
39	0x3e172967	0.14761887
40	0x3ce7b7ad	0.028285826
41	0xbceeb5e0	-0.02913946
42	0xbde7bf66	-0.11315803
43	0xbd380d1c	-0.044934377
44	0xbdfa7b64	-0.12230566
45	0x3dbb1992	0.091357365
46	0xbdc83bad	-0.09777007
47	0x3cf3529b	0.029702475
48	0x3d9bf526	0.07615118
49	0x3d6b33b1	0.057422344
50	0xbcc3ed86	-0.023916971
51	0x3d70cf7f	0.058791634
52	0xbc683ede	-0.014175145
53	0xbcf24bc6	-0.029577147
54	0x3e05d9c9	0.1307136
55	0xbe19c677	-0.15017115
56	0xbe06b1c7	-0.13153754
57	0x3caf7153	0.021416342
58	0xbd14cc23	-0.036327492
59	0xbdb48696	-0.08814733
60	0xbe41e7f5	-0.18936141
61	0x3ccae76f	0.02476856
62	0x3d934ed9	0.07192773
63	0xbd723bd3	-0.059139084
