LIRL results/CityFlow/Algs_compare/hppo_multi_run_20250914_193429/seed_2856/low_policy.pth (torch, 167736 bytes, 7 tensors)

log_std f4 [2]
00000000: 0df6 cfbe 9ca4 cebe
-0.4061741 -0.40359962

mean_network.0.weight f4 [64, 607]
00000000: b01c 243b 61e3 1c3c 97a3 95bc 9e02 1e3c
00000010: f3cf 28bb b458 dcbb 665c b4bc c4a8 193d
00000020: 193a 023d d3e5 6bbc 0d3c d33b 81eb 6a3c
00000030: b9a1 51bc 696f d33c d000 463c 3559 a03c
00000040: ce75 853c 8197 673c fb65 6d3b c138 99bc
00000050: 3982 6ebb dd9a 03bc 1999 173d 8558 c93c
00000060: 75d0 18bc 04d3 0cbd d7bf 86bc 74a4 263d
00000070: 855b a7bc 0bc2 83b9 219a 54bc 28c3 e03c
00000080: 8f4b ca3c 5f3b adbc 6232 d73c 35a2 133d
00000090: 5a13 76bc cc9d 1b3d fa73 10bd 6335 003d
000000a0: 60fb c7bc 98e9 f63c 339d e43c 2462 54bc
000000b0: b2f2 fc3c f141 a23c 21ca 633c 24ce f43c
000000c0: 16bb 763c f969 cebc e21d bbbc c1c3 ef3b
000000d0: cef9 dcbb 06e7 f13c 6a86 bf3c bc0d 073d
000000e0: 2b97 dcbb ab9e fcbc 19bf d4ba ae36 713d
000000f0: c5c5 063c 7876 b5b8 68aa 90bc 929e 84bc
00000100: c2ac b03c e3a5 a1bc 5f79 a93c efc9 06bd
00000110: d61d 58bc 8e75 403d 73da 5abc 9584 ea3c
00000120: 1479 afbc b008 31bb c66e bc3c 543c 963c
00000130: 95a5 493d 7826 203b b77c dd3c 2b8c ebbc
00000140: f6a6 07bd 89a7 363d e953 d6bc 6f1d 5b39
00000150: 5a10 3a3d 35e9 173d 5f85 0c3d 6fbb 64bc
00000160: b494 453d e122 313d eb44 bd3c 15ac a03a
00000170: 4bdc 8c3c 4524 2e3c 0173 ca3c af2f 02bc
00000180: 5d38 dbbc 8619 e23c 83d6 6f3c 9806 1ebd
00000190: d9f2 cc3b e2ce 293d aebd c5bb e47f 1f3d
000001a0: e4c2 b03b 718b 073d 0711 1dbc 5947 d53c
000001b0: 9f9a 293d fc60 053d 6dd4 f1bb 66f7 fcbb
000001c0: 6b4b 343d 8584 133d f3a1 a23c 8446 253c
000001d0: 9e26 413c 663e e43c f0ac ac3c 6abe 45bc
000001e0: 4116 123c 5f1b ea3c 26ba 963c ed16 283d
000001f0: e7d4 423d 7ab0 473c 66fc c63c 95d3 063d
00000200: 7f1b 3b3d a5c5 34bc 820c 1b3d 989a 77bc
00000210: 8c3b 3f3d 1325 103d 621a 9e3c 8724 8a3c
00000220: 9301 823c 85a5 02bd fcf3 033c 226c b13b
00000230: b61b 0f3d 604c 393d a911 683d 6673 84bc
00000240: 0cb5 cdbb d76f 5a3b 74e2 163c 6062 24bb
00000250: 189f 283d c6ae 07bc dab7 f7bc f699 71bc
00000260: 9317 07ba 94cd 063c b86a fabc 9cc6 88bb
00000270: 8942 b13c 690c e4bc 64e8 363d 630c 0d3a
00000280: 7beb 063c a716 dc3c 035b cb3c 6e4f 103d
00000290: 8fa9 f7ba 941e 9dba 02d6 6abc e720 2c3d
000002a0: 3fa5 aa3a b59e 8bbc cfe8 d23c a47c 15bd
000002b0: e774 a13a f0d1 c5bc 3a74 b33c 65e4 503d
000002c0: 5106 ba3c 34d5 2ebc fec8 413d 0a70 223d
000002d0: 88e1 813d 064c aebc 65d6 a83c 931e 38ba
000002e0: 8daf be3c 12a3 7dbc 9120 213c 7408 f23c
000002f0: e4bb 3a3d 48ee b73b 11b8 113d a600 f6bc
00000300: 5552 123c 2802 0e3d 09ba cb3c 0294 0d3c
00000310: ada2 b5bb c0b5 b3bc 89b4 ba3c 61cf 05bd
00000320: 988e 14bd bcc3 d63c 8328 263d d3dc 003d
00000330: d554 d33b 5ad1 c8bc e8bf 42bc 598e 0c3d
00000340: 2dd0 373d fe1b d4bc 02e1 113d 89ad 243b
00000350: 69cf 243c d08b aabc edf0 253d d64a 9f39
00000360: 784b cebc f71d d5bc 1041 023d 4827 38ba
00000370: 82c4 483c e2d7 273d 92d8 073d e074 bfbc
00000380: 2748 11bc 541c 43bc 42f5 1f3d 49d8 053c
00000390: 11bf b73c 1e2d df3b 899b aabc a6fe 0f3d
000003a0: cb02 cf3b 5293 533c 0545 68bc ee2f f0bc
000003b0: df10 3c3d 96cf fe3c cbdf 06bc 692b 2cbc
000003c0: 8f4c 59bb 1ff8 803c 4e6e d0bc 3341 12bd
000003d0: 752b 583d 761e 883c 6099 083d cca2 683c
000003e0: 17cc 3e3b 5aa2 b13c 1508 353d f57a b43c
000003f0: d551 2abb dcef a9bc c2c8 61bc 1ecd b5bc
0.0025041513 0.009575696 -0.018266482 0.009644179 -0.0025758713 -0.0067244414 -0.022016715 0.037514463
0.031793687 -0.014398056 0.0064463676 0.014338375 -0.012794905 0.02580996 0.012085155 0.019573787
0.016291525 0.014135242 0.0036224115 -0.01870382 -0.0036393537 -0.008032528 0.03701124 0.024578342
-0.009327044 -0.034380928 -0.016448898 0.04068418 -0.020429382 -0.0002513084 -0.0129762 0.027436808
0.024694232 -0.021146474 0.026269142 0.036043365 -0.015019262 0.037992284 -0.035266854 0.031300914
-0.024411857 0.030140683 0.02790699 -0.012962852 0.030877445 0.019806834 0.013903172 0.029883452
0.015059253 -0.025197016 -0.022841398 0.007317037 -0.006743646 0.029529106 0.023379523 0.032972082
-0.006731888 -0.030837378 -0.0016231268 0.058890037 0.008225863 -8.652819e-05 -0.017659381 -0.016188893
0.021566752 -0.019732421 0.020687757 -0.032907423 -0.013190707 0.04698711 -0.013357746 0.028627673
-0.02142004 -0.0027013235 0.02300204 0.018339314 0.049230177 0.0024436992 0.027037008 -0.02875336
-0.03311821 0.044593368 -0.026163058 0.00020896432 0.04542575 0.037087638 0.03430688 -0.013960703
0.048237517 0.043246154 0.023104152 0.0012258316 0.017194888 0.0106287645 0.024713041 -0.007945939
-0.026760275 0.027600061 0.014638546 -0.038580507 0.0062545356 0.041457064 -0.0060345745 0.038940325
0.0053943265 0.033091966 -0.009586579 0.026034998 0.041407224 0.032563195 -0.0073800595 -0.007719922
0.044017237 0.036015052 0.019852614 0.010087613 0.011788992 0.027861785 0.021078557 -0.012069324
0.008916439 0.028577505 0.01839931 0.04103749 0.04756632 0.012188071 0.024290275 0.032916624
0.04568052 -0.01103345 0.037853725 -0.015112542 0.046687648 0.035191607 0.01929969 0.01686312
0.015869891 -0.031896133 0.008053776 0.0054145018 0.034938537 0.045238853 0.056657467 -0.016168308
-0.006277686 0.0033330822 0.009209264 -0.002508305 0.04116735 -0.008281415 -0.030239034 -0.01474618
-0.0005153354 0.008227725 -0.030568466 -0.0041740667 0.021638172 -0.027837949 0.04465522 0.0005380569
0.008234854 0.02686627 0.024823671 0.035232 -0.0018895137 -0.0011987262 -0.01433325 0.042023566
0.0013019218 -0.01704345 0.025745777 -0.03649582 0.0012318165 -0.024147958 0.021906007 0.050999064
0.02270809 -0.010670949 0.04731082 0.03965763 0.06341845 -0.021276485 0.020610044 -0.0007023599
0.023277069 -0.0154807735 0.009834425 0.029545046 0.045589343 0.005613122 0.03557593 -0.030029606
0.008930762 0.034670025 0.024868982 0.008641245 -0.005543074 -0.021937251 0.022791164 -0.032668475
-0.0362688 0.02621638 0.04056598 0.031460594 0.0064493218 -0.02451389 -0.011886574 0.03431544
0.044876266 -0.025892254 0.035614975 0.002512785 0.010059216 -0.02081862 0.040512968 0.000303826
-0.02518247 -0.026015265 0.03180033 -0.00070248963 0.012253882 0.040977366 0.033165522 -0.02337116
-0.0088673 -0.011908609 0.039052255 0.008169242 0.022429975 0.0068107983 -0.020826118 0.03515496
0.0063174716 0.012913542 -0.014176612 -0.02931973 0.045914527 0.031104844 -0.008232067 -0.010508397
-0.0033157205 0.015743313 -0.025443222 -0.03570671 0.05277582 0.016616087 0.033349395 0.01419897
0.0029113346 0.02168386 0.04419716 0.022031287 -0.0025988717 -0.020744257 -0.013780775 -0.022192534

mean_network.0.bias f4 [64]
00000000: 8c2e 3d3d 9095 0cbc 8d02 4f3b 97ef f4bc
00000010: 7820 043d b70b 003d 2790 89bc dee8 e3bc
00000020: 94bf 973d 6751 ee3c 4c91 323d e755 f2bb
00000030: 318e aebc acef 18ba 2d4c c6bb 42ee 9e3c
00000040: ebb7 b0bc c068 603d c790 953b f034 193c
00000050: 50aa 1a3d 4684 c5bc 248b 45ba b0b8 2ebd
00000060: ad37 673c 3314 713d 6a2b cdbb 9d01 d0bc
00000070: 5ecd 75bc 6395 083c 2ee1 a2bc 860b 863b
00000080: 11f0 bbbc e813 3c3c a599 223b 9229 a83c
00000090: cd00 cabb c28d 6abc f755 87bc 745d a8bc
000000a0: b5c8 d6bc 1317 363d e1e5 3a3b 570b 84bc
000000b0: 9d56 ef3c 4cd9 35bc 4988 153c 6f69 8abb
000000c0: bc36 023d d7ec 5abc ca3b de3c c0a3 833d
000000d0: 3a51 883d 6240 27bd baf4 013d 778b 5f3d
000000e0: 7bc7 0bbd 2341 ffbc 283f bfbc 421e 683b
000000f0: 7564 03bd 01a1 0e3c 010e a0bc bffd 4e3d
0.04618697 -0.00858058 0.0031587214 -0.029899402 0.032257527 0.031261172 -0.01679237 -0.027821
0.074095875 0.02909155 0.043595597 -0.0073954943 -0.021308037 -0.0005834054 -0.0060515613 0.01940072
-0.021572074 0.054787397 0.004564378 0.009351 0.03776008 -0.024110924 -0.0007535687 -0.0426566
0.014112395 0.058857154 -0.006261279 -0.025391394 -0.015002577 0.008336398 -0.019882765 0.004090729
-0.022941621 0.011479355 0.0024810818 0.020527635 -0.0061646462 -0.014316024 -0.016520483 -0.020552374
-0.026218751 0.0444556 0.0028518366 -0.016118689 0.029216105 -0.011099171 0.009126731 -0.0042239944
0.03179048 -0.013362131 0.027128119 0.06427717 0.06656118 -0.040832885 0.03172753 0.054576363
-0.034125786 -0.03115899 -0.023345545 0.0035418426 -0.032078225 0.0087053785 -0.019537928 0.05053496

mean_network.2.weight f4 [32, 64]
00000000: 3842 013e 2325 1e3e 1cd2 123e bbb9 84bb
00000010: 23ab ccbd c15c 083e 345b de3d e9e7 73bb
00000020: dc82 0ebd b5d1 d5bc 2d55 f83d 4c28 103e
00000030: 3eba f6bd 16a2 2eba 65f3 083e f0ea d5bd
00000040: bcf7 b9bc ed5c 58bd 05cf 013e 0dee 623d
00000050: c941 d03d 2455 49bd 209a 7ebd 790d b33d
00000060: 9ce4 193d 205a 5fbd 6919 023e cc0f 463c
00000070: 4661 a1bd 52bc 6dbc 4a2d d4bd c5d2 68bc
00000080: 6412 bcbd 6a37 babd b98f 82bd 57eb 69bd
00000090: 0817 3abc e22d fc3c 0b5c d9bd ee60 87bd
000000a0: e52d a93c b0a8 c33d c204 82bd f4b2 d3bc
000000b0: 8553 033e 39d2 8b3b 3845 da3b e6c6 e33d
000000c0: 481c 823c 0952 79bd 494b a13d 1a81 c73d
000000d0: 67c5 40bd 07bb 23bd 6241 04bd 3f85 eb3d
000000e0: 976c 863d 5d11 aebd 51c4 9fbd 1173 aabd
000000f0: d0f8 c1bd 50ad 61bb 5c0e e53d e8c0 193c
00000100: 7cf3 a63c d30e 83bc 6388 b03c fa8a 8ebd
00000110: 051c 2dbd 2fb3 c63d b6c2 71bd 5452 5b3d
00000120: 65a8 6fbc 0f16 c13a 1bc6 d9bd d960 08bc
00000130: ee86 eebd 02f0 9bbd d0cc 0a3c bd52 32bd
00000140: 6a6d e43d 978a ba3c 535f 963d 7664 d83d
00000150: 413a cf3d d081 9d3d 4f02 83bd c883 d63d
00000160: 00b4 b3bd a50f a43d 9f79 8dbd 6959 173d
00000170: 9394 dd3c 9693 0a3e 6f78 c4bd 93dc a53d
00000180: 69c5 003e 6a3e cf3d ce19 45bc 551a 973d
00000190: 4434 da3d 120d ce3d 6546 e4bd 50b4 b1bd
000001a0: 344c 55bd cec2 0abd 6990 2f3d ae0c aa3d
000001b0: 6db5 f23d 4f54 fe3c cc49 84bd 8f87 853d
000001c0: 0ab7 a03d 4a49 d73d 7aaa 02bd c5da 91bd
000001d0: 5189 b53d 38ef 983b ac92 c4bc 4d44 d63d
000001e0: 0811 02be 19b5 3fbc bbd6 c13d 8500 8bbd
000001f0: 01bb 80bd 3918 d7bc 575f 733c 9cb1 05bc
00000200: f857 afbd aae5 b83c 9ec0 003d 3086 a5bc
00000210: 3ef0 2abb efed 033c b183 c9bc 152c 843d
00000220: d84f 59bd 3f61 443d 7d03 de3c abfc 9ebc
00000230: a2dd 6f3d ef73 703d a465 e53c d4ca 7d3d
00000240: cef2 60bd 4910 0b3e e24c a73c 2c47 d33d
00000250: ab48 083d 5021 2d3c 71a7 073e 16db dfbc
00000260: ee22 1e3c 2601 733d a6d0 c63d 95fe 2d3c
00000270: ea46 0c3d 0f8d 333d a5d1 a8bc f133 453d
00000280: da4a 1cbd bb50 b4bd ddda 8abc beff 043e
00000290: 7f40 5b3d 3277 fe3c 2428 bdbd 0555 5d3d
000002a0: 0866 0f3d 31b1 093e a4cc bebd dabd 373d
000002b0: b88c d0bc e86d 773d d468 af3d e13c 883d
000002c0: 90a1 063e 32d1 b13d bdcd 743c dd6e 763d
000002d0: cb9d cd3d abba b23d 9368 5abd 9a75 a13d
000002e0: b4fc c5bd bd72 343d c368 97bd 2194 1f3e
000002f0: 4424 0cbd b2c2 aebd ab49 d6bc 4e1e af3d
00000300: d7c7 fabc 390c e43c 13a6 e4bb c130 5a3d
00000310: ea0c 79bc 4e3e 28bd 0673 953d 468b 25bd
00000320: d837 c5bb 3ccd b5bd 09ca 9ebb d328 8f3d
00000330: bfbf 0b3d 3923 3c3d cc0b b13d 076b 9a3d
00000340: c927 a9bd fd56 993d 835c 813c e552 dd3c
00000350: 7cd0 ca3d fe4b 87bd 9db9 b6bd ee40 8c3c
00000360: 4a52 8e3d 951d 863d b11a c7bd 5bbf f53c
00000370: b2c1 863d 184e c0bb e88e a23c 0ee7 eabd
00000380: e6ff aa3d 5afb 9fbd 30a5 893d 921f 31bd
00000390: 39a9 d5bd 746c 88bd 6665 58bd ee6a 8b3d
000003a0: ed52 223d b806 183d 6dc8 a6bd c44e 73bd
000003b0: 0ddf b8bc 2cc4 26bd ae21 c53d a19a c43d
000003c0: 6017 873d 7838 e23d d144 ecbd f03d 32bd
000003d0: 72fc 32bd 04eb 5fbd 3c24 97bc 150d f8bd
000003e0: 200e eabd a331 253d 5611 b1bd 46e5 efbd
000003f0: 1cb3 f63c 5b29 5d3d 7587 b7bd 33e9 ff3c
0.12622917 0.15443854 0.14337963 -0.004050461 -0.09993579 0.13316633 0.10857239 -0.0037217087
-0.034792766 -0.026100973 0.12125621 0.14077872 -0.12047242 -0.0006661726 0.13374098 -0.104452014
-0.022701137 -0.052822996 0.12676628 0.055402804 0.101687975 -0.049153462 -0.062158704 0.08742804
0.037571535 -0.05452931 0.12705006 0.012088727 -0.078798816 -0.014510231 -0.10360201 -0.014210408
-0.09183195 -0.09092601 -0.06375069 -0.057109203 -0.01135803 0.030783597 -0.10613259 -0.06610285
0.020651767 0.09553659 -0.06348564 -0.025842167 0.12824829 0.004267004 0.0066610835 0.11121921
0.015882626 -0.06086925 0.07875688 0.09741421 -0.047063258 -0.039973285 -0.032288916 0.11500024
0.065636806 -0.084994055 -0.07801116 -0.083227284 -0.09471285 -0.0034435578 0.111843795 0.009384371
0.020379774 -0.01599828 0.02154941 -0.069601014 -0.04226305 0.09702145 -0.05902358 0.05354531
-0.014627551 0.0014731305 -0.10633489 -0.0083238715 -0.116468295 -0.07614137 0.008471683 -0.043535937
0.111536816 0.022771163 0.073424004 0.105660364 0.10118533 0.076907754 -0.06396925 0.10474354
-0.08774567 0.080107965 -0.06907963 0.036950503 0.027048385 0.13532862 -0.095932834 0.08098712
0.12575306 0.101193264 -0.012030078 0.07378069 0.106545 0.10061087 -0.11146239 -0.0867697
-0.052074626 -0.033877186 0.04286233 0.083032 0.118510105 0.03104606 -0.06459388 0.065199964
0.07847412 0.10512026 -0.03190086 -0.07121805 0.08864082 0.004667189 -0.02399572 0.10462246
-0.1270181 -0.011700892 0.09464785 -0.067872085 -0.06285668 -0.026256667 0.014854274 -0.008160021
-0.085617006 0.02257045 0.031433694 -0.020205587 -0.0026083137 0.008052333 -0.024598928 0.064537205
-0.05305466 0.047944304 0.027101273 -0.01940759 0.058560975 0.058704313 0.028002568 0.06196101
-0.054919057 0.13580431 0.020422403 0.10316309 0.033272427 0.010567024 0.13247468 -0.027326148
0.009651883 0.059327267 0.09707765 0.010619779 0.034247316 0.043835696 -0.020607779 0.04814524
-0.03815732 -0.088044606 -0.016950065 0.12988183 0.053528305 0.031062696 -0.09236172 0.05403616
0.035009414 0.134465 -0.09316376 0.04485879 -0.025457725 0.06040755 0.08564916 0.06652237
0.13147569 0.08682479 0.01494163 0.06016432 0.10039862 0.0872701 -0.053322386 0.07883759
-0.0966734 0.044054735 -0.073930286 0.1558385 -0.034214273 -0.08533229 -0.026158174 0.08550702
-0.03061287 0.02783786 -0.0069778054 0.05326915 -0.015200833 -0.041075043 0.072973296 -0.040416025
-0.00601862 -0.08877036 -0.004845862 0.069902085 0.03411841 0.04593203 0.08644828 0.07539945
-0.082595415 0.07487295 0.015791183 0.027017066 0.099030465 -0.06606291 -0.08922122 0.017120805
0.06949289 0.06548611 -0.09721888 0.029998472 0.06579913 -0.0058686845 0.019843534 -0.114698514
0.0834959 -0.078116134 0.0672096 -0.043243 -0.10432667 -0.06661311 -0.052831076 0.068075046
0.039629865 0.037115782 -0.08143697 -0.05940129 -0.022567296 -0.040714428 0.096255645 0.095998056
0.06596255 0.11045927 -0.11536563 -0.0435161 -0.04369778 -0.054667488 -0.018449895 -0.1211187
-0.114284754 0.04033054 -0.08645885 -0.11713652 0.030114703 0.053994518 -0.08961383 0.031239128

mean_network.2.bias f4 [32]
00000000: 42c3 0a3d 0e15 443d 0d62 7bbc ec8e 693c
00000010: febd 113d 1253 b23d a24d bebd 48ab d73d
00000020: 5921 a23d 532d 4f3d faf7 dc3d 98e3 59bc
00000030: 8214 9e3d fcaa 053e 8be5 93bd 4bab 71bd
00000040: 9503 f5bc 34c2 9d3c f27e c9bb b5ad 66bc
00000050: 2fe1 aabd 3a7d b63b fe31 193d dff6 5dbb
00000060: b218 fbbc a801 413d 8cb6 9b3d fd03 683c
00000070: f80c f33c a283 073d bb3f d8bd 50c7 5fbd
0.03387762 0.04787164 -0.015343201 0.014255267 0.03558158 0.08707251 -0.09292151 0.10530716
0.07916517 0.050580334 0.10789485 -0.0132988915 0.07718755 0.13053507 -0.07221516 -0.05900125
-0.029908935 0.019257642 -0.0061491663 -0.014079501 -0.083437316 0.0055691274 0.037401192 -0.003386907
-0.030651424 0.04712072 0.076031774 0.014161107 0.02966927 0.03308452 -0.105590306 -0.05463344

mean_network.4.weight f4 [2, 32]
00000000: 6868 16be 06ba d63c 9b50 13be e7a2 bf3d
00000010: 0a1b 973d 5a3a 3bbe 42d7 19be eeb0 05be
00000020: d3ed 2dbe 876f e4bc cda0 2e3e 58aa 1e3e
00000030: dc0b 84bd fc9e 1cbe f003 f6bd 8b95 eebd
00000040: efe3 ca3d 6d19 8dbd 1a9d c63d 462d e13d
00000050: aa30 bdbd 063c f0bd ff01 f4bb 2977 143e
00000060: 2e57 d3bc b1c1 07be 4b8d 1abe e91c e4bd
00000070: 5605 5dbd 68bc 9ebd 0117 b33d 4437 c83d
00000080: 86b1 36be d01d f8bd 9be3 adbd 9db9 cb3d
00000090: 16b3 e2bd 3025 653d 1002 6d3c a964 123e
000000a0: 2464 62bd bfcb 1a3d 4599 f3bd d9d1 db3d
000000b0: 79fb 5abe b54d b4bd d00b bbbc 83bf 083c
000000c0: bb1f 17be 5760 5cbd e9ec ec3d e812 823d
000000d0: 6033 1dbe 9879 4cbe f6f6 b6bd 5996 1a3d
000000e0: 0320 ccbd 289e 31be f45d 203e a77b 55be
000000f0: a8a3 803d 3685 133e 4fd5 073e 7a84 05be
-0.14688265 0.02621175 -0.14386217 0.09357243 0.07378204 -0.18283978 -0.1502352 -0.13055775
-0.16985254 -0.027885212 0.17053528 0.15494668 -0.064475745 -0.15295023 -0.1201247 -0.11649617
0.09906756 -0.06889615 0.096979335 0.10994963 -0.092377976 -0.117301986 -0.007446527 0.14498581
-0.025798406 -0.13257481 -0.15092961 -0.11138327 -0.053960167 -0.077507794 0.08744622 0.09776166
-0.17841157 -0.12115061 -0.08490678 0.09947512 -0.11069314 0.055943668 0.014465824 0.14296211
-0.055271283 0.037791964 -0.11894468 0.10733385 -0.21384992 -0.08803884 -0.022832781 0.008346441
-0.14758198 -0.053802814 0.115686245 0.06351262 -0.1535163 -0.1996826 -0.08933823 0.03774104
-0.09967043 -0.17345488 0.1566084 -0.20847951 0.06281215 0.14406285 0.13264965 -0.13038817

mean_network.4.bias f4 [2]
00000000: ec08 273d bdbd 08be
0.040779993 -0.1335363
