LIRL results/Ablation result/ddpg_mask_multi_run_50_5/run_8_seed_114514/ddpg_mask_mu_target_20250905_114822.pth (torch, 312325 bytes, 9 tensors)

fc1.weight f4 [128, 507]
00000000: b0f3 ffbb 142b cabd 846d 64bd 51d7 1abd
00000010: 4dd1 d1bd 6851 ef3c 32dd d13c b627 82bd
00000020: 47c7 ba3a 85e6 88bc 0dd3 33be 28b6 4dbd
00000030: 16a9 7cbd 108c c4bc b319 fbbd 2006 cdbd
00000040: c5e0 8abd ae1d a7bd bcc4 81bc 1567 91bd
00000050: bba6 a1bd ecc4 a8bc 492d 5cbd 3d40 95bd
00000060: acea 70bd b228 143d 28b3 1ebc 6f15 5cbd
00000070: eb85 c2bc baf7 11bd e541 e63b 62f8 363d
00000080: fe5f 93bc fe4a 1fbb 4579 99bd df26 0dbc
00000090: aadb 3c3b ff3a 9cbc 2c8d 8abd d4a8 85bd
000000a0: 4651 32bd 6823 4ebc d633 52bd 80e4 7bbd
000000b0: d697 253c 0440 793d dbea d9bd 7354 9abc
000000c0: 7370 d8bd 7969 40bd 9b10 2f3d 9ed5 08bd
000000d0: 2e77 99bd 5bbf 1abc 5352 31bd 59d9 24bd
000000e0: 2dfd 88bd f1a9 cbbc 993a 40bd 4ee0 9ebd
000000f0: f11b aabc 95dc 29bd c118 e33b 0716 76bc
00000100: 14a2 03bd fc7c 09be 0f47 aabd fd11 8b3b
00000110: 2bfe 73bc 9830 313b 6475 553d ba80 c9bd
00000120: 7935 f1bc 2142 42bb 9279 5ebd 121f 143d
00000130: b667 6ebd ab83 0ebb 6c10 2bbd b98a b23c
00000140: 609a 21be 22dc 87bd 672d adb9 ef5a bb3b
00000150: dfe2 a23c 6322 b7bd 323a 973d 156b b7bd
00000160: 1bc1 abbb 4ccb 7cbd 81e8 a83c 9487 afbd
00000170: df94 2fbc a840 39bc 3921 cbbc 3150 3ebc
00000180: a08a 01bd 2f48 bbbc 5517 97bd 26f7 25bc
00000190: 607b 4c3d c903 af3d 2e73 75bc d6a9 beba
000001a0: 2e62 033d 0c34 a23b 1993 7dbd 2857 82bc
000001b0: 3f0b 3b3b 3da2 8dbd dda1 a7bd bc16 d1bd
000001c0: ea8f babd ef70 afbd aabb 63bd bb74 77bc
000001d0: d861 483d 805f 433c b20a 04bd c6b2 333c
000001e0: 219d dabd 81e4 a1bc cb19 f0bd 735c b0bd
000001f0: 982a 21bd 2e6f 76bc 5182 793c f22f 573d
00000200: 522c 55bc 3554 9d3c abfd 3dbc c77f bcbd
00000210: e4d6 7abc 1a0a 97bd bfbd bfbd 8e86 f6bc
00000220: efe3 9dbd a640 a8bb 75a7 8cbd 8d17 82bd
00000230: 2e2e ed3c 721c cdbb 25e6 abbd 7fd5 abbd
00000240: 6d38 95bc 90b1 8abc 4d2f 30bd 8083 c1bd
00000250: 10bd c0bd 2d06 94bd a270 fc3c 8508 18be
00000260: 92be c3bd 50c9 b9bd f528 9fbb 9b35 1ebe
00000270: 0997 0dbd 8a27 1f3b b021 cd3c 6506 183b
00000280: f645 1bbd c98b a2bd 3c5d e9bc 9865 bdbc
00000290: d5c3 8dbd 930d bfbd c94d ccbd d992 58bd
000002a0: 0a6e 13bd 2cb6 46bd f7d6 b5bd 7419 0dbd
000002b0: c72b 86bd 943f f0bb 89e8 5bbd 1a99 cebd
000002c0: ae4f e1bd 9266 30bd 164f c239 165d 6abc
000002d0: 1dbc a13d 9d99 aa3d 7549 c5bc ffb2 13bd
000002e0: 641c 973c 4e71 283d c055 6bbc ca87 63bc
000002f0: 3dc8 14bd 81f0 4cbd ef10 493d fb85 86bc
00000300: 8009 b4bc f5e3 84bc be89 a8bd 2c06 62bc
00000310: 4c59 86bd 94dd ccbd 6b5c 02be 94ec 01bd
00000320: 783f 8c3c 57d1 37bc f728 38bb 496b c13c
00000330: 1d5b 103b a63f cebb 841a 8fbd 6868 c2bd
00000340: eb38 e5bd 06ac 98bd d8cb acbc 0923 f2bc
00000350: 1812 84bd fe1e 393b b963 42bd e36b 08be
00000360: 9e59 86bd 0dfd 9cbd 3e99 9bbc c043 3cbd
00000370: cf18 d73a 15e8 33bd b4bc 60bc 7072 b5bd
00000380: cd31 87bd 4152 b23c 1248 e4ba 2766 8abd
00000390: 2989 efbb 1f7e b8bc 55a5 a83d 180f 793d
000003a0: c21d 13bd 1aac 84bd 44c3 bfbc cb37 d8bd
000003b0: dcca 1ebe c88c b1bd e97c 49bd b15d 46bd
000003c0: 5ff3 8e3c bc0a 11bd 811d c93c b0de 2ebd
000003d0: ebad 77bd 024b f0ba f4f4 5d3d 9c94 133c
000003e0: 9ebc 80bd 9a6b 6ebc 434d 6a3c 5d98 1b3c
000003f0: b1b6 7e3d 2b8e 243d 9e64 0a3c 8ccb 84bc
-0.0078110322 -0.09871498 -0.055768505 -0.037802998 -0.10244999 0.029213622 0.02561817 -0.063552305
0.0014250063 -0.016711483 -0.17560978 -0.050222546 -0.06168469 -0.023992568 -0.12260761 -0.10010934
-0.06781153 -0.08159958 -0.01584088 -0.070997395 -0.078931294 -0.020601712 -0.053754125 -0.07287643
-0.05881755 0.036171623 -0.009686269 -0.05373138 -0.023745498 -0.03563664 0.007026898 0.04467047
-0.017990109 -0.0024306173 -0.074938335 -0.008615225 0.0028817453 -0.0190711 -0.06765208 -0.06526342
-0.04353454 -0.012581684 -0.051318966 -0.06149721 0.010107001 0.060852066 -0.10640498 -0.018839097
-0.10568323 -0.046975587 0.042740446 -0.033406846 -0.07493435 -0.009445037 -0.0432914 -0.04024634
-0.066889144 -0.024861308 -0.046930883 -0.077576265 -0.020765277 -0.04147013 0.006930441 -0.0150199
-0.03213699 -0.13426584 -0.083143346 0.0042440877 -0.014892141 0.002703702 0.052113906 -0.09839006
-0.029444443 -0.0029641467 -0.054315157 0.036162443 -0.058204375 -0.002174596 -0.041763708 0.021794664
-0.15781546 -0.06633784 -0.0003303096 0.0057176272 0.019883571 -0.089421056 0.07384147 -0.08955971
-0.005241526 -0.061717317 0.020618679 -0.08570781 -0.010716646 -0.011306919 -0.024796115 -0.011615799
-0.031626344 -0.022861568 -0.07377497 -0.010129726 0.049922347 0.08545644 -0.014981074 -0.0014546465
0.032076053 0.004950052 -0.06190786 -0.0159107 0.0028540639 -0.0691571 -0.0818517 -0.10209414
-0.09109481 -0.08566462 -0.055598892 -0.015103514 0.048921436 0.011924624 -0.032236762 0.010967916
-0.10674501 -0.01976228 -0.117236696 -0.08611383 -0.03934726 -0.015041156 0.015228824 0.05253596
-0.013011055 0.019205192 -0.011596124 -0.09204059 -0.015310023 -0.073749736 -0.09362363 -0.030093458
-0.077094905 -0.00513466 -0.068678774 -0.06352148 0.028952684 -0.0062594945 -0.08393506 -0.083903305
-0.018215382 -0.016930372 -0.04301386 -0.0944891 -0.09411061 -0.072277404 0.030815426 -0.14847
-0.09557833 -0.090716004 -0.0048571774 -0.15450136 -0.034567866 0.0024285042 0.025040478 0.002319717
-0.037908517 -0.07936818 -0.02848684 -0.023119733 -0.069221176 -0.09328761 -0.09975774 -0.05287442
-0.035993613 -0.048513576 -0.08878892 -0.034448102 -0.065513186 -0.007331798 -0.05368856 -0.100877956
-0.11001526 -0.04306657 0.00037061487 -0.01430442 0.07897208 0.08330081 -0.024082879 -0.036059376
0.018446155 0.04112368 -0.014363706 -0.013887355 -0.036323775 -0.05003405 0.049088415 -0.016421309
-0.021977186 -0.01622198 -0.08229397 -0.013795417 -0.06560001 -0.100032 -0.12730567 -0.03171976
0.017120108 -0.011219344 -0.0028100589 0.023610728 0.0022026964 -0.0062942086 -0.06987479 -0.0949257
-0.11192497 -0.07454686 -0.021093294 -0.029557722 -0.064487636 0.0028247233 -0.047458384 -0.13322406
-0.06560062 -0.07665453 -0.01899397 -0.04596305 0.0016410592 -0.043922503 -0.013716865 -0.08859718
-0.066012956 0.021767737 -0.0017416498 -0.06757765 -0.007310052 -0.022521077 0.082346596 0.06080541
-0.03591705 -0.06478138 -0.02340854 -0.10557517 -0.15507072 -0.0866943 -0.04919139 -0.048429195
0.017450033 -0.035410628 0.024550201 -0.04269284 -0.060468595 -0.0018332901 0.054188684 0.009007599
-0.06285976 -0.014552021 0.014300647 0.009496775 0.062185947 0.040174644 0.008446841 -0.01621034

fc1.bias f4 [128]
00000000: 43bf 093d cda0 0f3e 0413 083e 658a 02bd
00000010: b774 b9bc b348 efbc 8799 813e 60f0 023e
00000020: cb14 773c b36e 033d f099 23bd fddf 673e
00000030: 2c1f 7e3e cffb e33e 9882 abbc e26c 9e3d
00000040: 0608 0a3d fe6c 093e ca45 d03e 1783 1fbc
00000050: ea20 713e 86fb bbbc 9310 00bd 8345 483e
00000060: 7878 173e eacc 183e 7f3c ea3e 3863 823d
00000070: ec6c 073e f526 af3e 4561 193d 3d23 c73c
00000080: 9d99 903d c1d3 8b3c c063 2b3e 7493 9c3d
00000090: 523e eb3b 95c8 243f 20fe c43c 1e00 1bbc
000000a0: f196 34bc 988b 1f3e f841 8a3e 42dc 833e
000000b0: f6b8 773c a232 2e3e 8eca 12bc 5bde 3a3e
000000c0: 5fdb 033f 7868 1e3e 012b 563d 1cec 3e3d
000000d0: 13ad 9b3b c891 453d 8de1 233e d4f8 0a3e
000000e0: 41ca 2ebd 22e4 b0bc be9c 873e 6253 f93d
000000f0: fb14 e13c 2b87 483c faba bf3d c951 983e
00000100: 0948 263e e754 3f3c cb98 463d 4996 0e3e
00000110: 63de a23d 09d1 1d3e 933b 023e b448 5f3e
00000120: a526 6f3e 6e16 803e 193b db3c 7d30 1e3d
00000130: 1b9e 73bd f760 49be 6148 243e 3bb5 173e
00000140: 5e33 063e 11f9 083f 70ba 423d cea8 073e
00000150: 658d 5fbc 1a6f da3d bc2b 7a3e ea80 5a3e
00000160: 68e2 2a3e df47 953e 1fba 773e ab98 023e
00000170: cad5 fd3d efa2 afbd 78e3 a2bc bac2 813d
00000180: f6ef c83e 0962 b73d 453e 8abd 3de3 7c3e
00000190: 05cc 163d ead0 073e 4b25 d1bd 5f41 a6bd
000001a0: d0f9 033e 74d9 323e bad5 e13d 86a4 b33d
000001b0: 3582 793d 97b9 2e3e 20ab 933d 70f0 403d
000001c0: 9f2d 0a3e a240 ae3d 770d aebc 9e13 d13d
000001d0: d9ee d63d d2cf 4a3d fb09 373e 0ca7 b63c
000001e0: be76 273d 7c70 4abb f5cb 04bd 887d e33e
000001f0: 11fe 403e 21c4 5a3e e8fd f83e e831 193e
0.033629667 0.14026184 0.13288504 -0.031870265 -0.022638662 -0.02920947 0.25312445 0.12787008
0.015080641 0.032087993 -0.039941728 0.22644038 0.24816579 0.44528052 -0.020936295 0.077356115
0.033699058 0.13420483 0.40678245 -0.009735844 0.23547712 -0.022947084 -0.031265806 0.19557767
0.14792049 0.14921919 0.4574928 0.06366581 0.13225144 0.3420941 0.03744628 0.024308795
0.070605494 0.017068746 0.1673727 0.07645312 0.00717906 0.64368564 0.024046957 -0.009460477
-0.011022315 0.15580595 0.27003455 0.2575398 0.015119782 0.17011502 -0.008959426 0.18248884
0.5150661 0.15469539 0.052287105 0.04661189 0.0047508567 0.04823473 0.1600401 0.13571483
-0.042673353 -0.021593157 0.26486772 0.12174107 0.027475825 0.012239258 0.09361835 0.29749897
0.16238417 0.011677957 0.04848556 0.13924517 0.07952573 0.15411772 0.12718038 0.21805078
0.23354585 0.25017112 0.026761578 0.03862046 -0.059476953 -0.19665895 0.16043235 0.14815228
0.13105533 0.53505045 0.047541082 0.13247988 -0.013644551 0.10665722 0.24430746 0.2133824
0.1668793 0.29156396 0.24192093 0.1275355 0.12394293 -0.08575999 -0.019883856 0.06335969
0.39245576 0.089542456 -0.06750158 0.2469606 0.036815662 0.13263288 -0.10212191 -0.08117937
0.12888265 0.17465764 0.11027093 0.08771615 0.06091519 0.17062984 0.07210374 0.0471043
0.13493966 0.085084215 -0.021246655 0.1020882 0.10494775 0.0495146 0.17874901 0.022296451
0.040884726 -0.00308898 -0.03242107 0.4443171 0.18846919 0.2136388 0.48631215 0.14960444

fc2.weight f4 [64, 128]
00000000: 780a a23d 4152 b0bb 3054 ec3d ea9e ed3c
00000010: dd49 0d3e 4dad 01be 17e3 cbbc 0170 173a
00000020: e500 02be 28fa fd3b 028c 69bd a126 883b
00000030: 5c13 9bbd 331a 8cbd 2ba1 f63b e160 053b
00000040: 168d 4bbc 65d6 53be 6342 373d aa6b ab3d
00000050: 6691 91bc 7431 9d3d 10ff 953d 3fa1 243d
00000060: 3696 5e3c 4e63 653d 63ed d23d a188 a13b
00000070: f787 56bb 61e8 6e3d a6fa 9a3d 1e85 843d
00000080: 84f8 3b3d f552 efbc 2129 b73d 1ad0 163e
00000090: c64b a7bd 1dab 633d 4bfd fcbd 713b 533d
000000a0: 032b 383d 2a1b cfbd 52a7 993d 8a05 c8bd
000000b0: 7404 d43d 7d6a 78be 26ab a1bd 9abf 953c
000000c0: aa84 00bd 8a5d 953d e0d1 c23c 14cf 2f3b
000000d0: bd96 c73c 895a c9bd b069 ccbd b61a 113e
000000e0: 88cf 713c ef40 a6bc eae9 ae3d 8658 9dbd
000000f0: 094e 4a3d 03f9 eebd 9f2d d83c 8bc9 3d3e
00000100: e8a1 ba3d cb5e 73bd c578 353d c358 da3d
00000110: a8f5 923d 0489 98bd cccb d53c b01e fd3c
00000120: b04a 2a3c cc7a 7b3d 3b75 6fbd b69e 393e
00000130: 16a0 303d 12be 213d dcf0 cc3d 57c8 a03c
00000140: 2cba d6bc 47a1 2ebd e6ad acbc 2250 09bd
00000150: 8ff8 eebd 2c4c 6a3d a3f9 c7bd 3f67 37bd
00000160: dd2e 15be 5752 813d 0304 f5ba f350 01ba
00000170: d965 0d3e 3584 953c 5309 90bd 34fc 443d
00000180: 6a7e c7bd 062b 2dbd 8683 a5bd 51c5 923d
00000190: 1726 2b3d a4b2 7b3d e656 363d 3e69 a3bd
000001a0: 8284 ff3d cff5 b23d 82f8 6cbd 7bd2 39bd
000001b0: dab7 383d aaa6 a73d b395 a23d 7ddb 563c
000001c0: cb4d 03be 5c73 0ebd 7fbe b33d 8e0e 483d
000001d0: 0c5c 6d3e 3157 d53c dfab 2dbe bf82 a93b
000001e0: 4584 8fbd 01d0 2f3d fb2e 7d3d 3382 3dbe
000001f0: 374f 92bd 7d27 2c3d 4824 af3d 439b e3bc
00000200: 524e 2ebe 5956 9d3c e21a 833e 54bc 88bd
00000210: f22b 5fbd 17f4 b8bc 310c b6bc 8e78 6dbd
00000220: 5357 ebbc 631e dfbb 5016 cbbc e8a4 8dbd
00000230: 3ab0 a03d a021 7cbd 7c89 753c 1d63 a33b
00000240: 5058 3a3d 9a4a 423c e29e 0d3d 5604 afbd
00000250: c13f 6e3d ad8e f13d 525d aabd 479a a43c
00000260: 9bbb 09bc d59e 30bc fb4b 76bd e05b 133c
00000270: f09b d8bc 70dd 0d3d b1ec 43bd 2a45 e4bd
00000280: aa93 d33d a796 96bd f285 9c3c 6785 b53b
00000290: 0556 053b b4e2 80bc 0cc4 78bd c0cb 4fbd
000002a0: a1f8 8f3d 6418 013c b264 9dbd 521f 4b3d
000002b0: cede ccbd c7ce 36bd 7df6 99bd 681c 263d
000002c0: 7b71 80bd 4435 fabc 9d1f 1cbb e60c acbb
000002d0: 8380 0cbd 6494 78bd 7fcb afbd 097d 52bd
000002e0: 23b6 2a3c c29a 643d 3c3e 01bc 5c82 cbbc
000002f0: 627f 6bbd 5c5e 843b ba90 52bd 05a6 d5bd
00000300: 72f3 b2bc fce8 7c3d 5113 5a3c ab06 d63c
00000310: 072c 1a3d aae4 afbc 09a8 46bd 1afc 0ebd
00000320: f6ce 83bd 202f e83b f24f 5abd 4050 cfbc
00000330: 45d9 85bd 88e1 8e3d 0b76 80bc 766f 043c
00000340: 6c2f 90bc 8c8f 5dbd c608 95bc 5ad1 1ebd
00000350: 141e 8abd d39e 613d 40b8 95bc c5d4 8e3d
00000360: a855 093e 8212 83bd b89e 54bc 37f9 8d3c
00000370: 0702 79bd c5ec 083d 6f59 3cbd 15e6 c1bd
00000380: 6364 aebd 67ae 233d 36bf a03d c4d4 13bd
00000390: 5b7c de3d d1ed 4c3e fe3f 2d3c 7743 3ebd
000003a0: 7f29 053c a9e4 193c 5c5a 0dbb 4108 3dbd
000003b0: 857e 783d 40f5 c6bd e2f6 84bd a439 153c
000003c0: 757a c8bb 08f9 d63d a576 173d 575c 043e
000003d0: 3b11 5e3d 23f4 d83a 2e71 d3bd fd90 a13d
000003e0: 4b10 65bd ef3a fcbd 0350 6d3d 97d2 bfbc
000003f0: 9149 f23c 39e0 a73d 03b0 29be 7cd9 3b3d
0.07912153 -0.005380899 0.11539495 0.02900644 0.13797708 -0.12663765 -0.024888558 0.0005776883
-0.12695654 0.007750768 -0.057018287 0.0041549955 -0.07572052 -0.068409346 0.007526537 0.0020351934
-0.012423774 -0.20687254 0.044741046 0.08370145 -0.017769527 0.07675448 0.0732404 0.04019284
0.013585618 0.056002907 0.10299184 0.0049296175 -0.003273485 0.058327083 0.07567339 0.064707026
0.0458913 -0.029214362 0.089433916 0.14727822 -0.081687495 0.05558311 -0.12352999 0.05157036
0.044962894 -0.10112603 0.07502617 -0.097666815 0.10352412 -0.24259372 -0.07893972 0.01827984
-0.03137652 0.07293232 0.023781717 0.002682631 0.02436387 -0.09831721 -0.09981096 0.14170346
0.014758952 -0.020294635 0.08540709 -0.076829 0.049390826 -0.11668589 0.026388941 0.18533914
0.091129124 -0.059416573 0.044304628 0.10661461 0.071757615 -0.07448009 0.026098154 0.030898422
0.010393783 0.061396405 -0.05846141 0.1812695 0.04312142 0.039487906 0.10006878 0.01962678
-0.02621182 -0.042634275 -0.021079015 -0.033523686 -0.116685025 0.05720155 -0.09764411 -0.044776198
-0.14568658 0.06314533 -0.0018693212 -0.0004933022 0.13808383 0.018251518 -0.070330285 0.048092082
-0.097409084 -0.04227736 -0.08081727 0.07166541 0.041784372 0.06144966 0.044516467 -0.07979058
0.12476446 0.087382905 -0.057854183 -0.045366745 0.04509721 0.081860855 0.07938709 0.0131138535
-0.12822644 -0.034777984 0.087765686 0.048842005 0.23179644 0.026042553 -0.16960095 0.005173057
-0.0700765 0.042922977 0.061812382 -0.18506698 -0.07144015 0.042029846 0.08551842 -0.027783995
-0.17022064 0.019206213 0.25606447 -0.06676546 -0.05448527 -0.022577329 -0.02222261 -0.057976298
-0.028728163 -0.0068090423 -0.024790913 -0.06916219 0.078461125 -0.061555505 0.014986392 0.0049861805
0.045494378 0.011858607 0.03457535 -0.08545749 0.05816627 0.11794791 -0.08318581 0.020093096
-0.008406545 -0.010780056 -0.060131054 0.008994073 -0.026441544 0.034635007 -0.04783315 -0.111460045
0.10330899 -0.073529534 0.019106839 0.0055395844 0.002034546 -0.0157331 -0.06073384 -0.05073142
0.07029844 0.00787935 -0.07685222 0.049590416 -0.10003434 -0.044630792 -0.07517717 0.040554434
-0.06271645 -0.030542977 -0.0023822554 -0.005250561 -0.034302246 -0.06068839 -0.08583736 -0.051388774
0.010419401 0.05581165 -0.007888373 -0.024842434 -0.05749453 0.004039569 -0.051407553 -0.10432056
-0.0218446 0.06174563 0.013310269 0.026126226 0.037639644 -0.02147134 -0.048500095 -0.03490839
-0.06435959 0.007085696 -0.053298898 -0.02530682 -0.065355815 0.069766104 -0.015681287 0.008083215
-0.017600738 -0.054091975 -0.01819266 -0.038773872 -0.06744018 0.055083107 -0.018276334 0.06974176
0.13411582 -0.064000145 -0.012977295 0.017330749 -0.06079295 0.033428926 -0.045983728 -0.09467713
-0.08515241 0.039961245 0.078489706 -0.03609158 0.10863563 0.20012595 0.010574339 -0.04645106
0.008127569 0.009392896 -0.002156875 -0.04615045 0.060667533 -0.097147465 -0.06492402 0.009107981
-0.0061181136 0.10496718 0.036978383 0.1292585 0.05421565 0.0016552251 -0.10324322 0.078889824
-0.05592374 -0.12315928 0.057937633 -0.023415847 0.029576095 0.08197064 -0.1657105 0.045861706

fc2.bias f4 [64]
00000000: 7521 293e 164b 123e eb31 763d 4a87 8fbd
00000010: e70f 193d 257f 0d3b 0e26 9e3e 600b 663e
00000020: 2b63 08be 547c 403e 11b4 a33c 2640 a83d
00000030: b5d0 713e 2f05 62be c32b b83e 6e16 2c3d
00000040: 2746 12bc f438 893e 3ce0 f2bd c35f 41be
00000050: 2392 8d3e f425 c13c 20be 94bd c9d9 15bd
00000060: 0e64 293e 863c b53d 5dff 663e f072 463d
00000070: 2fe6 5c3e b211 47bc 53be 80bc 64c0 e5bd
00000080: b88c d83c 6aac c9bb 1fe5 5a3d e639 153f
00000090: 1b58 c53d dd24 00be 8f74 92bd e904 a83e
000000a0: b74d bb3e 8aaf 1f3e 7ff8 9a3e 7e7b 8b3e
000000b0: fd97 2abd 4b24 e73e cbe9 9f3d 8511 8d3d
000000c0: 1a12 cc39 2f7f 8b3e 1ea2 d33d 27d4 d9bd
000000d0: 24a7 7b3e 54b2 cf3e 908d cdbd b4a8 413e
000000e0: 28d2 303f 70b1 723e 5a8b 943e c9b1 8cbb
000000f0: e55a 503f f39a fdbd db2e e2bc 8779 8cbc
0.16516669 0.14286456 0.0601062 -0.07008226 0.03736868 0.0021590677 0.30888408 0.22465277
-0.1331908 0.18797427 0.019983323 0.0821536 0.23614772 -0.2207229 0.35970888 0.042013578
-0.008927858 0.26801264 -0.118591756 -0.18884186 0.27650556 0.023577668 -0.07262826 -0.03658465
0.16542074 0.088494346 0.22558351 0.048449457 0.21572183 -0.012150215 -0.015715754 -0.11218336
0.026434287 -0.0061545866 0.053441163 0.5829147 0.096359454 -0.12514062 -0.07151138 0.32816246
0.3658273 0.15594307 0.30267712 0.27242655 -0.041648854 0.45144877 0.07808264 0.06888107
0.000389234 0.2724547 0.10333656 -0.10636168 0.24575478 0.4056574 -0.100367665 0.18912011
0.69070673 0.237005 0.29012567 -0.0042936546 0.81388694 -0.1238307 -0.027610233 -0.017147793

job_head.weight f4 [50, 64]
00000000: 89a9 c83d aece 32be ce29 3f3d 88e5 96bc
00000010: 5f39 353d 6509 393b 6ef5 043e 6422 2bbe
00000020: 982b fabd d72c b2bd 4467 ac3d eb5b 143d
00000030: 656f 85bc 3de9 d6bd 49a2 bdbd a545 973d
00000040: 8366 0bbe 0d7b 243e e432 82bd 315b 90be
00000050: 2261 2c3c e450 76be 1cc5 6d3d 0a8b c5bd
00000060: ab66 843d 3b36 f2bd cf23 0e3e 1b9a 83bd
00000070: c780 e63d 48c2 eb3d f63d cebd bac1 993d
00000080: 3084 c4bd e342 f03d 16f6 c23e 7b43 e5ba
00000090: de7e ee3d 637a 17be 345b bebe fc05 183e
000000a0: 9a92 123e f9a3 0b3d 48f2 8abe 6c12 393e
000000b0: 9bd9 b9be f54f 183d 5906 77be 120d 8fbd
000000c0: a827 663e 1647 b83d 0d0e 163e d3d7 b6bc
000000d0: 1fe4 b23c 8db9 11bb 75d7 4fbe 7839 1a3d
000000e0: d2a9 92bd cb53 c9bc 73ce 943d 18d1 1d3d
000000f0: d108 1b3d f43d 873a ce32 32bb a200 4fbe
00000100: 7e69 41be 8574 5dbf 4c0d 80bd ad47 30be
00000110: e65e b93b 42de 673e 4d9a c7bc 8fb2 b5bd
00000120: 456e 02be 7a77 62bf 2108 44be d122 65bc
00000130: b9b6 0fbe ccde af3b b3fb b3be 9016 10be
00000140: 43d0 3dbe e237 d53c 291f c9be 2bba 4cbe
00000150: 61c3 a1bd 2837 1cbf 1a8a 89be ac24 c1be
00000160: 7bd8 8dbe 49c8 12bf 669f babc 686c 36bf
00000170: f98c bc3d 1e35 c3bc 163b c3be 3954 3cbe
00000180: 016d b7be a3d9 be3d e2a9 91bd e619 03be
00000190: 7c04 e1bd decd 89be cefe 71be bf96 81be
000001a0: 6329 44bd 9f6b 0dbe 902d 4a3e 4c33 babe
000001b0: cb2a 99bd 919a 8fbe 2c1b 20bf 9002 c33e
000001c0: 6ac8 84bd e6bb 10bc ea1e 93be 3d15 09be
000001d0: 6d1a a2bd 0dcb 47be 04dc 74be a3bc a93d
000001e0: 0fe2 46be 88c1 1fbe e04a c2be f124 353d
000001f0: d427 d8bd b61f 2c3e d057 4fbd 9c79 88be
00000200: 65bc bd3d b3ed 86be 05fa 11bc 4ca6 d8bd
00000210: 92ca 3fbe c828 b1be c7c8 c4bd ebbc 19bd
00000220: dd23 b63c 4072 44be 7b2b 13be 2d4e 33be
00000230: 29d1 36bd 6ff7 c8bd 603f 31be 2672 43bd
00000240: 9998 74bd fab1 55be 74a0 f0bd bf77 2dbe
00000250: 7a0a 05bd 142b d0bd b25b a73d 41f6 7bbd
00000260: 7d4c 733d 0d56 023e b050 abbe 0c57 a73e
00000270: 19df c9bd 37c3 4a3c 232e 82be 3f40 cc3d
00000280: 9b6e 80bc c6d6 463e 8c7a 863d e85e 9fbd
00000290: e939 d4bd e368 113e 35af b7bb ed4a 7fbe
000002a0: 09fb 04bf ce36 b63d 22c3 973c 2d15 24bc
000002b0: b8e6 763e f396 2bbd e0cf 91bd 5018 8f3e
000002c0: 2482 643d 2b0e e73b ab5f 89bd 4a4b afbe
000002d0: 9e1a 85be fe1b 0ebd fce8 a0bd 831f d9bd
000002e0: abd6 12be 5ad9 76be a4ee 053c ccca 82be
000002f0: 7159 09be 42d2 693d a2ee f43b d738 30be
00000300: 98ed 053e 6b2f 8ebe 55dd 8e3d 1073 10be
00000310: f653 e0bd 92c8 a53c 06f4 1ebb 64a1 633c
00000320: 774f 313d d820 3e3e ad55 0c3d f23e 1f3e
00000330: 4432 49be f21c 32be ebfa 513d afdb f3bc
00000340: 4276 dd3d e4cd 423d 95d3 1a3d 2987 1fbe
00000350: 59df 963c a998 eabd f855 b43d 0de8 bcbc
00000360: 852d 4cbe 596e 0e3e ccd0 dabd 0a95 d4be
00000370: 5cd7 e2be 4789 ae3d f4cc 45be 27f6 6d3d
00000380: a410 0ebd a7d4 a4be 89f0 16bf e694 f2bc
00000390: dc93 443d b3e0 90bc aac9 efbd d5a0 30bd
000003a0: 409d 01bd 09a9 19be 7dd5 68bd 390e 933e
000003b0: e426 cdbe 7bbe 82bd fe03 b63e 230c 5ebd
000003c0: 7109 e83d 440c b23c d330 a1bc 6ffd e33d
000003d0: 94e8 ca3d 544b b43d 1329 1dbd fbd1 b33d
000003e0: 2d12 9dbd e6a8 f53d e2d4 25bd f1ea cd3c
000003f0: 0f9c f5bc e329 66be 4854 61be 875b 873d
0.09797961 -0.17461655 0.046670727 -0.018419996 0.044244166 0.002823436 0.12984249 -0.16712338
-0.12215346 -0.08699959 0.08418134 0.036220472 -0.016288469 -0.104937054 -0.09259469 0.073863305
-0.13613324 0.16062565 -0.06357363 -0.28194574 0.010521205 -0.24054295 0.058049306 -0.0964566
0.06464895 -0.1182675 0.13880847 -0.06425878 0.11255031 0.115116656 -0.10070412 0.075076535
-0.09595525 0.11731508 0.38078374 -0.0017491424 0.11645292 -0.1479278 -0.37178957 0.14846033
0.14313737 0.034091923 -0.2713797 0.18073434 -0.36298832 0.037185628 -0.24123515 -0.06984915
0.22476065 0.089979336 0.14653797 -0.02231971 0.021837292 -0.002223584 -0.20297034 0.037652463
-0.07161297 -0.024576088 0.072659396 0.038529485 0.037850205 0.0010318146 -0.0027190926 -0.20215085
-0.18887898 -0.8650592 -0.06252536 -0.17214842 0.0056570647 0.22643378 -0.024365569 -0.08871948
-0.12737377 -0.88463557 -0.19143726 -0.013985352 -0.14034547 0.0053671356 -0.3515297 -0.14071107
-0.18536477 0.026027624 -0.39281586 -0.19992892 -0.07898594 -0.6102166 -0.26863176 -0.3772329
-0.27704224 -0.5733686 -0.022781085 -0.71259165 0.09206576 -0.02382904 -0.38131016 -0.18391503
-0.3582535 0.09318855 -0.07112481 -0.12802848 -0.109871835 -0.26914877 -0.23632357 -0.25310323
-0.047891032 -0.13810585 0.19743943 -0.3636726 -0.07478865 -0.28047612 -0.6254146 0.38087893
-0.064835384 -0.008833861 -0.28734523 -0.13387008 -0.079151966 -0.19511051 -0.23912054 0.08287933
-0.19422172 -0.1560117 -0.3794775 0.044224683 -0.105544716 0.16808972 -0.050620854 -0.2665528
0.09264449 -0.26353225 -0.008909707 -0.105785936 -0.18729618 -0.34601426 -0.09608608 -0.03753368
0.022233898 -0.19184208 -0.14372055 -0.1751029 -0.044633064 -0.09812819 -0.17309332 -0.047716282
-0.05971584 -0.20868674 -0.11749354 -0.16940211 -0.032480694 -0.101644665 0.08171786 -0.061514143
0.059399117 0.12728138 -0.33459997 0.326836 -0.098570056 0.012375644 -0.25425825 0.099731915
-0.01567774 0.19417867 0.06566343 -0.07781774 -0.10362608 0.14200167 -0.005605603 -0.24930926
-0.5194555 0.08897172 0.018525664 -0.010014814 0.2411145 -0.041892003 -0.07119727 0.27948236
0.055788174 0.0070512495 -0.067077 -0.34237128 -0.2599687 -0.034694664 -0.07856938 -0.106017135
-0.14339702 -0.2410635 0.008174572 -0.25545347 -0.13413025 0.057085283 0.0074747363 -0.17209183
0.13078916 -0.27770552 0.069758095 -0.14106393 -0.10953514 0.020237241 -0.0024254336 0.013893459
0.043288674 0.18567216 0.034261394 0.15551355 -0.19648081 -0.17393854 0.051264685 -0.02976784
0.108135715 0.047559634 0.037799437 -0.15578903 0.018417047 -0.11454899 0.0880546 -0.02305987
-0.1993924 0.13909282 -0.10684356 -0.41519958 -0.4430493 0.08522277 -0.19316465 0.058096077
-0.03468384 -0.3219349 -0.5896078 -0.029612016 0.047992572 -0.01768527 -0.11708386 -0.04312213
-0.031644106 -0.15005888 -0.056844223 0.2872179 -0.40068734 -0.063839875 0.3554992 -0.054210793
0.11329926 0.021734364 -0.019676602 0.11132323 0.09907642 0.0880343 -0.03836925 0.08780285
-0.076694824 0.119951054 -0.040486224 0.025136443 -0.029981641 -0.22476916 -0.22004807 0.06609254

job_head.bias f4 [50]
00000000: 2a82 8b3e eacc 8ebe 4d46 5abe 45e4 8ebd
00000010: 2934 bbbe d75a adbe 7277 3bbe 02cc 3cbe
00000020: 9b33 93be 67f4 e6bd 21b8 e8bd c31c 07be
00000030: 820c 72be 5f80 01be 9479 d7bd f23f 39be
00000040: 2ba4 133b a039 e1bd 34a0 15be 736e f6bd
00000050: 8be5 93bd 9659 98bc ce2c 463b 081e 8fbd
00000060: 85a1 56be 0ae8 44be 6356 58be a170 afbe
00000070: b352 9bbe 6913 c8be 57da 89be 0dae 28be
00000080: ce00 f3bd ecfb 41be 5003 bb3a 1c20 2fbd
00000090: 66a7 53be 6686 0fbe 4ac9 74be f428 d4bd
000000a0: 1698 94bd 9a10 8cbe c7e8 98bc 571b c43d
000000b0: 020d 9cbd c958 a7be 7547 9cbc bb7a 1cbd
000000c0: ed96 9c3d ea6d acbe
0.27247745 -0.27890712 -0.2131588 -0.06977133 -0.36563233 -0.33858368 -0.18307284 -0.18437198
-0.2875031 -0.11277085 -0.11363245 -0.13194565 -0.23637584 -0.12646626 -0.10521236 -0.180908
0.0022528272 -0.10997319 -0.14611894 -0.12032785 -0.07221516 -0.018597405 0.0030239108 -0.0698815
-0.20960052 -0.19229141 -0.21126704 -0.34265617 -0.30336532 -0.3907731 -0.26924393 -0.16472645
-0.11865388 -0.18943757 0.0014267955 -0.04275523 -0.20669326 -0.14016113 -0.2390491 -0.10359374
-0.072555706 -0.27356416 -0.018665684 0.09575527 -0.076196685 -0.32684925 -0.019077042 -0.038202982
0.07645974 -0.33677608

robot_head.weight f4 [5, 64]
00000000: 2fdb 5b3d 6a41 a4be 20d5 033e 7d64 d9bd
00000010: 151c 67bd d6c7 1dbf 5181 cd3a b3e2 ca3d
00000020: fe57 853d 40b1 4b3d 1763 a8bd 5f68 c6bd
00000030: a058 37bf b2c2 0ebd 58ae 0ebe 3944 09bb
00000040: 1478 7fbe 1837 b8be 89a6 cd3c cfb6 5f3d
00000050: d2ab 9fbb d6c0 15bd 5a31 02be 08da 9fbe
00000060: 4915 0fbe 4258 513d b41a b5be 937b 993b
00000070: c8c5 84be 0bc2 dc3b f93d 73be ea7e 7b3d
00000080: cbcb a8bd fa85 95be 624d 1f3d ddc1 50bd
00000090: 4b24 96be a3d3 5b3d 136f 0d3d 0b9e afbe
000000a0: 37e8 dcbc 50fd 9dbe 9ad1 843d ed15 d8bd
000000b0: 14fb 0d3d e323 03be 75d8 b5bc 9ff8 ecbe
000000c0: a269 0bbe 5a30 9dba 4b8f a3bd 89bd 243d
000000d0: cae1 75be fce4 8cbc ef9e c83c b597 3fbd
000000e0: 802c 7bbe ae02 c5bd a52d 14be 86ef 2fbe
000000f0: 3825 29be 37d1 923d 9395 1bbf 26d4 153e
00000100: 67c0 49bf 804d 563e 7d77 bcbe 2be6 823d
00000110: abae adbd af1f afbe 188c 0abf cf41 8bbe
00000120: 14aa 0a3d 1ae6 53bc 387f c3be 963b 92be
00000130: b955 2a3d 8f10 b1be 5f88 4ebe a759 51bd
00000140: c4f6 bfbe 6411 8dbd d35a e03b 8f53 2abe
00000150: d7b0 92bd 5418 26bf 024e c0be bab4 29bf
00000160: f07d 1abd 132b fe3d 0437 69be 5fb4 dfbe
00000170: a65a b6be d0a7 01be f595 27be 5d44 ffbc
00000180: 2d61 74be 29a5 5a3d 60db 44bf 11e4 70be
00000190: 8fac b2be f38d 1cbf a6c7 113d b53b c1bd
000001a0: f694 83be 8814 19be 009f c2be 2584 5ebf
000001b0: 353b 32bd 555f 7abe a7e1 f9be 55e2 fabe
000001c0: 0e8b a4be ba9b c33a f87b 68be ac6d 21be
000001d0: 45c6 9ebe d02b 85be ea91 6bbd 2ccf 82bd
000001e0: 4c7a 2cbe b853 40be 1e55 afbe 4964 24bd
000001f0: 0b26 9fbe 3ef0 993c c6ff 08be 70cc bbbe
00000200: 9c39 ab3c a3bd 05bf 3184 2abe 0b20 0ebf
00000210: 1951 afbe 1240 ecbd 3c7a f13b e7be c2bd
00000220: 5062 9cbe 92e8 55be ce7a 1abf f672 b43c
00000230: 28bd d1be 0d6f 8cbc ac77 f2bd e2cb 1dbe
00000240: 63f4 e2bd 17cc 89bd e610 29be 1140 c33d
00000250: 45b6 c5bd 0020 ccbe 3778 b5bd 8ac5 afbc
00000260: 0d83 b9bd 518e 2abe 84cd afbe 1aea 7a3e
00000270: 3419 20be dbc7 a4bd faca d9bc 8403 d83d
00000280: e157 96be e2b9 1a3d 0429 873e a029 90be
00000290: c72f c6bd 01b0 69be bfb8 a8be 8c2c f8bd
000002a0: c82b b8be 4865 4dbe 629e cd3c 4ae7 2e3e
000002b0: f0c6 a03d 3f0c 8fbe 7e0b 2d3c c78d f93c
000002c0: 61ee ad3b 391f 62bd ad2c c8bd d6a0 bdbe
000002d0: d915 6bbd a7e5 a6be be19 11bf 57f3 95bb
000002e0: 0381 5ebe 1ff3 ccbe bde5 0abe 398d d53c
000002f0: 1cba 33be 4a20 dabd 9fa9 94be fc51 7dbd
00000300: 8db3 09be 7c63 71bf 86cb f8bc 90ea 3bbf
00000310: f42e 73bd 55b4 01be 19db 04be aa8b 6cbe
00000320: 2f4f 35be ab8a ddbd c0e0 6ebd de5c e1bd
00000330: 2ebc e2be a076 4c3e b1a0 d7bd 1747 85be
00000340: fa31 50bd 0eac a3be 12c2 d4bd b4fb 94bc
00000350: 892f c7bd 6da7 bebe 8ac3 98be 98c1 ee3c
00000360: ba4d 653d d8fb a4bd 316c d8be 6dc2 4b3c
00000370: 3c01 88bd be13 723d 5246 b63d 97b1 993e
00000380: 8408 a6be f1f0 d43d 15d0 bfbd 905a 1ebe
00000390: a70c 53be 4b90 153e 231e aabd 41ce 22be
000003a0: 8da3 4cbe ea64 8bbc c5a6 763d 6408 73be
000003b0: 3c28 cebd 7af5 10bf a867 0fbb cc2c f33c
000003c0: 8370 83bc e692 903c 1ce4 843d c90e c5bd
000003d0: e329 753b e9fb 6bbe fdc2 1ebc 9b9b a83c
000003e0: e927 c2bd 297a d3be cbe3 40be 41c6 47be
000003f0: ffb3 8fbd a8c6 443e 68c9 37be a8f7 e0bd
0.053675827 -0.32081157 0.1287427 -0.1061487 -0.056423265 -0.6163305 0.0015678798 0.09906521
0.06510924 0.049729586 -0.08222025 -0.09687876 -0.71619606 -0.034853645 -0.13933694 -0.0020945205
-0.2494815 -0.35979533 0.025103824 0.0546177 -0.0048727775 -0.036560856 -0.12714139 -0.31221032
-0.13972963 0.05110956 -0.35371935 0.0046839206 -0.25932145 0.006736999 -0.2375411 0.06140033
-0.082419954 -0.29203779 0.038892157 -0.050966132 -0.29324564 0.05366863 0.034529757 -0.34300265
-0.026966197 -0.30857325 0.06485291 -0.10551057 0.034663275 -0.12806658 -0.022197941 -0.46283433
-0.13614514 -0.0011992559 -0.07986315 0.040219817 -0.24011913 -0.017199032 0.024489848 -0.04677554
-0.24528694 -0.09619652 -0.14470537 -0.17181215 -0.16518104 0.07168811 -0.6077511 0.1463171
-0.7880921 0.20928001 -0.36809912 0.06391557 -0.08480581 -0.3420386 -0.54120016 -0.27198645
0.033853605 -0.012933278 -0.38182998 -0.28561085 0.041585658 -0.34582946 -0.20169209 -0.05111089
-0.37492955 -0.068880826 0.0068467646 -0.16633438 -0.07162636 -0.6488087 -0.37559515 -0.6629139
-0.03771776 0.124105595 -0.22774893 -0.436923 -0.35616034 -0.12661672 -0.16365798 -0.031160528
-0.23865195 0.053380165 -0.7689724 -0.235245 -0.34897277 -0.611541 0.03559079 -0.09435216
-0.25699586 -0.14949238 -0.38011932 -0.86920387 -0.043513495 -0.24450429 -0.48804972 -0.49000803
-0.3213734 0.001492373 -0.2270354 -0.15764493 -0.31010643 -0.2600999 -0.0575122 -0.06387171
-0.16843528 -0.18781936 -0.34244627 -0.040134702 -0.31083712 0.018791314 -0.1337882 -0.3667941
0.020901494 -0.5224249 -0.1665199 -0.55517644 -0.3424156 -0.11535658 0.007369308 -0.09509068
-0.30543756 -0.208895 -0.60343635 0.022027474 -0.40964627 -0.017142797 -0.11839232 -0.15409806
-0.11081769 -0.0672838 -0.16510352 0.09533704 -0.09653906 -0.39868164 -0.0886082 -0.021456499
-0.09058199 -0.16655852 -0.34336483 0.24503365 -0.15634614 -0.08045932 -0.026586045 0.105475456
-0.2936392 0.037774928 0.2639848 -0.28156757 -0.096770816 -0.22821046 -0.3295345 -0.12117872
-0.35970902 -0.20058167 0.025099937 0.17080417 0.07850444 -0.2793903 0.010561822 0.030463113
0.005307958 -0.055205557 -0.09774146 -0.3703677 -0.057393882 -0.32597086 -0.56679904 -0.0045761275
-0.21728902 -0.40029237 -0.135642 0.026068317 -0.17551464 -0.1065069 -0.2903566 -0.061845765
-0.134474 -0.94292426 -0.030370485 -0.7340479 -0.05937095 -0.12666447 -0.12974204 -0.23100153
-0.17705987 -0.108174644 -0.058319807 -0.11004041 -0.44284195 0.19967127 -0.10528696 -0.260308
-0.05082891 -0.31967205 -0.103885785 -0.018186428 -0.097258635 -0.3723711 -0.29836684 0.029145047
0.05598233 -0.08055848 -0.42270043 0.012436491 -0.066408604 0.05910086 0.08900131 0.30018303
-0.32428372 0.103975184 -0.093658604 -0.15464234 -0.20610295 0.14605825 -0.083065294 -0.15898992
-0.19984265 -0.017015893 0.060217638 -0.2373367 -0.10066268 -0.5662457 -0.0021881852 0.029684447
-0.01604486 0.017648172 0.06488821 -0.09621961 0.0037409 -0.23045315 -0.0096900435 0.020582011
-0.094802685 -0.41304138 -0.18836896 -0.19509222 -0.070167534 0.19216406 -0.17947924 -0.10984737

robot_head.bias f4 [5]
00000000: 5d1d 36be e14a 15be a758 15be e855 f6bd
00000010: df39 d0be
-0.17784639 -0.14579345 -0.145846 -0.12028104 -0.40669152

param_head.weight f4 [1, 64]
00000000: 60bc 123e 95e1 5abe c9e5 3dbc 14bf 3dbc
00000010: 1731 13bf bdac f63d c6ca f83d 7b0e eb3c
00000020: 8ee2 99be b1b7 6b3c 50ad e1be 054b 063d
00000030: 4163 9b3c 8fc9 4dbe 5e39 49be 9c51 923d
00000040: 493e 47be e49f a13d a8dd 3cbc a0f7 66be
00000050: d642 993c 18e5 a4bd 152a f1bd 6f1f 0dbe
00000060: 2740 b43c 3f62 173e 251b 3e3d 0cd0 863c
00000070: 7783 8abd e3f9 323d 34c1 0fbe 1e8f f0bd
00000080: 9ceb 29bf 4eda 41be 4b2f 263e a07e 11bb
00000090: 506d 843d de09 0dbe 07c1 b7be 14d6 c43c
000000a0: bc8f 603e e1a2 92bc 631c 4a3d 7d27 923e
000000b0: 77a3 493e dc66 92bd a5fc a3bc 61cf 4cbd
000000c0: 4df7 a53d fe45 a63c 41fd 96bd ee0b 95be
000000d0: f66b 703d f50f 23be e584 633d b2f2 0dbc
000000e0: f365 6f3c 7f79 523d 7c91 033d 343a 41bd
000000f0: b455 46bd cbd6 4a3d 3c0d 613d 9a1d 813d
0.14329672 -0.21375115 -0.01159043 -0.011581201 -0.5749678 0.12044666 0.12148051 0.028693428
-0.3005566 0.014387057 -0.4407754 0.032786388 0.018968226 -0.2009642 -0.1965079 0.07144472
-0.19457354 0.07891825 -0.011527456 -0.22555399 0.018708628 -0.08051509 -0.11775605 -0.13781522
0.022003246 0.14783572 0.046412606 0.016456626 -0.06763356 0.04369534 -0.14038545 -0.117460474
-0.66375136 -0.18930933 0.16228978 -0.0022200719 0.06466162 -0.13773295 -0.35889456 0.024027862
0.2192983 -0.017899932 0.049343478 0.28545752 0.19691263 -0.07148525 -0.020017931 -0.05000246
0.081038095 0.020297047 -0.07372523 -0.29110664 0.05869671 -0.15924056 0.05554666 -0.00866382
0.014611709 0.0513854 0.032121167 -0.047174647 -0.048421577 0.04952125 0.054944262 0.06304474
