LIRL results/Ablation result/ddpg_lirl_pi_multi_run_10_3/run_2_seed_294/ddpg_lirl_pi_mu_target_20250905_155056.pth (torch, 91529 bytes, 6 tensors)

fc1.weight f4 [128, 105]
00000000: 2271 a53d 19d6 e13d b7fc 8c3e 9cfc f7bd
00000010: 1a09 163e 9400 12bd a83d 25be 4924 d3bd
00000020: c366 a8be 9c40 f1bd 38f7 38be 82e6 56bd
00000030: 8e49 9bbc 70bc 31bd debd 24be 5ea8 093e
00000040: cb63 eebd c469 89be 4a79 80bc 1d89 99bc
00000050: 17bb 09be fe1c 003d 16f1 0c3e 10b8 283d
00000060: d578 0dbe 6006 a13c b989 99bd 5de7 49bd
00000070: 0f42 2fbd cf7d bdbd 2f8a 62be 7d57 a639
00000080: ee55 f7bb bd64 50bd 1ad4 dbbc 2775 dfbd
00000090: ba4a e2bd 956a 9fbe 1e86 26be 2047 bdbd
000000a0: 1df4 2ebe 87d4 4dbe d797 3ebe ee81 0fbe
000000b0: 9e9e a43c 8ce6 b93c 27de 353e 142d 48bd
000000c0: d3f1 023d a713 80bd 72ee 5f3d 94ca 8bbd
000000d0: e2c9 e1bc 84cb 343e 55c4 75bd bab2 4a3d
000000e0: 5139 09be 80f8 b93c df92 b3bd 4714 4d3d
000000f0: 2069 68bd 6346 1bbe 185c 30be 6471 64be
00000100: a1fa 4fbe 181a bbbd 5112 d13c a440 07be
00000110: 0082 7b3e 7c84 aa3d 2538 97be bff9 3fbe
00000120: 0a8f ecbd fcaf dfbd 5c61 2fbd af1f 7bbd
00000130: a870 97bd ff52 2ebe 8bb6 d3bc a34b b53d
00000140: d11a 90bd 1192 43be c125 dabd 1cd5 28be
00000150: f40c 15be 3502 993d 7862 4c3d a56f b0bd
00000160: eeba 3bbe 6d30 cb3c 8a28 62be beb6 2dbe
00000170: d24a 52bd 4e1a 61be 2ee9 9cbe c612 24be
00000180: 6de9 84bd eedb 19be 889c dc3d 0e22 e53d
00000190: 1413 1abe 570d 28bd 3f9d 3d3c 48a7 933c
000001a0: d7ba 04bc c712 fcbd 4ff8 9dbd b1d5 fbbd
000001b0: c8cb 6abe 5e52 66be 1e2b d0bd 1128 c0bd
000001c0: e806 6bbd 2044 5ebd ec3a 00be 4da5 5e3d
000001d0: 6020 c23d 5dea 103e b0cb fabb 1f5c f63d
000001e0: 1909 6d3d 62d9 7e3e 48c2 8e3d 5da7 063e
000001f0: 2880 813e ca06 07bb 4fea bd3d 74a9 ff3d
00000200: bf97 fc3c 9655 b33c 0567 bc3d 367d 803e
00000210: 1c0f 563e 3781 043e 9224 4f3e a158 813d
00000220: e14a 6a3e 5f87 a63d 6b38 1b3e 318e 233e
00000230: c3d3 b5bd a75c a53c b1b6 a43d 9dd3 aebd
00000240: 7647 ab3d 25e1 aa3e c7f9 913e f2bd 3f3e
00000250: 25a7 9cbd 4533 3dbe d981 093e c21a f03d
00000260: e391 423d e879 40be ea47 85be b32a f03d
00000270: 96e9 82bb 864b ab3d a90b 50be ceca 83bd
00000280: 8a45 633d 5db3 85be 297c cfbe 187f c8bc
00000290: 2144 41be c77f 49bc de5d 59bc d3be ecbd
000002a0: 88e3 5f3d dcca c03c 32a9 293d 40ca 313d
000002b0: 1e41 a8bb 2583 92bb cc1c 603d c632 99bd
000002c0: 2d3a d43d 8dc8 793d b3f1 d63b 3ac6 233b
000002d0: 8ef3 66bd 2150 003d 95d2 6abc 8ee5 dd3d
000002e0: d0d7 e2bb e059 cbbc effb c53c 0c25 bd3c
000002f0: 97cb ab3d fc21 263d b311 2abd 1df1 813d
00000300: cf92 ef3c 9f66 c8bd 648a 19be d945 45be
00000310: 7fb5 e6bd ed82 cdbd c98b 8a3e cb63 963d
00000320: 523e e1b9 9007 3abd c040 74be fd85 6b3e
00000330: 8062 2f3e e87e f23d c821 15be 791a 0ebe
00000340: 1763 c03d 8c7a 153e e888 debd dc79 80bd
00000350: 73df 793b 3ebc 9cbd f299 8f3d f8a9 723c
00000360: 3ccc a83d 7f8f 8e3d 4dbe 9c3d 0b59 b93d
00000370: e6cf 19be d424 79be 3d55 48be 32af 2ebe
00000380: 9076 0fbe 15eb 89be 1c64 1cbe bada 8bbe
00000390: d85d 37be a36a 67be a11b 813b 05ca 6d3c
000003a0: 5249 c53d 292a 9dbd bd5d 0ebe aa63 1ebe
000003b0: 4a09 99bd f22f ebbd a6d3 13bd f3f7 15be
000003c0: 0e8d a2be 83eb 9dbe 2dc5 89be a65e 9bbe
000003d0: 26ad a9be 120f 3fbd 0031 11be dc70 2ebb
000003e0: 3168 66bd ba1e f33d d319 f53d e6d7 d13d
000003f0: 771e 5abe a822 bebd 9630 98bd dc71 223d
0.08078219 0.11027164 0.27536556 -0.12108728 0.1465191 -0.035645083 -0.16136801 -0.10309655
-0.328909 -0.117799014 -0.18063056 -0.052465923 -0.018955972 -0.0433926 -0.16088054 0.13443133
-0.11640128 -0.26838505 -0.015682835 -0.018742139 -0.13450275 0.03127765 0.13763842 0.04119116
-0.13815625 0.01965636 -0.07496972 -0.04929291 -0.042787608 -0.09252512 -0.22123025 0.0003172717
-0.0075480854 -0.05087732 -0.026834536 -0.10911017 -0.11049409 -0.31136003 -0.16262099 -0.09242082
-0.1708531 -0.20100604 -0.1861261 -0.14014408 0.020095166 0.022692941 0.17760526 -0.048871115
0.031968903 -0.062537484 0.05467076 -0.06825748 -0.027562086 0.1765576 -0.06000169 0.049486853
-0.1340077 0.022701502 -0.08768248 0.050068166 -0.05674088 -0.15163569 -0.17222631 -0.2230888
-0.20310451 -0.09135836 0.02552143 -0.13208252 0.2456131 0.08326051 -0.29535022 -0.18747614
-0.1155072 -0.10922238 -0.04281746 -0.061309513 -0.07394534 -0.17023848 -0.02584388 0.08852317
-0.07036365 -0.19098689 -0.10651732 -0.16487545 -0.14555722 0.07471124 0.049898595 -0.086150445
-0.18333027 0.024803365 -0.22085777 -0.16964242 -0.051340885 -0.2198269 -0.30646652 -0.16022786
-0.06489835 -0.15025303 0.107720435 0.11188136 -0.1504634 -0.041028347 0.011573135 0.018024102
-0.008101187 -0.12308269 -0.07713377 -0.12296618 -0.22929299 -0.22492358 -0.10164474 -0.09382642
-0.057379633 -0.054264188 -0.12522477 0.05435686 0.09478831 0.14151902 -0.007653676 0.120292895
0.057870004 0.24887612 0.0697065 0.13149782 0.25293088 -0.0020603412 0.092732064 0.124834925
0.030834077 0.021891396 0.09199337 0.25095528 0.20904201 0.12939917 0.20228794 0.06315733
0.22880127 0.08131289 0.1515824 0.1597221 -0.08878281 0.020185782 0.08042658 -0.08536456
0.083632395 0.33374897 0.28510877 0.18724802 -0.07649068 -0.18476589 0.13428439 0.11723854
0.04750241 -0.18796504 -0.2603143 0.11726894 -0.003995131 0.08364014 -0.20316948 -0.06435166
0.05548624 -0.26113406 -0.40524414 -0.024474666 -0.18873645 -0.012298531 -0.013267009 -0.11559834
0.05466035 0.02353423 0.041421123 0.04340577 -0.0051347157 -0.0044712 0.054714963 -0.074803874
0.10362659 0.060982276 0.0065595745 0.0024989978 -0.056384616 0.031326417 -0.014332433 0.108348
-0.0069226995 -0.02482313 0.024167983 0.023088954 0.08388441 0.040559754 -0.041520786 0.06344817
0.029244808 -0.097851984 -0.14994198 -0.19264926 -0.112650864 -0.10034738 0.27059773 0.07343253
-0.00042961776 -0.04541737 -0.23852825 0.23000331 0.17127419 0.11840612 -0.14563668 -0.13877286
0.093939 0.14597529 -0.108659565 -0.06273243 0.003812757 -0.07653092 0.070117846 0.0148110315
0.082420796 0.069609635 0.076534845 0.09050187 -0.15020713 -0.24330455 -0.19563766 -0.17059019
-0.14010072 -0.26937166 -0.15272564 -0.27315313 -0.17906892 -0.22599272 0.003940061 0.014513497
0.09633125 -0.07674057 -0.13902946 -0.15467706 -0.07472475 -0.11483754 -0.036090516 -0.14645366
-0.3174824 -0.30843744 -0.26908246 -0.3034565 -0.33139914 -0.04664523 -0.14178848 -0.0026617562
-0.05625171 0.11871095 0.11967816 0.102462575 -0.21300684 -0.09283954 -0.07431142 0.039659366

fc1.bias f4 [128]
00000000: edf4 ec3c 2d91 de3d 7d33 83bb 0de6 61be
00000010: fece e6bd 156d 11be 99d8 e4bd ce70 283e
00000020: fd71 dbbd e1c5 28be 5cbf 08bd b405 cb3d
00000030: dc71 0d3d 3c13 3b3d ffaa d13d 6b78 2a3b
00000040: 3f7c f73c 768d f63e cd3a ffbd 48f4 dcbc
00000050: 67b0 a83a 6f02 00be 05c5 02be b04a 2b3e
00000060: bf0e 613d ea38 193e 28d2 a0bc bf51 a53e
00000070: 9715 1e3d f709 db3d f85b 3cbd 1421 4a3e
00000080: e71e bbbd ff4b c43d 97ac 2abc e09c b23d
00000090: 781f 903d 2cd7 01be 38eb 163d 58f7 9d3d
000000a0: c5d3 26bc e042 053d 0765 6fbc 326a 0dbe
000000b0: ebf3 2e3e 8046 833d 9928 bfbc e926 31bd
000000c0: e452 f73c 8bd8 963e 5b19 de3d fac0 ff3d
000000d0: bcc2 113d 279c 42be 8104 cabc 54f9 55bb
000000e0: bdf0 d13d a58b 95bc f522 4b3e 0529 c13d
000000f0: 66e9 913c d29c c9bb 3b8a fbbc 0789 acbd
00000100: 0e85 3aba ce02 933e 1453 e2bd 4f34 b53d
00000110: e1ec d2bd 9b00 70be 61b5 e1bd 6f98 d33d
00000120: e970 273e 2898 41bc 9f28 193e db10 8d3d
00000130: c89a c0bd 0195 74be 34d4 c4bd af32 5dbe
00000140: fae2 3f3d 8264 393b 61f0 78be 1e90 afbd
00000150: 9817 8bbd 6720 8dbe ea44 90be f57b 2ebc
00000160: d3de 60bc 3d93 563d 00b9 0fbe 5978 883c
00000170: cd8a 3ebd 6e0e b03d 5097 163e 4157 733e
00000180: 6c1a 9dbd 8e76 17be ae91 c1bd c7e8 cb3d
00000190: 2528 05be 008c d3bd 12e6 bb3d 9d6b 99bc
000001a0: 8085 c43e a125 bd3c cc96 343d a9c2 fabd
000001b0: e860 6abe a7c9 9f3e fab6 443c c9f4 c1bd
000001c0: b8c6 97bc 530c c73b b93e b1bd 6a35 1f3e
000001d0: 5c3e c53d bbc5 953e 5d47 a03b 0e4b ba3e
000001e0: 00d0 4dbc ea8b a13d 964f 223e ba0f f3b9
000001f0: 6456 883c 6b8f 043e 41b5 6ebe 24d5 0d3d
0.028925383 0.10867534 -0.0040039406 -0.22060414 -0.112699494 -0.14201768 -0.11174125 0.16449282
-0.10715101 -0.16481735 -0.03338562 0.09913197 0.034532413 0.04567264 0.10237693 0.0026011716
0.030210612 0.481548 -0.12462387 -0.026971951 0.0012869955 -0.12500928 -0.1277047 0.1672771
0.054945704 0.14963117 -0.01963146 0.3228893 0.03859481 0.1069526 -0.045986146 0.19739181
-0.091367535 0.095848076 -0.010417125 0.08721328 0.07037252 -0.12679738 0.036845416 0.07713193
-0.010182326 0.03253448 -0.014611489 -0.13810042 0.17085235 0.06409931 -0.023334788 -0.04325
0.030190893 0.29462084 0.1084468 0.12487979 0.035586104 -0.1900488 -0.02466035 -0.0032649832
0.10250995 -0.018255064 0.19837554 0.09431652 0.017811488 -0.0061527276 -0.030705562 -0.084245734
-0.00071151636 0.28713077 -0.11051002 0.08847868 -0.10299087 -0.23437731 -0.110209234 0.10331809
0.16351666 -0.011816062 0.14956902 0.068879806 -0.09404522 -0.23884965 -0.09610787 -0.21601366
0.04684732 0.0028288667 -0.24310447 -0.0857241 -0.067916095 -0.27563784 -0.28177577 -0.010649671
-0.013725 0.05238651 -0.14035416 0.016658949 -0.04651909 0.08596502 0.14706159 0.23763753
-0.07671055 -0.14791319 -0.09451614 0.09956508 -0.13003595 -0.10329437 0.09174742 -0.018728072
0.38383102 0.023089232 0.044089124 -0.1224416 -0.2288853 0.31208536 0.012006516 -0.09470517
-0.018527374 0.006074467 -0.086545415 0.1554772 0.09631035 0.2925242 0.0048913197 0.36385387
-0.012561798 0.078880146 0.15850672 -0.0004636029 0.016642757 0.12945335 -0.2331133 0.034627095

fc2.weight f4 [64, 128]
00000000: 8c8d 7a3d 22ee 2c3d 9119 e9bc e27c 66bc
00000010: e51d 833c fa6b 8dbd 57e4 043e ca3c 59bd
00000020: 2bb2 043e 590c e5bc 063a d9be 7841 3d3e
00000030: 4583 a8bd f3b2 003d 6e9a ac3b 7746 a03d
00000040: 7e42 08bf d241 0fbf 8b7d 883d 4fd8 b4bd
00000050: 6219 753e daf1 e5bc 4614 adbe aee9 fa3c
00000060: fae9 14be 7579 8d3c 978c a63d d202 bfbd
00000070: ec52 f73b 413f 43be 84ce 8cbd 4c2d e83c
00000080: 7687 b1bd ec30 2a3c 9831 8b3e f688 803d
00000090: b3bd 7abe 48fa 3d3e 9a5f 88bc faa0 c3be
000000a0: 2243 ad3b 1290 28be f26a 48be e0e3 943d
000000b0: 01b9 5f3c 4d46 6ebc 5595 463e 5722 d6bd
000000c0: 1e11 613e 57af c1bc 8473 febd fd94 72bd
000000d0: ecf4 733d ed12 933b e627 4fbe 5d17 60be
000000e0: e0fe 3bbe 31ef 8fbd 456c 26bd 9a9d 09bd
000000f0: 7659 023d 448e 9b3d aaf8 b9bd c223 89bd
00000100: 62c1 f13d 695b 51bf 7255 da3d cdca a13d
00000110: ac28 74bc e69f 23be d0b1 69bd 40de 0a3e
00000120: 3377 273e eeac a5be 805f 8dbe 90d0 d6bd
00000130: 1ca2 03be 1712 edba 254c fd3d 505b eabd
00000140: ace3 24bd 2681 a13c 2838 063e 3269 a2be
00000150: c5b7 d5bc 732d 03be 6fd9 50be eb81 983d
00000160: 1bb9 a53d 93c8 48bd a411 21bb 009e 683d
00000170: 649b cabd f794 f9be 93af 57be 42ce d4be
00000180: 4249 d2bd ca48 f4bd fdf9 173c 6e16 01bd
00000190: 1edd 24bd 16b3 013d f67a 403e 00f9 7ebd
000001a0: e237 bcbc 78fd eb3d b5bf 12bf 4db3 b53e
000001b0: 50d7 70bc ed08 093d 77ec 54be a73f b53d
000001c0: 2e54 1e3e efb3 84bd 4297 debe 803a 11bd
000001d0: cf03 3dbf a32c a6be 2c29 bf3d 4264 0f3e
000001e0: 5488 c43c 1294 88be 9e40 303d a5ec bf3d
000001f0: d9ab 863d 4d78 013e ac32 febd ea72 cbbe
00000200: d0c2 5c3d 698f 533d 6f97 04be 88b5 65bd
00000210: 8821 023e 7fd3 c83d c12b c13d 6b6b 57be
00000220: a463 3cbd 7429 0abe 1c08 843e cab4 23bd
00000230: f75e afbd 5c78 2b3b 03b9 d43a c3f7 af3e
00000240: 7944 803e 161c a4be ccf3 15be ad4d ed3d
00000250: dfc0 353e 7286 4c3d ebe7 df3d b524 6fbe
00000260: 454c e53d f411 2d3e 3a32 f23c bfc0 103e
00000270: 05f4 303e 631c 013e 0043 b93d db6a af3d
00000280: ead9 b73d 54f9 b23d 22aa 213d dffc 12bd
00000290: ce2c 423e fe03 21be 5272 bbbd bade 793e
000002a0: c903 963e ac7d cd3e 4530 823e 0aec c2bc
000002b0: f489 fbbc ec74 503d 0f51 95bd e554 943e
000002c0: 5308 40bd 9929 07be 0be8 fe3d b576 7c3e
000002d0: c529 f83c 257a ffbd 4276 e03d ec95 efbc
000002e0: b7bb 4d3e 0a9c 5d3e b357 313e 45bb 493e
000002f0: 2192 343e 775e 02bd 5fdb 793e ca15 bc3d
00000300: e2ca a1be fa8a 8ebe b44b ebbd 071c 8fbd
00000310: 09df 723e c6a7 5c3e c496 0dbe 5bf1 5e3e
00000320: 455d e63c 4675 a33e efca bb3d 149c 8abd
00000330: f21d 643c 1561 25be fa05 e23d 7af0 083e
00000340: 8ea5 b63c 20b0 c9bd c271 f3bc 7f07 053d
00000350: 8977 1d3e 77bd 26bd 2b32 e7bc d09c 503d
00000360: 4db1 26be ed48 823e d385 643d 65f0 923e
00000370: 9ffa 193e f063 4f3e 357a 003e bb26 d1be
00000380: 9fd6 e03d d155 ecbd 6271 b13d c4cd cb3e
00000390: 2e0e f23d b40b bcbd 48be 1a3e 79b1 a43e
000003a0: f5e9 1f3e 5e33 4bbd f6de bd3d e0cd 25bd
000003b0: 496e 61be f23c 62be ef92 1c3e 7b01 fb3d
000003c0: 1e58 c0bd 5aa7 04bc 5001 9b3e 9b9e 103e
000003d0: dd1c d13e f4dd 943e 8b25 cdbd 0622 aebe
000003e0: 10f5 0ebc cc91 c9bd 0e1b e73d 9c82 343e
000003f0: ae99 8abd c98a 3fbd 2e35 8fbe a7e1 683d
0.061170146 0.04221929 -0.028454574 -0.01406786 0.016005466 -0.069053605 0.1297773 -0.05303649
0.1295859 -0.02795999 -0.4242708 0.18482006 -0.08228163 0.03142066 0.005267433 0.0782594
-0.5322646 -0.5595981 0.066645704 -0.0883032 0.23935464 -0.028069425 -0.3380453 0.030629005
-0.1454238 0.01726983 0.08132284 -0.0932671 0.007547727 -0.19067098 -0.06875327 0.028341912
-0.08668415 0.01038764 0.27186275 0.06276123 -0.24486427 0.18552506 -0.016647149 -0.38208753
0.005287544 -0.16461208 -0.19572046 0.07270026 0.013654948 -0.014543128 0.19392903 -0.104557686
0.21979186 -0.023643179 -0.124243766 -0.059224118 0.059559748 0.00448834 -0.20230064 -0.21883912
-0.18358946 -0.07028044 -0.040630598 -0.033597566 0.031823598 0.075954944 -0.09080632 -0.066962734
0.11804463 -0.81780106 0.10660829 0.07900009 -0.014902275 -0.15978965 -0.05705434 0.13561344
0.16354065 -0.32358497 -0.27611923 -0.10488999 -0.12854809 -0.0018087056 0.12368039 -0.11443198
-0.040256187 0.019714903 0.1310736 -0.31720883 -0.026088605 -0.12810306 -0.20395444 0.07446655
0.08091947 -0.049019407 -0.0024577165 0.056791306 -0.0989292 -0.48746464 -0.2106307 -0.41563612
-0.10267879 -0.11927946 0.00927591 -0.03151553 -0.040249936 0.03166493 0.18796906 -0.062249184
-0.022975866 0.11522955 -0.5732377 0.35488358 -0.014699772 0.033455778 -0.20793329 0.08850031
0.154618 -0.06479632 -0.43474776 -0.03545618 -0.73833936 -0.3245593 0.09334025 0.14003089
0.023990788 -0.2667547 0.043030374 0.09371308 0.06575746 0.12643547 -0.12412009 -0.3973611
0.053896725 0.05165044 -0.12948392 -0.056081325 0.12708104 0.09805965 0.094321735 -0.2103707
-0.045993462 -0.13492376 0.25787437 -0.039967336 -0.08563035 0.002616427 0.0016229454 0.34368715
0.2505224 -0.32052678 -0.14643782 0.11587081 0.17749356 0.049932905 0.10932907 -0.23353846
0.11196188 0.1690138 0.029564966 0.14136027 0.17280586 0.12608485 0.09045982 0.08565303
0.08977111 0.08738962 0.039468892 -0.035885688 0.18962404 -0.15724179 -0.09152664 0.2440137
0.29299763 0.40134943 0.25427452 -0.023794193 -0.03070543 0.050892755 -0.07290851 0.2897102
-0.04688294 -0.13199462 0.124466024 0.24654658 0.030293355 -0.12474469 0.10960056 -0.029246293
0.20091139 0.21641555 0.17318611 0.19700344 0.17633869 -0.03182837 0.2440009 0.091838434
-0.316001 -0.27840406 -0.114890486 -0.06987768 0.23717894 0.21548375 -0.13827044 0.21771757
0.028120646 0.3192541 0.09169566 -0.06768051 0.013923155 -0.16150315 0.11036296 0.13372985
0.02229574 -0.09848046 -0.02971733 0.032477852 0.1537763 -0.04070803 -0.028222164 0.050930798
-0.16278572 0.25446263 0.055791687 0.2869903 0.1503701 0.20252967 0.12546618 -0.40849862
0.10978436 -0.11539806 0.08664204 0.39805424 0.11819111 -0.0918192 0.15111649 0.3216665
0.15616591 -0.049609534 0.09271042 -0.04047954 -0.22014727 -0.22093561 0.15290426 0.12256142
-0.09391807 -0.00809654 0.3027444 0.14123003 0.40842333 0.29075587 -0.100169264 -0.34010333
-0.00872542 -0.09842262 0.11284457 0.17627949 -0.06767593 -0.046763215 -0.2797026 0.056855824

fc2.bias f4 [64]
00000000: 1bc6 943e b62c 513d d7e9 263e 3bb6 0b3b
00000010: 6412 04be b658 96bc 1018 36be d302 033d
00000020: 226a f4bd fb00 4dbd 7764 b43b 985a 243e
00000030: 8386 7f3d 9641 653d 0332 ec3d 4a06 92bd
00000040: 43bf 733d 4a80 8f3e 0bed ecbd dae3 b03e
00000050: 9b35 88bd e66a 9abc fa78 0fbc 0b95 753e
00000060: 3913 423d 9498 2abe 4700 003d e8d4 ff3b
00000070: d1fb 9a3e 8cde 04be 6fa2 5d3e ba4e 273e
00000080: 7fd8 81be e400 2e3a cad9 a33d 4bae c8bc
00000090: a5dd dabd 5f7d ea3d ea5f 103d 08c6 b5bd
000000a0: 464d b3bd dcdb 273d b838 b33d d0d3 b7bd
000000b0: 4e66 563e 511c 1c3e f471 b2bc 046a 833e
000000c0: f273 4e3d 6f0b a4bd 82ba 163e cb08 00be
000000d0: a081 1fbd 6035 da3d 9dc2 223d d8f0 a93d
000000e0: 9cc7 7bbc d919 463e 518f f93c fb71 163e
000000f0: 57f2 313c 0646 22bd 47c3 0c3d 9b0c 513d
0.29057392 0.05106803 0.1630014 0.0021318335 -0.1289764 -0.018352848 -0.17782617 0.031985115
-0.11934306 -0.050049763 0.0055051404 0.16050184 0.06238414 0.05597075 0.115329765 -0.07130106
0.059508573 0.28027564 -0.1156865 0.34548837 -0.066508494 -0.018849801 -0.00875687 0.23982637
0.047381613 -0.16659766 0.031250264 0.007807363 0.30270246 -0.1297552 0.21643995 0.16338626
-0.25360486 0.0006637706 0.08000524 -0.024497172 -0.106868066 0.11449694 0.03524772 -0.08875662
-0.08754973 0.04098116 0.087510526 -0.08975947 0.20937464 0.15245177 -0.021782853 0.2566682
0.050403543 -0.08009993 0.14719585 -0.12503354 -0.03894198 0.10654712 0.03973638 0.082978904
-0.015367415 0.19345798 0.030463846 0.14691918 0.010861001 -0.03961756 0.03436592 0.051037412

fc_mu.weight f4 [3, 64]
00000000: 966b df3d 157f 1bbf 8074 dd39 245f 0a3d
00000010: b0ac 443d 950e 0dbd 7612 10be cb1c 39bb
00000020: be8d 843d b151 bfbd 6c75 0fbf 6f6f 95bd
00000030: 8b47 fa3d fe96 4a3d a24d 21bc dfda 85bd
00000040: 7c6e c2be ff5f 793d f35a e0bd d132 de3c
00000050: e6b7 a93c b162 dabc c2fb 1abe d363 c33d
00000060: b8a5 8fbe d4a8 05be 7e5f 02bf 74f7 53be
00000070: ab22 403e 51db 28bd 991e cbbf c8ce 74c0
00000080: ef41 07be d7e6 0fbf 99c4 1b3e ba0b 31bd
00000090: 12de 63bd 6588 c63b 554b 28be a6d4 18bd
000000a0: 6e4f a63c 8938 c6bd 526a 92be 3396 80bd
000000b0: b77c ae3c e22a 803d 3671 07be 2193 323b
000000c0: 2521 06bf 4b30 bcbb 5068 a8be 9134 c4bd
000000d0: d271 bbbd 8baa bf3d 44c9 29ba 9ec7 eebd
000000e0: e849 f0bd bfba ef3d f3c3 36be 0977 8d3c
000000f0: c4e3 fd3d 16df 0bbe 3083 d9be cd57 2dbe
00000100: cd6a 22bd 096a 62bc a277 01be e09b e8bd
00000110: e363 53bd 51c8 d43d 24b8 0a3e 8d8f 10be
00000120: e057 0d3e 26d0 73bd 651f 683d f5e7 6abd
00000130: 6631 953d 3c89 5b3e 3a53 10be b9da 76bd
00000140: 9a42 4a3f 2059 d5bd 1409 e1bd d7da 4dbe
00000150: 242e 17be f29f eebd c23d 6ebe 5925 9a3d
00000160: cfbe 1f3b 5f4c 003e 374e 78be 7c01 f8bd
00000170: 7651 a7bd 9446 c9bb f498 663d 9385 f13d
00000180: 09dd f63c 928d 56be 92d8 f7bc d407 fabc
00000190: b34e 00bc 1e3c d9bd 7d28 7cbd 50c4 443d
000001a0: 8ecd 033f 52ee 5abe 7819 d93e a7f3 303b
000001b0: a615 2e3b a488 883d 52a7 18bc 11bf 1ebe
000001c0: 43c5 113f ace8 8a3d ca4e d03e 8a36 cfbd
000001d0: 4b7e 82be 90f9 613e 63ce dcbd 5dde 3c3f
000001e0: 4964 8ebe f31b 9ebd 4efc 1abf b340 cbbd
000001f0: 463e 23bc 2054 873d 6619 033f 5954 05bf
00000200: 52a2 57be ffa6 e33d 7788 31be d750 413e
00000210: 20e4 3a3e 68b0 cf3a c810 ce3d d41b 26be
00000220: 4855 cc3c 7835 1dbd 35ce 943e 85e7 f1bd
00000230: d496 083d 342b 173e a287 80bd 168e 3ebd
00000240: 8498 3bbe 357f c2bc 04f3 3bbd 69fa 80be
00000250: 537b 64be 7922 503d f4fd e6bd 42c7 dd3d
00000260: 0b72 88be 1565 7dbe 2c9f 67bd baed 43bc
00000270: 29a7 973b 2c42 9fbc d044 d9ba 8546 4e3b
00000280: 2dc7 11ba 01b8 f33d 8b23 7fbe b0da 8fbb
00000290: cebc 0a3f 9d71 b7bc a0d0 c83e 2533 9c3e
000002a0: 7290 a7bd f345 843e 5f8f 50ba c6f5 acbd
000002b0: 139c d5bd bd05 123e 9d96 f7bd 3e65 21bd
000002c0: 0e64 35bc d68b 413c 36c8 533e e2db 6a3e
000002d0: b836 9dbe fff1 e1bd 313e ccbe ff35 5bbd
000002e0: 3ea4 08bd ee8a bc3b 9bc3 603d 3719 c4bb
000002f0: 8605 a13d e434 413e 54f1 6ebe 9524 01be
0.10909192 -0.60740787 0.00042239204 0.03378214 0.04801625 -0.034437735 -0.14069542 -0.0028245922
0.06472348 -0.09341753 -0.56038547 -0.07296645 0.12220677 0.049460404 -0.009845169 -0.06535887
-0.37974918 0.060882565 -0.10954847 0.02712384 0.020717572 -0.026658388 -0.151351 0.09540524
-0.2805612 -0.13052684 -0.5092696 -0.20699865 0.18763225 -0.04122478 -1.5868713 -3.825121
-0.13208745 -0.5621161 0.15211715 -0.043224074 -0.055631705 0.00605874 -0.16434987 -0.037312172
0.020301547 -0.09678752 -0.2859674 -0.06278648 0.021299703 0.06258179 -0.1322678 0.002724834
-0.52394325 -0.0057430617 -0.32892084 -0.09580339 -0.09152569 0.093587 -0.00064768293 -0.11659168
-0.117328465 0.11705541 -0.17848186 0.017268674 0.123969585 -0.1365932 -0.424829 -0.16928025
-0.039652634 -0.013819226 -0.12643293 -0.11357856 -0.05160893 0.1038977 0.13546807 -0.1411726
0.13803053 -0.059524678 0.056670565 -0.057350118 0.07284813 0.2143907 -0.14094248 -0.060267184
0.79007876 -0.1041739 -0.1098806 -0.20103012 -0.14763695 -0.11651601 -0.23265746 0.07526655
0.0024375205 0.12529133 -0.24248587 -0.12109658 -0.08169834 -0.006142447 0.05629821 0.117930554
0.030134695 -0.20952442 -0.030254636 -0.03052131 -0.007831263 -0.106071696 -0.06156205 0.04803878
0.51485527 -0.21379974 0.42402244 0.0027000697 0.0026563196 0.06666687 -0.009317236 -0.15502574
0.5694162 0.0678266 0.4068511 -0.101178244 -0.2548698 0.22067857 -0.10781553 0.737768
-0.27810887 -0.07720175 -0.60541236 -0.0992445 -0.009963578 0.066078424 0.5121063 -0.5208183
-0.21058014 0.11115836 -0.17337213 0.18878494 0.18251085 0.001584542 0.100617945 -0.16221553
0.024943009 -0.03838107 0.29063573 -0.11811737 0.033346966 0.14762574 -0.0627587 -0.046522222
-0.18319899 -0.023742298 -0.045886055 -0.25191048 -0.2231267 0.050814126 -0.112789065 0.10829021
-0.26649508 -0.24745591 -0.056548283 -0.011958534 0.0046280813 -0.019440733 -0.0016576294 0.0031475138
-0.00055609905 0.1190033 -0.24915902 -0.0043900833 0.54194343 -0.022393042 0.39221668 0.3050777
-0.08181848 0.25834617 -0.0007955934 -0.08445315 -0.104301594 0.14260001 -0.12089274 -0.039403193
-0.011071218 0.011813125 0.20681843 0.22935441 -0.3070581 -0.11032485 -0.39891198 -0.05351829
-0.03335976 0.0057538664 0.054874044 -0.005984451 0.07862382 0.18867832 -0.23334247 -0.12611611

fc_mu.bias f4 [3]
00000000: 9c48 963d 1511 87bd 459e c3bd
0.07338068 -0.06595055 -0.09551672
