LIRL results/CityFlow/Algs_compare/lirl_multi_run_20250917_162510/seed_114514/q_network.pth (torch, 926701 bytes, 6 tensors)

network.0.weight f4 [256, 712]
0	0xbd171fb2	-0.03689546
1	0xbc240027	-0.010009802
2	0xbced0cd3	-0.02893678
3	0x3cee60fd	0.029098982
4	0xbcf11a46	-0.029431473
5	0xbd28342a	-0.041065373
6	0xbc23336e	-0.009960992
7	0x3b036e07	0.0020054595
8	0x3c8abe4c	0.016936444
9	0xbcc96c43	-0.024587756
10	0xbcf03356	-0.029321354
11	0x3dbe693a	0.09297414
12	0x3bb41c71	0.0054965545
13	0x3d07f8c1	0.033196215
14	0x3bee3c4d	0.007270372
15	0xbce9cbe0	-0.028539598
16	0x3c769d9c	0.015052225
17	0xbb94449e	-0.0045247814
18	0xbd44235a	-0.047885276
19	0xbd3f3476	-0.04668089
20	0x3cf49acd	0.029858971
21	0xbb302732	-0.002687883
22	0x3b81a943	0.003956945
23	0x3cd80280	0.02636838
24	0xbd0a3c18	-0.033748716
25	0xba3f04c0	-0.00072867796
26	0x3a9a6d25	0.0011781795
27	0x3c8b1757	0.016978903
28	0xbc89ca07	-0.016819967
29	0x3c521453	0.0128222285
30	0x3bc0b478	0.0058808886
31	0x3d015fda	0.03158555
32	0xbc7ddc41	-0.015494407
33	0xbc4e3eaa	-0.012588182
34	0xbd4d2841	-0.050087217
35	0xbcffa2ab	-0.031205496
36	0x3cd1ea49	0.025624411
37	0xbc516bbd	-0.012782034
38	0xbc020cd2	-0.007937627
39	0xbd36f797	-0.044669714
40	0x3d159762	0.036521323
41	0xbd3df5cd	-0.046376992
42	0xbc8b64ca	-0.017015833
43	0x3c8583e1	0.016298236
44	0xbd96ef29	-0.07369835
45	0x3c72b339	0.014813238
46	0x3cd827d3	0.026386177
47	0x3cfcaa12	0.030842815
48	0x3d012942	0.031533487
49	0xbc6a4fca	-0.01430125
50	0xbd2afaeb	-0.0417432
51	0xbcb5f0c1	-0.022209527
52	0x3cf9868a	0.030459661
53	0xbcddd1e5	-0.027077625
54	0x3c446086	0.011985904
55	0xbcab0973	-0.02087853
56	0x3cb0a481	0.021562817
57	0xbd084633	-0.033270072
58	0x3b20a923	0.0024514876
59	0x3ccba900	0.024860859
60	0xbe703663	-0.23458247
61	0x3eaf6238	0.34254622
62	0xbe658b28	-0.22416365
63	0x3df1bd46	0.11803679
64	0xbe405fbb	-0.18786518
65	0x3da33d91	0.07970727
66	0xbc7130b7	-0.014721087
67	0x3cd9c9a0	0.0265854
68	0xbe06f7a4	-0.13180405
69	0x3e6eb4e3	0.2331119
70	0xbaf089ce	-0.0018351616
71	0x3e09d3a0	0.13459635
72	0xbcd0c664	-0.025485225
73	0xbc392e6b	-0.011302571
74	0x3caa1e50	0.020766407
75	0xbd14ad64	-0.03629817
76	0xbd4064cc	-0.046971127
77	0x3d78650c	0.06064324
78	0xbdad2aad	-0.084554054
79	0x3e31ad17	0.17351185
80	0xbc44d46f	-0.012013539
81	0x3d09eaf1	0.033671323
82	0xbc482332	-0.0122154225
83	0x3b27856e	0.0025561708
84	0xbe489261	-0.19587089
85	0x3e03970f	0.12850593
86	0xbd78a438	-0.060703486
87	0x3e6c3dd9	0.23070468
88	0xbd963b71	-0.07335556
89	0x3d08a5bd	0.033361185
90	0xbb97ef56	-0.0046366854
91	0x3c71fddd	0.014769998
92	0xbd8d1c9d	-0.06890223
93	0x3ea26f88	0.31725717
94	0xbe8936fa	-0.26799756
95	0x3e7fd466	0.24983367
96	0xbe5ce474	-0.21571523
97	0x3e5d91cc	0.21637648
98	0xbe12bfb4	-0.14330941
99	0x3e03331a	0.12812462
100	0xbdcb7ebf	-0.09936284
101	0x3e60d593	0.21956472
102	0xbcdbbdec	-0.02682396
103	0x3d9609e5	0.07326106
104	0xbcc0f3b4	-0.023553707
105	0x3c9bacf9	0.019003378
106	0xbce72f9a	-0.02822094
107	0x3c94c00f	0.018157987
108	0xbcd9ac7d	-0.026571507
109	0x3e6e465e	0.2326903
110	0xbddbcde1	-0.10732628
111	0x3e3ef2b0	0.18647265
112	0xbdf38e18	-0.118923366
113	0xbcbb575b	-0.022868803
114	0x3cf94712	0.030429397
115	0xbc9b2072	-0.01893637
116	0xbd781742	-0.060569055
117	0x3e45a940	0.19302845
118	0xbd947ca7	-0.07250338
119	0x3e2661e8	0.16248286
120	0xbdacb2ac	-0.084325165
121	0xbbda779e	-0.0066670915
122	0xbd13da6a	-0.036096968
123	0xbcef8256	-0.029236954
124	0xbe37a532	-0.17934111
125	0x3d5419b3	0.05178232
126	0xbe0618fd	-0.1309547
127	0x3e2572ee	0.16157123
128	0xbd767c88	-0.060177356
129	0x3de445e1	0.11146141
130	0xbda5c040	-0.080933094
131	0x3ccaf133	0.024773216
132	0xbe86e96b	-0.2634996
133	0x3e102f5c	0.14080566
134	0xbe154707	-0.14577876
135	0x3d4ff480	0.050770283
136	0xbdc33a60	-0.095326185
137	0x3b66eada	0.0035235197
138	0xbcfae671	-0.030627461
139	0xbbee9a5f	-0.007281586
140	0xbe6b59f0	-0.22983527
141	0x3ea010a4	0.31262696
142	0xbdbbbe26	-0.09167127
143	0x3e00e81f	0.12588547
144	0xbe0fbdb6	-0.14037213
145	0x3e6d5428	0.23176634
146	0x3d94752a	0.0724891
147	0x3d181da8	0.037137657
148	0xbe6359a5	-0.22202165
149	0x3cf567cc	0.02995672
150	0xbe44c300	-0.19215012
151	0x3e216dae	0.15764496
152	0xbe4763a3	-0.19471602
153	0x3e417204	0.1889115
154	0xbcf72f13	-0.030173814
155	0xbc7a1f38	-0.015266232
156	0xbd7d31b3	-0.061814975
157	0x3e36c47a	0.17848387
158	0xbe2b3772	-0.1672037
159	0x3e7f00c2	0.24902633
160	0x3cae4182	0.021271471
161	0x3d13f978	0.036126584
162	0xbcde4648	-0.027133122
163	0xbd0ffbe7	-0.035152342
164	0xbdc4dcd9	-0.09612436
165	0x3dc2e8bd	0.095170476
166	0xbe49c920	-0.1970563
167	0x3e316cf3	0.17326717
168	0xbd387caa	-0.045040764
169	0xbcc4c73f	-0.02402079
170	0xbcdfffd9	-0.027343677
171	0xbc2d222b	-0.010567228
172	0xbe016732	-0.12637022
173	0x3ef5de3f	0.48021123
174	0xbd41d71f	-0.047324296
175	0x3e238b31	0.15971066
176	0xbdf89a1a	-0.121387675
177	0x3ea0627d	0.3132514
178	0xbe45ce0e	-0.19316885
179	0x3e6f2a61	0.2335601
180	0xbe02c028	-0.12768614
181	0x3e53b3e9	0.20674099
182	0xbc2e54fe	-0.010640381
183	0x3e0754b8	0.13215911
184	0xbd912fb8	-0.0708918
185	0x3c4d50d1	0.012531475
186	0x3ca7a471	0.020464154
187	0x3d00eac3	0.031473886
188	0xbe0f148c	-0.13972682
189	0x3e7e5d2b	0.24840228
190	0x3bd0988a	0.0063658403
191	0x3d6a76d1	0.05724222
192	0xbcfff082	-0.031242613
193	0xbc7fdb6b	-0.015616278
194	0xbd04aead	-0.032393146
195	0x3cc82a94	0.024434365
196	0xbe85f107	-0.26160452
197	0x3ec3b1ca	0.3822158
198	0xbe4d3dac	-0.20043057
199	0x3dafd094	0.08584705
200	0xbe29b5b9	-0.16573228
201	0x3dba6b29	0.091024704
202	0xbc8c0b6a	-0.017095286
203	0x3ccd3f8a	0.025054712
204	0xbd63fe97	-0.055662718
205	0x3e82b5ac	0.2552923
206	0xbda5bb9f	-0.080924265
207	0x3e36e3e0	0.17860365
208	0xbdc87d38	-0.097895086
209	0x3cc03745	0.023463855
210	0x3cce4201	0.025177957
211	0x3c95ce63	0.01828689
212	0xbd2116ae	-0.03932827
213	0x3db4704a	0.0881048
214	0xbdc02c19	-0.09383411
215	0x3e228976	0.1587275
216	0xbbfceeec	-0.0077189114
217	0xbc3bef42	-0.011470618
218	0x3ca00f2a	0.01953848
219	0xbc497605	-0.012296204
220	0xbdedfab6	-0.11620085
221	0x3e884975	0.26618543
222	0x3c951073	0.01819632
223	0x3d7f2218	0.062288374
224	0xbd3cf64f	-0.046133336
225	0xbd17cc91	-0.037060324
226	0xbbb40fad	-0.0054950328
227	0xbc251a39	-0.010077053
228	0xbe139160	-0.14410925
229	0x3e0d9dd5	0.1382974
230	0xbd57360f	-0.05254179
231	0x3e82a469	0.2551606
232	0xbd9348bf	-0.071916096
233	0xbb853e53	-0.0040662675
234	0xbc4c5914	-0.01247241
235	0x3cd34398	0.025789067
236	0xbd9d33cc	-0.07675895
237	0x3e377508	0.17915738
238	0xbd8ec344	-0.06970838
239	0x3e3c1c66	0.18370208
240	0xbd86e303	-0.06586268
241	0x3bea78d2	0.007155516
242	0xbd108a8c	-0.03528838
243	0x3ca6e8e4	0.020374723
244	0xbd6427fe	-0.055702202
245	0x3ea382b4	0.31935656
246	0xbe7f7c99	-0.24949874
247	0x3e3f7242	0.1869593
248	0xbe7af9ee	-0.24509403
249	0x3e8a7536	0.2704255
250	0xbe02450a	-0.12721649
251	0x3db05f6a	0.08611949
252	0xbe3b6a4a	-0.18302265
253	0x3b41d075	0.0029573713
254	0xbdd3e78a	-0.10346897
255	0x3e3e3430	0.18574595

network.0.bias f4 [256]
0	0xbcd1779b	-0.025569728
1	0xbcc42e9e	-0.02394801
2	0xbc385862	-0.011251541
3	0x3c800324	0.015626498
4	0xbd984cc1	-0.07436515
5	0x3c8ee0a0	0.017441094
6	0x3b25feee	0.0025328952
7	0xbc81774f	-0.015803961
8	0x3de3f00f	0.11129772
9	0x3a9139d0	0.0011079852
10	0xbc0f3139	-0.008739763
11	0xbdb0aa47	-0.08626228
12	0xbbcef55f	-0.0063158716
13	0x3d979853	0.074021004
14	0xbd8b3ac6	-0.067983195
15	0xbabad1ea	-0.0014253233
16	0x3cb19a52	0.021680031
17	0xbc3bc22c	-0.011459868
18	0xbc905ac6	-0.01762141
19	0xbdcce445	-0.100044765
20	0xbd2a7bfd	-0.04162215
21	0xbd0a229b	-0.03372441
22	0xbd11ae29	-0.035566483
23	0xbc184e7e	-0.009296058
24	0xbc60ea1d	-0.013727692
25	0xbc03e21e	-0.008049516
26	0xbc406656	-0.011743149
27	0xbd8e85d3	-0.06959119
28	0xbd02ddac	-0.031949684
29	0xbca49322	-0.02008969
30	0x3cc7fffd	0.024414057
31	0xbcaaf3a6	-0.020868134
32	0xbc9f830e	-0.019471671
33	0x3c8f5c8f	0.01750019
34	0x3d14c1c8	0.036317617
35	0x3b2ca379	0.0026342554
36	0xbd2bd940	-0.041955233
37	0x3c8399a7	0.016064478
38	0xbd158363	-0.036502253
39	0x3b31537e	0.0027057822
40	0x3d33f070	0.04393047
41	0x3c245a33	0.010031271
42	0xbc0c13cf	-0.008549645
43	0x3be4869b	0.006974054
44	0x3c98ff89	0.018676536
45	0x3cb9e0c8	0.022690192
46	0xbde7992c	-0.11308512
47	0xbd37b595	-0.044850904
48	0x3dbcf1f7	0.09225839
49	0x3ea23491	0.3168073
50	0xbd1f6235	-0.038912017
51	0xbce05056	-0.027382057
52	0xbcee7bf7	-0.029111845
53	0xbb16faa4	-0.0023037577
54	0xbb6be16e	-0.003599252
55	0x3c98b816	0.018642467
56	0xbc8fa931	-0.017536731
57	0xbd321644	-0.043478265
58	0xbc4209a0	-0.011843115
59	0xbd6f5b90	-0.05843693
60	0x3c4c6d13	0.012477177
61	0x3cc881f4	0.024476029
62	0xbd4f8ae8	-0.05066958
63	0x3cea275e	0.028583225
64	0x3c502b65	0.012705659
65	0xbc9587b3	-0.018253183
66	0x3d7dbe6f	0.06194919
67	0x3d33c435	0.04388829
68	0xbcad2b06	-0.02113868
69	0xbc8ba5ed	-0.017046893
70	0xbcbb44a9	-0.022859888
71	0x3cf83149	0.030296938
72	0x3c5f2180	0.013618827
73	0x3ceb836c	0.02874919
74	0xbd048584	-0.032353893
75	0xbb918311	-0.004440673
76	0xbd0cef5c	-0.03440796
77	0x3e757487	0.23970233
78	0xbbfaffbf	-0.007659882
79	0xbcc80594	-0.024416722
80	0x3cdb2bc0	0.02675426
81	0x3bd0b60c	0.006369358
82	0xbd68feb7	-0.05688354
83	0x3d045cea	0.032315172
84	0xbc7d93a0	-0.015477091
85	0x3d596ec4	0.05308415
86	0x3cd68bd4	0.026189722
87	0x3cd8ce65	0.026465604
88	0xbcf658cf	-0.030071644
89	0x3c095e11	0.008384244
90	0xbb34cb03	-0.0027586825
91	0x3cd711fd	0.026253695
92	0xbb46456b	-0.0030253779
93	0xbc50f89f	-0.012754588
94	0xbc9da57c	-0.019243948
95	0xbd0760dd	-0.03305136
96	0xbbd15d98	-0.006389331
97	0xbc53a669	-0.012918093
98	0x3d8c316c	0.06845364
99	0xbc15b342	-0.009136977
100	0xbd01a320	-0.03164971
101	0xbd3c428b	-0.045961898
102	0xbd3bc53a	-0.045842387
103	0xbca310e9	-0.019905524
104	0xbcf0a053	-0.029373324
105	0x3cc04e37	0.023474796
106	0xbda9b396	-0.082862064
107	0x3c7cdeb6	0.015433958
108	0xbb1803f1	-0.0023195709
109	0xbd97f64b	-0.074200235
110	0x3ce71d4a	0.028212208
111	0xbbeff1bb	-0.0073225177
112	0xbd052bf7	-0.03251263
113	0xbd340874	-0.043953374
114	0x3bc371a6	0.0059644757
115	0xbdccb2ac	-0.099950165
116	0xbd384938	-0.0449917
117	0xbc6a5500	-0.014302492
118	0xbd221d1b	-0.03957854
119	0xbc7cc470	-0.015427694
120	0xbcc9e777	-0.024646504
121	0xbbb65c9e	-0.00556524
122	0x3db3d0f8	0.08780092
123	0x3dd05bab	0.10173734
124	0xbb850dc8	-0.0040604807
125	0x3c990397	0.01867847
126	0xba727b61	-0.0009249952
127	0x3bd3ec67	0.0064673903
128	0xbb2ec74d	-0.0026669085
129	0x3bfe626e	0.0077631986
130	0xbc4014ad	-0.0117236795
131	0x3c345a13	0.0110078035
132	0xbcda8501	-0.02667475
133	0x3bc21d2c	0.0059238877
134	0xbb0baf5b	-0.0021314237
135	0xbcce80d4	-0.025207914
136	0x3d524b26	0.0513412
137	0xbd582ff9	-0.052780125
138	0x3d2681cf	0.04065114
139	0x3c48cc83	0.012255791
140	0xbd4ab7ba	-0.04949162
141	0xbd197e79	-0.03747413
142	0xbd2bef19	-0.04197607
143	0xbc76bb0e	-0.015059246
144	0xbd4a1b59	-0.049342487
145	0xbbd7d950	-0.006587185
146	0xbcd60d57	-0.026129408
147	0xbc66c4ac	-0.014084976
148	0x3ae949c6	0.0017798475
149	0x3d2e52d1	0.04255945
150	0xbd3d1a92	-0.046167918
151	0x3d038ab8	0.032114714
152	0xbc71c979	-0.0147575075
153	0xbc73d106	-0.014881378
154	0x3c81da00	0.01585102
155	0x3c4e678c	0.01259793
156	0xbb6d81ca	-0.003624069
157	0xbd0c49eb	-0.03425018
158	0xbb48b85a	-0.003062746
159	0xbd3c0e03	-0.0459118
160	0xbc46bf31	-0.0121305445
161	0x3c6db6eb	0.014508943
162	0x3cbf671c	0.023364596
163	0xbcc2056b	-0.023684224
164	0x3deb715b	0.1149623
165	0xbd0930c1	-0.03349376
166	0xbc5f7897	-0.013639591
167	0xbcb2dae5	-0.021832893
168	0x3eba6534	0.36405337
169	0xbc56c70c	-0.01310898
170	0x3d34eb17	0.04416951
171	0x3cb7046b	0.022340974
172	0xbcc552e2	-0.024087373
173	0xbd6cf606	-0.057851814
174	0x3d210314	0.039309576
175	0x3d5dd0bc	0.054154143
176	0xbd1b00ef	-0.037842687
177	0x3d163e3d	0.03668045
178	0x3e12e7a0	0.1434617
179	0xbbdd0569	-0.0067450297
180	0x3c65902a	0.014011422
181	0xbc93799a	-0.01800232
182	0xbbb1c882	-0.0054255137
183	0x3d186e2d	0.037214447
184	0xbcaddf0b	-0.02122452
185	0xba0521bf	-0.0005078576
186	0x3c7141b1	0.014725135
187	0x3d148117	0.036255922
188	0xbcb12343	-0.02162326
189	0xbd07311e	-0.033005826
190	0xbbb900ab	-0.0056458316
191	0xbc399647	-0.011327333
192	0xbd8798ce	-0.06620942
193	0xbb3db483	-0.0028946705
194	0xbc520c86	-0.012820369
195	0xbd222da4	-0.039594308
196	0xbcdeef46	-0.027213704
197	0xbad7a4fe	-0.001645237
198	0x3cb7f0bb	0.022453656
199	0xbbf92e58	-0.0076044016
200	0xbcd33606	-0.025782596
201	0x3cf6f7e6	0.030147504
202	0xbb711c63	-0.0036790601
203	0xbcce685c	-0.025196247
204	0x3cc0be5d	0.023528272
205	0xbce36aa8	-0.027760819
206	0x3ce705cb	0.028201004
207	0x3dee7b69	0.11644632
208	0xbd76771e	-0.060172193
209	0xbd3caad7	-0.046061363
210	0x3d6b2c18	0.057415098
211	0xbd93ba3b	-0.07213255
212	0xbd63faef	-0.05565923
213	0xbcb7a137	-0.02241574
214	0xbd0b798c	-0.034051463
215	0xbd59a9aa	-0.05314032
216	0xbb6dc7a3	-0.0036282323
217	0x3ca60a35	0.020268539
218	0xbe31deea	-0.17370191
219	0x3bfad7f3	0.0076551377
220	0x3ce8e6db	0.028430393
221	0x3bc89e41	0.006122381
222	0xbba3dcfa	-0.0050007077
223	0xbca56d5a	-0.020193744
224	0x3d068bbc	0.032848105
225	0xbcf9271e	-0.03041416
226	0xbcf5e173	-0.03001473
227	0xbd252fea	-0.040328898
228	0xbcb4a1f1	-0.022049876
229	0xbd1c8eba	-0.038222052
230	0xbd8bd4db	-0.06827708
231	0x3c7a2868	0.015268423
232	0xbbc4b055	-0.0060024657
233	0xbe2ed102	-0.17071918
234	0xbcea3cd2	-0.028593455
235	0x3c1ced43	0.009578052
236	0x3c6f042a	0.014588395
237	0x3b82481c	0.0039758813
238	0xbd39119a	-0.0451828
239	0xbd42f25a	-0.047594406
240	0xbbca3189	-0.006170456
241	0xbc3142db	-0.010819162
242	0x3caa1b7d	0.02076506
243	0xbb9c1463	-0.0047631725
244	0x3ac8643a	0.0015288659
245	0x3c965315	0.018350163
246	0x3c68aa78	0.014200799
247	0xbd603282	-0.054735668
248	0xbd045fa9	-0.03231779
249	0x3de728a3	0.11287048
250	0x3d19db1c	0.037562475
251	0x3dba13b0	0.09085786
252	0x3d838327	0.064215
253	0x3db0439d	0.08606646
254	0x3aef5377	0.0018259127
255	0x3c7c1579	0.015385979

network.2.weight f4 [128, 256]
0	0xbd601d76	-0.054715596
1	0x3c4d321e	0.012524156
2	0x3d67a51b	0.05655394
3	0x3cf6f6fa	0.030147064
4	0x3be33d97	0.0069348323
5	0xbe09ba8d	-0.1345007
6	0x3d1d5e3a	0.03841994
7	0x3c710eb8	0.014712982
8	0xbe224ee4	-0.15850407
9	0xbe11b0b5	-0.14227565
10	0x3d3b84ea	0.045781054
11	0xbdfc9849	-0.123337336
12	0x3cb88cbd	0.022528047
13	0xbf10c359	-0.56548077
14	0xbc8fd1e4	-0.017556138
15	0x3c893dba	0.016753066
16	0x3d05bb56	0.03264936
17	0x3d2a3ea2	0.041563638
18	0x3cf4f930	0.029903978
19	0xbc55cca1	-0.013049276
20	0x3da8edb4	0.08248463
21	0x3dc6eeaa	0.0971349
22	0xbde10bd7	-0.109885864
23	0xbcdf5143	-0.027260428
24	0xbd4bc5ab	-0.049749058
25	0xbae66a33	-0.0017579257
26	0x3bcd5dd7	0.00626729
27	0xbea3db2a	-0.32003146
28	0x3db41ffd	0.08795164
29	0x3d5e1bd2	0.05422575
30	0x3d0f4ae8	0.034983546
31	0xbdebca9d	-0.11513255
32	0xbda6d030	-0.08145177
33	0x3bc5e170	0.006038837
34	0xbdbb0629	-0.09132034
35	0x3ba59ce0	0.0050541013
36	0x3ce8c63a	0.028414834
37	0xbdce78cb	-0.10081633
38	0x3946fe00	0.00018977374
39	0xbde0b390	-0.10971749
40	0xbe28d226	-0.16486415
41	0xbd014d90	-0.03156811
42	0xbecd2bb9	-0.4007242
43	0xbd3cfd6a	-0.046140112
44	0xbd0240e8	-0.03180018
45	0xbd5f7996	-0.054559313
46	0x3d5bfa45	0.053705472
47	0xbd90514b	-0.070467554
48	0xbe57f6b1	-0.21090199
49	0x3d8a1306	0.0674191
50	0xbd922d23	-0.071375154
51	0xbdfad46e	-0.12247549
52	0xbda0163f	-0.07816743
53	0xbeac77c8	-0.33685136
54	0xbe3933c1	-0.18086149
55	0xbd1ef740	-0.038810015
56	0xbd54615b	-0.051850658
57	0x3dbea43d	0.0930867
58	0xbd9dc078	-0.07702726
59	0x3de018f5	0.1094226
60	0x3d37552e	0.044758968
61	0xbde629b3	-0.11238422
62	0xbd00a639	-0.031408522
63	0xbd2dceaf	-0.042433437
64	0xbd67f015	-0.056625444
65	0xbd56b644	-0.052419916
66	0xbbad2067	-0.0052834037
67	0xbe29c027	-0.16577207
68	0x3d3a2487	0.04544499
69	0x3cc275d0	0.023737818
70	0xbc6e74a7	-0.014554179
71	0xbd93db64	-0.0721958
72	0xbd1abbd7	-0.037776794
73	0xbd9d0bcd	-0.076682664
74	0x3cc05461	0.023477735
75	0xbd756529	-0.059910927
76	0xbd2461f8	-0.040132493
77	0x3ca77dc4	0.020445712
78	0x3d27d093	0.040970396
79	0xbd77125c	-0.060320243
80	0xbd6bad8e	-0.05753856
81	0x3d95cd1c	0.07314512
82	0xbecca70e	-0.39971203
83	0x3a2e7112	0.0006654422
84	0x3be3cf8c	0.0069522317
85	0xbd88aa48	-0.066731036
86	0xbc7cda4e	-0.015432907
87	0xbb89303b	-0.0041866577
88	0x3cf91098	0.03040342
89	0xbcdec4c2	-0.02719343
90	0xbd7c3119	-0.06157026
91	0x3e28ab13	0.1647151
92	0xbb98f51b	-0.0046678907
93	0x3d7d1461	0.061787013
94	0x3ac9dc61	0.0015400761
95	0xbb8bd500	-0.004267335
96	0xbd29bc80	-0.041439533
97	0xbdabf3be	-0.083960995
98	0xbe69ecca	-0.22844234
99	0x3d715e72	0.05892796
100	0x3e2eb50e	0.17061254
101	0xbda05846	-0.07829337
102	0x3e0528e8	0.13003886
103	0x3c26d310	0.010182157
104	0xbd2fada1	-0.042890195
105	0x3dc1a6bc	0.0945563
106	0xb87f4f76	-6.087074e-05
107	0xbc7fb891	-0.015607969
108	0xbde2e39f	-0.110785715
109	0x3d0e9254	0.034807518
110	0x3cceb7d3	0.025234139
111	0x3d60ad10	0.054852545
112	0xbd56c033	-0.05242939
113	0xbd0b8399	-0.03406105
114	0xbf0382ff	-0.5137176
115	0xbd8d71d4	-0.069064766
116	0xbf0f9bba	-0.56096995
117	0xbcd58fe3	-0.026069587
118	0x3c3d81b9	0.011566573
119	0xbf10e1ad	-0.56594354
120	0xbdd3e1df	-0.10345816
121	0x3c04e6c6	0.008111661
122	0xbdc28082	-0.09497167
123	0xbe490a29	-0.19632782
124	0xbdf1661e	-0.117870554
125	0xbe01bb2a	-0.12669054
126	0xbd76c758	-0.060248703
127	0xbce86cc5	-0.028372178
128	0x3cd9e3ad	0.026597822
129	0xbd746814	-0.05966957
130	0xbc453dcf	-0.012038662
131	0xbe04e290	-0.12977052
132	0xbd3bc762	-0.045844443
133	0x3d9eba78	0.0775041
134	0xbc83a365	-0.016069124
135	0xbd4faf4a	-0.050704278
136	0x3c970d80	0.018439054
137	0x3d3e2ffe	0.046432488
138	0xbdc10dfa	-0.09426494
139	0x3d3a853e	0.045537226
140	0x3e2588a1	0.16165401
141	0xbcd6c359	-0.026216196
142	0xbc8cccd0	-0.017187506
143	0x3d17d190	0.03706509
144	0x3cbef16c	0.023308478
145	0x3d83fc2c	0.06444582
146	0xbc223e58	-0.009902559
147	0xbd23dac4	-0.040003553
148	0x3ca28489	0.019838588
149	0x3d815af8	0.06316179
150	0x3c4aca78	0.012377374
151	0xbed82e88	-0.42223
152	0xbd936de4	-0.07198694
153	0xbc20f170	-0.009823188
154	0x3c701f5c	0.014655914
155	0xbdb15dee	-0.08660494
156	0x3cd2980c	0.025707267
157	0x3c617277	0.013760201
158	0xbe19b723	-0.15011267
159	0x3c05cc6e	0.008166416
160	0xbdbc7bbb	-0.09203287
161	0xbd3e44e5	-0.04645242
162	0x3d366db8	0.04453823
163	0xbd02b741	-0.031913046
164	0x3d852ce3	0.06502702
165	0x3d6f183e	0.05837273
166	0xbeae7d07	-0.34079763
167	0x3e022f40	0.12713337
168	0xbde26f36	-0.11056368
169	0x3d68ed7d	0.05686711
170	0xbe150fc6	-0.14556798
171	0x3c942d17	0.018087907
172	0xbd23a4f0	-0.03995222
173	0x3d7634e7	0.060109045
174	0xbc8c52de	-0.017129358
175	0xbee4fcb4	-0.44724047
176	0xbcdc6828	-0.026905134
177	0xbd02c8b4	-0.031929687
178	0xbda551d7	-0.0807225
179	0x3b99921a	0.004686606
180	0xbd81f1f9	-0.06344981
181	0x3de908eb	0.11378654
182	0xbdc5b1ca	-0.09653051
183	0xbe830876	-0.25592393
184	0x3e19796e	0.14987728
185	0x3c3b7cd0	0.011443332
186	0xbe396e7e	-0.18108556
187	0xbd1f92f4	-0.038958505
188	0x3e1bac75	0.15202506
189	0x3b81a2ca	0.0039561735
190	0xbe972ffd	-0.295288
191	0x3d7a28f0	0.061074197
192	0xba81841c	-0.0009881291
193	0x3bdd5792	0.006754824
194	0xbdb20832	-0.086929694
195	0xbd97fd64	-0.07421377
196	0xbb7d5e55	-0.0038660963
197	0xb9634673	-0.00021674651
198	0xbe9932ad	-0.29921475
199	0x3c9a0094	0.018799104
200	0x3d8b96ad	0.068158485
201	0x3bd2a289	0.006428067
202	0xbc4aa7a0	-0.0123690665
203	0x3d2d9a8a	0.042383708
204	0xbd980d45	-0.07424406
205	0xbd0cef4d	-0.034407903
206	0x3d761fc6	0.060088895
207	0xbe2eeecd	-0.17083283
208	0xbd0d10a1	-0.034439687
209	0xbc39cd28	-0.011340417
210	0x3e62ccc2	0.22148421
211	0x3ce16fd2	0.02751914
212	0xbc6b02a2	-0.014343889
213	0xbe0332c9	-0.12812342
214	0x3d930540	0.07178736
215	0x3e25735c	0.16157287
216	0xbbc3fb90	-0.0059809163
217	0x3dd38605	0.103282966
218	0xbd115778	-0.035483807
219	0xbd6c3386	-0.057666324
220	0x3ddc848e	0.1076747
221	0xbd31d892	-0.04341943
222	0xbdbf900b	-0.09353646
223	0xbda4db7c	-0.08049676
224	0xbbb08107	-0.005386475
225	0x3c88304e	0.016624596
226	0x3d5e7614	0.054311827
227	0x3bff8397	0.007797669
228	0x3e11eec4	0.14251238
229	0x3c9fe51a	0.019518424
230	0xbdd2dcc1	-0.10296012
231	0xbcbdcda6	-0.02316935
232	0xbcb1e671	-0.021716328
233	0xbd7b2447	-0.061313894
234	0xbe55338a	-0.20820442
235	0x3d1c284d	0.03812437
236	0xbd8c0651	-0.06837142
237	0xbdb1b901	-0.08677865
238	0x3aa7ed40	0.0012811795
239	0x3ce0d01a	0.02744298
240	0x3d79d8c0	0.060997725
241	0xbe4654f6	-0.19368348
242	0xbcfbe03a	-0.030746568
243	0xbdd5e518	-0.10444087
244	0x3d8523a1	0.06500936
245	0x3cb9fa84	0.022702463
246	0xbdb20779	-0.086928315
247	0x3e850ad6	0.2598483
248	0x3cb6a911	0.022297414
249	0x3daf0aeb	0.08547004
250	0xbd5bb7b6	-0.053641997
251	0xbe084bb3	-0.13310127
252	0x3cddc66f	0.02707216
253	0x3e4029dd	0.1876597
254	0xbd89658e	-0.06708823
255	0x3cfc36eb	0.030787906

network.2.bias f4 [128]
0	0xbe024ffe	-0.12725827
1	0xbdad1978	-0.084521234
2	0x3e029f02	0.12755969
3	0xbd0525fa	-0.03250692
4	0xbda449b3	-0.080218695
5	0xbcc2d24d	-0.02378192
6	0x3c14d659	0.009084308
7	0x3e0a1379	0.1348399
8	0xbdb5dc84	-0.08879951
9	0xbd683be3	-0.056697737
10	0x3dae6f96	0.08517377
11	0x3d1d60df	0.03842246
12	0x3d7c1013	0.061538767
13	0x3d497209	0.049181018
14	0x3cd8e799	0.026477622
15	0xbca3c56c	-0.019991599
16	0x3a424244	0.0007410387
17	0xbd36c362	-0.044619925
18	0x3c02260f	0.007943644
19	0xbd915921	-0.07097078
20	0x3e12d72e	0.14339897
21	0x3dee1a1e	0.11626075
22	0xbd466485	-0.048435707
23	0x3d96221a	0.07330723
24	0xbd6de9e3	-0.05808438
25	0x3e588696	0.2114509
26	0x3a80c285	0.0009823596
27	0xbc886649	-0.016650336
28	0x3c6af830	0.014341399
29	0x3d1ce8f8	0.038308114
30	0x3e501d26	0.20323619
31	0x3de1c870	0.110245585
32	0x3cb54a53	0.022130167
33	0xbccb0d4f	-0.02478662
34	0x3dc49f42	0.096006885
35	0x3d9246af	0.07142388
36	0x3e000d59	0.12505092
37	0x3e21c1eb	0.1579663
38	0x3b1dfe43	0.002410785
39	0xbda240a7	-0.07922488
40	0xbd8d1416	-0.06888597
41	0x3c0fba39	0.008772426
42	0xbd9171bc	-0.07101771
43	0xbe28a5aa	-0.16469446
44	0xbda20583	-0.079112075
45	0x3d0b079b	0.0339428
46	0xbdef12f3	-0.11673536
47	0xbcbe2783	-0.0232122
48	0xbc2e6ed9	-0.010646545
49	0x3cc96e6f	0.024588792
50	0xb90f239c	-0.00013650808
51	0xbdacddde	-0.08440755
52	0xbd80d43d	-0.06290481
53	0xbe1ce1ff	-0.15320586
54	0x3da72b19	0.08162517
55	0x3dfea26b	0.124333225
56	0x3c31f52f	0.010861679
57	0x3e141cdd	0.14464135
58	0x3ccbe46f	0.024889199
59	0xbcedd364	-0.029031463
60	0xbd9bc602	-0.07606126
61	0x3e183231	0.14862897
62	0x3e5d4895	0.21609719
63	0xbd1a3d31	-0.037656013
64	0xbc86afd1	-0.016441258
65	0xbd58ab4b	-0.052897733
66	0x3e0153ca	0.12629619
67	0x3d8e5266	0.0694931
68	0xbd898367	-0.06714516
69	0xbb1fabae	-0.0024363804
70	0xbe0038db	-0.12521689
71	0x3bde2fc9	0.006780599
72	0x3c771eac	0.015082996
73	0xbdb18b47	-0.08669143
74	0x3deacbb7	0.11464637
75	0xbc42abaf	-0.011881753
76	0x3dcea6cf	0.1009041
77	0x3cce4b6f	0.025182454
78	0x3e0b3941	0.1359606
79	0xbdaa45ea	-0.08314116
80	0x3c945798	0.018108174
81	0x3d2f519b	0.042802434
82	0xbbd7551f	-0.0065714265
83	0xbdfa3fb7	-0.12219184
84	0x3d7f599d	0.06234132
85	0xbde6c603	-0.112682365
86	0xbd5051e4	-0.050859347
87	0x3ce4ee0a	0.027945537
88	0x3d27051b	0.040776353
89	0x3e0ec9db	0.13944189
90	0x3d13927d	0.036028374
91	0x3d3db57e	0.046315663
92	0xbc2c9b70	-0.010535106
93	0x3e21a8c6	0.15787038
94	0xbcc07190	-0.02349165
95	0xbcaa491f	-0.02078682
96	0x3cedb19f	0.02901536
97	0xbdd7a99b	-0.105303966
98	0x3dda1160	0.10647845
99	0xbd4e00af	-0.05029362
100	0xbdb49334	-0.08817139
101	0x3e0cffe9	0.13769497
102	0xbcad3f26	-0.021148276
103	0x3e0ad663	0.13558345
104	0xbcc14780	-0.023593664
105	0xbd6a5cbc	-0.057217345
106	0xbde50408	-0.111824095
107	0xbd918323	-0.071050905
108	0x3c6fa7ca	0.014627406
109	0xbca2dd38	-0.019880876
110	0xbde65061	-0.112458
111	0xbda17828	-0.07884246
112	0xbd726104	-0.059174553
113	0x3e3131bb	0.17304127
114	0x3e29306b	0.16522376
115	0xbd90c19a	-0.070681766
116	0x3e2484e8	0.16066325
117	0xbd2d5d3b	-0.04232524
118	0xbd25a870	-0.040443838
119	0xbd2b1ca1	-0.04177535
120	0x3dd291c1	0.102817066
121	0xbc22b4ed	-0.009930831
122	0xbc81fe1d	-0.015868241
123	0xbd81d4e8	-0.06339437
124	0x3d8d38c5	0.068955936
125	0xbe344769	-0.17605366
126	0xbdaf5a55	-0.08562151
127	0xbd59705f	-0.05308568

network.4.weight f4 [120, 128]
0	0x3e1c47ba	0.15261737
1	0xbda628d0	-0.08113253
2	0xbde3dd4b	-0.11126193
3	0xbdaed8ce	-0.08537446
4	0x3d27bdad	0.040952373
5	0xbd294adc	-0.041331157
6	0xbd814d83	-0.06313612
7	0xbdfce993	-0.12349238
8	0x3d8c882a	0.06861909
9	0x3cfe0d29	0.031012135
10	0xbe156e24	-0.14592797
11	0xbd8c937f	-0.0686407
12	0xbe0fc37c	-0.14039415
13	0xbd1ff44f	-0.03905135
14	0xbd886ab0	-0.06660974
15	0x3da247b6	0.07923834
16	0x3d988ca0	0.07448697
17	0xbbee631d	-0.007274999
18	0xbd36c512	-0.044621535
19	0x3d19f837	0.03759023
20	0xbd9d95fe	-0.07694624
21	0xbdffb7d1	-0.12486232
22	0x3e0cfcf9	0.13768376
23	0xbca1c9fc	-0.019749634
24	0x3d490604	0.049078003
25	0x3d1c7dae	0.038205795
26	0xbd95faed	-0.07323251
27	0xbd419901	-0.047265057
28	0x3d14c93d	0.03632473
29	0x3db0f054	0.08639589
30	0xbe17d321	-0.14826633
31	0xbdf36137	-0.11883777
32	0xbd954de2	-0.072902456
33	0x3d43a0b5	0.047760684
34	0x3e24824f	0.16065334
35	0xbe18e605	-0.14931495
36	0xbe6ed9eb	-0.23325317
37	0xbda4f274	-0.08054057
38	0xbda90d9c	-0.08254549
39	0x3d8cb91d	0.06871245
40	0x3d63d314	0.05562122
41	0xbda21aa2	-0.07915236
42	0x3d9a08da	0.075212196
43	0x3d8d2275	0.06891338
44	0xbd5bfa8f	-0.05370575
45	0x3cc28d73	0.023749089
46	0x3db292c1	0.08719397
47	0x3d7375f0	0.059438646
48	0xbb3541fd	-0.002765774
49	0x3ccf74cd	0.02532425
50	0x3d7a6166	0.061128043
51	0xbd65c5d6	-0.056096874
52	0xbd248df2	-0.040174432
53	0xbda69c22	-0.08135249
54	0xbcfb310f	-0.030663041
55	0xbd95f657	-0.07322376
56	0xbcc425e5	-0.02394385
57	0xbe11d71f	-0.14242218
58	0x3cd8d99e	0.026470955
59	0xbda216b1	-0.07914484
60	0xbcfc05a2	-0.030764405
61	0x3d63d00a	0.055618323
62	0xbdb94977	-0.090472154
63	0xbdad9d6e	-0.08477293
64	0x3d21ce97	0.03950366
65	0xbcc7b541	-0.02437842
66	0xbd1e0957	-0.038583126
67	0x3c74ba95	0.014937063
68	0xbb5ce491	-0.0033705572
69	0x3c5af73a	0.0133646075
70	0x3cf85117	0.030312104
71	0xbbc94a72	-0.006142908
72	0xbdaf1c88	-0.08550364
73	0xbcd1d999	-0.025616454
74	0xbcfe523c	-0.031045072
75	0xbdabb84f	-0.083847634
76	0xbc9df039	-0.019279586
77	0x3d5eb54c	0.054372117
78	0xbd7ffa09	-0.06249431
79	0x3da800aa	0.08203252
80	0x3ddb5885	0.10710243
81	0xbe36f9aa	-0.17868677
82	0xbd1d99e5	-0.038476843
83	0x3d979a0f	0.07402431
84	0xbe4f30ae	-0.20233414
85	0xbcbd6124	-0.02311761
86	0xbd876e98	-0.06612891
87	0x3e53f309	0.2069818
88	0x3daec842	0.0853429
89	0xbe47d2cf	-0.19514011
90	0xbdcc29d0	-0.099689126
91	0xbdd3757c	-0.10325143
92	0xbc863aa3	-0.016385382
93	0x3c99c2e0	0.018769681
94	0x3c1e8121	0.009674341
95	0xbba0f25d	-0.0049117045
96	0x3da7bc1f	0.08190178
97	0xbd9aaeec	-0.07552895
98	0xbcd91a8b	-0.026501914
99	0xbd9ed70a	-0.07755859
100	0xbd525cec	-0.05135815
101	0xbe1a7917	-0.15085255
102	0x3d86343e	0.06552933
103	0xbd010bb0	-0.031505287
104	0x39d27e30	0.00040148338
105	0xbd6dcc77	-0.05805632
106	0xbda5c1c4	-0.080935985
107	0xbda042e7	-0.078252606
108	0x3da2ed6c	0.07955441
109	0xbd74dbbc	-0.059779868
110	0x3d2c65ef	0.0420894
111	0xbd572192	-0.05252225
112	0x3db1680f	0.08662426
113	0xbe521378	-0.20515239
114	0xbd8149dc	-0.06312916
115	0x3d9cd4ec	0.07657799
116	0xbe3e85fd	-0.186058
117	0xbd38b016	-0.045089804
118	0x3c6f5c81	0.014609457
119	0xbe343514	-0.17598373
120	0xbe3dc65f	-0.18532704
121	0x3da4028b	0.080082975
122	0x3cf3c02b	0.029754719
123	0xbe2fc300	-0.1716423
124	0xbd0e0f87	-0.034682777
125	0xbda8ea91	-0.08247865
126	0xbc6693f0	-0.014073357
127	0xbd7e087d	-0.062019814
128	0xbd7a3c4b	-0.061092656
129	0xbdd88d30	-0.105738044
130	0xbddb64d3	-0.1071259
131	0xbd9b932a	-0.07596429
132	0xbda044b4	-0.07825604
133	0x3d585c49	0.052822385
134	0x3d09d07f	0.033646103
135	0xbe4654c2	-0.1936827
136	0xbc8ecb40	-0.017430902
137	0x3d2e8175	0.04260393
138	0xbe4d8810	-0.20071435
139	0x3c09dd0e	0.00841452
140	0xbddaa25f	-0.10675501
141	0xbd24242b	-0.040073555
142	0x3c900ce5	0.017584274
143	0x3d056be6	0.032573603
144	0x3d8ff5d7	0.07029312
145	0x3d83bf94	0.06433025
146	0xbd49e74c	-0.049292848
147	0xbdb45ed2	-0.08807148
148	0xbe580b2d	-0.21098013
149	0xbe45b117	-0.19305836
150	0x3bcdd709	0.0062817377
151	0xbd25cc8f	-0.040478285
152	0xbbab226f	-0.0052226107
153	0x3cd83caf	0.026396124
154	0xbd0cf8b2	-0.03441686
155	0xbe0760a5	-0.1322046
156	0x3d8465f7	0.06464761
157	0xba6018fe	-0.0008548646
158	0xbe5989bd	-0.21243949
159	0xbe34bd56	-0.17650351
160	0xbc866e74	-0.01641009
161	0xbd6fea16	-0.05857285
162	0xbe72d2c8	-0.23713219
163	0xbe6e3844	-0.23263651
164	0xbe1408db	-0.14456503
165	0xbe8764e3	-0.26444158
166	0xbda26c62	-0.07930829
167	0x3d2d1a27	0.04226127
168	0xbc88b569	-0.016688066
169	0xbe31f5b4	-0.17378885
170	0xbe2db4d1	-0.16963507
171	0xbe171fd8	-0.14758241
172	0x3ca4e591	0.020128997
173	0xbd1a609f	-0.0376898
174	0x3d91b7a2	0.07115103
175	0x3d99b37a	0.075049356
176	0xbd986846	-0.074417636
177	0xbd8314c9	-0.06400449
178	0x3c8ba1a0	0.017044842
179	0xbd1cf804	-0.038322464
180	0x3ccb1da0	0.0247944
181	0xbe09f258	-0.13471353
182	0x3d1eeb63	0.0387987
183	0xbe38c3d3	-0.18043451
184	0xbd85c95f	-0.06532549
185	0x3c9dd90d	0.019268537
186	0xbdc92063	-0.098206304
187	0x3d631e18	0.05544862
188	0xbda3b7f3	-0.0799407
189	0xbd702337	-0.058627333
190	0xbe0d541e	-0.1380162
191	0x3d006325	0.03134455
192	0xbd91bf53	-0.0711657
193	0x3d94c3db	0.07263919
194	0xbdbe17df	-0.09281897
195	0x3c1b0c06	0.009463316
196	0x3d1ed391	0.038775984
197	0xbc33821f	-0.010956316
198	0xbda2da24	-0.07951763
199	0x3d5a2177	0.05325457
200	0xbd582f4b	-0.052779477
201	0x3d99278e	0.074782476
202	0xbcb4d648	-0.022074834
203	0xbe0d581e	-0.13803145
204	0xbd6a9ef6	-0.057280503
205	0xbd77cf05	-0.060500164
206	0xbe05a1ef	-0.13050054
207	0x3d3a9dc2	0.045560606
208	0xbe2a9347	-0.16657744
209	0xbe182ff5	-0.14862044
210	0xbee8c192	-0.45460182
211	0xbd5198e4	-0.0511712
212	0xbddf7b3b	-0.10912176
213	0xbda27663	-0.07932737
214	0x3cd81b81	0.026380302
215	0xbddd14d3	-0.107949875
216	0xbd076d33	-0.033063125
217	0xbdac4830	-0.08412206
218	0xbe3ec475	-0.1862963
219	0xbe098c91	-0.13432528
220	0xbd2db9d6	-0.042413555
221	0x3e005822	0.1253362
222	0xbd911e52	-0.07085861
223	0xbd505dd5	-0.050870735
224	0xbd85530e	-0.06509982
225	0x3a131027	0.0005610012
226	0x3db5be46	0.088741824
227	0xbb459b86	-0.0030152514
228	0xbd2ccfdc	-0.042190418
229	0xbe199b5f	-0.15000676
230	0xbc8ae258	-0.016953632
231	0xbdf6d72b	-0.12052759
232	0xbd80051f	-0.06250977
233	0xbc8c83f0	-0.017152756
234	0x3d80d9e8	0.06291562
235	0xbdb03c41	-0.086052425
236	0x3d7ad595	0.061238844
237	0xbdac79a1	-0.084216364
238	0xbd9439a1	-0.07237554
239	0xbda74ee7	-0.08169346
240	0x3d887750	0.06663382
241	0xbe75c9f1	-0.24002816
242	0xbe09dc26	-0.13462886
243	0xbdb81e48	-0.08990151
244	0xbe45cfaf	-0.19317506
245	0xbca9599d	-0.020672614
246	0xbe3f97ec	-0.18710297
247	0xbe8af1cc	-0.271376
248	0xbe91ea3b	-0.28499016
249	0xbd81d324	-0.063391
250	0x3d649bda	0.055812694
251	0x3d0fe290	0.035128176
252	0xbe807dfe	-0.25096124
253	0xbce3286d	-0.027729237
254	0xbbad4d79	-0.0052887765
255	0xbc8a0f47	-0.016852988

network.4.bias f4 [120]
0	0xbe598393	-0.21241598
1	0xbf207ab9	-0.6268726
2	0xbea91d24	-0.33030045
3	0xbeb2d6ed	-0.349296
4	0xbf0f2bd1	-0.55926234
5	0xbe34c35b	-0.17652647
6	0xbd0492c6	-0.032366537
7	0xbe05b45e	-0.13057086
8	0xbe85c406	-0.26126117
9	0xbe16e57b	-0.14735977
10	0xbe7ee74e	-0.24892923
11	0xbf0bc39a	-0.5459534
12	0xbe899de4	-0.26878273
13	0xbe2e1321	-0.16999485
14	0xbe32d0f0	-0.17462516
15	0xbe0533ae	-0.13007995
16	0xbe22be50	-0.15892911
17	0xbef9be5c	-0.48778045
18	0xbe8d9560	-0.27653027
19	0xbe8aa8ef	-0.2708201
20	0xbe810b5a	-0.25203973
21	0xbe2f5968	-0.1712395
22	0xbd7adf6c	-0.061248228
23	0xbe81ddde	-0.25364584
24	0xbd3e3d51	-0.046445195
25	0xbf0b868d	-0.54502183
26	0xbe50a2f6	-0.20374665
27	0xbe6952bc	-0.22785467
28	0xbe23636a	-0.15955892
29	0xbe21e996	-0.15811762
30	0xbe43bd9e	-0.19115302
31	0xbe38b554	-0.18037921
32	0xbeacb367	-0.33730623
33	0xbefa4d95	-0.48887315
34	0xbe8414de	-0.2579717
35	0xbe3f4136	-0.1867722
36	0xbc8a3fe2	-0.016876165
37	0xbe30ab98	-0.17252958
38	0xbe911cee	-0.28342384
39	0xbe56cbbc	-0.20976156
40	0xbe59c668	-0.21267092
41	0xbee045e1	-0.43803313
42	0xbd84cbff	-0.06484222
43	0xbd98e686	-0.07465844
44	0xbe177b82	-0.14793208
45	0xbe2e8553	-0.17043047
46	0xbe132570	-0.1436975
47	0xbdb00b00	-0.08595848
48	0xbd4faf64	-0.050704375
49	0xbed0ae38	-0.40757918
50	0xbe6823eb	-0.22669952
51	0xbe328d52	-0.17436722
52	0xbe8fce87	-0.28087255
53	0xbe07d49a	-0.13264695
54	0xbe381b33	-0.17979126
55	0xbe2c5e69	-0.1683289
56	0xbe433b17	-0.1906551
57	0xbeb3ad1c	-0.3509301
58	0xbe290a52	-0.16507843
59	0xbe44b393	-0.19209127
60	0xbebf371e	-0.3734674
61	0xbe329fae	-0.17443725
62	0xbe3e58bd	-0.18588538
63	0xbe9e01a3	-0.30860624
64	0xbebfc0df	-0.37451836
65	0xbf2633ed	-0.6492298
66	0xbed3cf3d	-0.41369048
67	0xbd89568e	-0.06705962
68	0xbeb633a5	-0.35586277
69	0xbddf6e91	-0.10909761
70	0xbeafc7b8	-0.3433206
71	0xbe70e635	-0.23525317
72	0xbeb76b81	-0.35824206
73	0xbf17c0cb	-0.59278554
74	0xbeb66903	-0.35626993
75	0xbeb68ee6	-0.35655898
76	0xbe8d3804	-0.275818
77	0xbe7d7a76	-0.24753746
78	0xbdc4e145	-0.09613279
79	0xbe99bb60	-0.30025768
80	0xbe66b881	-0.2253132
81	0xbf0dd413	-0.55401725
82	0xbeb4efda	-0.35339242
83	0xbe8d1577	-0.2755544
84	0xbe02cb6b	-0.1277291
85	0xbe80fa46	-0.25190943
86	0xbe860a11	-0.26179555
87	0xbe6e32a2	-0.23261502
88	0xbdfc2bb6	-0.12313025
89	0xbf28957c	-0.65853095
90	0xbeb70b86	-0.3575098
91	0xbe1c6ad6	-0.1527513
92	0xbeb73cc3	-0.35788545
93	0xbe560aa7	-0.20902501
94	0xbec95bf6	-0.39327973
95	0xbe57bee2	-0.2106891
96	0xbe5041b6	-0.20337567
97	0xbecb074d	-0.39654008
98	0xbe1e15a4	-0.15437943
99	0xbe9714e0	-0.29508114
100	0xbeb545de	-0.35404867
101	0xbe59c018	-0.21264684
102	0xbea915e9	-0.3302453
103	0xbe510a14	-0.20414001
104	0xbdf1e935	-0.11812059
105	0xbec32850	-0.38116693
106	0xbe2932df	-0.16523312
107	0xbe2097a2	-0.15682843
108	0xbe2eefbe	-0.17083642
109	0xbe106c90	-0.14103913
110	0xbe440786	-0.19143495
111	0xbe204c57	-0.15654121
112	0xbe39f9fa	-0.18161765
113	0xbea4bbd8	-0.32174563
114	0xbe4dfde1	-0.20116378
115	0xbe31f51b	-0.17378657
116	0xbe4d71e5	-0.20062979
117	0xbe6e3cd6	-0.23265395
118	0xbe97f162	-0.29676348
119	0xbe655344	-0.22395045
