LIRL results/Robustness experiment/machine_breakdown/ddpg_lirl_pi_multi_run_20250919_failure_0.0/run_6_seed_2856/ddpg_lirl_pi_q_target_20250919_205750.pth (torch, 151793 bytes, 7 tensors)

fc_s.weight f4 [64, 507]
000000 13 0b 66 be 21 35 c0 bd 20 90 b5 bd 9f a6 2b bd
       -0.22465162 -0.093851335 -0.0886538 -0.04190695
000010 51 82 4f bd 97 5a aa bd 15 dd 8e bc 0f 9f 2c bd
       -0.05066139 -0.0831806 -0.017439405 -0.042143878
000020 a3 77 e9 bd 4b d2 66 bc 20 b5 84 3e ca a8 56 bd
       -0.11399772 -0.014088224 0.25919437 -0.052407064
000030 af ec aa bd fd e3 81 bd db ef 72 3c 54 be 4c 3d
       -0.08345925 -0.063423134 0.014827694 0.0499862
000040 6d 9e 04 be c0 e4 4f 3c a1 c0 48 bd 68 b7 39 bd
       -0.1295106 0.012688816 -0.04901183 -0.045340925
000050 05 26 6c 3d 4d fb 2d be 6f 22 ba 3b 58 39 3b bd
       0.057653446 -0.16990395 0.0056803743 -0.045708984
000060 28 c1 c7 3b 0a 8b 73 bb 70 9d b2 bc 42 38 59 bd
       0.006096024 -0.003716173 -0.021803588 -0.053032167
000070 61 c2 4f bd cf 4a a0 bb 40 93 17 be c7 aa 2c be
       -0.050722484 -0.0048917304 -0.14802265 -0.16862021
000080 1e d2 11 bd e1 d3 ca bc b8 fb b1 ba ce 72 fb bb
       -0.035600774 -0.024759235 -0.0013579046 -0.007673598
000090 46 66 ae bc c7 d5 a9 bb 69 ad 5c 3c b3 23 f1 3c
       -0.021289002 -0.005182955 0.013469079 0.029435968
0000a0 75 9d 96 bc bd a5 82 bd 8a 53 5f bd de 3f 00 3c
       -0.018385628 -0.06379268 -0.05452303 0.007827727
0000b0 e8 6d bf bb 10 50 35 bd 2c ce 7b bc d3 f1 fd 3c
       -0.0058419593 -0.044265807 -0.015368979 0.0309991
0000c0 b5 a5 05 bd ac 04 0e 3d 1d 90 83 bd bf 5e ab bb
       -0.032628734 0.034672424 -0.06423972 -0.0052298005
0000d0 65 14 05 bd bc 57 0f 3d e6 82 96 bb f1 8c 0e bc
       -0.032490153 0.03499578 -0.004593241 -0.008700595
0000e0 36 bb 10 3d 07 9d 27 bd 86 52 10 bd 87 05 21 bd
       0.03533479 -0.040921237 -0.03523495 -0.039311912
0000f0 5e ff 97 bd 93 d3 e8 bc ed dd 08 3c 1d b3 12 3d
       -0.07421754 -0.028421199 0.0083536925 0.035815347
000100 75 98 1b 3c d2 50 c8 bc 3c 50 c1 bd 3f e1 a8 bb
       0.009496798 -0.0244526 -0.094391316 -0.0051538046
000110 78 0e 32 bd 74 c4 03 3d 1e 82 51 3d a9 58 ce bc
       -0.04347083 0.032169774 0.05114948 -0.02518876
000120 f3 ce fb 3c 17 1b 26 bc d0 10 32 bc 1e 07 1e bd
       0.03073833 -0.010138295 -0.010868266 -0.038581006
000130 59 83 50 3c ec 93 73 bd e0 ed ce 3c 57 ad 30 3c
       0.012726628 -0.05946724 0.025259912 0.010783515
000140 25 2e 08 bd f7 a0 bd 3c 68 33 36 bd 0f 52 3d 3b
       -0.03324713 0.023148043 -0.04448262 0.0028888022
000150 a1 23 45 bd 61 c8 ce bc 4e 54 14 bc 35 18 0e bd
       -0.04812968 -0.025242032 -0.009053303 -0.034691054
000160 1b c0 e2 bc cf 33 a8 bb e8 22 bf bd 8a 1e 53 bd
       -0.027679494 -0.005133129 -0.0933283 -0.051542796
000170 13 38 6b bc 82 64 db bc 1a fa d0 bc 9c 55 0f be
       -0.014356631 -0.026781324 -0.025509883 -0.13997501
000180 23 65 ea bb 1d c9 86 bc b1 fe 40 bc 9b 83 ea bc
       -0.0071531697 -0.01645332 -0.011779473 -0.028627208
000190 fb 6e 6f bc 2a fe 5a bb f6 b9 24 3d 5f 66 3d 3c
       -0.014613862 -0.0033415654 0.04021641 0.011560052
0001a0 c1 e7 c2 bb 62 20 d1 bc bd 69 8c bc 0a 48 e3 3a
       -0.0059480374 -0.025528137 -0.017140264 0.0017340195
0001b0 a5 f5 86 bc 77 ea 37 3b ee bb 16 be 27 8f ae bd
       -0.016474554 0.0028063336 -0.14720127 -0.08523398
0001c0 17 19 37 3c 78 3c 3b bb 01 e9 47 bd 75 96 93 3c
       0.0111754155 -0.0028569978 -0.048806194 0.01801608
0001d0 31 96 47 bd bf fa 2a bd 95 ef 0d bd 55 ba 80 bc
       -0.048727218 -0.041743036 -0.03465231 -0.01571385
0001e0 28 42 3f bc e5 00 9b 3c 20 3c 43 3c d2 70 54 bb
       -0.011673488 0.018921325 0.01191619 -0.003241588
0001f0 7c cc 07 3d 94 01 72 bc 0d 84 0b b9 74 ca 02 3d
       0.033153996 -0.014770884 -0.00013305266 0.031931356
000200 ad 2d 9c 3c 9e 75 16 bd 4b e2 74 3c 4d 95 05 bd
       0.019064749 -0.036733262 0.014946531 -0.032613087
000210 b6 90 2e 3c 79 f3 42 bd 41 9d 5d 3c 41 38 40 bd
       0.010654619 -0.047595475 0.013526262 -0.046928648
000220 d8 25 b8 bb ad 32 97 3c ad 65 1b 3d 67 1a 36 3c
       -0.0056197457 0.018456781 0.037938762 0.011114693
000230 f6 dc 9a ba f7 cb ba 3c 38 f1 20 bc b3 e0 f7 3c
       -0.0011815119 0.022802336 -0.009823136 0.030258512
000240 dc 0c 03 3d ee 11 2a 3c 1a 2d ee 3c b0 2e 39 bd
       0.031994686 0.010380251 0.02907424 -0.04521054
000250 b4 e0 f7 bc 9c 93 f8 bc 27 04 28 bc 72 a6 d6 bc
       -0.030258514 -0.030343823 -0.010254896 -0.026202414
000260 9b 42 00 bc 4f 64 bb 3b 07 af 24 bc 57 a9 39 3c
       -0.00782838 0.005718745 -0.010051495 0.011331878
000270 05 16 18 3c b2 48 d6 bb 3f 43 ba 3c 45 df 04 bd
       0.009282594 -0.0065394277 0.022737144 -0.03243949
000280 6f 67 bb 3c 9b 0b 7e 3c 75 7f 82 bc 96 91 be 3c
       0.02287647 0.015505697 -0.015929917 0.02326278
000290 9d bf 12 3d 62 aa 6c 3c 35 5a 1c 3c 47 d7 2f bc
       0.035827268 0.014444919 0.009542991 -0.010732478
0002a0 f0 e3 39 bc b7 2f 21 bd 37 ec be 3c 09 6b 40 bd
       -0.011345848 -0.039352145 0.023305995 -0.046977077
0002b0 36 e4 9e bc 5e 77 1d bd 64 ef 06 3d e3 4b e9 bc
       -0.019395929 -0.038443916 0.032943144 -0.028478568
0002c0 7b e0 73 3c f5 47 05 bd 22 01 d1 bc cb 4c 76 3b
       0.014885063 -0.032539327 -0.025513235 0.0037582393
0002d0 60 03 da 3c 81 73 4c bd 10 94 cb 3b 9d 35 10 3d
       0.026612937 -0.04991484 0.006212719 0.03520738
0002e0 ed dd 08 bd c9 a4 46 bd e7 78 20 bd 2e ae 91 bc
       -0.03341477 -0.048496995 -0.0391778 -0.01778325
0002f0 93 c0 e7 bc 3e b5 a7 3c 27 76 2e bc 56 a8 1c bd
       -0.028290069 0.020472165 -0.010648287 -0.038246475
000300 09 54 48 bd 27 bf 3f 3b 58 b4 33 bd 4b 29 fe 3c
       -0.048908267 0.0029258223 -0.04387316 0.03102555
000310 0a ae 6b 3b a4 e7 00 3d 45 f8 84 bc 31 c4 d0 3c
       0.003596189 0.03147091 -0.016231665 0.025484176
000320 d0 ed 3b bd b4 6b 7e 3b 84 a1 87 bc a9 8c d6 bc
       -0.045881093 0.003882152 -0.016556509 -0.026190119
000330 68 66 ba 3b f0 4c 35 3d bb e8 fb bc 91 03 48 3c
       0.0056884773 0.044262826 -0.030750623 0.012207882
000340 e9 1e 48 3d 7c a8 f4 3c d1 c5 4a 3c 58 b0 3c 3c
       0.048857603 0.029865496 0.012376265 0.011516653
000350 48 30 b6 3c 11 c7 cf 3b e1 3e ce 3c 3f 05 23 3d
       0.02223982 0.0063408692 0.025176467 0.039799925
000360 d3 9d f2 bc b4 de 88 bc e6 70 19 3d 85 78 12 bd
       -0.029616272 -0.016707756 0.037461184 -0.035759468
000370 4d 5f 0e 3c ac 6b 81 bc b6 1c 00 bd 75 c4 03 3d
       0.008689714 -0.015798412 -0.03127738 0.032169778
000380 7d 48 84 3c 95 54 12 bd ee f1 a6 bc 2d aa 01 3b
       0.016147846 -0.035725195 -0.020379033 0.001978527
000390 47 8b ab 3c 4f a2 00 3d 5d dd 0c 3d 18 9b b2 3c
       0.020940436 0.03140479 0.034390796 0.02180247
0003a0 9b d0 f2 bc e1 d0 d7 bc f0 5e cb bb df 5f 23 3d
       -0.029640486 -0.026344718 -0.006206386 0.03988635
0003b0 92 73 5f 3b 3b d5 78 bc be 39 14 3d 36 a0 eb 3c
       0.0034095985 -0.015187557 0.03618788 0.028762918
0003c0 a2 6b c2 3b ee 60 1c 3d 90 7e 36 bc 98 60 88 bc
       0.005933241 0.038178377 -0.011138573 -0.016647622
0003d0 4d e0 13 bd b3 12 c1 bc d6 fb 0a bd ff a8 a7 3c
       -0.03610258 -0.023568487 -0.033931576 0.020466326
0003e0 a9 3d 09 bd e9 ea ab bc a5 31 f2 3d a2 9c db 3d
       -0.03350607 -0.020986037 0.11825875 0.10723235
0003f0 10 2c 8b 3d 8d 05 94 3e f9 66 32 bd 9a f6 5b be
       0.06795514 0.28910485 -0.043555234 -0.2148079

fc_s.bias f4 [64]
000000 94 ae 15 3d a8 d3 a0 3d 37 bb a9 bd f9 a1 c1 bc
       0.036543444 0.0785287 -0.082876615 -0.023636805
000010 81 fc ca bd e7 4f 86 bd 13 9f 77 bb ad b2 0a be
       -0.099114425 -0.06558209 -0.0037784025 -0.13544722
000020 62 6a f9 3d 57 bc 21 bd e3 d4 67 bd 31 e8 50 bd
       0.12178494 -0.039486255 -0.05659951 -0.051002685
000030 7b ca 04 be 59 37 4c bd fc a9 fa bc f9 f5 50 3e
       -0.12967865 -0.04985747 -0.030598633 0.20406331
000040 3b a0 a4 bd 54 d5 a6 3d 27 12 ae bd ed 18 3b bd
       -0.08038374 0.08146158 -0.08499556 -0.045678068
000050 ab 50 a6 3e b3 58 01 3e 66 6b da bd c4 3b 8c be
       0.3248342 0.12631492 -0.10665016 -0.27389348
000060 fc 52 8c 3d b9 03 1b 3d 06 c7 71 3e a2 f1 97 bd
       0.068517655 0.037845347 0.23611078 -0.07419135
000070 a8 8e 79 bd c9 23 cf bd 65 d6 c1 bc 4b 96 24 3c
       -0.060927063 -0.10114247 -0.023661802 0.010045598
000080 d7 80 22 3d 15 06 84 bd ec 4e 1b bc 3b d0 0c be
       0.039673652 -0.064464726 -0.009479266 -0.13751309
000090 eb df 8d bd a4 67 f4 bb 81 f9 26 3e 9a a3 d4 bd
       -0.069274746 -0.007458644 0.16306116 -0.10382767
0000a0 58 18 91 bd 67 21 98 3e 34 95 b0 3e 28 73 bc 3c
       -0.07084721 0.29712984 0.34488833 0.02300413
0000b0 f1 5d c7 bb ce 29 99 bd fd 41 83 bc f1 04 97 3b
       -0.0060841967 -0.07478677 -0.016022677 0.0046087434
0000c0 d4 f3 99 bd 4c 4e 9a 3e 23 0c 77 3e 8f 03 af bd
       -0.0751721 0.3013786 0.24125724 -0.085456006
0000d0 99 6d c4 bc 0b 80 2e 3e f3 fb 0c 3e c2 8f a9 bd
       -0.023978041 0.17041032 0.13767986 -0.08279373
0000e0 62 fb 98 bc 0d ba 19 be 77 5a a5 3c 94 01 bf bd
       -0.018674556 -0.15012379 0.020184739 -0.09326473
0000f0 f5 55 89 bb b7 98 24 3d a7 13 56 bc 3e 9c a7 3b
       -0.004191155 0.040184703 -0.013066209 0.005115061

fc_a.weight f4 [64, 3]
000000 2d 95 e7 3d a6 bf e8 3e b8 de 01 bf d1 8b 20 be
       0.1130775 0.45458716 -0.50730467 -0.15678336
000010 8f e3 2b bd 0a 79 05 bf 45 ec 06 3f 19 47 d8 be
       -0.041965064 -0.52137816 0.5270427 -0.42241743
000020 3f 15 09 bf 03 e6 f1 bc c3 78 51 be a5 a3 4c be
       -0.53548044 -0.029528623 -0.20456223 -0.199843
000030 3c 0b f6 3e ac e4 d7 be 73 d5 41 bf be 87 8b bf
       0.48055446 -0.4216665 -0.7571632 -1.09008
000040 65 9d 91 3e 76 ad 75 3e 04 e1 10 3f 5f 30 06 3f
       0.28440395 0.23991951 0.56593347 0.5241756
000050 28 50 50 be 85 f6 76 3e 32 0a 97 3e bb c5 13 3f
       -0.20343077 0.24117477 0.29499966 0.5772359
000060 6a 60 1d 3e 2e 61 c8 3e 81 da 01 be f1 bf 97 be
       0.1536881 0.39136642 -0.12681009 -0.29638627
000070 db 30 e4 3d bb 70 9c bd a3 1a 39 3e 11 e8 24 3d
       0.11142131 -0.07638689 0.18076567 0.04026038
000080 c2 bd 0a bf 63 31 0d bf df 43 45 3e 45 7a ad 3e
       -0.541958 -0.55153483 0.19264172 0.33882347
000090 18 a3 e8 be 3b 26 c4 3e 40 02 80 3e 79 d5 51 be
       -0.4543693 0.38310418 0.25001717 -0.2049159
0000a0 5b 93 6e be fe 37 26 3f 49 15 b8 3e ce 15 ef 3d
       -0.23298399 0.6492919 0.3595374 0.11674081
0000b0 6c 1f 57 bc 45 ba 32 be 40 e0 a8 3e 69 35 a6 bd
       -0.01313005 -0.17453869 0.3298359 -0.08115656
0000c0 e2 a6 fe 3e e0 98 10 bf ce 17 88 be dd 68 e5 be
       0.49736696 -0.5648327 -0.26580662 -0.44806567
0000d0 ce 8f af be ec 62 f7 3d f6 cc 0f 3f a4 94 9a 3e
       -0.34289402 0.12079415 0.5617212 0.3019153
0000e0 25 b5 31 be aa e8 f2 bc 73 7d 80 bd ce 20 9c be
       -0.17354257 -0.029651958 -0.062739275 -0.30493778
0000f0 6e ad 0f be 46 89 0e 3f 5a 6c aa 3d b8 e6 ad bd
       -0.14031002 0.5567821 0.08321448 -0.08491272
000100 77 da 8f 3e 32 bb 98 be 56 30 7d be 0a 25 aa be
       0.28096363 -0.2983032 -0.2472547 -0.33231384
000110 91 39 02 3f 66 ed 10 bd 7e 31 81 be 58 19 e4 be
       0.5086909 -0.03538265 -0.25233072 -0.44550586
000120 99 c4 a7 3e 95 1d bf be 61 af d6 bd ca 0d ed bd
       0.3276718 -0.37327257 -0.104826696 -0.11574896
000130 75 59 d2 bc 31 15 a8 bc 1c ea a7 bd 72 41 d2 be
       -0.025677422 -0.020517917 -0.0819895 -0.41065556
000140 18 df c8 3e 8d cf 0c 3e 44 86 fe bd b9 13 9c be
       0.39232707 0.1375105 -0.12427953 -0.30483797
000150 9d 98 c8 3e 9a da 99 bd 59 f9 95 bd 07 91 f5 3e
       0.39178935 -0.07512398 -0.0732295 0.4796221
000160 37 95 86 3e 5c 74 86 3d be fc 04 3d db b2 f8 be
       0.26285717 0.065651625 0.032467596 -0.48573956
000170 73 e0 0e 3f 22 0c e2 be 82 fb df be 09 40 68 3e
       0.5581123 -0.44149882 -0.43746573 0.22680677
000180 d4 bf 37 3d 79 ae a0 3b 4c aa 06 bf 25 8c 2b be
       0.044860676 0.0049036113 -0.526036 -0.1675268
000190 82 91 0d bb 7b 8f de 3e 0b b3 05 bf 02 54 9c 3d
       -0.0021601622 0.43468842 -0.5222632 0.07633211
0001a0 73 4b a1 be cc 0a af 3e 2e 05 a0 bd 15 8e 0a 3f
       -0.31502876 0.34187925 -0.07813488 0.5412305
0001b0 1a 38 10 3d ef 27 e7 3e 95 84 19 bd 43 77 74 3d
       0.035209753 0.45147654 -0.037479956 0.05968405
0001c0 19 2e d9 3b 2f 48 bb 3e c3 fa 56 be 23 92 0e 3f
       0.0066278097 0.3657851 -0.20994096 0.55691737
0001d0 09 0f 9c bd b7 20 e6 3d 08 84 12 bd c3 9a e8 bc
       -0.07620055 0.112367086 -0.035770446 -0.028394109
0001e0 1e 22 12 bf 4b 45 c1 3d 9c ca 2d 3d 64 88 59 bd
       -0.5708331 0.09437045 0.04242955 -0.053108588
0001f0 ce 85 03 bf cb af ca be ec e0 24 bb a6 86 7b be
       -0.51376045 -0.39587244 -0.0025158478 -0.24563083
000200 30 19 9a ba c6 17 fe bb 05 c0 cc 3e b2 e4 b9 be
       -0.0011756774 -0.007754299 0.3999025 -0.36307293
000210 8d ac a2 be 55 a8 1a 3f 1a 5a fb 3d 1b a9 9e be
       -0.3177227 0.60413104 0.12273045 -0.30988392
000220 9f 6d 2c 3e 1f 54 bc 3e 5c ff 3f 3e 0e d4 9f 3d
       0.16838692 0.3678293 0.18749756 0.07804118
000230 e8 d2 0c bb 78 cc 15 3e 49 0f ac be 8e b3 ee be
       -0.0021488015 0.1462878 -0.33605412 -0.46621364
000240 e1 a5 04 bf 5e c0 0f bf 71 c6 b5 be 14 3e c1 be
       -0.5181561 -0.56152904 -0.3550296 -0.37742674
000250 a1 34 c9 be b1 b9 0d bf 1b 7b ad 3e fc 4c c4 3c
       -0.39297965 -0.5536147 0.33882985 0.02396249
000260 34 70 44 be 48 ca c6 3e e6 e5 b1 3e d8 fb e9 be
       -0.19183427 0.38826203 0.3474571 -0.45699954
000270 a8 f0 7c bd 54 32 b0 be 0b 3e 1f 3f 7e 20 47 3d
       -0.061752945 -0.34413397 0.62204045 0.04861497
000280 fb 28 c6 be 71 1a f2 bd 37 e8 db be 05 5f 27 be
       -0.3870314 -0.118214495 -0.42950603 -0.16344841
000290 8d b9 1e bd e9 39 99 be 60 54 af 3e 33 68 05 3f
       -0.038751174 -0.29926994 0.3424406 0.5211212
0002a0 b2 9b 1b 3e 7d d2 e8 3d 30 3a 03 bf c1 c7 0c be
       0.15196112 0.113682725 -0.5126066 -0.13748075
0002b0 12 16 8e 3c 16 ea 36 3e 3f 17 ed bd aa 7f f2 3e
       0.017344508 0.17862734 -0.115766995 0.47363025
0002c0 00 20 dc 3c 19 cb fd 3d da 13 48 3e ad 5a aa bd
       0.026870728 0.123922534 0.19538823 -0.08318076
0002d0 af 13 65 bf a9 a2 9b 3e d3 73 0e 3f e8 0f b3 3e
       -0.8948316 0.30397537 0.55645484 0.34973073
0002e0 af 02 84 be 6d fd 03 be 23 0d 18 be 94 55 57 be
       -0.25783297 -0.12889643 -0.14848761 -0.21028739
0002f0 35 66 b1 3b 5d 8f 30 be 42 4e 70 3e 09 0f 86 3e
       0.0054137954 -0.17242189 0.23467353 0.26183346

fc_a.bias f4 [64]
000000 04 cf 02 bf f2 63 5f be 9d f3 c8 be ba 5d 7b be
       -0.5109713 -0.2181547 -0.39248362 -0.24547473
000010 f2 e0 ae 3e 89 e4 ce bd df 02 a4 be 19 49 c3 be
       0.34155995 -0.10102183 -0.3203344 -0.38141707
000020 08 11 43 3e 10 06 b4 be 6c a1 ad be 22 43 03 bf
       0.19049466 -0.35160875 -0.33912218 -0.5127431
000030 e1 f0 94 3e 27 c3 68 3e f6 1a eb be 4c ac a0 3d
       0.29090026 0.22730695 -0.45919007 0.07845363
000040 64 be 58 bd 5d 9c 05 bf 8c ed b5 be 42 aa 5a be
       -0.052915946 -0.52191716 -0.35532796 -0.2135401
000050 1b bf f6 be 56 d0 c2 be d5 4a d4 3e e4 69 21 3f
       -0.48192677 -0.38049573 0.41463342 0.630522
000060 e3 0b d5 be bf df c3 be 84 af 74 be 7a 39 0e be
       -0.4161063 -0.38256642 -0.23895079 -0.13889113
000070 21 cc 35 3f f5 60 fd be 1e 47 42 3e fe 1a f7 be
       0.710146 -0.49488035 0.18972442 -0.4826278
000080 9a f7 8c bd 83 56 2c 3f 34 ea 16 be 8e 77 1c 3f
       -0.06883164 0.67319506 -0.14737779 0.61119926
000090 56 04 ba 3e 93 75 67 be 1e 49 38 3e c4 a3 f3 3e
       0.36331433 -0.22603445 0.17996642 0.4758588
0000a0 0d ce d7 be 50 b7 36 be a6 22 3c be 25 e6 14 3f
       -0.42149392 -0.17843366 -0.18372592 0.5816367
0000b0 7c 82 20 3f fd d6 d2 3d de 19 5c be 79 15 d2 3e
       0.62699103 0.10294912 -0.21494243 0.41032007
0000c0 ce d2 04 bf b5 fc ee be e9 33 b8 3e 1c aa f9 3e
       -0.5188416 -0.46677175 0.35977104 0.48762596
0000d0 9f d2 f4 3e 76 41 8e be b4 a7 be be d0 50 5f 3e
       0.4781694 -0.27784318 -0.37237322 0.21808171
0000e0 79 8d a8 3e 0f 17 23 3f 82 5e 05 3f e8 1b 36 3f
       0.32920435 0.6370706 0.5209733 0.7113633
0000f0 73 b5 7d be 96 91 e8 bd 1f a4 c1 3e 5a 84 01 bf
       -0.24776249 -0.11355893 0.37820527 -0.5059258

fc_q.weight f4 [32, 128]
000000 5f 06 b4 bd c9 1a c4 bd f2 c3 e8 3c 54 57 84 3d
       -0.08790278 -0.09575421 0.028413747 0.06461969
000010 15 73 8f bc da cb 05 3d 7e 04 a0 bd ec eb 0e 3d
       -0.01751093 0.03266511 -0.07813357 0.03489296
000020 1f 52 82 bd 37 28 35 3b f8 5d c4 bc c9 f6 c9 bc
       -0.063633196 0.0027642378 -0.023970589 -0.02465381
000030 44 9f fe bd 1d a1 15 bb 17 c8 b7 3d 09 6b 33 be
       -0.12432721 -0.0022831627 0.08973711 -0.175213
000040 10 62 4f 3c dd 3a 0c bd cd cc 9b bd 39 71 46 3d
       0.012657657 -0.034235824 -0.07607422 0.04844782
000050 57 92 a8 bc d9 26 31 be 9e 39 20 3d 53 e7 6c bc
       -0.020577593 -0.17299975 0.039117448 -0.014459449
000060 0a 43 e8 bc 03 b8 e4 bb fe 0e 18 be 7f 20 ac 3c
       -0.02835228 -0.0069799437 -0.14849469 0.02101159
000070 19 74 c5 bd cf 8c ae 3c 28 00 4a 3d da bd d9 bb
       -0.096412845 0.021307377 0.049316555 -0.0066449465
000080 c4 85 fc bc 63 75 79 bd 69 36 5b 3d 1b b8 de bd
       -0.030825503 -0.060902964 0.053518686 -0.10874959
000090 ce 42 99 bd d6 be 92 bd 45 df 04 3d 63 57 7e 3d
       -0.07483445 -0.07165305 0.03243949 0.062095057
0000a0 5b e6 7e 3d 67 54 3d bc 8f 2d 28 bc d8 ad cb bb
       0.062231403 -0.011555768 -0.010264768 -0.006215792
0000b0 06 7d 24 3d 89 57 56 3b ea 22 58 3d b1 d2 58 bd
       0.040158294 0.0032705984 0.05276767 -0.052935306
0000c0 ed c9 9c bd a3 8d 76 3b bf b5 29 be 5e c1 99 bd
       -0.07655702 0.0037621043 -0.16573237 -0.07507585
0000d0 78 4a 41 bd 41 46 46 bd 0f 10 2f 3a 39 83 53 3c
       -0.04719016 -0.048406843 0.0006678113 0.012909704
0000e0 56 12 d7 bc db ac 96 bd d2 56 d0 bd 97 73 2a 3d
       -0.02625386 -0.07357188 -0.1017281 0.04161414
0000f0 38 59 b1 bd e3 82 7d 3d 5d a8 80 3c d8 e6 4e bd
       -0.08659595 0.0618924 0.015705282 -0.05051312
000100 03 51 b1 bd d5 e7 61 3c e0 66 69 bc ff 8d 3b 3d
       -0.0865803 0.013788183 -0.014245719 0.045789715
000110 0b 20 1d 3d 5e 65 ee bc b9 4b 7b bc e3 f6 01 be
       0.038360637 -0.02910107 -0.015337878 -0.12691836
000120 5a 31 85 bd 1d f6 90 3d 20 d2 0c 3d 9c 2d 92 3d
       -0.06503554 0.070781924 0.03438008 0.071376055
000130 3d 4e b0 3c 23 ac 55 be b1 79 43 bd 73 80 23 3d
       0.021521682 -0.20866446 -0.047723476 0.03991742
000140 d1 0a a3 3d 31 52 a3 3d d4 37 f2 3c 14 ff e5 3c
       0.079610474 0.07974661 0.029567637 0.028075732
000150 2a 56 42 bd f7 94 ff 3c 7d 6f 1a be da 09 e5 bc
       -0.047445454 0.031198962 -0.15081592 -0.0279588
000160 ac ba 79 bd 3b 62 b0 bd eb 19 89 bd 2a da 61 bd
       -0.06096904 -0.08612486 -0.066943966 -0.055139698
000170 27 57 04 3d bb e5 31 bd 24 56 79 bc 82 a3 5b bd
       0.032309677 -0.04343198 -0.015218291 -0.05362273
000180 9c 51 49 3d 91 33 57 bc 82 17 25 bc 50 dd 18 3d
       0.049150094 -0.013134853 -0.0100764055 0.037320435
000190 09 e6 e7 bd eb 0d 68 bd 6a a9 c7 bd 52 73 f4 3c
       -0.113231726 -0.0566539 -0.0974911 0.029840145
0001a0 3e 2a 8c bd 68 30 3f bd de df ca bc ef df c1 3c
       -0.068439946 -0.046677023 -0.024764951 0.02366635
0001b0 11 fc 79 3c d6 39 18 bd de d2 7b bd 57 b0 bd bd
       0.015257851 -0.03716453 -0.061480395 -0.0926215
0001c0 75 33 84 bb f9 40 a7 bc aa 28 02 bd 3c 85 aa 3c
       -0.0040344545 -0.020416724 -0.03177706 0.020815484
0001d0 14 9c 4c bd 48 5f 87 bd e5 2c 08 3b 44 dd 3b bd
       -0.049953535 -0.0660997 0.0020778712 -0.045865312
0001e0 61 09 33 3d 4a 07 12 3d 64 af 39 bc f7 d0 46 bd
       0.043710116 0.035651483 -0.01133332 -0.04853913
0001f0 fa 81 28 bd ca 1a 2f 3d d2 b0 bc bd 51 49 83 bb
       -0.04113958 0.042750157 -0.09213413 -0.0040065427
000200 31 61 54 3c 53 87 e3 bc b7 80 1c bd 37 b3 22 bd
       0.012962625 -0.027774489 -0.03820869 -0.039721694
000210 d4 76 85 3d cc 53 80 bd 17 ec b1 3c 8a a4 19 bd
       0.06516805 -0.06265983 0.021719022 -0.037510432
000220 84 f8 26 bc 14 32 85 3c 96 84 23 3d dd a5 0f bd
       -0.010191087 0.01625923 0.039921366 -0.03507029
000230 65 8a 1b 3c 4a e5 67 3d 2f a7 af 3d 25 01 1c 3d
       0.009493445 0.05661515 0.085768096 0.03808703
000240 b0 45 b1 bb 7f db aa bd 89 52 db 3c 11 40 c0 bd
       -0.0054099187 -0.08342647 0.026772754 -0.0938722
000250 e3 47 72 3d 00 6a 3f bd d5 98 10 3d 65 49 11 3d
       0.059150588 -0.04673195 0.035302002 0.035470385
000260 db bd f2 3c 50 0b ce 3a f8 00 ac bd 1f c1 97 3d
       0.029631546 0.0015719924 -0.08398622 0.07409882
000270 49 38 d6 3c f6 c2 96 bd 29 31 c6 bc 18 db b8 bd
       0.026149886 -0.073614046 -0.024193363 -0.09026164
000280 5d f3 80 bd ab 5d 1c bb c4 bb 73 bc cd d2 01 bd
       -0.06296418 -0.0023859541 -0.01487631 -0.031695176
000290 4e 40 28 3d fa 35 ec 3c a1 8c c0 bd 50 fa e8 bc
       0.04107695 0.028834332 -0.09401823 -0.02843967
0002a0 b5 d9 8d bc 29 bb c8 bc a3 ba 62 bd b4 a4 97 3d
       -0.017315725 -0.024503307 -0.055353772 0.074044615
0002b0 7c 76 74 bd 2f 8e 4c bd b2 02 51 bd 93 56 68 bd
       -0.059683308 -0.049940284 -0.05102796 -0.05672319
0002c0 d6 fd 94 bd 94 42 0d bd dc 4f 8b bd a4 ef 87 3c
       -0.07274978 -0.034487322 -0.06802341 0.016593762
0002d0 2e b1 1d bd f4 3b 07 3d ed cd 8c bd c3 9f 67 bd
       -0.03849905 0.03301616 -0.06875215 -0.056548845
0002e0 d4 eb fe bc 28 13 4b 3d f0 af b1 bd 28 19 b1 bd
       -0.031118311 0.049578816 -0.086761355 -0.08647376
0002f0 e3 0b fc 3c d7 20 a4 bc 30 6c 4e 3d 8f f9 38 3d
       0.030767387 -0.02003519 0.050396144 0.045159873
000300 ec 75 67 3d 3e 70 11 bd 99 7c 58 3c 84 7b b0 3d
       0.056508943 -0.035507433 0.0132133 0.08617309
000310 77 94 3d 3c af 6a b0 bd b5 6c 9b 3c 7f 82 a4 bd
       0.011571041 -0.08614098 0.018972734 -0.08032703
000320 f7 e7 ad bd c7 2c af bc 00 43 15 bd d2 84 36 3c
       -0.084915094 -0.021383656 -0.03644085 0.011140065
000330 3a 9a ed 3b cf a1 37 3d d6 4f 70 bd eb 9a 76 3a
       0.0072510513 0.044832047 -0.058669887 0.000940724
000340 66 c4 6c bc fd 0b 00 3d d4 5f 0e 3d 26 ef 1d bd
       -0.014451122 0.031261433 0.034759358 -0.038558148
000350 00 5e 9f 3d 20 59 97 bd 80 6e b8 bd d5 7b 99 3d
       0.07781601 -0.07390046 -0.09005451 0.07494322
000360 5b f3 46 bd 6f 81 26 bd ad d3 89 bd ed 3f 9c bd
       -0.048571926 -0.04065078 -0.06729827 -0.076293804
000370 dd 57 9c 3d 4d 4b 5c bc ee 77 19 bd 6d 7c 55 bd
       0.07633946 -0.0134456875 -0.03746789 -0.052120615
000380 c7 8e 3c 3d 48 7c ba bd ea b4 b2 bd 70 5e 30 bd
       0.0460346 -0.09105736 -0.08725913 -0.043058813
000390 c8 11 b9 bd 2b 75 9a 3d 84 25 0b 3d 2d 54 87 bc
       -0.09036595 0.07541879 0.033971325 -0.01651963
0003a0 c2 77 2a 3d 3f 02 ac bd 3e 93 97 3d 4c 13 8a 3d
       0.041618116 -0.08398866 0.07401131 0.06741962
0003b0 f6 91 9a bd 21 35 68 bd 3b e6 b9 3c 05 44 6f 3c
       -0.07547371 -0.056691293 0.02269279 0.014603619
0003c0 87 e3 8c 3c 9c ed b1 bc d2 de 63 3d 53 fe fd 3b
       0.017198337 -0.021719746 0.05563242 0.007751265
0003d0 89 0d 41 bd df 75 23 3b 81 7f 9f bc ea ed e4 3c
       -0.04713205 0.0024942083 -0.019469978 0.027945478
0003e0 2e 64 2e 3c a5 c8 81 bd 85 b8 98 3b a5 79 8a bd
       0.010644002 -0.06337098 0.0046606683 -0.06761483
0003f0 43 4c 5a bd 11 33 8f bc 99 96 52 bd 30 b6 8a bd
       -0.053295385 -0.017480405 -0.051413152 -0.06773031

fc_q.bias f4 [32]
000000 59 f3 05 3d 3a b6 60 3d 9f 31 ba bd af 58 28 3e
       0.032702778 0.054861285 -0.09091496 0.1644008
000010 f6 1a 19 bd e9 f1 db 3c 1f d1 26 bc 3a c8 8a 3e
       -0.037379228 0.02684875 -0.010181694 0.27105886
000020 2b bb b8 bb a9 57 ef 3d 5b 29 17 3e cf b1 62 bd
       -0.0056375465 0.11686642 0.1476187 -0.055345353
000030 6f b5 c3 bd 05 3a 1b 3e 02 05 54 bd 0a 7d d6 bd
       -0.0955609 0.15158851 -0.05176259 -0.10473068
000040 1c fc 8a 3c e6 a8 17 3c 71 c5 23 3e 95 a4 36 3e
       0.016965918 0.009256577 0.15993287 0.1783622
000050 5e 2a 95 bd 48 41 c8 3c d4 3d 8d 3e 31 cf 4a bd
       -0.072834715 0.024445191 0.27586234 -0.049514
000060 5c 14 09 3e df c4 a7 bd ee 4f 43 3d c8 67 3d bd
       0.13386673 -0.08191847 0.04768365 -0.04624155
000070 a5 a9 82 bc 83 f8 a8 3d 42 82 55 bd 73 2d e6 bd
       -0.015950033 0.08250525 -0.052126177 -0.112391375

fc_out.weight f4 [1, 32]
000000 a7 c1 0f 3d 1d e1 82 bb 4e 4e 48 3d 75 02 7b bd
       0.03509679 -0.0039941208 0.048902802 -0.06128164
000010 b2 db e3 3c 45 03 98 ba 43 2f 67 3c 23 d7 dd be
       0.02781472 -0.0011597654 0.014110389 -0.433282
000020 0b 34 88 3d 22 23 b1 bd 54 64 1c be dc 17 09 bc
       0.066505514 -0.08649279 -0.15272647 -0.008367505
000030 5f c4 58 3c 58 e3 cc bd e2 c9 ed 3c 42 d2 69 3c
       0.013230412 -0.100043 0.02902693 0.014271321
000040 4b c5 e4 3c 63 d4 f4 3d f7 22 bb bd 00 9f a5 be
       0.027926108 0.11954572 -0.091375284 -0.3234787
000050 74 d1 05 3e bc ec 72 3c 97 f8 79 be a0 91 bb 3a
       0.13068181 0.01482695 -0.24411236 0.0014310367
000060 26 2a ef bc 99 9c d1 3d 46 73 09 be 30 2e 0b 3c
       -0.029194903 0.10234947 -0.1342288 0.008494899
000070 f4 62 74 bc b2 ad 6c be 76 32 2c be 6e e4 22 3e
       -0.01491617 -0.23113135 -0.16816124 0.15907452
