LIRL results/baseline/hyar_vae_multi_run_20250831_172655/run_7_seed_42/hyar_vae_policy_20250831_172655.pth (torch, 587061 bytes, 6 tensors)

fc1.weight f4 [128, 1007]
-0.023750618 0.007424322 0.039550163 0.058734804 0.082425 -0.08844004 -0.022721414 -0.043465108
-0.008936483 -0.02080363 -0.07087172 -0.0254301 -0.041816376 -0.033409514 -0.020448536 -0.05848564
-0.08893696 -0.07144216 -0.032568984 -0.046421092 -0.052145 -0.024575992 -0.05466655 -0.030255143
-0.047727704 -0.03568752 -0.040764403 -0.08631252 -0.07430099 -0.026906328 -0.08561627 -0.07127135
-0.024067493 -0.0065507716 -0.01611388 -0.06366817 -0.08784893 -0.11753118 -0.13889427 -0.15098514
-0.083457656 -0.09552857 -0.10296611 -0.0575452 -0.05919473 -0.12718712 -0.048888486 -0.037105873
-0.030037042 -0.06150112 -0.09273982 -0.060591217 -0.050478704 -0.036089703 -0.11112971 -0.0498589
-0.038782906 -0.024469487 -0.0037099337 -0.019482303 -0.04829598 -0.008052909 -0.037106022 -0.029005958
0.00070890144 -0.032443885 0.0031153997 -0.05748645 -0.02101834 -0.006141798 -0.010605893 -0.057915237
-0.05879033 -0.010942674 -0.03358214 -0.061052036 -0.03692055 -0.031095142 -0.017122086 -0.015572877
0.015106983 -0.0409241 0.008505129 0.019942457 -0.03873734 -0.012414054 -0.043186624 0.00026507076
-0.03313369 -0.03937734 0.033536963 0.027479338 -0.010758416 0.022061627 -0.005927717 -0.013275425
-0.0035087494 0.020054372 -0.014541618 -0.013658326 -0.0020299586 0.04225131 0.0061703953 0.031031206
0.0860691 -0.02513679 -0.0059121475 -0.011444008 0.038493086 0.01542594 -0.007493051 0.029940838
0.01616423 0.0016804028 0.04431375 0.0033718268 0.02579621 -0.015889153 -0.008568429 -0.009416094
0.0028388398 -0.011158766 -0.0058279415 0.010836701 0.016522067 -0.018578237 -0.018299773 0.025466645
0.011566158 0.001185009 0.0073268274 -0.003770112 -0.027754743 -0.016154788 -0.015357113 0.03335713
0.009286193 0.015225958 0.027439319 -0.0004431119 -0.02824243 -0.03162353 -0.0014105671 0.021413049
0.013510308 -0.014859402 0.035824463 0.0042342134 0.0030690723 0.03637276 0.028395278 -0.05909623
-0.009991424 -0.037184764 0.010674996 -0.023757063 0.020796353 0.012246937 0.018376332 -0.011896097
-0.014629358 -0.0008346446 0.006243672 0.01635768 0.0007377026 -0.008780625 0.013487982 0.029839065
0.030900046 0.05815422 -0.0016960251 0.027094526 0.0022850267 0.018548675 -0.018449226 -0.026822235
-0.025689164 -0.008715374 -0.03270155 -0.013473231 -0.052032143 0.0024171812 0.015261263 0.029608877
0.032564346 -0.04300713 -0.036907498 -0.018281827 -0.03512047 3.7345697e-05 -0.049341466 -0.032553434
0.026088404 0.018586142 -0.015625535 -0.02293649 -0.03620405 -0.005502587 -0.033541042 -0.024774665
-0.07195146 -0.045593735 -0.039189626 -0.03977818 -0.020772839 -0.07594358 -0.0046461863 -0.030905368
0.0075632147 0.034360386 -0.031999793 -0.022846581 -0.05403741 -0.031433713 -0.0059789135 -0.050123684
-0.058438174 0.0029133814 -0.04875247 -0.061155565 -0.09093634 -0.057371005 -0.031029573 -0.020616341
-0.016828895 -0.047688592 -0.068671264 -0.059847344 -0.0740357 -0.045817338 -0.08347316 -0.080296524
-0.048122946 -0.07720551 -0.075872175 -0.050978646 -0.04091753 -0.024206972 -0.019574607 -0.0014276204
-0.07060446 -0.067152075 -0.070240065 -0.07317944 -0.04327561 -0.08150075 -0.04547642 -0.03927275
-0.02408595 0.0010366043 -0.09966922 -0.08492597 -0.043268412 -0.034858055 0.00603358 -0.07266798
00000000: a890 c2bc ba47 f33b 5aff 213d e893 703d
00000010: 70ce a83d 0d20 b5bd 4222 babc 7808 32bd
00000020: 546a 12bc 606c aabc 3125 91bd c952 d0bc
00000030: a647 2bbd 6ad8 08bd b083 a7bc a38e 6fbd
00000040: 9524 b6bd 4450 92bd 0e67 05bd 0b24 3ebd
00000050: ff95 55bd 9753 c9bc 08ea 5fbd a2d9 f7bc
00000060: 207e 43bd 142d 12bd 93f8 26bd 9ec4 b0bd
00000070: 1e2b 98bd a96a dcbc 9557 afbd b7f6 91bd
00000080: 3129 c5bc dba7 d6bb 4101 84bc 7564 82bd
00000090: 24ea b3bd 30b4 f0bd 4d3a 0ebe d99b 1abe
000000a0: d9eb aabd 7ca4 c3bd e5df d2bd 84b4 6bbd
000000b0: 2c76 72bd 573d 02be 4b3f 48bd 54fc 17bd
000000c0: 3e10 f6bc 99e8 7bbd 60ee bdbd 7f2e 78bd
000000d0: c2c2 4ebd ccd2 13bd f997 e3bd d938 4cbd
000000e0: d3da 1ebd 3c74 c8bc 5c22 73bb 5a99 9fbc
000000f0: 01d2 45bd 59f0 03bc 7cfc 17bd e79d edbc
00000100: 92d5 393a e1e3 04bd bc2b 4c3b e976 6bbd
00000110: a72e acbc 2341 c9bb 57c4 2dbc 8738 6dbd
00000120: 21ce 70bd e748 33bc 6d8d 09bd b311 7abd
00000130: 013a 17bd 3dbb febc 9e43 8cbc 6125 7fbc
00000140: 4783 773c 07a0 27bd 1959 0b3c 5d5e a33c
00000150: 0cab 1ebd 5164 4bbc 75e4 30bd 32f9 8a39
00000160: 31b7 07bd 224a 21bd 0e5e 093d 591c e13c
00000170: 1144 30bc 96ba b43c 4b3d c2bb 2b81 59bc
00000180: 0cf3 65bb 1149 a43c f73f 6ebc 2cc7 5fbc
00000190: 0e09 05bb b60f 2d3d 0731 ca3b 2835 fe3c
000001a0: ff44 b03d abeb cdbc b0ba c1bb a67f 3bbc
000001b0: edaa 1d3d 15bd 7c3c 4488 f5bb 7d46 f53c
000001c0: d96a 843c f640 dc3a 5682 353d def9 5c3b
000001d0: 9352 d33c f829 82bc 9962 0cbc f645 1abc
000001e0: d40b 3a3b 42d3 36bc 51f8 bebb 6b8c 313c
000001f0: 4959 873c 6331 98bc 68e9 95bc 6d9f d03c
00000200: fc7f 3d3c 4e52 9b3a e215 f03b fc13 77bb
00000210: ea5d e3bc 0c57 84bc 679c 7bbc 7ca1 083d
00000220: 1e25 183c 4c76 793c 6cc8 e03c 7951 e8b9
00000230: ab5c e7bc ad87 01bd c7e2 b8ba 6b6a af3c
00000240: 575a 5d3c d974 73bc acbc 123d 28bf 8a3b
00000250: 7d22 493b 9afb 143d 379d e83c e30e 72bd
00000260: 12b3 23bc 0d4f 18bd 2ee6 2e3c 2c9e c2bc
00000270: 1d5d aa3c 60a7 483c f689 963c d9e7 42bc
00000280: faaf 6fbc 0dcc 5aba b897 cc3b 8b00 863c
00000290: 6262 413a 9cdc 0fbc b2fc 5c3c 0e71 f43c
000002a0: 1822 fd3c 1f33 6e3d 294d deba 57f5 dd3c
000002b0: 63c0 153b 64f3 973c d522 97bc 4eba dbbc
000002c0: 1572 d2bc eeca 0ebc 0ff2 05bd d4be 5cbc
000002d0: a81f 55bd 9269 1e3b 600a 7a3c 518e f23c
000002e0: 3162 053d 3f28 30bd 512c 17bd c5c3 95bc
000002f0: 7bda 0fbd a3a3 1c38 471a 4abd c056 05bd
00000300: 59b7 d53c f741 983c 1f01 80bc 4ee5 bbbc
00000310: b34a 14bd 0c4f b4bb 5562 09bd 3df4 cabc
00000320: 495b 93bd 7fc0 3abd 4d85 20bd 72ee 22bd
00000330: cd2b aabc 4f88 9bbd 093f 98bb 412d fdbc
00000340: d8d4 f73b 7abd 0c3d 3712 03bd c128 bbbc
00000350: 5556 5dbd a3c0 00bd c3ea c3bb 7e4e 4dbd
00000360: de5c 6fbd 6eee 3e3b acb0 47bd 427e 7abd
00000370: d53c babd dcfd 6abd bb31 febc 9ae3 a8bc
00000380: c0dc 89bc 1d55 43bd 85a3 8cbd 7d22 75bd
00000390: 07a0 97bd f6aa 3bbd faf3 aabd 8172 a4bd
000003a0: 911c 45bd ec1d 9ebd df62 9bbd fcce 50bd
000003b0: 2499 27bd b34d c6bc ed5a a0bc fe1e bbba
000003c0: 1299 90bd 0787 89bd 06da 8fbd 1adf 95bd
000003d0: c441 31bd dde9 a6bd 7c45 3abd 77dc 20bd
000003e0: e64f c5bc abde 873a 601f ccbd abed adbd
000003f0: 383a 31bd 52c7 0ebd 56b5 c53b f3d2 94bd

fc1.bias f4 [128]
-0.14269799 0.034826677 -0.083823964 0.075382575 -0.0450844 0.05783358 -0.08520755 -0.033169422
0.055904977 -0.09831764 -0.056916658 -0.05143262 -0.07275339 -0.00720166 -0.01300529 0.07680555
-0.059601147 0.007998321 0.06609472 0.095252894 -0.04980454 -0.08425035 -0.030017754 -0.0040593487
0.09644128 -0.111079246 -0.06508515 -0.11652569 0.0018383076 -0.035379905 -0.054915193 0.016756428
-0.07978705 -0.018334443 -0.08698661 -0.05573648 0.10287853 -0.16848686 -0.084543675 -0.024088684
-0.048944026 -0.061514013 -0.04123498 -0.026074983 -0.11392292 0.019097462 -0.017336259 -0.17752396
-0.005766467 0.056021582 -0.10100541 -0.045766182 0.02111415 -0.02363614 0.021802928 -0.04233669
-0.08875433 0.050488304 -0.05137115 -0.12519012 -0.017242575 -0.014186491 -0.02158128 -0.04174609
-0.056366853 0.050965082 -0.033019505 -0.08978589 0.0010219889 -0.0004333392 -0.023855733 -0.102798894
-0.018128617 0.009285838 -0.06893008 0.014461892 0.034627434 0.027723651 0.08273702 0.0019633456
-0.024058541 -0.060499325 -0.0106880125 0.017713532 -0.061526705 -0.08120002 -0.055458374 0.005532335
-0.0038117606 -0.013869713 -0.027267918 -0.042329162 -0.033878047 -0.067412555 -0.039826404 -0.0622378
-0.039235797 -0.09048384 0.028408619 -0.17239347 -0.19803879 0.05165515 -0.041584346 -0.09075043
-0.10248086 0.03660238 -0.16848634 0.008524935 -0.012045863 -0.04613703 -0.020220824 -0.08303116
-0.08319658 -0.050396238 -0.08229659 -0.14058138 -0.005419521 -0.034746934 -0.14707789 -0.056843303
-0.024957431 -0.18857686 -0.029548807 0.0018606883 -0.09692951 -0.13383114 -0.07066798 0.047522333
00000000: 6c1f 12be 6ba6 0e3d e6ab abbd 2e62 9a3d
00000010: 6baa 38bd e7e2 6c3d 4c81 aebd a9dc 07bd
00000020: 9efc 643d c25a c9bd 7121 69bd 03ab 52bd
00000030: bbff 94bd e7fb ebbb 2414 55bc 3a4c 9d3d
00000040: 5520 74bd 640b 033c ab5c 873d f313 c33d
00000050: d8ff 4bbd 738b acbd cbe7 f5bc 4904 85bb
00000060: 0183 c53d 847d e3bd 5d4b 85bd 05a5 eebd
00000070: 5ef3 f03a 85ea 10bd c1ee 60bd c744 893c
00000080: 6567 a3bd 1d32 96bc 0926 b2bd ef4b 64bd
00000090: fbb1 d23d d287 2cbe 3c25 adbd a255 c5bc
000000a0: 8879 48bd 1ef6 7bbd 03e6 28bd 349b d5bc
000000b0: 6b50 e9bd 4872 9c3c c504 8ebc d7c8 35be
000000c0: a2f4 bcbb e376 653d eddb cebd 5275 3bbd
000000d0: 95f7 ac3c 94a0 c1bc 0e9c b23c 3d69 2dbd
000000e0: d5c4 b5bd d3cc 4e3d 8e6a 52bd d731 00be
000000f0: 4d40 8dbc 756e 68bc 39cb b0bc f3fd 2abd
00000100: eee0 66bd c3c0 503d 763f 07bd aae1 b7bd
00000110: 42f4 853a ce31 e3b9 196d c3bc 3a88 d2bd
00000120: 7782 94bc a123 183c 372b 8dbd 92f1 6c3c
00000130: 7fd5 0d3d b61c e33c 0772 a93d 79ab 003b
00000140: 6b16 c5bc 24ce 77bd c61c 2fbc f81b 913c
00000150: 6d03 7cbd 324c a6bd 5228 63bd 9748 b53b
00000160: bbce 79bb cb3d 63bc f860 dfbc 5861 2dbd
00000170: b5c3 0abd 980f 8abd 0321 23bd 10ed 7ebd
00000180: b7b5 20bd 974f b9bd 31b9 e83c ea87 30be
00000190: aeca 4abe 5a94 533d 5954 2abd 5ddb b9bd
000001a0: 7ce1 d1bd 61ec 153d af87 2cbe 2bac 0b3c
000001b0: 035c 45bc 2ffa 3cbd 24a6 a5bc 3e0c aabd
000001c0: f862 aabd 496c 4ebd 1d8b a8bd 91f4 0fbe
000001d0: 3d96 b1bb cd52 0ebd 969b 16be 86d4 68bd
000001e0: 8773 ccbc 4b1a 41be 5710 f2bc 57e2 f33a
000001f0: fb82 c6bd 080b 09be 60ba 90bd c7a6 423d

fc2.weight f4 [128, 128]
0.06708691 -0.057815682 0.043921065 -0.024819449 0.016121265 0.018597098 0.12662964 -0.07117756
0.066099405 -0.09090804 -0.0056381733 -0.0073210117 0.018009115 0.012200296 0.021469867 -0.02527081
0.06751003 -0.07814149 -0.008942646 0.059378788 0.014627757 0.09341154 -0.0049122735 -0.04200633
0.023761706 0.09743909 -0.060417913 -0.02474177 -0.04638237 -0.018864611 -0.03539887 0.00209958
-0.080393516 0.02391642 0.054603647 -0.021250416 -0.17793183 0.024029866 0.03718912 -0.042556353
0.047277596 0.012898929 -0.11895638 0.0861639 -0.016621727 0.014827819 -0.11031545 -0.1373404
-0.009476319 -0.14473026 -0.061405674 -0.07187352 -0.10737793 -0.1519153 -0.07003397 0.00393807
-0.03287783 0.011824126 0.076000445 0.0040046517 -0.0007487086 0.08650028 0.092015386 0.006163754
-0.12905452 0.030440962 -0.0073720934 -0.14949058 0.021002468 -0.06341373 -0.25982386 0.0069118487
0.11822789 -0.09448555 -0.05849496 0.021122452 0.0034635502 -0.08274981 -0.04137925 0.00082230504
0.14328219 0.030426798 0.091417834 0.13344814 0.063391924 -0.03835945 -0.018480442 -0.057327013
-0.06155247 0.014988476 -0.028076623 -0.03422671 -0.048828363 0.005482807 0.005865235 0.046331324
0.0036832143 0.0729002 0.04737104 0.010653069 -0.023749087 0.05692076 0.069289 -0.052210744
0.1023085 -0.033851866 0.0022891795 0.07696603 -0.0023618941 -0.15196194 0.04114588 0.07268293
0.012496533 -0.13103227 0.03792102 0.13813986 -0.033891745 -0.17922463 0.15269406 -0.009913794
-0.05634861 0.015644744 -0.01705978 0.051552262 -0.12159709 -0.057758693 0.1080102 0.044309
-0.093410574 -0.08293727 0.11528719 -0.012830974 0.010465414 -0.109308414 0.067203805 -0.10401982
0.031308513 -0.105891645 -0.10906025 -0.027987743 -0.02333901 -0.026496528 -0.049180035 0.0079339435
0.059952926 -0.009785788 -0.06241674 0.029548688 0.09462674 0.07454344 0.05637884 0.027233869
-0.06144476 0.016841099 -0.14867452 -0.10922217 0.03749194 0.015206011 0.06944943 -0.12749705
0.12188575 -0.0012323012 -0.02888278 -0.07098616 -0.09190597 -0.11942535 -0.080092646 0.023636276
-0.034581125 0.052181166 -0.062519565 -0.053750638 0.076348394 0.07813722 0.04276184 0.054681595
-0.051544897 -0.11103397 0.08419585 -0.063336775 -0.08114006 -0.021289933 -0.11677501 -0.0815825
0.058335517 -0.096325114 0.068670586 0.07390178 0.040723365 -0.07692841 -0.054180343 0.0072494387
0.07409014 0.05779365 0.04992375 0.07439501 0.07795978 0.049726695 0.030685922 -0.07443264
0.012130864 -0.036188632 0.07094514 -0.058118988 -0.020501478 -0.09435288 -0.09155709 -0.04641653
-0.06987272 0.011388656 -0.0447565 0.025976894 -0.021049019 0.050398577 0.13292672 -0.13184717
-0.021122376 -0.070233256 -0.056488834 -0.0036039692 0.09190278 0.045537006 -0.022522002 0.031245407
0.05968961 0.007857405 -0.06377265 -0.13693635 0.029113483 0.04389778 -0.06358186 0.17791411
0.040577352 -0.02504027 0.02991462 -0.09478748 -0.1397501 0.04986604 0.05913149 0.016273187
-0.052268315 0.030206703 0.03277953 -0.016004864 0.08158137 0.07952541 0.16507202 0.11028789
0.031810455 0.033120926 0.09553252 -0.005437384 0.070514075 0.13698962 0.061035916 -0.21410409
00000000: dd64 893d 23d0 6cbd 93e6 333d 2852 cbbc
00000010: be10 843c f158 983c 33ab 013e 8ac5 91bd
00000020: 205f 873d ff2d babd 6dc0 b8bb 19e5 efbb
00000030: da87 933c c0e3 473c 93e1 af3c bb04 cfbc
00000040: b342 8a3d a508 a0bd 2d84 12bc 2c37 733d
00000050: 42a9 6f3c 8d4e bf3d 23f7 a0bb d40e 2cbd
00000060: e9a7 c23c 258e c73d c678 77bd 41af cabc
00000070: 71fb 3dbd f589 9abc 68fe 10bd 1b99 093b
00000080: 5ba5 a4bd 5eec c33c 13a8 5f3d 5a15 aebc
00000090: c333 36be 48da c43c 9e53 183d 924f 2ebd
000000a0: 27a6 413d 0856 533c 679f f3bd b376 b03d
000000b0: 4a2a 88bc 61f0 723c 11ed e1bd f6a2 0cbe
000000c0: 9042 1bbc 2b34 14be 8484 7bbd 6d32 93bd
000000d0: f6e8 dbbd af8f 1bbe f86d 8fbd ed0a 813b
000000e0: e7aa 06bd fbb9 413c 1fa6 9b3d 7439 833b
000000f0: fc44 44ba 0f27 b13d 9072 bc3d 51f9 c93b
00000100: de26 04be 535f f93c 9a91 f1bb 0f14 19be
00000110: 5e0d ac3c 0fdf 81bd a207 85be ca7c e23b
00000120: 7721 f23d a481 c1bd 6998 6fbd fe08 ad3c
00000130: bbfc 623b bb78 a9bd 4a7d 29bd f58f 573a
00000140: 91b8 123e 9f41 f93c 4639 bb3d a1a6 083e
00000150: a0d3 813d cc1e 1dbd 4c64 97bc bbcf 6abd
00000160: 711e 7cbd 3a92 753c f200 e6bc 4f31 0cbd
00000170: 4000 48bd 1ea9 b33b 2831 c03b eac5 3d3d
00000180: 1562 713b b34c 953d 2308 423d 368a 2e3c
00000190: 728d c2bc be25 693d 64e7 8d3d efda 55bd
000001a0: 1e87 d13d 41a8 0abd 0f06 163b 5ea0 9d3d
000001b0: 02ca 1abb e99b 1bbe 9588 283d cada 943d
000001c0: 42be 4c3c 532d 06be 1253 1b3d 8974 0d3e
000001d0: 12d2 0abd a986 37be d55b 1c3e 776d 22bc
000001e0: cdcd 66bd 6829 803c f4c0 8bbc 7728 533d
000001f0: e507 f9bd 6194 6cbd 7434 dd3d 5b7d 353d
00000200: 0b4e bfbd 04db a9bd b11b ec3d 0139 52bc
00000210: 2177 2b3c 17dd dfbd 26a2 893d 5808 d5bd
00000220: 5b3d 003d b8dd d8bd fb5a dfbd 8d46 e5bc
00000230: 7431 bfbc 3f0f d9bc 0171 49bd 5ffd 013c
00000240: 3391 753d 9254 20bc b2a8 7fbd 1710 f23c
00000250: aacb c13d 3baa 983d 80ed 663d 9019 df3c
00000260: 80ad 7bbd 58f6 893c 223e 18be e0af dfbd
00000270: 2691 193d a222 793c 813b 8e3d 968e 02be
00000280: 3c9f f93d 2b85 a1ba 949b ecbc 3161 91bd
00000290: 3239 bcbd 4795 f4bd 9d07 a4bd dda0 c13c
000002a0: f0a4 0dbd ebbb 553d 420a 80bd a129 5cbd
000002b0: 8c5c 9c3d 6806 a03d 0a27 2f3d cff9 5f3d
000002c0: be20 53bd c765 e3bd e06e ac3d b6b6 81bd
000002d0: c32c a6bd 3a68 aebc bd27 efbd ba14 a7bd
000002e0: 39f1 6e3d 1a46 c5bd 2aa3 8c3d d159 973d
000002f0: 8bcd 263d a48c 9dbd 35ec 5dbd b38c ed3b
00000300: 92bc 973d 09b9 6c3d d97c 4c3d 695c 983d
00000310: 61a9 9f3d 38ae 4b3d 0b61 fb3c 2470 98bd
00000320: 88c0 463c 883a 14bd b04b 913d 2d0e 6ebd
00000330: b7f2 a7bc 153c c1bd 4982 bbbd 421f 3ebd
00000340: 6e19 8fbd 7c97 3a3c 9752 37bd 7fcd d43c
00000350: fe6e acbc bd6e 4e3d f11d 083e f202 07be
00000360: d508 adbc 74d6 8fbd d660 67bd 9230 6cbb
00000370: 8637 bc3d 0385 3a3d 1080 b8bc 5ef6 ff3c
00000380: 187d 743d 58bc 003c 3c9b 82bd 0b39 0cbe
00000390: 667f ee3c 29ce 333d 3537 82bd 1e2f 363e
000003a0: 7034 263d 4121 cdbc 810f f53c f01f c2bd
000003b0: a61a 0fbe 5540 4c3d dc33 723d 594f 853c
000003c0: 4d17 56bd 0c74 f73c d443 063d a21c 83bc
000003d0: 2214 a73d 38de a23d a408 293e 9ede e13d
000003e0: ae4b 023d cfa9 073d 8ea6 c33d 152c b2bb
000003f0: af69 903d 0247 0c3e cc00 7a3d 1a3e 5bbe

fc2.bias f4 [128]
-0.043254316 0.029243648 -0.10319694 -0.04548885 0.094285525 0.12845165 0.04101702 -0.06335788
0.12869494 -0.1144231 -0.055266615 -0.09103147 -0.117024735 -0.14670466 0.1375564 0.13920307
-0.06391093 -0.056968927 -0.06656916 0.004551257 -0.15031336 -0.12328204 0.061551586 0.08714257
-0.107325055 -0.092666104 0.084566966 -0.0682797 -0.08949184 -0.026406426 -0.008948549 0.13591334
0.090063505 -0.033595514 -0.12494315 0.05126895 -0.12836833 -0.083364844 -0.06758307 0.014999284
0.08956074 -0.037274275 -0.10002617 -0.068122 -0.00073348253 0.12176644 -0.080860905 -0.043517467
-0.16561958 0.031539746 0.039165564 0.19507323 -0.06582815 0.022725115 -0.057071075 -0.13524479
-0.14010254 -0.0910072 0.110993624 -0.09242263 -0.057014894 -0.0660369 -0.08716104 -0.116447
-0.12197368 0.17728114 0.03865796 -0.011120992 -0.16854808 0.088486664 0.024140432 0.045552287
-0.13497955 -0.042938035 -0.14718777 0.106212296 -0.118813336 -0.16266085 -0.008609819 -0.022732388
-0.059842076 -0.087463945 0.006769288 -0.08137235 -0.06250723 0.008441281 -0.19824217 -0.08785818
0.026587747 -0.0063137286 0.108050615 -0.008978456 -0.11396744 0.0072287237 0.027485395 -0.17330433
-0.16103587 0.07717497 -0.030878216 0.043416783 -0.09330506 -0.16873564 -0.040170845 -0.0065548527
0.13351844 -0.022667408 -0.13931255 -0.004273617 -0.010391551 -0.08305379 0.019514292 -0.10701843
-0.11603407 -0.17608185 -0.10183026 -0.05805124 -0.121948145 -0.10881883 -0.091424435 -0.0410437
0.11898789 -0.11417769 -0.12730534 -0.0101369275 0.003983518 -0.094723806 0.030856796 -0.110969454
00000000: 702b 31bd 6090 ef3c eb58 d3bd 8452 3abd
00000010: c518 c13d d488 033e 7601 283d c7c1 81bd
00000020: 9bc8 033e a956 eabd 3f5f 62bd b56e babd
00000030: aaaa efbd bf39 16be 96db 0c3e 408b 0e3e
00000040: bce3 82bd 4058 69bd 6955 88bd b622 953b
00000050: bfeb 19be 4b7b fcbd 841d 7c3d ce77 b23d
00000060: 3dcd dbbd bac7 bdbd 7231 ad3d 3ad6 8bbd
00000070: 7f47 b7bd 4a52 d8bc ef9c 12bc de2c 0b3e
00000080: 3773 b83d 739b 09bd 32e2 ffbd 64ff 513d
00000090: fd72 03be 30bb aabd fe68 8abd 8fbf 753c
000000a0: 9f6b b73d e9ac 18bd 85da ccbd 8c83 8bbd
000000b0: 2e47 40ba af60 f93d 679a a5bd 5f3f 32bd
000000c0: 2e98 29be d22f 013d 126c 203d 47c1 473e
000000d0: e9d0 86bd 052a ba3c 5cc3 69bd 9c7d 0abe
000000e0: 0a77 0fbe fc61 babd a050 e33d 1348 bdbd
000000f0: 7388 69bd 5b3e 87bd 7d81 b2bd c47b eebd
00000100: 56cd f9bd 3089 353e cf57 1e3d d234 36bc
00000110: de97 2cbe 7f38 b53d 28c2 c53c 0995 3a3d
00000120: 1438 0abe cbdf 2fbd 64b8 16be d585 d93d
00000130: 6854 f3bd 9190 26be 3310 0dbc 4639 babc
00000140: f71c 75bd 4c20 b3bd e7d0 dd3b 8ca6 a6bd
00000150: ca03 80bd 4c4d 0a3c ffff 4abe fdee b3bd
00000160: 8cce d93c 65e3 cebb a449 dd3d 601a 13bc
00000170: c367 e9bd eede ec3b 0d29 e13c b176 31be
00000180: 96e6 24be e90d 9e3d 50f4 fcbc ccd5 313d
00000190: b916 bfbd 09c9 2cbe 2f8a 24bd 17ca d6bb
000001a0: 0fb9 083e 00b1 b9bc f3a7 0ebe b309 8cbb
000001b0: 5341 2abc 1b18 aabd 70dc 9f3c 7b2c dbbd
000001c0: 45a3 edbd cd4e 34be 628c d0bd 23c7 6dbd
000001d0: f3bf f9bd 68dc debd bc3c bbbd 701d 28bd
000001e0: ecaf f33d fed5 e9bd 555c 02be 5b15 26bc
000001f0: 2c88 823b 8efe c1bd 64c7 fc3c f443 e3bd

fc_out.weight f4 [3, 128]
-0.021638725 0.09963316 0.04296904 0.1287967 0.017255256 -0.057431247 0.05392218 0.016026195
-0.025183916 -0.00921926 -0.0013507534 -0.015793664 0.0920527 -0.025071561 -0.004822909 -0.051889252
-0.04782744 -0.030783545 -0.060245797 -0.017686881 -0.0784089 0.21076106 -0.02279812 -0.012589582
0.41005272 0.0918395 0.074039385 0.050212502 0.24405274 -0.008362684 -0.07880512 -0.00750304
-0.030869655 0.012216784 0.043983787 -0.00059243967 0.24325627 -0.1998773 0.4603818 0.032375194
0.013200657 0.23047012 0.020210676 0.031248761 0.02581218 -0.024209568 -0.001451018 0.22567663
0.3242946 0.0036081357 -0.004191157 -0.011810615 -0.04548829 0.03378166 0.0042141736 0.09741427
0.30852306 0.0025464892 -0.005898281 0.00040930315 0.15551543 -0.07074779 -0.071388595 0.14137128
0.0241495 -0.00548424 -0.14186722 0.14984427 -0.29477274 -0.0019124546 0.10427877 0.073979564
0.03246854 0.32424212 0.0904694 -0.03498136 0.39245984 0.011280431 -0.011574117 -0.0014262168
0.04855961 -0.024782816 -0.02368687 0.11006848 0.11621393 -0.02246284 -0.07669546 -0.04380335
-0.020369152 0.010073778 0.0077189147 0.3309987 0.068942696 -0.049151767 0.24651259 0.020245917
0.04019178 -0.01672643 -0.020807158 -0.10480389 -0.026308402 0.094055 0.08147545 -0.09105624
-0.00038124094 -0.027123194 0.017816931 0.01814967 -0.0044417004 0.1589065 -0.0035767667 0.025048466
0.03280845 0.13505119 0.11906274 -0.04202757 -0.023325384 0.017422345 0.029584955 0.1382933
-0.003250405 -0.063936576 -0.2313274 0.012951091 0.12351683 0.047862366 -0.034126442 -0.007716854
0.5038883 0.11972436 1.0667485 0.010108679 0.8701294 1.2055964 0.115505196 0.041548956
0.29703864 0.30663922 0.07593363 0.0342532 0.11549316 0.09985023 0.38258684 0.81872374
0.10943357 0.23252529 -0.026379406 -0.2219587 0.20850585 -0.21545236 -0.7850305 0.89007574
0.75436056 0.2959671 0.824482 0.15998146 0.5597505 1.0776054 0.028218498 1.1649513
0.89069915 0.04167599 0.55023694 0.61108595 0.8145883 0.082446195 0.8630853 0.9337249
0.8993467 -0.3461134 -0.18122162 0.6415893 -0.09061004 1.0968251 0.07174355 0.34974986
0.85721314 0.81964326 1.4530061 0.58547187 0.08106178 -0.16618751 0.2295166 -0.12639049
0.7429138 0.0623821 1.4058199 0.050291363 0.27360636 0.120012015 0.61057353 0.089408495
-0.03473961 1.1488314 0.170214 0.11830902 -0.12420938 1.1086528 0.11378437 -0.28809395
-0.066000715 0.25758928 0.1371245 1.1199727 1.0069348 -0.01665776 0.45889717 0.7907593
0.06777162 -0.02112771 0.20677012 0.33779445 1.111553 1.0340636 0.07257634 0.18473904
0.11031109 1.3444713 0.9901394 0.10221323 -0.0027467383 0.112067126 0.049762134 -0.062227596
0.2011322 1.2897639 0.45596176 -0.8409828 0.009178537 0.1851623 -0.21405232 0.04101299
1.194253 0.9750228 0.4914767 0.10354415 0.05063838 -0.042493455 0.97573274 0.29654428
-0.23289911 0.91709906 -0.041370027 0.62017405 0.061553344 0.32006562 0.23317954 1.1286119
1.5106907 0.4604745 -0.086539485 -1.2378203 0.5050926 0.1188831 -0.07604646 0.027810002
00000000: b243 b1bc 780c cc3d 4e00 303d 48e3 033e
00000010: e55a 8d3c 073d 6bbd 81dd 5c3d 5e49 833c
00000020: 804e cebc 610c 17bc c30b b1ba b761 81bc
00000030: 2086 bc3d e062 cdbc 7e09 9ebb d389 54bd
00000040: b5e6 43bd c62d fcbc 4cc4 76bd 14e4 90bc
00000050: d894 a0bd bfd1 573e 1fc3 babc 8944 4ebc
00000060: 6ef2 d13e 5916 bc3d f6a1 973d a0ab 4d3d
00000070: f6e8 793e a403 09bc 9464 a1bd 10dc f5bb
00000080: 5ce2 fcbc e828 483c 5828 343d f44d 1bba
00000090: 2c18 793e a3ac 4cbe 2ab7 eb3e da9b 043d
000000a0: 9247 583c 5c00 6c3e dc90 a53c 67fd ff3c
000000b0: 1174 d33c 2553 c6bc 1630 beba c617 673e
000000c0: f109 a63e 7976 6c3b f955 89bb 4f81 41bc
000000d0: ee51 3abd a35e 0a3d 0d17 8a3b 2281 c73d
000000e0: bcf6 9d3e 00e3 263b 5e46 c1bb bd97 d639
000000f0: 703f 1f3e 38e4 90bd 2f34 92bd a2c3 103e
00000100: 2cd5 c53c 24b5 b3bb a445 11be c770 193e
00000110: 74ec 96be 54ab faba 1c90 d53d 9982 973d
00000120: bbfd 043d 1003 a63e 0548 b93d 9d48 0fbd
00000130: 7ff0 c83e 8fd1 383c 5da1 3dbc e5ef baba
00000140: 71e6 463d 5505 cbbc f70a c2bc 956b e13d
00000150: 9201 ee3d fd03 b8bc 8212 9dbd 246b 33bd
00000160: 35dd a6bc 7d0c 253c f3ee fc3b a978 a93e
00000170: d431 8d3d 5d53 49bd cc6d 7c3e c4da a53c
00000180: 23a0 243d de05 89bc c673 aabc 6ca3 d6bd
00000190: b884 d7bc e89f c03d 9adc a63d b27b babd
000001a0: 4be1 c7b9 7631 debc d0f4 913c 9eae 943c
000001b0: af8b 91bb 63b8 223e 3068 6abb 7132 cd3c
000001c0: 2762 063d dc4a 0a3e 2ad7 f33d 1a25 2cbd
000001d0: e014 bfbc 4eb9 8e3c 265c f23c c29c 0d3e
000001e0: bf04 55bb 2ef1 82bd 17e1 6cbe d030 543c
000001f0: 64f6 fc3d 540b 443d 2bc8 0bbd aadd fcbb
00000200: d3fe 003f 0c32 f53d 378b 883f df9e 253c
00000210: cdc0 5e3f fc50 9a3f fd8d ec3d 3d2f 2a3d
00000220: 7315 983e d1ff 9c3e 1783 9b3d 154d 0c3d
00000230: ae87 ec3d 477e cc3d 6ce2 c33e e197 513f
00000240: b51e e03d 1c1b 6e3e a019 d8bc 2449 63be
00000250: 8f82 553e 8b9f 5cbe c2f7 48bf 01dc 633f
00000260: c61d 413f 0089 973e 4111 533f 2ed2 233e
00000270: cf4b 0f3f f9ee 893f 7b2a e73c 201d 953f
00000280: dc04 643f 71b4 2a3d 54dc 0c3f 2170 1c3f
00000290: dc88 503f 8dd9 a83d 29f3 5c3f 9808 6f3f
000002a0: 963b 663f c735 b1be 2992 39be 323f 243f
000002b0: c291 b9bd c464 8c3f 48ee 923d 6a12 b33e
000002c0: 5272 5b3f 24d4 513f 1bfc b93f 7ce1 153f
000002d0: b803 a63d 0f2d 2abe 6606 6b3e 826c 01be
000002e0: 992f 3e3f 5f84 7f3d e8f1 b33f 51fe 4d3d
000002f0: 2216 8c3e dcc8 f53d 8c4e 1c3f cd1b b73d
00000300: 1f4b 0ebd e80c 933f 944c 2e3e 004c f23d
00000310: 7d61 febd 56e8 8d3f c807 e93d 0d81 93be
00000320: 622b 87bd bee2 833e 5d6a 0c3e 445b 8f3f
00000330: 3de3 803f db75 88bc 92f4 ea3e 346f 4a3f
00000340: d9cb 8a3d 0514 adbc 8cbb 533e 65f3 ac3e
00000350: 5e47 8e3f 325c 843f e7a2 943d 3b2c 3d3e
00000360: c8ea e13d a317 ac3f c779 7d3f 2c55 d13d
00000370: 9f02 34bb 7383 e53d 61d3 4b3d 5de2 7ebd
00000380: 99f5 4d3e fc16 a53f d273 e93e a64a 57bf
00000390: 9361 163c 309b 3d3e 8830 5bbe 3dfd 273d
000003a0: 48dd 983f 189b 793f d6a2 fb3e f50e d43d
000003b0: 316a 4f3d 9e0d 2ebd 9fc9 793f a7d4 973e
000003c0: 1b7d 6ebe 01c7 6a3f 9e73 29bd bac3 1e3f
000003d0: 5c1f 7c3d a4df a33e 9ec6 6e3e 5b76 903f
000003e0: 505e c13f 50c3 eb3e 9d3b b1bd e570 9ebf
000003f0: c04d 013f fc78 f33d 3fbe 9bbd cdd1 e33c

fc_out.bias f4 [3]
-0.035920788 0.13051955 -2.0437088
00000000: ad21 13bd eba6 053e 20cc 02c0
