LIRL results/Ablation result/ddpg_mask_multi_run_10_3/run_7_seed_42/ddpg_mask_q_20250905_140315.pth (torch, 68133 bytes, 7 tensors)

fc_s.weight f4 [64, 105]
0	0x3d395bbc	0.0452535
1	0x3e3bc04e	0.18335077
2	0x3e18ce10	0.14922357
3	0x3e2dc40e	0.1696932
4	0x3c8778a6	0.016537022
5	0x3d9dbd9a	0.07702179
6	0x3de0e2ab	0.109807335
7	0xbd0daf9b	-0.0345913
8	0xbb616fab	-0.0034398835
9	0xbe7f4eac	-0.24932355
10	0xbd95e6cb	-0.07319411
11	0xbe342d2c	-0.17595357
12	0x3ded4669	0.11585695
13	0xbe948dd2	-0.2901445
14	0xbe4badfc	-0.19890589
15	0xbcbc14fc	-0.022959225
16	0x3e76dba2	0.24107221
17	0x3dbaa894	0.09114185
18	0x3dfd106d	0.123566486
19	0x3e12c80d	0.14334126
20	0xbd147e7a	-0.03625343
21	0x3e0abaf4	0.1354788
22	0xbd175675	-0.036947686
23	0xbe27991d	-0.16367002
24	0xbe6e17da	-0.23251286
25	0x3eae028e	0.33986324
26	0x3f10f224	0.5661948
27	0x3f23362f	0.6375455
28	0x3f108aba	0.5646168
29	0x3dedb16c	0.11606106
30	0xbd2d2f0d	-0.0422812
31	0xbb37c5bc	-0.0028041443
32	0x3e917efa	0.28417188
33	0xbbb2b367	-0.0054535153
34	0x3e78e589	0.2430631
35	0x3c86af09	0.016440885
36	0xbcaac25d	-0.020844633
37	0x3d94cfa4	0.07266167
38	0x3dee716c	0.11642727
39	0x3e44386f	0.19162153
40	0x3d981d3c	0.07427451
41	0x3eae5ec5	0.34056678
42	0x3ed2bd68	0.4116013
43	0x3e6ddb09	0.23228087
44	0x3ea09e55	0.31370798
45	0xbd25b732	-0.04045791
46	0xbc8f68b4	-0.017505981
47	0x3da42aa3	0.08015945
48	0x3e7ece44	0.24883372
49	0x3e145502	0.14485553
50	0xbe091dce	-0.13390276
51	0xbdc587b2	-0.096450225
52	0xbe3e7571	-0.18599488
53	0x3d99b879	0.075058885
54	0x3d9ef012	0.077606335
55	0x3c973622	0.01845843
56	0x3d74b072	0.059738584
57	0x3e1228a1	0.14273311
58	0xba6d2544	-0.00090463855
59	0xbde5de2a	-0.11224015
60	0xbd20091d	-0.03907119
61	0xbd295375	-0.041339356
62	0x3d5c6a05	0.053812046
63	0xbe72ef27	-0.23724042
64	0xbcb7ac4b	-0.022421023
65	0x3c9e51b8	0.019326076
66	0x3cda61f2	0.026658032
67	0x3d791f7e	0.06082105
68	0xbe0fd499	-0.14045943
69	0xbd8be387	-0.06830507
70	0x3dea2856	0.11433475
71	0xbcd02820	-0.025409758
72	0x3df286f7	0.11842149
73	0xbe0aeceb	-0.1356694
74	0xbd29ece3	-0.04148568
75	0x3d8a23ba	0.067450956
76	0x3c2c2c82	0.010508658
77	0xbd194e13	-0.037427973
78	0x3e7c438f	0.24635147
79	0xbd141992	-0.0361572
80	0xbd8a1f6a	-0.06744273
81	0xbd9a54d2	-0.075357094
82	0x3b345e5f	0.002752207
83	0xbe216312	-0.15760449
84	0xbcb57a45	-0.02215303
85	0x3d3e4b26	0.046458386
86	0xbc67166c	-0.014104467
87	0xbd3f4fd5	-0.046706993
88	0xbce2b0ce	-0.027672198
89	0xbe4bdd7b	-0.19908707
90	0xbd8796ac	-0.06620535
91	0xbd21889e	-0.03943693
92	0x3d9b2cf3	0.07576933
93	0x3ca086cd	0.019595528
94	0xbd39e3eb	-0.045383375
95	0x3b769179	0.003762333
96	0x3b3c86aa	0.002876679
97	0xbd4856de	-0.048910968
98	0xbda68cc6	-0.08132319
99	0xbe3fcd87	-0.18730746
100	0xbd65dd02	-0.056118973
101	0x3c8fbb56	0.017545383
102	0xbd3102c7	-0.04321554
103	0xbe3d3e1d	-0.18480726
104	0xbde4b808	-0.11167914
105	0x3c6dc3d4	0.014512021
106	0xbe896a01	-0.26838687
107	0xbc7ab4aa	-0.015301863
108	0xbe6fcd29	-0.23418106
109	0xbdd28348	-0.10278946
110	0x3d12223e	0.035677187
111	0xbe9954ad	-0.29947415
112	0xbe1c595d	-0.15268464
113	0xbe3e0014	-0.18554717
114	0xbe09a7d4	-0.13442928
115	0x3b181027	0.0023202987
116	0xbdbce383	-0.09223082
117	0x3d43dd3e	0.047818415
118	0xbe1de672	-0.15419939
119	0xbdeb619c	-0.11493227
120	0xbe6bf46c	-0.23042458
121	0xbe66b34a	-0.22529331
122	0xbd31ac6c	-0.043377325
123	0xbda38bc0	-0.079856396
124	0xbdb05aae	-0.08611046
125	0x3d143673	0.03618474
126	0xbb14162a	-0.0022596219
127	0xbe6d25a6	-0.23158893
128	0x3ca36f4d	0.019950533
129	0xbcb5261d	-0.0221129
130	0xbe8754ca	-0.26431876
131	0xbd999bc1	-0.07500411
132	0x3d9246e1	0.07142425
133	0x3dbc0b77	0.09181874
134	0xbdc256d7	-0.0948922
135	0xbe45f79b	-0.19332735
136	0xbea0187d	-0.31268683
137	0xbddb454e	-0.10706578
138	0x3c8432c4	0.016137488
139	0xbce61ed0	-0.028090864
140	0x3e434b22	0.1907163
141	0x3d898154	0.067141205
142	0x3e5156d6	0.20443282
143	0xbd45a163	-0.048249613
144	0x3d5c55ec	0.05379288
145	0x3e451880	0.19247627
146	0x3e13f16a	0.14447561
147	0x3c4dd883	0.012563827
148	0xbd741137	-0.05958673
149	0xbe98cdb7	-0.29844448
150	0xbc2bef00	-0.010493994
151	0xbcd22e3b	-0.02565681
152	0xbe943365	-0.2894546
153	0xbe0d29f5	-0.13785537
154	0x3dab227d	0.083561875
155	0x3dbd7656	0.092510864
156	0xbd41d291	-0.047319952
157	0xbcbf8608	-0.02337934
158	0x3dacba67	0.08433991
159	0xbe1952fa	-0.1497306
160	0xbe07028e	-0.13184568
161	0xbd981ed3	-0.07427754
162	0xbd36e171	-0.04464859
163	0xbe12572f	-0.1429107
164	0xbbb28249	-0.00544766
165	0xbcc03656	-0.02346341
166	0xbe6c5520	-0.23079348
167	0xbd8dd2f0	-0.06924999
168	0x3db68c56	0.08913486
169	0xbd0191c2	-0.031633146
170	0xbdd48732	-0.10377349
171	0xbd7fb3b1	-0.062427226
172	0x3afa7552	0.001910845
173	0xbe302e55	-0.17205174
174	0xbe49ac5f	-0.1969466
175	0xbdab4785	-0.08363251
176	0xbdb1aa30	-0.08675039
177	0x3c809233	0.015694713
178	0x3e274153	0.16333513
179	0xbe01c3e9	-0.1267239
180	0xbe070424	-0.13185173
181	0xbcddd4a2	-0.02707893
182	0x3be8eb52	0.0071081305
183	0xbe77ba8b	-0.24192254
184	0xbddd55ba	-0.10807367
185	0x3dad3578	0.08457464
186	0xbcc87f4e	-0.024474766
187	0xbd8b89d8	-0.06813401
188	0xbe0bdf1f	-0.13659333
189	0xbe63364d	-0.22188683
190	0xbce0e4c8	-0.027452841
191	0xbd2ac66c	-0.041693136
192	0x3d631f79	0.055449937
193	0x3e60e675	0.21962912
194	0xbdf6e23f	-0.12054872
195	0xbd2c3a9c	-0.04204808
196	0xbc9f177e	-0.019420382
197	0x3dac5308	0.084142745
198	0x3e371754	0.17879993
199	0x3d75df97	0.060027685
200	0xbccbcd78	-0.024878249
201	0xbe421d78	-0.18956554
202	0xbd561243	-0.05226351
203	0xbd66a05d	-0.056305278
204	0xbcaf4ee8	-0.02139993
205	0xbe924c7e	-0.28573984
206	0xbdf16b19	-0.117880054
207	0xbdbe042d	-0.0927814
208	0x3d78f9b7	0.06078502
209	0x3e0090c1	0.12555219
210	0x3e6d6b82	0.23185542
211	0x3e0c948e	0.13728544
212	0x3d349a3f	0.044092413
213	0x3debe16a	0.11517604
214	0x3e16469c	0.14675373
215	0xbd09daa5	-0.03365578
216	0xbd8bb3a9	-0.06821377
217	0x3d5ab3b2	0.053394027
218	0xbbe3a32c	-0.006946942
219	0xbe290677	-0.16506372
220	0xbd3f6e7e	-0.046736233
221	0x3d99ad11	0.07503713
222	0x3ddd68fa	0.10811038
223	0x3d70b255	0.05876382
224	0xbe0de752	-0.13857773
225	0x3d66880f	0.0562821
226	0x3ea9d1d8	0.3316791
227	0x3d9d224d	0.07672558
228	0x3d2c0364	0.04199542
229	0x3d187786	0.03722336
230	0xbe04bff0	-0.12963843
231	0x3e219599	0.15779723
232	0x3e76387b	0.24044983
233	0x3ea47b46	0.321253
234	0x3d00ecd1	0.031475846
235	0x3d362b68	0.04447499
236	0x3c9a0145	0.018799433
237	0x3d23a9d7	0.039956894
238	0x3e16faed	0.14744158
239	0x3e199089	0.14996542
240	0xbd10cafc	-0.03534983
241	0xbeb93022	-0.36169535
242	0xbed1146f	-0.40835902
243	0xbd6d355a	-0.05791221
244	0xbce8eb4b	-0.028432509
245	0xbda6ffe0	-0.08154273
246	0xbe87ec7f	-0.2654762
247	0xbbf8eda4	-0.0075966883
248	0x3e19079d	0.1494431
249	0x3e85addc	0.26109207
250	0xbe4beb9e	-0.199141
251	0xbeb297ef	-0.3488154
252	0xbe42b239	-0.19013299
253	0xbe2df84c	-0.16989249
254	0xbd7e0368	-0.062014967
255	0xbe6cfcc8	-0.23143303

fc_s.bias f4 [64]
0	0xbd44bf15	-0.048033793
1	0x3d84f82b	0.06492647
2	0x3e4c5a26	0.19956264
3	0xbd7f9b4d	-0.062403966
4	0xbe339d29	-0.1754042
5	0xbd3758fa	-0.04476259
6	0x3e04fb2a	0.12986436
7	0xbe8f04a6	-0.27933234
8	0xbe3e2ab9	-0.18570985
9	0x3e0c386e	0.13693401
10	0xbc403fe4	-0.011733983
11	0xbd399b81	-0.045314316
12	0xbc97f3bc	-0.018548839
13	0xb91b879e	-0.00014832473
14	0x3ba59955	0.005053679
15	0xbd5d25d7	-0.053991165
16	0xbd93ee48	-0.07223183
17	0x3e25ccfa	0.16191474
18	0x3e0ab070	0.13543868
19	0xbe018bf5	-0.12651046
20	0x3c8b30bf	0.016991017
21	0x3dc1bde7	0.09460049
22	0x3c8b5eda	0.017013002
23	0x3e81ffc7	0.25390455
24	0xbcee52b0	-0.029092163
25	0x3d003119	0.031296823
26	0x3da954c6	0.082681224
27	0x3db15d7d	0.086604096
28	0xbd953ec6	-0.07287364
29	0x3e09230c	0.13392276
30	0xbcd2a3b4	-0.025712825
31	0xbe04be17	-0.12963139
32	0x3dcefc03	0.10106661
33	0x3dd95b5c	0.106131285
34	0xbe1f10f0	-0.15533805
35	0xbdb9ea03	-0.09077837
36	0xbe19ca0d	-0.15018483
37	0xbe0c0823	-0.13674979
38	0xbd210fe4	-0.039321795
39	0xbceffc48	-0.029295102
40	0x3ceaa10b	0.028641244
41	0x3d5faa6f	0.054605898
42	0xbd2e4d11	-0.042553965
43	0x3dfd5ffd	0.12371824
44	0xbc3fa7cc	-0.011697721
45	0xbc84906c	-0.016182147
46	0x3da265f2	0.07929601
47	0x3bc88b01	0.006120086
48	0xbdb27c78	-0.08715147
49	0x3decf217	0.115696125
50	0xbe1fdb5f	-0.15611027
51	0x3dd1147c	0.10208985
52	0xbdd128ce	-0.10212861
53	0xbe43e653	-0.1913083
54	0x3dfebf5a	0.12438841
55	0xbd545539	-0.051839087
56	0x3e5d0c64	0.21586758
57	0xbd64fdd4	-0.055906132
58	0xbd0c1090	-0.034195483
59	0x3ca3cc96	0.019995015
60	0xbc48047d	-0.012208101
61	0xbdceb041	-0.100922115
62	0xbd5ccbaf	-0.053905185
63	0x3e1ec882	0.15506175

fc_a.weight f4 [64, 14]
0	0xbddcf1f0	-0.107883334
1	0x3d8e932b	0.06961664
2	0xbeefd746	-0.46843928
3	0xbd03974f	-0.03212672
4	0x3d4effb0	0.05053681
5	0x3de3c393	0.11121287
6	0xbed6c521	-0.41947272
7	0x3e841679	0.25798395
8	0xbe4227bd	-0.18960471
9	0xbebc214b	-0.3674415
10	0xbe5e1925	-0.2168928
11	0x3c16bbaa	0.009200016
12	0x3e4d099b	0.20023195
13	0xbe8ed21c	-0.27894676
14	0x3dc8ff53	0.09814324
15	0x3eaa4822	0.33258158
16	0xbe083368	-0.1330086
17	0x3e45c167	0.19312058
18	0xbd7396b4	-0.059469894
19	0x3e438272	0.1909273
20	0x3e71dc52	0.23619202
21	0xbd23b09c	-0.03996335
22	0xbeb7726c	-0.35829484
23	0x3e9ac8bf	0.30231282
24	0xbefcebc1	-0.49398616
25	0xbf06ee7f	-0.52707666
26	0xbe8166d2	-0.25273758
27	0xbde66261	-0.11249233
28	0x3e0329d8	0.12808931
29	0xbbd040ab	-0.0063553653
30	0x3cd22426	0.025652003
31	0xbd3877fb	-0.045036297
32	0x3e140a8b	0.14457147
33	0xbdd0b801	-0.10191346
34	0xbdb43b63	-0.088003896
35	0x3e82f1c5	0.2557508
36	0xbe8f2863	-0.279605
37	0xbe4f5d88	-0.20250523
38	0xbf04c768	-0.5186677
39	0xbd6d0a3d	-0.057871092
40	0x3e96a2c5	0.29421058
41	0xbeaf3bd8	-0.34225345
42	0xbdb00ef3	-0.08596601
43	0x3c686557	0.014184318
44	0x3dd7bad0	0.105336785
45	0x3e901bb7	0.28146145
46	0x3e4f98bd	0.20273109
47	0xbc4b6f77	-0.012416712
48	0xbe66b842	-0.22531226
49	0x3d456ae3	0.04819764
50	0xbba5c224	-0.0050585438
51	0x3e68e70a	0.22744384
52	0xbd1be121	-0.038056497
53	0xbe6217e6	-0.22079429
54	0x3dd93867	0.10606461
55	0xbb9159ec	-0.0044357684
56	0x3de13d40	0.10998011
57	0x3e129776	0.1431559
58	0x3df510b6	0.11966078
59	0x3e4189d4	0.18900234
60	0xbe6c053b	-0.2304887
61	0xbe5adbd8	-0.21372926
62	0x3e8108d8	0.2520206
63	0x3e81217d	0.25220862
64	0xbde2c1d4	-0.11072126
65	0x3e707f07	0.23485957
66	0x3ce9335c	0.028466873
67	0xbd331881	-0.04372454
68	0xbe10d41a	-0.1414341
69	0xbdb7b86e	-0.08970724
70	0x3e2db6e7	0.16964303
71	0xbe44298a	-0.19156471
72	0xbe1c9d0b	-0.15294282
73	0x3e89472c	0.26812112
74	0xbe3824b8	-0.17982757
75	0x3da3f170	0.08005035
76	0x3e0eac4a	0.1393291
77	0x3d8218be	0.063523754
78	0xbd0fdb79	-0.035121415
79	0xbd67b59c	-0.05656968
80	0xbddfdbe9	-0.109306164
81	0xbce0327a	-0.02736782
82	0xbe30db95	-0.17271264
83	0xbed61025	-0.41809192
84	0xbe5f844b	-0.2182781
85	0xbd81297d	-0.063067414
86	0x3d94e456	0.07270114
87	0xbe2d773e	-0.16940019
88	0x3d45953e	0.04823803
89	0x3e1da6fa	0.15395728
90	0x3e014923	0.12625556
91	0xbdcc8863	-0.09986951
92	0x3d7af1d1	0.06126577
93	0xbe741416	-0.23835787
94	0x3e43f8b1	0.19137837
95	0xbe5abae5	-0.21360357
96	0x3c730914	0.014833707
97	0xbde54f31	-0.11196745
98	0xbdd545f7	-0.10413735
99	0xbe10acc4	-0.14128405
100	0xbdff0bfa	-0.12453456
101	0xbd9fd9a1	-0.07805181
102	0x3e4900a5	0.19629152
103	0xba8b8aee	-0.0010646263
104	0xbe1ea829	-0.15493836
105	0x3d190256	0.037355743
106	0xbdcb76c6	-0.099347636
107	0xbc4f85f3	-0.012666213
108	0x3e80a9dc	0.25129592
109	0xbe183746	-0.14864835
110	0xbe08fcdd	-0.1337771
111	0x3e7abf2a	0.24486986
112	0x3ea64eb7	0.3248193
113	0xbd7b99a4	-0.06142582
114	0xbeb9c6b2	-0.36284405
115	0x3d9a9011	0.0754701
116	0xbeeb855e	-0.4600019
117	0xbe5a4afc	-0.21317667
118	0xbe5c8c03	-0.21537785
119	0xbf619373	-0.88115615
120	0xbf14ba63	-0.58096904
121	0xbedef2db	-0.4354466
122	0x3c3317bf	0.0109309545
123	0x3e0d7b01	0.13816454
124	0xbef51192	-0.47864968
125	0x3e87c287	0.265156
126	0x3e11ff37	0.14257513
127	0xbd1d90db	-0.038468223
128	0xbeb734c1	-0.35782436
129	0x3ddd23ee	0.10797869
130	0x3ec35aa3	0.38155088
131	0x3eb2ab02	0.34896094
132	0xbe127346	-0.14301786
133	0xbd234c25	-0.03986754
134	0xbef3dac7	-0.4762785
135	0x3ea296bc	0.31755626
136	0x3da0d846	0.07853751
137	0xbed2b2a0	-0.41151905
138	0x3e4f665c	0.20253891
139	0xbd5f3150	-0.054490387
140	0x3e1dafd4	0.15399104
141	0xbe6e4c1a	-0.23271218
142	0x3cfb2e36	0.030661684
143	0x3e626c22	0.22111562
144	0x3e74594f	0.23862194
145	0xbda1b5be	-0.07895993
146	0x3e13574a	0.14388767
147	0x3e2b4e46	0.16729078
148	0x3e0f1c68	0.1397568
149	0xbb25598a	-0.0025230371
150	0x3e4c66f5	0.1996115
151	0x3e4766f1	0.19472863
152	0xbd8a71d4	-0.06759992
153	0x3de4f36a	0.1117924
154	0xbe093494	-0.13398963
155	0x3da9cb9d	0.08290789
156	0x3e48d929	0.1961409
157	0xbd8af99c	-0.067858905
158	0xbd9b7361	-0.07590366
159	0xbeee2d13	-0.46518764
160	0xbf1fd206	-0.62429845
161	0x3c71192e	0.014715476
162	0xbdf35e12	-0.11883177
163	0xbe6b82ef	-0.22999166
164	0xbeae9f2e	-0.3410582
165	0xbdc0a7f1	-0.09407032
166	0xbeb344e4	-0.35013497
167	0x3dc82fc4	0.097747356
168	0x3e9da771	0.3079181
169	0xbe223cba	-0.15843478
170	0xbe0d4189	-0.13794531
171	0x3d9dd548	0.07706696
172	0xbe7bad24	-0.24577767
173	0xbe1ffa19	-0.15622748
174	0x3e763eb8	0.24047363
175	0x3e10fc99	0.14158858
176	0xbdaaa4af	-0.08332192
177	0x3de6caf3	0.11269178
178	0x3dbcbe8b	0.09216031
179	0x3cc56f6e	0.024100985
180	0x3e82ca3d	0.2554492
181	0x3dbd4dad	0.09243331
182	0x3e422878	0.1896075
183	0xbe5506bf	-0.20803355
184	0xbdde64a4	-0.108590394
185	0x3d3927a6	0.045203827
186	0x3e1230a6	0.1427637
187	0xbddeb485	-0.10874275
188	0x3e456fb4	0.19280893
189	0xbe630b9f	-0.22172402
190	0xbdd0c9c2	-0.10194732
191	0x3e4dbeef	0.20092367
192	0xbe4c7cef	-0.19969533
193	0xbe8055c6	-0.2506544
194	0xbd8a27a2	-0.067458406
195	0xbe64022e	-0.22266456
196	0x3debd8fe	0.11515997
197	0x3c1020ac	0.008796852
198	0xbd48df69	-0.049041186
199	0x3e3aacbc	0.18229955
200	0x3b28760b	0.0025705125
201	0xbe75ba7a	-0.23996916
202	0xbe854aa0	-0.26033497
203	0x3e350018	0.17675817
204	0x3dd4582e	0.103683814
205	0x3e21b719	0.15792502
206	0xbe52abb3	-0.2057331
207	0xbcd5cdb2	-0.02609906
208	0x3e789d05	0.24278648
209	0x3e8391f9	0.25697306
210	0x3e5c6ae2	0.21525148
211	0x3e9feb34	0.31234133
212	0xbd3c2f99	-0.04594383
213	0xbe2c3a19	-0.16819037
214	0x3e0b6466	0.13612518
215	0x3e35e47f	0.17762946
216	0xbd804843	-0.06263783
217	0x3c308f32	0.010776328
218	0xbbd27ef5	-0.006423826
219	0xbe691f30	-0.22765803
220	0xbdb13a55	-0.08653704
221	0xbd47cf40	-0.048781633
222	0x3e08d850	0.13363767
223	0xbc348c3e	-0.0110197645
224	0x3e0f58d7	0.13998733
225	0x3e90f16e	0.28309196
226	0xbd5526cd	-0.052038956
227	0xbd57d09b	-0.052689176
228	0xbe6d60a4	-0.23181397
229	0xbd064a2c	-0.03278558
230	0xbe853f66	-0.26024932
231	0x3e2327d7	0.15933166
232	0x3e567c76	0.20945916
233	0x3d71c9d8	0.059030384
234	0x3e76f0dc	0.24115318
235	0x3e162f57	0.14666496
236	0x3e2e9c3c	0.17051786
237	0x3e960419	0.293
238	0xbe3c293f	-0.18375109
239	0xbcabc4c2	-0.020967845
240	0x3dcda1bf	0.10040616
241	0xbd928230	-0.071537375
242	0xbe42226e	-0.18958446
243	0xbdabdd59	-0.08391828
244	0xbe07aa9b	-0.13248675
245	0xbdbff973	-0.093737505
246	0xbe507c5c	-0.2035994
247	0xbda51b6e	-0.080618724
248	0x3e1ccfdb	0.15313666
249	0xbdf03c56	-0.11730258
250	0x3de92716	0.11384408
251	0xbe611070	-0.21978927
252	0xbe21511b	-0.15753596
253	0x3d2fcb87	0.04291871
254	0x3e7ef8af	0.24899553
255	0xbe6872dd	-0.22700067

fc_a.bias f4 [64]
0	0xbe53c1be	-0.20679376
1	0xbe6e66c5	-0.23281391
2	0xbd51a3ba	-0.051181532
3	0x3ec598c0	0.38593102
4	0x3e988f55	0.29796854
5	0x3e7f11a0	0.24909067
6	0xbdbf7a1e	-0.09349464
7	0x3eed4c04	0.46347058
8	0x3cb70446	0.022340905
9	0xbdbd117e	-0.09231852
10	0xbebe71d2	-0.37196213
11	0x3c6079ca	0.013700912
12	0x3e7d9ca8	0.24766791
13	0xbe8355fc	-0.25651538
14	0x3ec1b750	0.3783517
15	0x3e64fd2c	0.22362202
16	0x3ecdb8d5	0.40180078
17	0xbdeba0a5	-0.1150525
18	0x3e0dbb2c	0.13840932
19	0xbe1cc5db	-0.15309851
20	0x3ebe0da1	0.37119773
21	0xbe29081a	-0.16506997
22	0x3e857c5f	0.2607145
23	0xbe379797	-0.1792892
24	0x3ed6d967	0.4196274
25	0xbe8b254b	-0.2717689
26	0xbe01219c	-0.12610477
27	0xbe3a3ae0	-0.18186522
28	0xbd9ddbc9	-0.07707936
29	0xbc27e312	-0.010247009
30	0x3e159a86	0.14609727
31	0x3ee9c4a2	0.4565783
32	0x3e9d980f	0.30780074
33	0x3c75cbb4	0.01500218
34	0x3ecee991	0.40412572
35	0x3d7f48d7	0.062325325
36	0xbe2e2672	-0.17006853
37	0x3e874da3	0.2642642
38	0x3d3e6673	0.046484422
39	0x3edc23d2	0.4299608
40	0x3e621eac	0.22082013
41	0x3eb1c57d	0.34720984
42	0x3e592a35	0.21207507
43	0xbe7f7daa	-0.24950281
44	0x3e4e03df	0.20118664
45	0xbc5b4347	-0.013382739
46	0x3ce5a636	0.028033357
47	0xbdf888a2	-0.12135436
48	0xbe6691a5	-0.22516496
49	0x3e54d8da	0.20785847
50	0x3eb74a89	0.35799053
51	0xbea362bc	-0.31911266
52	0x3e9de275	0.30836836
53	0xbe521975	-0.20517524
54	0xbe6b1fd3	-0.22961359
55	0x3e79b815	0.24386628
56	0x3e0b3249	0.13593401
57	0xbe27c6b8	-0.16384399
58	0x3ed20c1e	0.4102487
59	0x3e3dc1c3	0.18530945
60	0xbe2b9e74	-0.16759664
61	0x3e660c11	0.2246554
62	0x3e221b08	0.15830624
63	0xbdb5d0de	-0.08877729

fc_q.weight f4 [64, 128]
0	0x3e8092f6	0.25112122
1	0x3d82f52c	0.06394419
2	0x3e3b773f	0.18307208
3	0xbc597005	-0.013271336
4	0xbda5afc9	-0.08090169
5	0xbdd3f47e	-0.103493676
6	0x3e4e229d	0.20130391
7	0xbe24f8e7	-0.16110574
8	0xbf1c79b2	-0.6112319
9	0x3e0fbf81	0.14037897
10	0xbd5d4396	-0.054019533
11	0xbd9ea648	-0.077465594
12	0x3db66dc9	0.089076586
13	0xbc5bc899	-0.013414525
14	0xbe661015	-0.22467072
15	0xbc8feeda	-0.017569948
16	0xbdb04b6b	-0.08608135
17	0xbcd8ab9c	-0.026449017
18	0x3cf74c60	0.030187786
19	0xbe8db483	-0.27676782
20	0xbed5ba8a	-0.4174388
21	0xbd45dd23	-0.048306596
22	0xbe33c0b5	-0.1755398
23	0xbd61f5f8	-0.055166215
24	0xbd85b6a6	-0.06528978
25	0x3db394a4	0.08768585
26	0xbcca4bdc	-0.024694376
27	0xbcc149fe	-0.023594853
28	0x3e1773bd	0.14790244
29	0x3d04790a	0.032341994
30	0xbdb010c3	-0.08596947
31	0xbdfaa58a	-0.12238605
32	0xbd7aaf9d	-0.061202634
33	0x3da6e2fc	0.081487626
34	0xbd87d31c	-0.06632063
35	0x3d405a2a	0.046960987
36	0xbd9c1aa5	-0.076222695
37	0xbe802959	-0.25031546
38	0xbe608494	-0.21925575
39	0xbea38730	-0.31939077
40	0xbd094f9b	-0.033523183
41	0x3e4fc3a3	0.20289473
42	0x3dfcf99b	0.12352296
43	0x3e040f58	0.12896478
44	0xbe066247	-0.13123427
45	0x3c57ce97	0.013171813
46	0xbc186615	-0.009301682
47	0x3d79949b	0.060932737
48	0xbde6e89e	-0.11274837
49	0x3dbcd25d	0.09219811
50	0xbddf62d5	-0.109075226
51	0xbdf5f3bd	-0.1200938
52	0xbd8c3431	-0.06845892
53	0xbe853f44	-0.2602483
54	0xbd3f12d7	-0.046648826
55	0x3dc652aa	0.09683736
56	0xbcf8c574	-0.03036759
57	0xbddf7ddc	-0.10912678
58	0xbe557acc	-0.20847625
59	0x3e50ddf2	0.20397165
60	0xbcfdc9fe	-0.030980106
61	0xbe26ebc6	-0.16300878
62	0xbd84eaa5	-0.064900674
63	0x3d11d127	0.035599854
64	0xbd77b4d3	-0.06047518
65	0xbe1494c2	-0.14509872
66	0x3e3d9c91	0.18516757
67	0x3ca7e8e7	0.020496799
68	0x3da5503b	0.08071943
69	0x3d9f1562	0.0776775
70	0x3da963e0	0.08271003
71	0x3eab176c	0.33416307
72	0x3e100380	0.14063835
73	0xbd4f37a1	-0.05059016
74	0x3dc155b6	0.09440176
75	0x3e5f0fff	0.21783446
76	0xbc967ab4	-0.018369056
77	0xbd53951c	-0.051655874
78	0x3de4c724	0.111707956
79	0x3cd783dc	0.026307993
80	0x3de32219	0.11090488
81	0xbb046072	-0.0020199087
82	0x3e1d3954	0.153539
83	0xbcd3814f	-0.025818495
84	0x3d41197b	0.04714344
85	0xbd3681f4	-0.044557527
86	0x3e2366b5	0.15957148
87	0x3e4eb84f	0.20187496
88	0x3dbb4c3d	0.09145401
89	0xbe5ee1ae	-0.21765777
90	0xbce027b0	-0.027362674
91	0x3cfe2b8f	0.03102663
92	0x3dab550e	0.08365832
93	0x3c55498a	0.013018021
94	0x3dce8ae6	0.100850865
95	0x3e659d7f	0.22423361
96	0x3d77c049	0.06048611
97	0x3dd17b1d	0.1022856
98	0x3e0319c0	0.12802792
99	0x3e37b1a0	0.17938852
100	0x3e9ff91e	0.3124475
101	0x3daa58aa	0.083176926
102	0x3c0a18b5	0.008428742
103	0x3dea7dcc	0.11449775
104	0x3e4b8199	0.19873656
105	0x3e17153f	0.14754198
106	0x3da19ddb	0.07891437
107	0xbd313bc5	-0.04326989
108	0x3e0600c8	0.13086236
109	0xbe05f848	-0.13082993
110	0x3dba825e	0.09106897
111	0xbd4d9d63	-0.050198924
112	0xbecbac6d	-0.39779988
113	0x3dc21e24	0.09478405
114	0x3e0e5f0a	0.13903442
115	0x3d957875	0.07298366
116	0x3e0e4b36	0.13895878
117	0x3edf4765	0.43609157
118	0xbecad115	-0.39612642
119	0x3e0dadad	0.13835783
120	0xbc36e57a	-0.01116311
121	0xbd8fe4c0	-0.070260525
122	0x3ddc505e	0.10757516
123	0x3c4829ff	0.012217044
124	0x3d86c1a4	0.06579903
125	0x3c440def	0.011966213
126	0x3df9a849	0.12190301
127	0x3c405dec	0.011741143
128	0xbc4a85df	-0.012361019
129	0xbdf69d7e	-0.12041758
130	0x3c911759	0.017711328
131	0x3e4459c0	0.19174862
132	0xbea5647f	-0.32303235
133	0xbd334e54	-0.04377587
134	0xbe3deb10	-0.185467
135	0xbe1a3564	-0.1505943
136	0x3d53b861	0.05168951
137	0x3d8fde31	0.070248015
138	0xbc990bda	-0.01868241
139	0xbd789d9e	-0.06069719
140	0x3e32736e	0.17426845
141	0x3d972953	0.07380929
142	0x3e028d28	0.1274916
143	0x3d9d5568	0.076823056
144	0x3e668832	0.22512892
145	0xbda18065	-0.078858174
146	0xbe817bd4	-0.25289786
147	0x3e1c10ce	0.15240785
148	0x3caedee2	0.021346513
149	0xbe11182e	-0.1416938
150	0xbda4b983	-0.08043196
151	0x3e446fbe	0.19183251
152	0xbdadbf4d	-0.08483753
153	0x3b3e8b00	0.002907455
154	0xbdb14930	-0.086565375
155	0x3d5aaa62	0.053385146
156	0xbde39aa9	-0.111134835
157	0x3d253463	0.040333163
158	0x3e11d754	0.14242297
159	0xbe4a7167	-0.19769822
160	0x3db5fd8b	0.0888625
161	0x3ee4e47e	0.44705576
162	0x3bd15edc	0.006389482
163	0x3d13c6ec	0.03607838
164	0xbe15aaae	-0.1461589
165	0x3d661d75	0.056180436
166	0xbcc4ee16	-0.02403931
167	0x3e0591b3	0.13043861
168	0xbec02ef8	-0.37535834
169	0xbdbb7ced	-0.09154687
170	0x3dc9c3c5	0.09851793
171	0x3c2596f4	0.010106791
172	0x3e078291	0.13233401
173	0xbd4302bc	-0.04761003
174	0xba8068fc	-0.0009796913
175	0xbe991676	-0.2989995
176	0x3de1662d	0.110058166
177	0xbc154c06	-0.009112364
178	0x3d94ed62	0.0727184
179	0x3e3ad7ad	0.18246336
180	0x3d66d034	0.0563509
181	0xbdbd3b19	-0.092397876
182	0xbcd0f9a8	-0.02550967
183	0xbe5faffa	-0.21844473
184	0x3e4643c5	0.1936179
185	0xbe8c170f	-0.27361342
186	0x3d02ea59	0.031961773
187	0xbec2b4ac	-0.38028467
188	0x3d5d2fcc	0.05400066
189	0xbd482564	-0.048863783
190	0xbe08674d	-0.13320656
191	0xbda284a7	-0.07935458
192	0x3cc4d2c2	0.024026278
193	0x3e82b10e	0.25525707
194	0xbd64d6bc	-0.05586885
195	0x3d1bc518	0.03802976
196	0xbdb2a0df	-0.0872209
197	0xbd333c35	-0.04375859
198	0xbd060eb5	-0.03272887
199	0xbb978828	-0.0046243854
200	0x3e50d219	0.20392646
201	0x3ce56b7a	0.02800535
202	0xbbf365a6	-0.007427889
203	0xbe0ed76a	-0.13949361
204	0xbd2b335e	-0.041797034
205	0xbcb96ec0	-0.022635818
206	0xbd21d0d3	-0.03950579
207	0x39345209	0.00017196698
208	0x3ce263da	0.027635504
209	0xbcb53541	-0.02212012
210	0xbdc4a2f4	-0.09601393
211	0x3d927bcd	0.071525194
212	0x3c9c306c	0.019066058
213	0xbd0b2c9e	-0.033978097
214	0x3dec8096	0.11547963
215	0xbe28bf62	-0.16479257
216	0xbddf1cff	-0.108942024
217	0x3d88a953	0.06672921
218	0xbca16c8e	-0.019705083
219	0xbe7296ed	-0.23690386
220	0xbc579fc2	-0.013160648
221	0xbe8a85c4	-0.2705518
222	0x3e57e73d	0.21084304
223	0xbe5f09f2	-0.21781138
224	0xbd893bdc	-0.067008704
225	0xbd9461a3	-0.07245185
226	0xbdfdf078	-0.123993814
227	0xbd08f709	-0.033438716
228	0xbea33f02	-0.3188401
229	0xbd9f4026	-0.07775907
230	0xbdb3b7fe	-0.08775328
231	0xbd9d2c76	-0.07674496
232	0xbd5867ad	-0.052833248
233	0xbde7a99c	-0.11311647
234	0xbb198031	-0.0023422355
235	0xbee7b67d	-0.45256415
236	0xbe0659e5	-0.1312023
237	0xbe911e52	-0.28343445
238	0x3d7171e6	0.058946513
239	0x3cb2d91f	0.021832047
240	0x3e78a130	0.24280238
241	0xbde2a928	-0.1106742
242	0xbdbaa1d6	-0.09112899
243	0x3d07883e	0.033088915
244	0xbe1c9e02	-0.1529465
245	0x3f3ecc84	0.74530816
246	0x3da7d886	0.081955954
247	0xbcca6ee3	-0.024711078
248	0x3e48e8ae	0.1962001
249	0xbdb384ea	-0.08765586
250	0xbe3b8d8e	-0.18315718
251	0x3d2326ce	0.03983193
252	0x3e505666	0.20345458
253	0x3dabd3a4	0.083899766
254	0xbdcefba5	-0.10106591
255	0xbd1125c9	-0.035436425

fc_q.bias f4 [64]
0	0x3e30ff0d	0.17284794
1	0xbd8434cc	-0.06455383
2	0xbe366fd4	-0.17816097
3	0x3e9577df	0.29193017
4	0x3df04344	0.1173158
5	0xbd46b462	-0.04851187
6	0x3c74fe58	0.014953218
7	0x3dd0a4e8	0.10187703
8	0x3d3bbdf3	0.045835447
9	0xbccc52d9	-0.024941849
10	0x3e7fd61d	0.24984021
11	0xbe1ff9ab	-0.15622585
12	0xbe1c2809	-0.15249647
13	0x3d5815b3	0.05275507
14	0xbdfcfc9e	-0.123528704
15	0xbdc23b18	-0.094839275
16	0xbc8ba927	-0.017048432
17	0xbde52791	-0.11189187
18	0x3e82a7a6	0.2551853
19	0x3e9211c9	0.28529194
20	0xbd9228c9	-0.071366854
21	0x3e33ad9b	0.17546694
22	0xbdce8e8a	-0.10085781
23	0xbe3fa6d1	-0.18715979
24	0xbdeffe1b	-0.11718389
25	0x3e485544	0.19563776
26	0xbe1b4d24	-0.15166146
27	0xbcb0739d	-0.021539504
28	0x3d3485b5	0.044072825
29	0xbdd1aca4	-0.10238007
30	0xbdc73155	-0.09726206
31	0xbd84cfa5	-0.064849176
32	0x3d7f3a83	0.06231166
33	0xbd8fea23	-0.0702708
34	0x3d62b0e7	0.05534449
35	0xbd5903a7	-0.052982
36	0xbd1d424e	-0.03839331
37	0x3e42c2f3	0.1901968
38	0xbe2d902e	-0.16949531
39	0xbdb37333	-0.08762207
40	0x3e8713d4	0.26382315
41	0xbd5915e2	-0.052999385
42	0x3e61f692	0.22066715
43	0xbd938aa5	-0.07204179
44	0x3e2a09cd	0.16605301
45	0x3d3662ab	0.04452769
46	0x3dcb1909	0.099168845
47	0x3e8bf058	0.27331805
48	0xbe03f073	-0.12884693
49	0x3c14d931	0.009084986
50	0xbd56a679	-0.052404854
51	0xbe0831d7	-0.13300262
52	0x3e487c1e	0.19578597
53	0xbdf96681	-0.12177754
54	0x3e9f3f87	0.31103155
55	0xbd8488c9	-0.06471402
56	0x3e632009	0.22180189
57	0x3e52a258	0.20569742
58	0x3e6e5633	0.2327507
59	0x3e3f29b9	0.1866826
60	0x3e214ecb	0.15752713
61	0x3e569899	0.20956649
62	0x3e31899f	0.17337655
63	0xbe085677	-0.13314234

fc_out.weight f4 [1, 64]
0	0xbe419a69	-0.18906559
1	0x3de9c570	0.11414611
2	0x3da660e3	0.081239484
3	0xbe08b908	-0.13351834
4	0xbda634e5	-0.081155576
5	0x3e045b26	0.12925395
6	0xbce7e73a	-0.0283085
7	0xbe2f64d8	-0.17128313
8	0xbe0975ae	-0.13423797
9	0x3d8d599a	0.06901856
10	0xbe240ce5	-0.16020544
11	0x3dd5d06c	0.10440144
12	0x3d8c863b	0.0686154
13	0xbe805d70	-0.25071287
14	0x3e1a07ee	0.15042087
15	0x3e319607	0.17342387
16	0x3da3809d	0.079835154
17	0xbcb23204	-0.021752365
18	0xbe0c056b	-0.13673942
19	0xbe1474cf	-0.14497684
20	0x3df511b2	0.11966266
21	0xbe1a32e0	-0.1505847
22	0x3e769468	0.2408005
23	0x3e2d4c69	0.1692368
24	0x3e2f148d	0.17097683
25	0xbe38d0c1	-0.18048383
26	0x3e6767df	0.22598217
27	0x3dcb1c94	0.0991756
28	0xbd855f01	-0.06512261
29	0x3dc7f8e3	0.09764268
30	0x3dab7a1d	0.08372901
31	0x3e824561	0.25443557
32	0xbda54876	-0.080704615
33	0x3d317981	0.043328766
34	0xbe383865	-0.17990263
35	0x3dd3b30b	0.10336884
36	0x3e04752d	0.12935324
37	0xbe0809c1	-0.13284971
38	0x3e37d0e3	0.17950778
39	0x3cbf2fbd	0.023338193
40	0xbda3bb98	-0.07994765
41	0x3e24f8b7	0.16110502
42	0xbdbdfb2c	-0.09276423
43	0xbe1f635e	-0.1556525
44	0xbe2abe44	-0.16674143
45	0x3d8c6e96	0.0685703
46	0xbddd0641	-0.107922085
47	0xbddab77e	-0.106795296
48	0x3e0fa516	0.14027819
49	0x3daac7e9	0.08338911
50	0x3e177a7f	0.14792822
51	0x3e012438	0.12611473
52	0xbdac2ed2	-0.08407368
53	0xbb18a064	-0.002328896
54	0xbe42ad11	-0.19011332
55	0x3def99b7	0.11699241
56	0xbe3b5bc0	-0.18296719
57	0xbdd2e9b2	-0.1029848
58	0xbe376770	-0.17910552
59	0xbdce90db	-0.10086223
60	0xbe2aaf6c	-0.1666848
61	0xbd8f7b3d	-0.07005928
62	0xbd84a2cf	-0.06476366
63	0x3dc38dd2	0.095485345
