LIRL results/Ablation result/ddpg_lirl_pi_multi_run_50_5/run_6_seed_2856/ddpg_lirl_pi_mu_20250905_150413.pth (torch, 297269 bytes, 6 tensors)

fc1.weight f4 [128, 507]
000000 09 74 a5 3c 9d 48 6a 3d 6a d8 ee 3d fb b2 10 3e
       0.020196931 0.057198156 0.116623715 0.14130776
000010 65 e7 e9 bd 86 35 a7 bc 75 81 0e 3c 10 94 75 bc
       -0.11421088 -0.020411264 0.008697857 -0.014988914
000020 f4 e0 3e bd 90 b7 04 bd 17 f3 31 3c 74 26 06 bb
       -0.04660125 -0.03240162 0.01086118 -0.0020469697
000030 43 d1 09 3d eb ad e5 3c e9 ef a6 3c fe 41 fb bc
       0.033646833 0.028037032 0.02037807 -0.030671116
000040 b6 9b eb bc e0 1d 2c bd 92 a4 96 3c 73 25 ac 3c
       -0.028760772 -0.04202068 0.01838902 0.02101395
000050 30 87 4d bd c1 72 f5 ba c3 b6 86 3c d4 3a 30 3c
       -0.050177753 -0.0018726216 0.01644457 0.010756213
000060 63 3f 75 bc 6d 20 6a bd 20 0c b2 bc 19 f7 33 3a
       -0.014968726 -0.05715983 -0.021734297 0.00068651285
000070 2a a8 17 bd 12 43 28 bd ae 17 ae 3c 4c ec 66 3d
       -0.037025608 -0.04107959 0.021251526 0.056377694
000080 42 8a ea 3a 7d 01 5b bd f8 4a 9b ba 33 90 dc 3c
       0.0017893987 -0.053468216 -0.0011847904 0.026924228
000090 fc a6 e7 bc 78 e9 af bc 29 2c 21 bc 78 b3 45 3c
       -0.028277867 -0.021473631 -0.009837189 0.012066714
0000a0 1b 4c 56 3d 31 59 53 3d dc e6 b5 bc db 27 57 3b
       0.052318674 0.05159873 -0.022204809 0.0032830152
0000b0 6c b7 70 3c 18 f4 3d 3d cd 9a 1b bd 5e 08 0c 3d
       0.014692169 0.046375364 -0.037989426 0.034187667
0000c0 75 9a 49 bb 6c 79 19 3c 85 5e 48 3d 08 10 36 3b
       -0.003076223 0.009367328 0.048918266 0.0027780551
0000d0 90 3e 90 3c ff ca 92 ba 4f 85 1a bd d2 fd 8f 3d
       0.017607957 -0.0011199414 -0.03772479 0.07030834
0000e0 76 be b7 3c 9c dc ad 3b d1 55 24 bd ad e8 87 3b
       0.022429686 0.0053058397 -0.040120903 0.00414761
0000f0 95 3b 0b bd eb 7c 0a 3b 8a 37 3d 3c fc bf 10 bc
       -0.03399237 0.0021131586 0.011548886 -0.008834835
000100 de 9d 1d bd f7 23 61 3c 1f 76 d2 3b 28 c8 b5 bd
       -0.038480632 0.013741485 0.0064227725 -0.088760674
000110 86 0f b2 bd 54 98 96 bd fb 0d 89 bd ed 50 48 bd
       -0.08694367 -0.07353273 -0.0669212 -0.0489053
000120 d4 4a 57 bd 7d 1d 9d 3c 38 c2 61 3d 97 41 17 3d
       -0.052561596 0.0191791 0.055116862 0.036927786
000130 47 e9 df bc 83 10 a5 bd c3 ec 4e bd 0a a4 b5 bd
       -0.027332915 -0.0805979 -0.050518762 -0.088691786
000140 07 3f 52 bd f0 1a a7 bd 0b 43 44 bd cc 6e 33 bd
       -0.05132964 -0.08159435 -0.0479155 -0.043806836
000150 30 3b fc bc 18 1c 14 bc 32 b9 15 bd a3 48 30 3c
       -0.030789942 -0.009039901 -0.03655357 0.010759505
000160 4a 22 5f 3c 5b 27 87 3d 76 99 af 3c 2e 95 37 3d
       0.013619015 0.06599303 0.02143548 0.044820003
000170 33 a7 36 3d b3 14 c3 bc 13 0c 7c bd 2c f5 dd 3c
       0.044593047 -0.023813581 -0.061534952 0.027094446
000180 ce 72 5c bd e0 1d 28 bd 21 8c 23 bd 9b 82 88 bd
       -0.053820424 -0.041044116 -0.03992856 -0.06665536
000190 c9 6c 9a 3c 96 88 c4 3c 30 6e d2 bc 37 d2 1b bd
       0.0188507 0.02399091 -0.025687307 -0.038042273
0001a0 02 4e 93 bd d5 7c 94 3d cd 9e 06 3c ff 59 a2 3c
       -0.07192613 0.07250372 0.008216572 0.019818304
0001b0 6f 10 4d bd 59 1f 9b bd ca 58 4f bd 66 e9 8c bd
       -0.0500645 -0.075743385 -0.050621785 -0.06880455
0001c0 0f 18 50 bd b0 e4 a0 bc 12 88 3e bd 48 20 dd 3b
       -0.050804194 -0.019640297 -0.046516486 0.006748233
0001d0 e6 e6 9a 3c a8 9d 1e bc 16 de 90 3c 5d 27 88 bc
       0.01890893 -0.009681143 0.017684024 -0.016620332
0001e0 3e 91 18 bd e8 27 32 bd 38 16 8b 3c 24 bb 3c bc
       -0.03724789 -0.04349509 0.016978368 -0.011519227
0001f0 76 00 f2 3c 1f 75 cd 3c 02 b2 27 bd 6f 52 b1 bc
       0.029541235 0.025080262 -0.040941246 -0.021645753
000200 06 4f 06 3d dc cf ee 3c 5f 7b a4 bc 19 c1 18 bd
       0.032790206 0.02915185 -0.02007836 -0.037293527
000210 c8 bf 7f bb 01 52 ff 3c a1 08 e8 3c 55 1f 07 3d
       -0.0039024223 0.031167032 0.028324427 0.032988865
000220 45 9e 16 3c d5 59 1d bd 32 1c 12 3c cd 9b b5 bc
       0.009193008 -0.03841575 0.008917855 -0.022169018
000230 9d 5f 0f 3c 2f be 0b bd 28 b4 b5 bc ad 70 17 3d
       0.008750823 -0.03411692 -0.022180632 0.03697269
000240 62 02 ad 3b f7 da 0d 3d db 05 e2 3b 16 40 24 bd
       0.005279825 0.03463265 0.0068976707 -0.04010018
000250 04 ab 22 3d 3c 52 2a bc 28 70 50 bd de f2 57 bd
       0.039713874 -0.010395583 -0.05088821 -0.05272185
000260 cd c1 ab 3c 7f 2f bb 3c 1d ae a9 ba 64 4a 18 bd
       0.020966435 0.022849796 -0.0012945567 -0.03718032
000270 1f a1 66 bc 38 cd 2d bc 62 09 3a bc 17 67 d7 bc
       -0.0140765 -0.01060801 -0.011354776 -0.026294274
000280 ad bb 33 bd 64 a7 73 bd f2 bd 5a bd a1 8a fb bd
       -0.043880153 -0.059485808 -0.053403802 -0.12282301
000290 42 9e b2 bd 9b 66 44 bd 17 17 af bd 8c 06 be bd
       -0.087215915 -0.047949415 -0.08549326 -0.092785925
0002a0 52 2b 86 bd 25 fc 9c bd 07 33 a0 bb fc d3 a6 bc
       -0.065512314 -0.0766528 -0.0048888954 -0.020364754
0002b0 9a d6 3b bc e8 d9 dd bc 75 85 0b 3d 3b 36 74 bb
       -0.011464739 -0.027081445 0.03406282 -0.003726377
0002c0 89 42 ff bc c6 52 20 bb f1 57 d4 3c 46 ec a1 3c
       -0.031159656 -0.00244634 0.02592084 0.019765984
0002d0 76 3f 84 3d 4c 54 70 3d 85 1b 28 bb db b7 73 3d
       0.06457417 0.05867414 -0.0025651169 0.05950151
0002e0 6e 6b 45 3d e9 d4 58 bb 51 d7 b7 3c 10 5a 96 3d
       0.048198156 -0.0033085889 0.022441538 0.07341397
0002f0 a4 8c 7a bc 76 bb 6a 3d ad 55 60 3d 4e ad 00 3c
       -0.01529232 0.057307683 0.054769207 0.007853819
000300 09 5b 64 bb da 31 20 3d a8 c7 2e 3d 75 f5 c5 bb
       -0.00348443 0.039110042 0.042670876 -0.0060412236
000310 ab 67 02 3d ff 77 87 3d fa a5 80 3d 76 30 69 3c
       0.031837147 0.06614684 0.062816575 0.014232745
000320 d6 81 92 3c 3a c2 a3 3c 3d 35 69 3d 63 f6 89 3d
       0.017884176 0.019990075 0.056935538 0.06736448
000330 30 af dd 3d fd 43 91 3d ed f8 79 3d 18 fb 01 3e
       0.1082443 0.07093046 0.06102841 0.12693441
000340 20 25 f7 3d 0c 59 04 3e da 96 be 3d 8d 6f 18 3e
       0.12067628 0.12924594 0.093061164 0.14886303
000350 08 bf de 3d 2c 0f 05 3e 4e 03 0d 3e b8 53 24 3e
       0.1087628 0.12994069 0.13770792 0.16047561
000360 7b 5b 31 3e 6b be 1e 3e b6 4a 11 3e c6 f6 24 3e
       0.17320053 0.15502326 0.14188656 0.16109762
000370 56 5b 08 3e ef 7b f1 3d 44 85 ad 3d 64 7c e5 3d
       0.13316092 0.117912166 0.08472684 0.11205366
000380 68 f4 bf 3d 66 25 db 3d 2d eb b1 3d 82 e2 80 3d
       0.09372789 0.107004926 0.08687434 0.06293203
000390 a1 95 be 3d 51 90 29 3d 75 83 cd 3c a2 b4 f4 3c
       0.09305883 0.041397396 0.025087098 0.029871289
0003a0 b1 3e a0 3d e4 25 bc 3d e7 7f 9e 3d b1 5a 3b 3d
       0.078244574 0.091869146 0.07739239 0.045740787
0003b0 06 b0 90 3d d1 4d 55 3d 6f 17 b6 3c e8 e3 a2 3d
       0.07064824 0.052076165 0.02222797 0.07953626
0003c0 cb 6b 84 3d ed 44 3a 3c a1 34 de bc ae 54 5c bd
       0.064658724 0.011368972 -0.027124705 -0.053791694
0003d0 3a 6e b0 bd 12 bd 5c bd b2 46 b8 bd 72 a4 16 be
       -0.08614774 -0.05389125 -0.08997859 -0.14711168
0003e0 b0 38 70 be b2 db b3 bc 6e a1 88 3d d3 af e4 3c
       -0.23459125 -0.021955345 0.06671415 0.02791587
0003f0 38 78 8c 3d 1b c1 f1 3d a0 7f 40 3d 49 c9 18 bd
       0.068588674 0.1180441 0.046996713 -0.037301335

fc1.bias f4 [128]
000000 06 ac a2 3d 86 24 27 3e 89 10 ab 3c 24 29 f6 3d
       0.07942967 0.16322526 0.020881908 0.12019566
000010 17 7a b6 3d 50 a4 3b 3c 37 e0 a3 3d 84 dc d1 bd
       0.089100055 0.011452749 0.0800175 -0.10247138
000020 2d 1a 3a 3d b7 5a 3b 3e 7a ed ff bc 0b 7c 78 bd
       0.04543512 0.18296324 -0.031241167 -0.06066517
000030 f6 27 15 3d 73 78 e9 bd 63 16 a4 3d e1 fa 33 3e
       0.036415063 -0.11399927 0.080120824 0.17576171
000040 04 0f 66 3c 67 8b 89 3d e9 94 e9 bc 0c 12 17 3e
       0.014041666 0.06716042 -0.028513389 0.14752978
000050 b7 78 d4 3d 21 c2 33 3d a1 68 02 3e 43 dd 81 3d
       0.10374587 0.043886308 0.12735225 0.063410304
000060 1a fc c2 bd 0a 8c 0b bd 05 71 b7 3c bd 0c af 3d
       -0.09520741 -0.0340691 0.02239276 0.085473515
000070 c6 1e 1e 3c 02 c4 77 3d ff e7 e7 bc b9 90 67 3c
       0.009650892 0.060489662 -0.028308867 0.014133626
000080 85 20 30 3c 93 e9 17 bc 96 b2 2b bc a0 44 cd bd
       0.010749941 -0.009271997 -0.01047959 -0.10022855
000090 5e 08 eb 3d df f4 9e 3d d7 73 6d 3d 9d 65 cc 3d
       0.11476205 0.07761549 0.0579718 0.09980319
0000a0 63 2a 37 3d 65 aa 7c 3c 24 8f 63 3d 4d c6 08 3c
       0.044718158 0.015421485 0.05555643 0.00834806
0000b0 9b ed ae bd 94 0d e6 3c 8c be 68 bd e5 6f 29 3e
       -0.085414134 0.028082646 -0.056822345 0.1654659
0000c0 60 cd aa bc 06 e7 22 be ac 62 3a bb 63 ea f7 3d
       -0.020849884 -0.15908441 -0.002844016 0.121052526
0000d0 e1 a5 96 3d c5 bb 9e bd 82 c4 08 3d d7 1c 11 3e
       0.07355858 -0.07750658 0.03339053 0.14171158
0000e0 9c 36 8a 3d 1f 0a f2 3c 57 27 90 3d 72 9b 0a 3e
       0.06748697 0.029545842 0.070387535 0.1353586
0000f0 4d 88 3c bc fa 55 f8 3d 2a f8 e5 3d 69 e8 7a 3d
       -0.011507106 0.12125774 0.11228974 0.0612568
000100 2f cc d4 3d 39 9d 8a 3d ba 05 bd 3c 35 5a 84 bd
       0.103905074 0.06768269 0.02307402 -0.06462518
000110 92 e9 2f 3d 3e ce 56 3d e5 6b 21 3e f9 87 c6 3d
       0.04294736 0.05244278 0.15763815 0.096939035
000120 03 bd 0d bd 82 ed ff 3d 72 93 8b 3d cf 23 51 3d
       -0.034604084 0.12496473 0.06815232 0.05105954
000130 1f 72 4a 3e 5c 3f c7 bc 4d 70 fc 3d 8e 22 e9 3d
       0.19770096 -0.024322204 0.12326107 0.11383544
000140 a6 af 09 3e 18 ff a5 39 2d 44 79 bd f5 15 d4 3c
       0.13445911 0.00031661312 -0.060856033 0.025889376
000150 fe a4 01 3e 47 48 c9 3d c9 6c 71 3d c0 84 41 3d
       0.12660596 0.09828239 0.058941636 0.04724574
000160 d4 2d d6 bd de 11 8f 3d 82 b0 ac bd b4 e1 89 3d
       -0.1045796 0.0698583 -0.08432104 0.067325026
000170 c8 88 08 3e 1f f7 69 bc a2 2e 53 bd 80 5a 63 3b
       0.13333428 -0.01428011 -0.051558144 0.0034691393
000180 ca 3d f8 3c 90 ac 6a bd 4a 50 1a 3e 2c 85 56 3d
       0.0303029 -0.057293475 0.1506969 0.052373096
000190 88 bd 93 3c f7 53 a0 bd dd 66 9c bd c0 44 cd 3d
       0.018034711 -0.07828515 -0.07636807 0.10022879
0001a0 08 7a 9b bd 97 16 15 3e 89 30 8f bd 6a 29 e5 3c
       -0.07591635 0.14559399 -0.06991679 0.02797385
0001b0 4e 01 86 3d 3a ca e6 bb 20 4c 34 bb 3f 49 9b 3d
       0.065432176 -0.0070431503 -0.0027511194 0.0758233
0001c0 3e 39 8f 3c ce 19 df bc db df 63 3e 67 cd 70 bd
       0.01748335 -0.027233984 0.22253363 -0.058789637
0001d0 37 e4 ae 3d ae bb 23 3d 62 0b b3 bc c1 e9 46 3e
       0.08539622 0.039973907 -0.021856014 0.19425108
0001e0 79 fb a7 bc ac f7 7c 3d b6 24 c7 3b 9a 7c 83 bd
       -0.020505654 0.061759636 0.0060773743 -0.0642025
0001f0 01 93 1d 3e 2e be d3 bd 64 b9 90 3d b1 f6 6c 3c
       0.15388109 -0.10339008 0.070666105 0.014463113

fc2.weight f4 [64, 128]
000000 80 8d fb 3c cc 91 74 3d 05 57 bc 3c 57 3b 15 3e
       0.03070712 0.059709355 0.022990713 0.14573418
000010 ed 1c f7 3d f5 c6 4a bd c7 32 05 3d 9b c9 49 3e
       0.12066064 -0.049506146 0.03251913 0.19705813
000020 93 e3 f4 3b 86 fb 63 3e 8c c2 b1 bd da 1d 9b 3d
       0.007473418 0.22263917 -0.08679685 0.07574053
000030 24 b0 94 3d 21 3e 98 3d f2 e1 12 3d 18 dc 1e bd
       0.07260159 0.07433725 0.03586001 -0.038784117
000040 9d 25 64 3d 3d 48 03 3e 41 80 d8 3d 8e b2 4f bd
       0.055699933 0.12820525 0.105713375 -0.050707392
000050 f9 aa e4 3d 93 c2 a6 3d 18 0c ad 3d 70 3a 78 3d
       0.11165423 0.08142581 0.08449572 0.060602605
000060 11 e0 5e bc 43 6a 5a bd 10 ac 75 bd d6 3e 85 3d
       -0.013603226 -0.053323995 -0.059978545 0.06506126
000070 1c e5 8d bd 3c 07 9a 3e d5 d2 ef 3c f9 2b 4c 3d
       -0.06928465 0.30083644 0.029275337 0.049846623
000080 d5 4c e6 bc 4f 5a de 3d 22 33 82 bd 91 a2 da 3d
       -0.028112808 0.10857069 -0.06357409 0.10675538
000090 c7 db 1d 3e fd de 02 3e 59 d6 d3 3c 69 00 f1 bc
       0.1541587 0.12780376 0.025859045 -0.02941914
0000a0 40 9d 9a 3d e7 63 4f 3c b6 92 66 3d 46 b1 92 3d
       0.07549524 0.012658096 0.05629226 0.071627185
0000b0 f8 49 aa 3d 2e 93 fb bd 06 4c 5c 3d 66 4b 17 3e
       0.0831489 -0.12283932 0.05378344 0.14774856
0000c0 51 8b e8 bc 0c c5 a7 bd f5 ab 67 3d 40 73 06 bd
       -0.028386744 -0.081918806 0.056560475 -0.032824755
0000d0 7d 5f 59 3d bb 26 1a 3d a1 91 57 bd 14 92 d6 3d
       0.05306958 0.037634593 -0.052629117 0.10477081
0000e0 5c 39 a5 3b 21 87 2b 3d 76 eb 78 bd 82 20 ae bc
       0.005042238 0.041876916 -0.060771428 -0.021255735
0000f0 5d bd 41 bd cf 71 25 bd 94 4a 37 3d 73 7c 15 bc
       -0.04729973 -0.04039174 0.044748858 -0.009123909
000100 04 41 3f 3c fd a8 b5 3d 47 bb 30 3d 56 92 93 bd
       0.011673216 0.088701226 0.04314735 -0.07205646
000110 31 42 ec 3c bf b7 9d bd 0a 2d 48 bc 28 53 da 3d
       0.028840156 -0.077010624 -0.012217769 0.10660392
000120 a4 61 df bc 43 81 2a 3e ea 8d 1d bd b2 a2 10 bd
       -0.027268238 0.16650872 -0.038465418 -0.03531141
000130 4d b9 22 be 08 23 33 bd 78 7d 2a 3d 53 1f 8f 3d
       -0.15890999 -0.04373458 0.041623563 0.069883965
000140 e3 72 9f 3d 4e dc e8 3d d8 60 80 3d fa 7f e7 bc
       0.07785585 0.11370145 0.062684715 -0.028259266
000150 eb 67 64 3d 36 b2 8e 3d 83 24 43 3d b2 8c 1c 3d
       0.055763166 0.06967585 0.047642242 0.038220115
000160 95 96 9d 3d c8 38 e4 3d 22 3e be 3d c9 e4 6b bc
       0.07694737 0.11143643 0.09289195 -0.014397808
000170 f1 6d ac 3a 3a 03 ef 3d 5c 9d 89 3b 9b 71 de bc
       0.0013155324 0.11670537 0.004199667 -0.02715378
000180 da 16 97 3d af 2d e7 bc a0 16 03 3e c7 95 25 bb
       0.073774055 -0.028220026 0.128016 -0.0025266276
000190 b8 88 c3 3d 8e c5 4d 3d 04 06 15 bd 16 cc 08 3d
       0.095475614 0.05023723 -0.03638269 0.033397757
0001a0 d9 3e 40 3b 36 9a bb bd bc 92 f5 3d 8d 33 a2 bd
       0.0029334335 -0.09160273 0.11990878 -0.07919989
0001b0 2f 45 d2 3e 2f 8c 03 be db 05 d5 3d 29 6e 6f 3e
       0.41068408 -0.12846445 0.104015075 0.23381867
0001c0 8f c2 28 3b 14 8e c1 bb e1 6e 14 bd d9 d4 d5 3d
       0.0025750732 -0.0059068296 -0.036238555 0.10440988
0001d0 ea fd 15 3e 5b 07 a6 3b 91 75 af 3d a0 cf 4a bd
       0.14647642 0.005066795 0.08567346 -0.049514413
0001e0 a6 3c 10 3e b6 4e b4 3d 33 a7 11 bd b4 e2 14 bd
       0.14085636 0.088040754 -0.035559844 -0.036349013
0001f0 95 20 9a bb 72 43 b7 3c 44 2b ac bc d4 48 f8 3d
       -0.004703591 0.022371028 -0.021016724 0.12123266
000200 c0 54 ca bd f4 36 61 3d 59 b8 6b bd 66 a1 3a bc
       -0.09879446 0.054984048 -0.057548855 -0.011391019
000210 53 e0 fd 3d 9f 94 10 be b7 f3 ad 3d 92 95 c9 bc
       0.12396302 -0.14119194 0.084937505 -0.024607453
000220 d1 d9 e1 3d b3 e4 d4 3c e3 98 f8 bc 16 4b 7a be
       0.11027873 0.025987959 -0.03034634 -0.24442706
000230 c7 52 c0 bd 5c ea c8 3d 66 97 d8 bb 97 4c 5d 3d
       -0.093907885 0.098103255 -0.006609845 0.05402812
000240 c1 cf f3 bc 3b dd bb bd 11 84 22 be b1 98 fa 3c
       -0.02976215 -0.09173056 -0.15870692 0.030590387
000250 70 b5 c4 bc 88 a5 ab bd 9c dc 0c 3d de 8e c4 3d
       -0.024012297 -0.08381182 0.034390077 0.09597562
000260 d4 39 5c 3c ac 37 27 3c 78 e2 a7 3d 05 ba af 3c
       0.013441522 0.010206144 0.08197492 0.021451006
000270 fa 3c e4 3c e9 f8 fc 3c fe 4e 1b 3d 8a 8b 5e bd
       0.027861107 0.030880408 0.03791713 -0.054332294
000280 c4 02 9d 3d 4c df 81 bc ea 5e 64 bd 6f 60 90 bd
       0.07666543 -0.015853547 -0.05575458 -0.07049643
000290 0a 77 bb ba ee f6 1b be de 4d 05 be b6 21 b2 bd
       -0.0014302444 -0.15230915 -0.13017985 -0.08697836
0002a0 6d 19 ca bd 91 8e 2e be b1 fc 42 3c c0 c2 35 3d
       -0.09868131 -0.17046572 0.011901067 0.04437518
0002b0 02 74 03 bd c7 bb 4a 3d 1e 64 9a bc da 7a 85 bd
       -0.032093056 0.049495485 -0.018846568 -0.06517573
0002c0 8e e3 95 ba 1b 50 28 be f6 2e 0a 3c 7e 0b f6 bd
       -0.0011435614 -0.16436808 0.008434048 -0.12013911
0002d0 f4 38 86 bd 18 31 0c 3d 41 5e 01 be 79 2f 2e 3e
       -0.06553832 0.034226507 -0.12633611 0.17010297
0002e0 59 91 86 3d 4a 2e 92 bc ec dd bb 3e 0a 1e 3d bd
       0.065706916 -0.017844338 0.3669275 -0.046171226
0002f0 58 b6 37 bc 08 03 32 be 9e 2a 20 be 58 76 5c bd
       -0.011212908 -0.17383969 -0.15641257 -0.0538238
000300 46 60 60 be 86 46 e9 3c 7f d8 71 bd a7 d4 32 bc
       -0.21911725 0.028476011 -0.059044357 -0.010914958
000310 57 5c 0f 3e d1 55 9e 3d 20 f8 73 3d 74 fc 9e 3d
       0.14000069 0.07731212 0.059562802 0.07762995
000320 06 eb d0 bc bb ec b1 3e ef b8 54 bd 3e e4 c9 bd
       -0.025502693 0.34750924 -0.05193418 -0.09857987
000330 19 5a 3c 3e 0c 80 6b 3c 73 68 2c be b7 37 8c bd
       0.18393745 0.0143737905 -0.16836719 -0.06846564
000340 1c 79 55 3e 9a fa f0 bc c6 2a c6 3d 9f bd 83 be
       0.20846981 -0.029416371 0.09676127 -0.25730607
000350 12 e8 69 be 46 12 cc 3e e5 34 a6 bd ae 12 bb bd
       -0.22842434 0.39857692 -0.081155576 -0.09134422
000360 1a 0e 3a bd aa 73 ce 3c 6a 18 20 3c 76 c3 b1 bc
       -0.045423605 0.025201637 0.009771446 -0.021699648
000370 30 68 80 bd e0 82 5f bc 1c ae a3 bd 4a 27 2b bd
       -0.06269872 -0.013642043 -0.07992193 -0.041785516
000380 93 94 f9 bc 13 a2 9b bd b4 42 52 3e 15 c9 6f bd
       -0.030466354 -0.075992726 0.20533258 -0.058541376
000390 c2 f0 f8 bb a0 9b bf bc 5a 2e 90 3b f7 09 83 be
       -0.00759706 -0.023389637 0.004400057 -0.2559354
0003a0 e4 e9 6d 3e a8 47 2f bd a8 f4 f9 bd a9 d6 42 3e
       0.23233753 -0.042792946 -0.122048676 0.19027199
0003b0 4b 32 a5 be b8 e3 0e be ab df 33 be e9 4a 37 3e
       -0.32264933 -0.13954055 -0.17565791 0.1789967
0003c0 cf 02 71 be f2 b6 68 bd bf 1b 9c b9 2a 69 12 be
       -0.23536228 -0.056815095 -0.0002977531 -0.1429793
0003d0 20 07 99 3e 3e 4b 5f 3d 66 43 af 3c 2c f8 7d bd
       0.29888248 0.054515116 0.021394443 -0.062004253
0003e0 c5 ad 89 bd 48 ad 92 3d 62 e4 ff 3c f6 08 33 3d
       -0.06722597 0.07161957 0.031236831 0.043709718
0003f0 59 d4 4f bd e7 4e 91 3d b2 4e 4f be 76 d0 10 3d
       -0.05073962 0.070951276 -0.20244864 0.035355054

fc2.bias f4 [64]
000000 a8 1c 92 bd 2b 34 5c 3d bb d8 35 3d 0a 95 69 ba
       -0.07134372 0.05376069 0.044396143 -0.0008910453
000010 6b 4a 92 bd aa 1c 5e bc 2d 50 dc ba ef a6 cd 3d
       -0.071431 -0.013556639 -0.0016808562 0.10041606
000020 39 25 83 bd 59 c9 74 3e 61 5c 8d 3d 99 c9 19 3c
       -0.06403584 0.23904933 0.069023855 0.0093864435
000030 27 97 96 bd 1e 28 39 3e 04 d4 3f 3c f0 97 bf 3d
       -0.07353049 0.1808171 0.011708263 0.09355152
000040 20 07 b4 3d 26 51 f0 bd 91 95 2e 3d 41 60 14 3c
       0.087904215 -0.11734228 0.042623106 0.009056152
000050 be f2 1d 3b a0 c9 67 bd 29 9a 21 bd 56 8f 93 bd
       0.0024100984 -0.05658877 -0.03945366 -0.072050735
000060 2b 92 ae 3c df cc d3 b8 4c 0c 85 3d 0d 65 2c 3d
       0.021309933 -0.00010099424 0.06496486 0.042088557
000070 17 89 01 3e 81 3f 66 bc b2 32 2f 3d 76 29 df 3c
       0.12649952 -0.014053226 0.042772956 0.02724145
000080 d3 68 c6 bc 24 78 81 bd f3 73 0f be 00 fb 09 bc
       -0.024219906 -0.06321743 -0.14009075 -0.0084216595
000090 04 69 e4 3c a4 6a 9c 3c 80 57 1f 3e 60 48 3b bd
       0.027882107 0.019093819 0.15560722 -0.04572332
0000a0 7c 03 8d bd 6f 21 07 3c 94 f2 48 bd 43 4f 41 3d
       -0.0688543 0.008247717 -0.049059466 0.04719473
0000b0 d2 dc 1a bc b9 a0 65 3d 77 12 77 bd 03 e8 9b bb
       -0.009452062 0.05606148 -0.060320344 -0.0047578826
0000c0 df 7e 29 bb a3 76 2c 3d c1 e0 22 3e ac ff 4e 3e
       -0.0025862975 0.04210533 0.1590605 0.20214719
0000d0 a8 50 64 3b 28 06 bd bd 7f ac 28 3e 89 7b 26 3e
       0.0034838114 -0.0922969 0.16472052 0.16258062
0000e0 bb ed 22 3e f7 95 9f bd 34 cc d9 3d e6 9e e0 bd
       0.15911 -0.077922754 0.10634652 -0.109678075
0000f0 bd 25 b5 3c 4a 22 85 bd 37 4e 01 3d 85 49 5e bc
       0.022112722 -0.06500681 0.031568732 -0.013567333

fc_mu.weight f4 [3, 64]
000000 df 18 02 bf f7 4e 34 bf a8 b6 e6 be 6b 37 15 bf
       -0.508192 -0.7043299 -0.4506123 -0.58287686
000010 44 9c 7d 3d fa ef d5 be 3d 34 cc 3d 22 52 e3 be
       0.061916605 -0.4178465 0.09970901 -0.443986
000020 29 c8 85 3c 3a 52 a9 bf fb d7 e9 bf 10 93 1c bf
       0.016330795 -1.3228219 -1.8269037 -0.611619
000030 18 04 32 bf a5 fe 29 bf cc 66 21 bd 04 86 28 bf
       -0.69537497 -0.6640418 -0.039404675 -0.6582949
000040 32 8e b3 bd de 85 e2 bd 88 c7 09 be 56 a0 8c bd
       -0.08767356 -0.110606894 -0.13455021 -0.06866519
000050 3a f2 61 3d 9a 00 aa 3d 96 37 ac bc af b1 9d bf
       0.055162646 0.08300896 -0.0210226 -1.231985
000060 99 d8 08 be 9a 51 45 be ed d7 9c bd b6 25 84 bd
       -0.13363875 -0.1926941 -0.07658372 -0.06452505
000070 a8 a6 f2 be c1 ff 11 3d 4c 1e b4 3d f2 cd 3c bd
       -0.47392774 0.035644297 0.08794841 -0.046094842
000080 e0 96 71 bf bd c3 2a bd b9 6b 83 bf 5d 50 98 bf
       -0.9437084 -0.041690577 -1.0267249 -1.1899525
000090 ae 88 b9 bd 06 0d 23 3d ef 03 3f bf f7 16 63 3d
       -0.09059273 0.039807342 -0.7461538 0.055441823
0000a0 08 39 86 3c 53 b6 05 be 65 8a ca bc 37 3b 81 3d
       0.016384616 -0.13057832 -0.024724195 0.063101225
0000b0 35 56 c2 3c 88 65 11 bf 37 5f 97 bb 63 d6 be 3d
       0.023722747 -0.5679555 -0.004619505 0.09318235
0000c0 25 06 61 bc ea 5e 37 bf a1 25 da be 38 24 85 bf
       -0.013734375 -0.716292 -0.42606834 -1.0401678
0000d0 74 c2 81 be bd ff af 3d 28 91 70 bf 15 60 fb be
       -0.25343668 0.085937 -0.9397149 -0.49096742
0000e0 bf d2 85 bf c0 f5 11 bf 19 04 07 bf 32 af a9 3c
       -1.045494 -0.5701561 -0.5274063 0.020713422
0000f0 18 29 62 bd 22 d8 56 be 18 58 a7 bd 1a b2 17 bf
       -0.05521497 -0.20980886 -0.081710994 -0.59256136
000100 38 79 de bb aa 09 8c 3e 56 0a 29 be 20 db 2a 3b
       -0.0067893527 0.27351123 -0.16507849 0.002607055
000110 34 b3 7a 3d f6 f4 bc 3c 2d ed 14 3e ae e6 9b bd
       0.061206058 0.023066025 0.145436 -0.07612358
000120 48 ba 41 be ac 31 a5 3c 55 c9 ad bd 3b 79 80 3e
       -0.18918717 0.020165287 -0.08485667 0.25092492
000130 a5 81 e8 3d e2 97 98 3d bd ae 2a 3e 18 8c 02 3d
       0.11352853 0.07450844 0.1666822 0.031871885
000140 64 3f 4b 3d a0 23 b4 bd d2 d6 eb 3d 92 fa 87 3d
       0.049621 -0.087958574 0.11515583 0.06639589
000150 29 c3 bd 3d 2a c4 14 3e 57 9c 06 3d 42 25 aa 3d
       0.092657395 0.14527956 0.03286394 0.083078876
000160 0e d6 f4 bd b7 52 93 bd c6 de c2 3d fd 37 1d 3e
       -0.1195489 -0.07193511 0.09515147 0.15353389
000170 e7 6d 7d 3d 2b 3d e7 3d 0b 83 f7 bc 1b c4 d6 3d
       0.06187239 0.11290964 -0.030213853 0.10486623
000180 ab 5a b8 bc b4 16 ad 3d de ec 85 bd 21 95 95 3d
       -0.022504171 0.08451596 -0.065393195 0.07303835
000190 14 12 0b bd 32 1a bf 3d cf 01 60 bd 5d 8c df 3d
       -0.033952788 0.09331168 -0.054689225 0.10915444
0001a0 12 30 57 be 5b fe 54 3d 67 94 8b 3d 9c 0b d8 bd
       -0.21014431 0.052000385 0.06815415 -0.10549089
0001b0 98 d7 cb bc 94 fd d8 3d 63 77 88 3d 10 fb 26 3d
       -0.024883077 0.10595241 0.06663396 0.040766776
0001c0 60 b3 80 3d e4 8e e9 3d 06 a1 50 3d 48 70 85 ba
       0.06284213 0.11404207 0.050934814 -0.0010180557
0001d0 48 af 4b bf 22 59 3e bb d8 72 01 bc 1b 99 4a 3d
       -0.7956433 -0.0029044827 -0.007900916 0.04946242
0001e0 bf 38 3e bd d9 f1 47 bd 1e 7e bc bd b0 ca 8a bc
       -0.046440836 -0.04881463 -0.092037424 -0.016942352
0001f0 c4 1f 52 3d b8 2b 45 bd d4 ae 02 3f 19 2d 0c bc
       0.051299825 -0.048137397 0.51048017 -0.008555674
000200 f8 dc 2e 3c 20 0d 85 3d 11 1b c4 3d 13 d1 14 39
       0.0106728 0.06496644 0.09575475 0.00014192266
000210 36 00 9f bd b9 35 7d 3d a7 ba fe 3c 89 44 c3 bd
       -0.07763712 0.061818812 0.031094862 -0.095345564
000220 7e 65 b5 bd d9 d8 e2 bc 6e 41 69 bd 22 4c 05 3c
       -0.08857249 -0.027691292 -0.056947164 0.008135827
000230 21 61 0e 3e a5 bf 97 bd 00 e6 0d c0 23 b4 4c bd
       0.13904239 -0.074096 -2.217163 -0.04997648
000240 6d c4 2f be 16 fa 05 bd 26 5d b5 3d b7 52 d7 bc
       -0.17164774 -0.032709204 0.08855657 -0.026284559
000250 7f b8 66 bd a6 3b 42 bb 60 06 d4 bd 3c 24 e3 3d
       -0.056328293 -0.0029637604 -0.103527784 0.110908955
000260 c3 cc dc be c2 a3 83 3d 67 5b ef bd 2a d4 30 bf
       -0.4312497 0.06427719 -0.116873555 -0.69073737
000270 66 b9 a9 bd 72 f9 d4 be ca 29 84 bd c8 2a 0f bc
       -0.08287315 -0.41596562 -0.06453283 -0.008738227
000280 18 73 bc 3d 20 c3 02 3e cc 01 9f 3d 52 ef 69 be
       0.0920164 0.12769747 0.077640146 -0.228452
000290 f4 b5 aa bd 17 75 34 3d f8 3c 97 bd 57 05 ae bd
       -0.08335486 0.044056978 -0.07384676 -0.08497112
0002a0 37 e0 a6 3b 73 4d 8e bd 55 81 02 bd 30 28 99 3d
       0.0050926465 -0.06948366 -0.031861622 0.07478368
0002b0 cb 47 9e 3d 83 6d 00 be 28 a1 99 3d 94 d9 74 bd
       0.07728537 -0.12541775 0.07501441 -0.05977781
0002c0 b2 bf 05 bc 35 15 0a be ca 76 9e bd 08 03 fd bb
       -0.0081633795 -0.13484652 -0.07737501 -0.0077213086
0002d0 95 1a 09 be 28 8f a6 bd 78 37 f3 bd 0f f1 a2 bd
       -0.13389046 -0.08132774 -0.11875814 -0.079561345
0002e0 bf 94 80 bd 3a b3 ef bf 35 c0 ee bd c0 f6 cd bd
       -0.06278371 -1.8726571 -0.11657754 -0.100568295
0002f0 70 24 5d bd db 69 96 be cf c4 af 3c 23 95 41 bf
       -0.053989828 -0.29377636 0.02145615 -0.7561819

fc_mu.bias f4 [3]
000000 3d ce e5 be b7 32 69 3d b8 f4 03 be
       -0.4488391 0.05693313 -0.12886322
