LIRL results/EV-Charging/lirl/run_3_seed_714/ddpg_lirl_pi_q_target_20250912_063416.pth (torch, 31921 bytes, 7 tensors)

fc_s.weight f4 [64, 39]
-0.5838143 -0.34707254 -0.18981144 -0.38593668 -0.33117774 -0.10127466 0.45906818 0.16091946
-0.100389086 0.061425265 0.1246832 0.42181447 0.2703009 -0.058735944 -0.2144466 -0.36353302
0.14198539 -0.15915832 0.0050530653 0.031958636 -0.33929288 0.009295533 0.094794944 -0.54571944
0.17687193 -0.085524626 -0.15992172 -0.55092674 0.39408875 -0.20010276 0.32961518 0.031132974
0.6377068 0.034907788 0.2869907 0.10601712 0.52679265 0.9788984 1.1424828 0.38551655
0.30889308 0.37717164 0.47406864 0.20452978 0.026203929 0.058928695 0.31675825 -0.40125296
-0.013616521 -0.07777346 0.4515479 -0.56790406 0.050981414 -0.17863332 0.32707855 -0.5136897
-0.02670363 -0.07501231 0.71737283 -0.42377305 0.017835654 -0.021402596 0.4607892 -0.16065152
-0.0055385954 0.03788347 0.9235669 -0.43298948 0.05873799 0.08601682 0.54579365 -0.45533335
-0.068149686 0.31646067 0.2883909 -0.56340575 -1.293054 -0.9429079 -0.19346681 0.22721222
0.53369117 0.4326606 0.3252651 -0.050686114 -0.50449574 0.7583561 -0.7378554 -0.009506452
0.14103055 0.75656724 0.20687382 -0.06680966 0.11932957 0.6680109 -0.5904853 0.066126935
-0.09700557 0.67457944 -0.3131377 -0.07044805 0.23579144 0.30494624 -0.3646594 0.017490266
-0.15212527 0.1296613 -0.6994054 -0.06826415 0.27975258 0.7376298 -0.26064458 0.055542096
-0.048014104 0.7890652 -0.6493059 -1.1575307 -1.007829 0.0028104617 -0.13820413 0.07556509
0.05224731 -0.107135236 -0.10534232 -0.12439919 0.18162483 -0.4599272 -0.106440336 -0.22982258
0.049678046 -0.08476954 -0.14366417 -0.12892346 -0.19993499 -0.5421776 -0.11444834 0.099981815
-0.30951884 -0.56573147 0.10025374 -0.14919455 0.17066064 -0.063506685 -0.15129864 -0.16030383
-0.07567161 -0.1698 -0.064615734 0.19332659 0.0724531 0.013608008 0.0814776 -0.026565528
-0.011102329 0.023429068 -1.0190649 -1.0992838 0.2991892 0.40391105 0.5186008 0.36434478
0.50419706 0.017131696 0.39227876 0.86925304 -0.7208779 -0.07064722 0.075990275 0.7406663
-0.56049424 -0.00040114028 -0.067925006 0.67851734 -0.66313887 0.0059465915 -0.08881481 0.91895145
-0.72254336 -0.00070952065 0.1024375 0.28602403 -0.85694146 -0.01616566 -0.10464481 0.5815638
-0.68970805 0.056782383 0.044641722 0.7373895 -0.82506907 -0.035057113 0.23870036 0.60608685
-0.3004095 -1.0688907 -0.9447381 0.51771724 0.5101619 0.50976986 0.50386155 0.49740815
-5.9341193e-05 0.009358775 0.50083524 -0.50116706 -0.00035055523 0.011613331 0.50182116 -0.509188
0.00014563667 -0.0019444554 0.5204191 -0.5051682 -0.000104496525 0.0036542779 0.5055618 -0.50383544
0.00018193164 0.0026723065 0.5124698 -0.4950798 -0.0001630226 0.0018458338 0.5168363 -0.50328237
0.00025440496 -0.0062763607 0.5165938 -0.4906933 0.00030477275 0.0071019167 0.50943595 -0.4846748
-4.819394 -4.5182166 0.60005105 0.60586536 0.5947942 0.598834 0.5899107 0.00015638373
0.0297245 0.5775613 -0.59207916 0.00047835236 -0.012067064 0.6067955 -0.58524615 0.00024000302
-0.00901864 0.6271375 -0.5825133 3.5527715e-05 -0.013521711 0.61153555 -0.5898827 0.00038954627
00000000: db74 15bf 7eb3 b1be ee5d 42be 7e99 c5be
00000010: 2190 a9be 1769 cfbd fc0a eb3e 12c8 243e
00000020: cb98 cdbd 0f99 7b3d e859 ff3d 11f8 d73e
00000030: e164 8a3e 1a95 70bd e497 5bbe 0021 babe
00000040: 9e64 113e 66fa 22be 2f94 a53b 0fe7 023d
00000050: ccb7 adbe 4b4c 183c da23 c23d 45b4 0bbf
00000060: ea1d 353e 8927 afbd 85c2 23be 8909 0dbf
00000070: 00c6 c93e bde7 4cbe 52c3 a83e 940a ff3c
00000080: c140 233f 78fb 0e3d 72f0 923e 811f d93d
00000090: e2db 063f 1699 7a3f e03c 923f 6d62 c53e
000000a0: 3c27 9e3e a41c c13e 20b9 f23e 4170 513e
000000b0: 9fa9 d63c 375f 713d 232e a23e 0771 cdbe
000000c0: d417 5fbc b147 9fbd 4931 e73e 2962 11bf
000000d0: e3d1 503d a7eb 36be d776 a73e 2b81 03bf
000000e0: 92c1 dabc 0ea0 99bd bfa5 373f c8f8 d8be
000000f0: 141c 923c 7f54 afbc 90ec eb3e d581 24be
00000100: 1b7d b5bb b32b 1b3d e16e 6c3f ccb0 ddbe
00000110: 3f97 703d 9629 b03d 22b9 0b3f 7421 e9be
00000120: 1092 8bbd 2207 a23e f9a7 933e 5c3b 10bf
00000130: cb82 a5bf 6a62 71bf 2a1c 46be 52aa 683e
00000140: fc9f 083f b185 dd3e 2689 a63e 3e9c 4fbd
00000150: a226 01bf a023 423f 17e4 3cbf f3c0 1bbc
00000160: 506a 103e 64ae 413f bbd6 533e 81d3 88bd
00000170: 1063 f43d c302 2b3f 0b2a 17bf 8f6d 873d
00000180: dbaa c6bd 3db1 2c3f 9653 a0be 1147 90bd
00000190: 5073 713e ea21 9c3e a3b4 babe bf47 8f3c
000001a0: bac6 1bbe efc5 043e 3b0c 33bf 13ce 8bbd
000001b0: bb3b 8f3e 4ed5 3c3f 3573 85be 1c80 633d
000001c0: 70aa 44bd 2d00 4a3f e938 26bf f729 94bf
000001d0: 8a00 81bf b92f 383b 6285 0dbe dfc1 9a3d
000001e0: 4601 563d b869 dbbd b7bd d7bd 01c5 febd
000001f0: dcfb 393e 947b ebbe 64fd d9bd 9c56 6bbe
00000200: 357b 4b3d a79b adbd b31c 13be 8304 04be
00000210: c2bb 4cbe 27cc 0abf e463 eabd 44c3 cc3d
00000220: 4179 9ebe c7d3 10bf d551 cd3d 75c6 18be
00000230: aac1 2e3e cb0f 82bd 08ee 1abe b026 24be
00000240: b8f9 9abd 0de0 2dbe 4155 84bd 68f7 453e
00000250: 4a62 943d 1ff4 5e3c badd a63d f39f d9bc
00000260: 8be6 35bc 51ee bf3c b870 82bf 55b5 8cbf
00000270: 542f 993e 6ecd ce3e 06c3 043f 668b ba3e
00000280: 0f13 013f c557 8c3c c3d8 c83e 5e87 5e3f
00000290: 748b 38bf 7daf 90bd caa0 9b3d 4e9c 3d3f
000002a0: 8d7c 0fbf 2350 d2b9 441c 8bbd 50b3 2d3f
000002b0: 78c3 29bf a0db c23b 8ae4 b5bd 6740 6b3f
000002c0: 9af8 38bf 20ff 39ba c1ca d13d be71 923e
000002d0: 8460 5bbf d96d 84bc 0550 d6bd 5de1 143f
000002e0: b590 30bf a594 683d 3dda 363d 8fc5 3c3f
000002f0: ba37 53bf 0c98 0fbd de6d 743e 8228 1b3f
00000300: 46cf 99be 69d1 88bf 5bda 71bf 1e89 043f
00000310: f899 023f 4780 023f 12fd 003f 48ac fe3e
00000320: 1fe5 78b8 8c55 193c bd36 003f 7c4c 00bf
00000330: baca b7b9 d745 3e3c 5a77 003f 255a 02bf
00000340: 0cb6 1839 19dd feba 303a 053f b452 01bf
00000350: 2525 dbb8 9c7c 6f3b 806c 013f 5cfb 00bf
00000360: e7c4 3e39 dd21 2f3b 3931 033f 197b fdbe
00000370: 0cf1 2ab9 e8ef f13a 624f 043f 1dd7 00bf
00000380: a861 8539 eea9 cdbb 7e3f 043f 273c fbbe
00000390: e8c9 9f39 32b7 e83b 656a 023f 4c27 f8be
000003a0: 7a38 9ac0 3b95 90c0 f29c 193f fe19 1b3f
000003b0: 6f44 183f 2f4d 193f 6304 173f f0fa 2339
000003c0: cb80 f33c 0fdb 133f 8092 17bf 5ecb fa39
000003d0: efb4 45bc f356 1b3f b1d2 15bf 52a9 7b39
000003e0: ebc2 13bc 158c 203f 971f 15bf 9803 1538
000003f0: 2b8a 5dbc 988d 1c3f 8d02 17bf 043c cc39

fc_s.bias f4 [64]
-0.32564038 0.67903227 0.662571 0.0014864933 1.0008171 0.7050114 0.83660144 -0.58901423
0.9134549 0.8303321 0.4943644 -0.59671974 -0.40978974 0.80729115 0.79342246 0.9257768
0.7249754 1.0462137 0.95515853 0.8881244 -0.22625136 -0.55009514 1.3283126 -0.59643686
0.653194 0.8615489 -0.26298037 1.2391543 -0.4726501 0.816289 0.8702679 0.9573818
1.0333946 0.8455107 -0.060206324 0.7877122 0.03290805 0.8142032 -0.25778705 1.0436951
-0.49144524 0.68955827 0.9439823 -0.5132413 0.9146988 0.7519773 0.71409035 0.77046144
0.14458838 0.14861254 0.9210821 0.7430796 -0.44929844 0.98305357 0.834194 0.36717293
0.44101146 0.83474076 0.91131413 0.67150414 0.9767687 0.88500214 0.8886166 0.64573133
00000000: 56ba a6be 0fd5 2d3f 419e 293f 70d6 c23a
00000010: c61a 803f a17b 343f 832b 563f a3c9 16bf
00000020: 2ed8 693f a590 543f 551d fd3e a0c2 18bf
00000030: f6cf d1be a2aa 4e3f bc1d 4b3f b5ff 6c3f
00000040: fd97 393f 55ea 853f 4585 743f 1f5c 633f
00000050: 70ae 67be 09d3 0cbf 2606 aa3f 16b0 18bf
00000060: b937 273f 788e 5c3f 5da5 86be 9c9c 9e3f
00000070: 32ff f1be 51f8 503f e1c9 5e3f f916 753f
00000080: 4646 843f 6473 583f e89a 76bd 82a7 493f
00000090: 97ca 063d 9f6f 503f aafc 83be cd97 853f
000000a0: b69e fbbe e486 303f d3a8 713f c863 03bf
000000b0: b329 6a3f 9681 403f a0ce 363f f63c 453f
000000c0: fa0e 143e e32d 183e 09cc 6b3f 773a 3e3f
000000d0: 720a e6be 66a9 7b3f bd8d 553f 17fe bb3e
000000e0: 41cc e13e 92b1 553f e24b 693f b2e7 2b3f
000000f0: 830d 7a3f 808f 623f 617c 633f a64e 253f

fc_a.weight f4 [64, 3]
0.27639177 -0.2488639 0.052997917 -0.42674306 0.1923511 0.33941734 0.11869255 0.34287953
0.16327417 -0.3114257 0.69460607 0.7200531 -0.123442344 -0.19782098 -0.14705142 -0.53416365
0.07507274 0.45795572 0.25479203 0.090537734 0.115722835 0.5388654 0.6191452 -0.38447392
-0.11204657 0.3736173 0.2151682 0.6410137 -0.11297457 0.648161 0.2037041 0.53569865
0.17178307 0.15799293 -0.16047242 -0.4518394 0.4901565 0.6571533 0.42007273 -0.38215464
0.43225142 0.23298523 -0.3423439 -0.34187958 0.6309365 -0.017739918 0.22114898 0.69743365
0.33048272 0.40306976 0.6610055 0.23716241 0.25681257 0.64753395 0.39576578 0.70175374
0.3244875 0.3951083 -0.35631222 -0.35487786 0.18087889 0.063527875 -0.12611099 0.11452864
0.09642329 0.17152181 -0.21171685 0.20785253 0.23992862 0.0018869558 0.5007053 -0.048690047
-0.19066106 -0.41436794 -0.19032547 -0.16442405 0.034086064 0.37482712 0.7488417 0.66703504
0.30610174 -0.25199458 -0.4232041 -0.3893904 -0.18650012 -0.38850456 0.35990778 0.55628735
0.69277406 0.37409338 -0.18632738 0.40305328 0.017251903 -0.22049893 0.2535949 0.4169199
0.3876531 0.36064956 0.26957342 -0.3289598 -0.0098392265 -0.109837815 -0.0744535 0.76095045
0.4238269 -0.5081393 -0.03132366 -0.49853432 0.26831317 0.2517317 0.30888084 -0.051551078
-0.36817038 0.45895416 0.37462413 0.32500735 0.18201521 -0.057723265 0.26026836 0.19658683
0.21642148 0.11900441 0.5192562 0.12662795 -0.30757648 0.19577265 -0.40074328 -0.45495805
-0.29109338 0.2809382 0.6895646 -0.119430155 0.556051 0.37295127 0.22432198 0.17412235
0.2559311 0.62059575 -0.4785833 0.39696404 0.37809616 -0.41709584 0.7736793 0.7353447
-0.28124234 0.39608526 0.6099923 -0.13326639 0.4792731 0.7293119 0.58049995 0.2044378
0.23127434 0.34294695 -0.21831185 0.053728294 0.38658082 0.26412693 -0.620604 -0.41756895
-0.5130268 -0.5712014 -0.52760476 0.39242765 -0.5052147 0.48895586 -0.06863232 0.6239971
0.36671352 0.14074053 -0.54659694 0.23262267 -0.15295026 -0.17763439 -0.25041997 -0.34883672
0.44488743 -0.2917693 0.7034581 0.6652139 -0.6889535 0.028857654 -0.53695 -0.7446903
0.4661144 -0.49861357 -0.011612322 -0.07008577 0.49295896 0.26342428 -0.13657391 0.20213792
00000000: 3983 8d3e 2ed6 7ebe 5814 593d 117e dabe
00000010: b0f7 443e 1cc8 ad3e 1415 f33d e88d af3e
00000020: 5831 273e 3073 9fbe b4d1 313f 6655 383f
00000030: 57cf fcbd 9591 4abe a694 16be f3be 08bf
00000040: bdbf 993d 2c79 ea3e 1a74 823e d96b b93d
00000050: 1800 ed3d 15f3 093f 4d80 1e3f c4d9 c4be
00000060: ac78 e5bd c44a bf3e 0d55 5c3e 7919 243f
00000070: 365f e7bd e1ed 253f cf97 503e 8c23 093f
00000080: e7e7 2f3e e6c8 213e e252 24be 7e57 e7be
00000090: cbf5 fa3e 333b 283f c613 d73e c6a9 c3be
000000a0: 0f50 dd3e ae93 6e3e b347 afbe d70a afbe
000000b0: 0e85 213f 4e53 91bc e174 623e 038b 323f
000000c0: 0835 a93e 295f ce3e a837 293f b4da 723e
000000d0: f07c 833e c9c4 253f d0a1 ca3e 22a6 333f
000000e0: 3a23 a63e a34b ca3e 8e6e b6be 8db2 b5be
000000f0: 5138 393e e71a 823d 3d23 01be fe8d ea3d
00000100: 9379 c53d 6aa3 2f3e 4dcc 58be 4bd7 543e
00000110: d9af 753e bb53 f73a 392e 003f 376f 47bd
00000120: a73c 43be 0928 d4be aee4 42be c75e 28be
00000130: d49d 0b3d 57e9 bf3e 17b4 3f3f cfc2 2a3f
00000140: 5eb9 9c3e 6f05 81be 35ae d8be 2e5e c7be
00000150: e3f9 3ebe 12ea c6be d545 b83e d968 0e3f
00000160: a459 313f 2b89 bf3e 9bcc 3ebe 005d ce3e
00000170: dd53 8d3c 79ca 61be 31d7 813e 8676 d53e
00000180: 787a c63e 0fa7 b83e 8705 8a3e 6b6d a8be
00000190: b534 21bc a6f2 e0bd 147b 98bd a6cd 423f
000001a0: d7ff d83e 6b15 02bf 3d4d 00bd e43f ffbe
000001b0: 5860 893e fae2 803e a125 9e3e 3927 53bd
000001c0: d480 bcbe 0afc ea3e bcce bf3e 5d67 a63e
000001d0: 3262 3a3e 3b6f 6cbd e541 853e 0f4e 493e
000001e0: 989d 5d3e 96b8 f33d f9ed 043f c2aa 013e
000001f0: aa7a 9dbe a078 483e 392e cdbe 43f0 e8be
00000200: 310a 95be 22d7 8f3e 4e87 303f cc97 f4bd
00000210: 5c59 0e3f 78f3 be3e a9b4 653e 214d 323e
00000220: 6709 833e 5ddf 1e3f df08 f5be df3e cb3e
00000230: d295 c13e 968d d5be d90f 463f 8d3f 3c3f
00000240: fffe 8fbe b0cb ca3e 7528 1c3f fc76 08be
00000250: 4963 f53e 2fb4 3a3f a59b 143f 2558 513e
00000260: 2ed3 6c3e be96 af3e 248d 5fbe 3312 5c3d
00000270: eced c53e a53b 873e e7df 1ebf 99cb d5be
00000280: b955 03bf 413a 12bf 1b11 07bf 47ec c83e
00000290: c055 01bf 6c58 fa3e 1a8f 8cbd 46be 1f3f
000002a0: e0c1 bb3e 491e 103e c7ed 0bbf a334 6e3e
000002b0: fe9e 1cbe cae5 35be 0c37 80be ba9a b2be
000002c0: 49c8 e33e c962 95be d415 343f 754b 2a3f
000002d0: 425f 30bf e366 ec3c 8e75 09bf 06a4 3ebf
000002e0: 8ca6 ee3e 474a ffbe 9c41 3ebc 2189 8fbd
000002f0: 1e65 fc3e 8cdf 863e 08da 0bbe 3efd 4e3e

fc_a.bias f4 [64]
-0.27814415 0.85876876 1.2019749 1.14223 -0.5440883 0.94098055 0.6622188 1.0723617
1.1392853 0.58401394 1.227364 0.95460886 0.5931526 1.206319 1.0437007 0.51676464
0.6542734 1.1861806 0.9052797 1.0035949 -0.29478997 0.82724977 0.8383421 0.7478836
-0.009259991 -0.4318629 -0.45511112 1.2758305 0.8192925 -0.46213102 0.9558375 1.2488225
0.9945526 -0.07272338 -0.3245823 -0.44351885 0.9311631 0.8956338 0.7979204 0.9684233
1.1322563 1.0890561 -0.2708211 1.2406911 1.2191839 1.2740692 1.0438153 0.5305995
1.1898723 1.2050701 0.68793845 -0.30750364 0.3548018 -0.5683937 -0.17723836 1.229985
0.66502285 -0.12016315 1.2273557 -0.14204736 0.37003875 0.7581884 0.830939 -0.4841244
00000000: e968 8ebe 45d8 5b3f 50da 993f 9834 923f
00000010: 5f49 0bbf 1ae4 703f 2c87 293f 2643 893f
00000020: 1ad4 913f f081 153f 431a 9d3f 3f61 743f
00000030: d9d8 173f a968 9a3f fc97 853f b04a 043f
00000040: 767e 273f c4d4 973f 69c0 673f cc75 803f
00000050: b6ee 96be a4c6 533f 969d 563f 4d75 3f3f
00000060: 38b7 17bc 221d ddbe 5304 e9be 6a4e a33f
00000070: 27bd 513f 709c ecbe c4b1 743f 6ad9 9f3f
00000080: 009b 7e3f ffef 94bd a72f a6be e714 e3be
00000090: b460 6e3f 4248 653f 8344 4c3f 97ea 773f
000000a0: c6ed 903f 3166 8b3f 10a9 8abe f7ce 9e3f
000000b0: 380e 9c3f b314 a33f bd9b 853f 5ed5 073f
000000c0: bc4d 983f bd3f 9a3f bc1c 303f 1e71 9dbe
000000d0: 95a8 b53e 4082 11bf f97d 35be 2670 9d3f
000000e0: f03e 2a3f 1918 f6bd fe19 9d3f dd74 11be
000000f0: b875 bd3e a318 423f 6bb8 543f 27df f7be

fc_q.weight f4 [32, 128]
-0.071795166 0.087632015 0.06605284 0.044895988 0.030698106 1.987422 0.5685743 -0.043654
0.116093345 0.5434166 0.06957476 -0.04290148 0.035930704 0.14626417 0.033471033 0.105979025
0.3324163 2.308692 0.12938866 0.06315593 -0.06392808 -0.009545064 0.18526407 -0.10253438
1.1513406 2.214491 1.0992005 0.015923057 0.021228133 0.073120184 0.19128573 0.037578598
0.13454907 0.12231489 -0.3040281 0.005579465 -0.1884486 0.11851791 -0.021081345 -0.5801884
-0.065457344 1.7398502 0.14133264 0.004016308 0.06748891 -0.28437448 0.16126178 -0.07265214
-0.015438391 0.0093358075 0.093751006 0.10820273 -0.07340992 0.1853209 2.6818838 0.05091432
0.4881454 1.4793079 0.07268625 0.09862408 0.087941855 0.14812979 -1.0965934 0.18749642
0.040632807 0.5464049 0.5340399 0.37577537 -0.08757645 0.50145495 0.3953204 0.40015438
0.459975 0.23271121 0.40848875 1.5356497 0.23844343 0.56903714 0.6532513 0.3000725
0.22812594 0.42412677 0.36896357 1.4019412 -0.024354503 0.51881284 0.5033051 0.50942117
0.014889733 -0.0453968 -0.34359157 1.845517 0.9227765 -0.4035466 0.4200269 0.5224844
0.39595535 -0.08749754 -0.14740762 -0.036426973 0.32774836 0.5474379 0.45254147 0.4221253
0.47323185 0.658958 0.0302004 0.41595435 0.45402563 0.4214096 0.4390917 0.14897351
0.47437122 0.3604508 0.401303 -0.011065149 1.1648333 0.0019871606 -0.06580167 0.4989888
0.90375245 -0.024849612 0.59657 0.040217496 -0.65649843 0.9103126 0.4090318 0.070259355
-0.15288438 0.10770344 0.08245796 -0.0152834235 0.052003305 2.0464408 0.54119307 -0.012330898
0.107261434 0.48049334 -0.014745599 0.013218384 -0.009226594 0.015682431 0.14315633 0.08785175
0.34631658 2.2915602 0.011422534 0.08056078 -0.030705407 -0.121559456 0.09164742 -0.05302474
1.1700748 2.2031791 0.997264 0.07667508 -0.06799203 0.13007432 0.15242912 0.04132364
0.14984073 0.14135337 -0.3446383 0.01188548 -0.13942547 0.0666837 -0.08593855 -0.42996547
-0.019618936 1.7348596 0.10037444 -0.028438626 0.08600574 -0.27267313 0.111629434 -0.11145821
0.073870435 0.113097355 0.15962583 0.02424838 0.03443306 0.21784304 2.6356869 -0.03727807
0.5014977 1.5019689 0.14164995 -0.0059451335 0.13801484 0.22960101 -1.0825673 0.31020144
0.06782568 0.4474627 0.44329953 0.29559875 -0.072592475 0.5533893 0.5069205 0.5458561
0.47158715 0.2154372 0.52360016 1.5683053 0.19587345 0.53034925 0.5167353 0.33933294
0.24167474 0.36939162 0.2673685 1.4606872 0.08211547 0.56641823 0.5709861 0.38581517
0.005113972 0.015392821 -0.4643035 1.8111478 1.0166531 -0.33439246 0.5209215 0.5621086
0.47203958 0.043330647 -0.23902677 -0.042173896 0.3820565 0.5993911 0.35910842 0.4361331
0.5175827 0.6245858 0.0037571597 0.43442583 0.37330726 0.4533822 0.5166268 0.13428706
0.40454522 0.4747002 0.3661735 -0.009790702 1.2725747 -0.046933614 -0.08643955 0.36055773
0.8504667 0.033448003 0.72940975 -0.10203594 -0.75204253 0.8506131 0.47673643 0.058606625
00000000: 5809 93bd 6a78 b33d b646 873d dbe4 373d
00000010: 987a fb3c d863 fe3f 168e 113f 89ce 32bd
00000020: 59c2 ed3d 5a1d 0b3f 367d 8e3d 76b9 2fbd
00000030: 132c 133d 46c6 153e ec18 093d 880b d93d
00000040: 7832 aa3e 9cc1 1340 767e 043e e557 813d
00000050: baec 82bd e662 1cbc ddb5 3d3e 8cfd d1bd
00000060: 215f 933f 38ba 0d40 9ab2 8c3f 1271 823c
00000070: 9fe6 ad3c 09c0 953d 68e0 433e 04ec 193d
00000080: 3bc7 093e 3b80 fa3d 92a9 9bbe f2d3 b63b
00000090: abf8 40be 85b9 f23d c9b2 acbc 3a87 14bf
000000a0: 800e 86bd 69b3 de3f 81b9 103e 3c9b 833b
000000b0: a037 8a3d 8899 91be cf21 253e a5ca 94bd
000000c0: 4ef1 7cbc 37f5 183c 8700 c03d 6599 dd3d
000000d0: f157 96bd c3c4 3d3e fca3 2b40 898b 503d
000000e0: 32ee f93e f659 bd3f 87dc 943d 6cfb c93d
000000f0: dc1a b43d 56af 173e 2c5d 8cbf 10ff 3f3e
00000100: 966e 263d 31e1 0b3f d7b6 083f a165 c03e
00000110: 485b b3bd 5a5f 003f 6f67 ca3e 09e1 cc3e
00000120: d881 eb3e d94b 6e3e 7025 d13e 2b90 c43f
00000130: 842a 743e 6bac 113f 7a3b 273f 1aa3 993e
00000140: d999 693e 2527 d93e cbe8 bc3e cf72 b33f
00000150: 1883 c7bc ebd0 043f 9ad8 003f 6d69 023f
00000160: 11f4 733c fff1 39bd 3ceb afbe e739 ec3f
00000170: 153b 6c3f a99d cebe c40d d73e 8ac1 053f
00000180: a9ba ca3e e931 b3bd 06f2 16be 7334 15bd
00000190: a2ce a73e e424 0c3f 84b3 e73e cf20 d83e
000001a0: 724b f23e 79b1 283f d466 f73c f8f7 d43e
000001b0: 0c76 e83e 00c3 d73e a1d0 e03e 838c 183e
000001c0: c9e0 f23e 028d b83e 9677 cd3e 994a 35bc
000001d0: 4219 953f 063b 023b 07c3 86bd 767b ff3e
000001e0: 525c 673f 6a91 cbbc d0b8 183f 1abb 243d
000001f0: 4810 28bf 3f0a 693f 9e6c d13e 23e4 8f3d
00000200: b98d 1cbe 9f93 dc3d b8df a83d 5367 7abc
00000210: 6b01 553d e3f8 0240 a18b 0a3f 8907 4abc
00000220: e2ab db3d 3903 f63e 8697 71bc ec91 583c
00000230: 242b 17bc 7178 803c 9397 123e 9eeb b33d
00000240: 6850 b13e eca8 1240 9425 3b3c 0dfd a43d
00000250: e889 fbbc 2af4 f8bd a4b1 bb3d 7830 59bd
00000260: 03c5 953f e300 0d40 b24c 7f3f d307 9d3d
00000270: 683f 8bbd 3432 053e 6116 1c3e fa42 293d
00000280: d96f 193e f0be 103e 6e74 b0be 51bb 423c
00000290: 8dc5 0ebe 7791 883d 8d00 b0bd 6f24 dcbe
000002a0: e4b7 a0bc e10f de3f 1d91 cd3d 1ff8 e8bc
000002b0: c723 b03d d09b 8bbe f99d e43d 3444 e4bd
000002c0: 6249 973d 969f e73d f474 233e 8aa4 c63c
000002d0: ae09 0d3d 3f12 5f3e 18af 2840 e4b0 18bd
000002e0: 2762 003f 8440 c03f af0c 113e 65cf c2bb
000002f0: c353 0d3e 871c 6b3e 9191 8abf b9d2 9e3e
00000300: 31e8 8a3d d519 e53e 28f8 e23e b858 973e
00000310: 5dab 94bd ecaa 0d3f 8bc5 013f 3abd 0b3f
00000320: df73 f13e 929b 5c3e a90a 063f 3abe c83f
00000330: 0d93 483e f8c4 073f c448 043f 0cbd ad3e
00000340: 9579 773e e620 bd3e 86e4 883e ccf7 ba3f
00000350: 282c a83d c900 113f 252c 123f 9189 c53e
00000360: 1b93 a73b 2c32 7c3c 30b9 edbe b1d3 e73f
00000370: b021 823f 7d35 abbe 1d5b 053f 59e6 0f3f
00000380: 2caf f13e 7a7b 313d 6fc3 74be 89be 2cbd
00000390: e99c c33e b271 193f 0fdd b73e d64c df3e
000003a0: 4d80 043f dbe4 1f3f ae3a 763b 106d de3e
000003b0: 2122 bf3e b621 e83e a741 043f 8c82 093e
000003c0: 8d20 cf3e e80b f33e 187b bb3e 2e69 20bc
000003d0: bae3 a23f 763d 40bd 3807 b1bd 069b b83e
000003e0: 30b8 593f c600 093d 99ba 3a3f 38f8 d0bd
000003f0: dc85 40bf c8c1 593f cc16 f43e 800d 703d

fc_q.bias f4 [32]
0.57827735 0.7039584 0.57836163 0.60346764 0.54468817 0.7326999 0.5329399 0.63025343
0.6903585 0.56328505 0.5605672 0.65280277 0.042605106 0.647254 0.56082183 0.5866547
-0.029099574 0.6742721 -0.041158166 -0.041390624 0.7393172 -0.18991275 -0.12297451 0.6722211
0.6704479 -0.026847966 -0.21012814 0.67117643 0.54492384 -0.04771394 0.027862776 0.040137433
00000000: fc09 143f 9e36 343f 820f 143f db7c 1a3f
00000010: af70 0b3f 3892 3b3f c06e 083f 4a58 213f
00000020: 56bb 303f 7333 103f 5581 0f3f 151e 273f
00000030: b182 2e3d 70b2 253f 0592 0f3f 012f 163f
00000040: 3b62 eebc 199d 2c3f 7795 28bd 3789 29bd
00000050: e443 3d3f 7d78 42be 0fda fbbd af16 2c3f
00000060: 79a2 2b3f 44f0 dbbc d52b 57be 38d2 2b3f
00000070: 2180 0b3f b16f 43bd 7a40 e43c 2667 243d

fc_out.weight f4 [1, 32]
0.7413211 0.8528562 0.7488755 1.0152613 0.65410143 0.81520593 0.7773862 0.61394835
0.75217646 0.899347 0.8522503 0.79040706 -2.841579 0.7156777 0.7844908 0.82191235
-0.15954539 0.7484153 -0.03966656 -0.14645024 0.8140625 -1.7705379 -2.091812 0.84999055
0.7966779 -2.372281 -1.53351 0.78577316 0.87127507 -0.10516281 -0.111212686 -0.013033406
00000000: 38c7 3d3f c954 5a3f 4eb6 3f3f 15f4 813f
00000010: 3173 273f 56b1 503f c802 473f b82b 1d3f
00000020: a38e 403f 9b3b 663f 132d 5a3f 1e58 4a3f
00000030: 6edc 35c0 a736 373f 64d4 483f d968 523f
00000040: de5f 23be 2598 3f3f 6779 22bd 0df7 15be
00000050: 6666 503f fca0 e2bf 3fe0 05c0 fb98 593f
00000060: 15f3 4b3f 74d3 17c0 0e4a c4bf 6e28 493f
00000070: e20b 5f3f 995f d7bd 7ac3 e3bd 118a 55bc
