LIRL results/Ablation result/ddpg_lirl_pi_multi_run_100_5/run_7_seed_42/ddpg_lirl_pi_q_target_20250827_200238.pth (torch, 279793 bytes, 7 tensors)

fc_s.weight f4 [64, 1007]
00000000: b592 9dbd c46a 74bd 6a4d 53bc 2ff8 bf3c
00000010: b978 4bbc eff3 0fbe 30fc 36bd 894a 543c
00000020: f71b b63c 3bde eabc 99c4 b23d 0c7e 33bd
00000030: c4c1 0b3c 4385 61bc 8810 34bd 6afd 243d
00000040: 6aa2 02be c457 f3bc ecd2 f5bc 2889 c83a
00000050: 3313 e1bd 8fe5 b33b 2ec3 9abc 73ad 723c
00000060: 34b0 fdbc a219 68bd 5597 8abd a1c0 c8bc
00000070: c758 29bb 7e40 16bd 0582 1f3c 4d69 04bd
00000080: 7dc4 993c d79d a4b9 455b 81bc 38f7 b8bb
00000090: 0b4e 62bc 7e0b a33c e57f 0abb 8ce4 7dbc
000000a0: 0d12 85bd 0326 743b 0373 fc3b 4ff3 b83c
000000b0: d863 4f3c 0231 55bd 60fa 4e3c c613 a838
000000c0: ce21 2b3c 61e0 cabc ac88 f8bd 2412 e3bc
000000d0: 8c8a f3bc be4a a63c 9294 663b 2b79 ecbc
000000e0: fd70 903b a918 c8bb b57f 9c3c 2bf4 e4bc
000000f0: 996d c4bd f2ba ddbc 5c46 883b 456f 86bc
00000100: a446 863b 4212 57bd e693 a83c 398a c6bc
00000110: f97d c7bc 5180 c7bc c5c2 8fbc 66fc a13b
00000120: 60e0 ca3c 154a 01bd c6ca 16bd 5923 c7bd
00000130: 2a30 dbbc c21d ec3b 1f9e bb3b aef8 a83c
00000140: bf19 aabd 4284 ddbc 0fe0 363c 2ee1 95bc
00000150: b14a 5e3c 5844 b5bd bc46 7dbc 941b f6bc
00000160: afce afbc 9caf 843b 32c0 59bc f384 66bd
00000170: 51b0 583c f4f5 813c ebbc e8bc 621c f23b
00000180: 9520 0a3d 3573 83bd cd0c 89bc 6ea8 13bd
00000190: e547 8bbd c348 e9bc 0637 1fbc cbeb e8bc
000001a0: 6ee9 9dbb c329 f53d a07f cf3d 18b0 bbbc
000001b0: 15bc 07bd 62e8 d1bc 6512 b4bd 4fbc a4bd
000001c0: 6479 f0bb 864c 11bd 9a14 d7bc 2578 f1bd
000001d0: f320 953b 9e48 82bd 38e3 4abd cbd6 60bd
000001e0: 007e 42bd e260 85bc f95c ad3c bba9 e0bc
000001f0: 1349 e4bc 92f5 0dbe 1b51 e8bd 6fc4 38bc
00000200: 373d 253d 0c1b f73b 5574 513d e6fc 12be
00000210: 3e80 1bbd 545c 7f3d fc37 74bc 98a3 7f3d
00000220: 2a84 e63d a2d6 eebc 398a 463d beee 933b
00000230: 5e04 93bd 8685 94bd 05fd 173c f352 66bd
00000240: 775c 253c 4e9e 81bb 40b9 0bbd 506c 68bd
00000250: 5cc8 033d b66b 97bc 3491 ec3c 8641 6bbc
00000260: 7d17 88bc 7d2f 04bd a7bd b93c 679b 2dbe
00000270: 37c4 a6bd efb3 04bd ffd8 d0bc f900 c7bc
00000280: b0ce 90bb 90f5 04bd eb96 ff3a 64f7 f4bc
00000290: 05a6 193c 94e9 75bd 5a79 5abd ef28 a23c
000002a0: c6aa 13bc 10af babc 5fa7 aebc db4f e3bb
000002b0: 08d1 c83b a4da 7ebc 6f0b a9bc 7f59 4c3c
000002c0: a3d4 e6bc 0f55 b03b 9517 983c db66 f4bc
000002d0: b353 e9bc 05a7 843c 721a e539 1533 89bc
000002e0: f663 2a3c df3f a0bc 5ff6 be3b 0804 34bc
000002f0: a235 5bbc bbaf 7839 2fd2 24bd b385 69bc
00000300: 1b62 7a3c ffa5 b53c 7573 04bc 6d8b 83bc
00000310: 1521 8cbb a2c9 d3bb a760 3c3b 0c0b 823b
00000320: c599 81bd 2502 87bc 578e b13c fbf3 f63b
00000330: a9db cdbb 2b3f e5bc eb45 e7bc 9dbc 06bd
00000340: f44f 73bc f0ae c63b 9bff 7f3c 7ecd 243c
00000350: 0556 05bd 6180 c1bc 3e3c 1ebc 5a39 d4ba
00000360: 5084 beb9 222d 52bc ecea 0a3c 9d9d 87bc
00000370: 7a96 debd 49ad cfbc b54b 94bd 939f 80bd
00000380: 913c 4bbd 95d4 9ebc cdc6 03be 96bf 15be
00000390: 01a4 46be f6e7 14be 6267 dabb 5875 ca3c
000003a0: 79a4 4bbd ae76 14bd 1a33 edbc 1501 89bc
000003b0: 0dc9 0cbd 07dd 2dbd 5fbd a2bc fffb 2fbd
000003c0: f578 81bd 28c3 b6bd 729a d8bd c57c 0abe
000003d0: e305 fdbd ee7f a0bd e6a5 a5bd 7202 d0bc
000003e0: 11d1 45bd 56b7 263c 56ce 9ebc f5ac 09bd
000003f0: 6c0c 7bbc c44a 8abc c795 3cbc 8410 02bd
-0.07693998 -0.059672132 -0.012896875 0.023433773 -0.012418919 -0.14057897 -0.0446741 0.012957224
0.022230132 -0.02867042 0.08728904 -0.04382138 0.008530084 -0.013764682 -0.043961078 0.040280737
-0.12757269 -0.029704936 -0.030007802 0.0015299665 -0.1098999 0.005490012 -0.018891897 0.014811861
-0.03096781 -0.05666507 -0.067671455 -0.024505915 -0.002584027 -0.0366826 0.009735589 -0.032326985
0.01877045 -0.00031398117 -0.015790591 -0.005644705 -0.013812552 0.01990294 -0.002113336 -0.015496384
-0.064975835 0.0037254102 0.00770414 0.022576956 0.012658082 -0.05204869 0.012632936 8.014547e-05
0.010445071 -0.024765195 -0.12135443 -0.027718611 -0.02972915 0.020299312 0.003518377 -0.028866371
0.0044080005 -0.0061064553 0.019103864 -0.02794846 -0.095912166 -0.027066682 0.004158778 -0.01641048
0.0040977765 -0.052507646 0.020578336 -0.024235832 -0.02435206 -0.024353178 -0.017548928 0.0049434183
0.024765193 -0.03156479 -0.036814474 -0.09723539 -0.026756365 0.007205696 0.0057256366 0.020626392
-0.08305692 -0.027040605 0.011161818 -0.01829585 0.0135676125 -0.08850926 -0.015458759 -0.030042447
-0.02146086 0.0040492546 -0.013290452 -0.056279134 0.013225631 0.01586435 -0.028410396 0.0073886374
0.03372248 -0.06418458 -0.016729737 -0.0360493 -0.06800822 -0.028477078 -0.009717708 -0.028432747
-0.0048190868 0.11970856 0.101317644 -0.022911116 -0.033138353 -0.025623504 -0.08792571 -0.080437295
-0.0073386896 -0.03547337 -0.02625494 -0.11790494 0.004551047 -0.06361507 -0.0495331 -0.054892343
-0.047483444 -0.016281549 0.021162497 -0.027424684 -0.027866876 -0.13863209 -0.11343595 -0.011277302
0.040341582 0.007541066 0.051136333 -0.14354286 -0.0379641 0.06234391 -0.014905926 0.062411875
0.11255677 -0.02915508 0.048471663 0.0045145443 -0.07178567 -0.0725203 0.009276633 -0.05623145
0.010092846 -0.003955639 -0.034112215 -0.05674392 0.0321735 -0.018483978 0.028877832 -0.014358884
-0.016612763 -0.03227185 0.022673441 -0.16953813 -0.08142894 -0.03239816 -0.025494097 -0.024292456
-0.0044191703 -0.03246075 0.0019499933 -0.029903121 0.009377961 -0.06003721 -0.053338386 0.01979491
-0.0090128835 -0.022788554 -0.021320043 -0.0069370097 0.006128434 -0.015555058 -0.020635335 0.012472509
-0.028177565 0.0053812335 0.018565932 -0.029834202 -0.028482294 0.016192922 0.00043697987 -0.01674799
0.010399809 -0.019561706 0.0058277096 -0.010987289 -0.013379486 0.00023716588 -0.04023951 -0.014253068
0.015282179 0.02217388 -0.008084168 -0.016057694 -0.0042764046 -0.0064632455 0.0028744133 0.003968602
-0.06328157 -0.016480515 0.021674318 0.007536409 -0.006282289 -0.027984222 -0.028231582 -0.03289472
-0.014850605 0.0060633346 0.015624906 0.010058759 -0.032552738 -0.023620786 -0.009657918 -0.0016191409
-0.00036338205 -0.012828143 0.008478861 -0.016554648 -0.10868545 -0.025351183 -0.072410025 -0.06280436
-0.049618308 -0.019388476 -0.12868805 -0.14623865 -0.193985 -0.14541611 -0.006665156 0.024714157
-0.0497174 -0.036245994 -0.028955031 -0.016724149 -0.034371424 -0.042447116 -0.01986569 -0.04296493
-0.06321899 -0.08923942 -0.10576333 -0.13524158 -0.123546384 -0.07836901 -0.08088283 -0.025391791
-0.048295084 0.010175547 -0.019385498 -0.03361221 -0.015322786 -0.016881354 -0.011510319 -0.03175403

fc_s.bias f4 [64]
00000000: 7824 9ebd 60a6 e6bd a025 67bd 4c48 ccbd
00000010: 529f a8bd e3da e93e e714 20bd 4372 523e
00000020: 2ab5 ac3e 5f80 62bd 942d fd3e 7df3 d73e
00000030: 1082 9b3e d2dd 5c3d e42a ad3e 6b65 773d
00000040: 3a1d d4bd 1d76 c9bc 67e5 a9bd d796 723d
00000050: c068 2b3e 0dc7 a4bd 5d97 9bbd db00 9e3e
00000060: 6119 cebc 9bc7 67bd b62f 89bd 95bd 8bbd
00000070: 3e68 f83d b22f c7bd 0e61 2abd ac23 4f3b
00000080: 3199 ca3e c099 a53d 5e8f e33e ccbc b03e
00000090: fcbf 72bd 5a59 f6bd cdb8 0a3b 5a98 57bd
000000a0: d6bf e03d 3437 9a3e 9849 87bd ad40 84bc
000000b0: 87de a8bd a18c b93b b14c 993e 17ce e43b
000000c0: 1a9c 563d 1236 593d bea8 a73b c9b0 c4bd
000000d0: 037d 823e a6c4 2fbb 31d4 0f3d 769b a4bc
000000e0: a6e3 a83c f025 783e f6f2 adbd 60e2 39bb
000000f0: a27f 74bd 7dff 3e3e c0f8 68bd 3b0c 4fbc
-0.077217996 -0.11262202 -0.056432366 -0.09974727 -0.08233513 0.4567481 -0.039082434 0.205514
0.33731967 -0.055298205 0.49448836 0.42177954 0.30372667 0.05392248 0.33821785 0.060399454
-0.10357137 -0.024592454 -0.08295708 0.059225883 0.16739178 -0.080457784 -0.0759723 0.30860028
-0.025158586 -0.056586843 -0.06698553 -0.06823269 0.121292576 -0.09725894 -0.041596465 0.0031606955
0.3957 0.08085966 0.44445318 0.3451904 -0.05926512 -0.12028761 0.0021167279 -0.05263553
0.1097409 0.30120242 -0.06605834 -0.016144121 -0.08245569 0.005662516 0.29941323 0.0069825756
0.052394964 0.05303008 0.005116551 -0.096040316 0.25486 -0.0026820092 0.03511447 -0.02009366
0.020616364 0.24233222 -0.08493607 -0.002836369 -0.059692033 0.18652149 -0.05687785 -0.012637193

fc_a.weight f4 [64, 3]
00000000: 73a3 e3be b5fc 9c3e 24d4 fdbe fef2 a43e
00000010: 1bca f13e 674f a9be 95c9 b23c 68e5 373e
00000020: 41d0 f73e afe1 0f3e a6a4 29bd 64a8 66be
00000030: af0b 25be ddac 33be b330 04bf 0d4b 34bd
00000040: c13b 043f 5f05 d3be 4e54 03bf a3fb 6cbe
00000050: 24c8 7f3e f8f1 cebe 2010 693e ca92 96be
00000060: 1050 cf3e 22d3 a1be 152a 7a3e 0e6c a83e
00000070: 98d9 cb3d e438 0139 3684 15bf 0e5f c83e
00000080: 42a6 863e e08b f33e 109e f7be 6006 1e3e
00000090: 82fe 143f 844f b33d 470d 673e adef 1cbe
000000a0: 0d98 a7ba a76d a5be 85ec 843d f96b e6be
000000b0: f579 70bb 9ac1 23bd daba 35be 8d8f 1c3e
000000c0: f5e2 ae3e 3c1c b5be 0292 da3e 27ec 023f
000000d0: 667e df3c 21d5 92be 4b69 0a3f 7f80 bf3e
000000e0: 40dd 1c3f 532e 13bf e3fa 273e 1ee5 0abf
000000f0: bb62 343e 17c0 303e c4ed 11bf 676d a7be
00000100: 29fe c1be 100e c03e a81a c7bc ae83 393e
00000110: 61bd b93e 386d f63e d2b3 c43d b10f cb3e
00000120: a6bb abbe 687b a63c 4699 c1bc e69d 98be
00000130: 550b 00be ac92 e23e 8c81 913e a397 3f3d
00000140: 984d 42be 0889 99be 5ddc 903c 43c7 693c
00000150: 052b 153f 744e b63e 35f8 91be 57ba 2bbd
00000160: 9f50 c53e bd7b f93e 4ca8 863d 6fbe 393d
00000170: 5a00 6a3e 4463 85be 3d53 083e 3adc cdbe
00000180: 8fcc 463d 58ea f3bd ca5f 9d3c f468 9dbc
00000190: 310a 89bd 1809 183e 8b7e ecbd bd96 143f
000001a0: 8894 133e 5986 113f 53ec 84bd 0cad f43d
000001b0: e144 ebbe 9eab abbe 78ce 7d3e 919b 503e
000001c0: ca4e 543e 5d03 10bf 88ac 1a3f c028 983e
000001d0: 3004 21be 6259 093e 2323 31be b1db 473e
000001e0: 14dd b1bc 7c55 acbd e716 83be eeb3 a7be
000001f0: bee1 c13e 4708 123f 13f4 9dbb 55c3 013f
00000200: 3155 b9be 0df3 f53e 70c1 01bf 4027 a4be
00000210: bd5b dc3d c2b2 d4bd ab23 26bd d762 013f
00000220: bd16 cbbe 65a8 5f3e d0ea 74be 66f9 cebe
00000230: 80af 093f f29a 83be 8a89 053f 0c4b c63e
00000240: 151c 113e ee6d 233d ac80 f1be 7675 a63e
00000250: 52ec 6b3e 644b d73b 58f9 8dbe 75fc 5b3e
00000260: 55a5 e73e 3fd4 a6bc 99f2 cbbe ac3b 093e
00000270: 5edb b5be f126 ef3d 8c60 82be 8a5c 403d
00000280: 9cb8 3a3e be4b 023f b1f8 90be 8b6f d5be
00000290: 72c9 10bf 9917 1cbe 37b2 78be 717c 04bd
000002a0: 6594 8ebe 3341 f13e a187 083f 282c 19be
000002b0: bb1a c4be bb13 203e 7e07 76be 0184 9fbc
000002c0: e9ac 1d3e d2de 17be 4537 47be e6b6 8a3e
000002d0: 9ed5 eb3e 5a53 053e de70 96be 80a0 303c
000002e0: 509b e83e c3de fa3e 0f53 e4be 09a9 45be
000002f0: 0c76 073f 0fc6 d23d 82d1 8fbe 89a5 27bf
-0.4446064 0.3066155 -0.49575913 0.32216638 0.47224507 -0.33068392 0.021824637 0.17958605
0.48401073 0.14050935 -0.041416787 -0.22525173 -0.16117738 -0.17546411 -0.5163681 -0.044016887
0.5165368 -0.41215035 -0.51300514 -0.23142867 0.24978691 -0.40418983 0.22760057 -0.29408866
0.4049077 -0.31606394 0.24430116 0.3289494 0.09953612 0.00012323592 -0.5840486 0.3913502
0.2629872 0.47567654 -0.4836278 0.1543212 0.5820085 0.08755401 0.22563659 -0.15325804
-0.0012786404 -0.3231022 0.06490425 -0.45004252 -0.0036693786 -0.039979555 -0.1774706 0.15289135
0.3415753 -0.35373104 0.4268952 0.5114159 0.027281951 -0.2867823 0.54066914 0.37402722
0.612751 -0.5749256 0.164043 -0.54255855 0.17615788 0.17260776 -0.57003427 -0.32700655
-0.3788922 0.3751073 -0.024304703 0.18116638 0.36277297 0.48130202 0.096046105 0.3966041
-0.33541602 0.020322517 -0.023632657 -0.29807967 -0.12504323 0.44252527 0.2841915 0.04677547
-0.18974912 -0.2998736 0.017683202 0.014268699 0.5826877 0.3560673 -0.2850968 -0.041925754
0.38538072 0.48727217 0.06575069 0.045347627 0.22851697 -0.26052296 0.13313003 -0.40207082
0.048534926 -0.11909932 0.019210715 -0.019215085 -0.06691397 0.14847219 -0.11547574 0.5804251
0.14412129 0.56845623 -0.06490388 0.119470686 -0.45950988 -0.3352937 0.24785793 0.20371844
0.2073318 -0.5625513 0.6041951 0.2971859 -0.15724254 0.13413003 -0.1729856 0.195174
-0.021711864 -0.08414742 -0.2560341 -0.32754463 0.3786754 0.5704388 -0.0048203557 0.5068868
-0.36197808 0.48036996 -0.5068579 -0.32061195 0.10759685 -0.10385658 -0.04056136 0.5054144
-0.39665785 0.21841581 -0.23917699 -0.4042465 0.53783417 -0.2570415 0.5216299 0.3872913
0.14170869 0.03989976 -0.4716848 0.3251149 0.23039368 0.0065702666 -0.27729297 0.21483023
0.45243326 -0.020364879 -0.39833525 0.1340167 -0.35518926 0.11677349 -0.25464284 0.046963252
0.18234485 0.50896823 -0.28314736 -0.41686663 -0.5655738 -0.15243377 -0.24286734 -0.03234524
-0.2784759 0.47120056 0.53331953 -0.1495825 -0.38301644 0.15632527 -0.24026296 -0.019472124
0.15397991 -0.14831093 -0.19454677 0.27092665 0.46061414 0.13020077 -0.29382986 0.010780454
0.45430994 0.4899808 -0.4459462 -0.19302763 0.529145 0.10291683 -0.2808953 -0.6548696

fc_a.bias f4 [64]
00000000: 4f13 a3be 4c65 f4be b24a f33e 5946 18be
00000010: 72f7 b7be 0c58 003f e61c 43be fc64 173f
00000020: c8e2 113f 2204 5dbe aa14 10bf 2842 cfbe
00000030: ea46 96be 4159 c9be 6a5a fb3e 0515 133f
00000040: e963 e33e 94ce 0cbf 4422 b2be 0497 04bf
00000050: d982 4ebe 20f4 35be 9cfd 2f3f 6788 273e
00000060: 203c 8b3e 0e50 b63e 0e50 c0be 2cea 9cbe
00000070: 87b1 0f3e 8369 d63d 4d72 8fbe 2445 943e
00000080: a4a2 22be 9078 8b3e 9b62 c13e 47f2 22be
00000090: d244 d93e 04b3 2b3f c7d1 203f 6d2e 0f3f
000000a0: 6260 e03e aa10 cb3e e837 f03e f444 edbe
000000b0: c88f fc3e 014a 333e 8702 81be c4c6 6ebe
000000c0: 0214 5ebd 91d4 ee3e 190d 92be a5ca 89bd
000000d0: e20f afbe 2c43 2fbe 2730 2f3f 6680 213f
000000e0: 9072 efbe 16be 013f 1787 493e c638 0d3f
000000f0: 85ae fe3e cd14 e73e 69b4 08bf 50bf 063f
-0.3185067 -0.47733533 0.47517926 -0.14870586 -0.35930973 0.5013435 -0.19053993 0.59138465
0.56986666 -0.21583608 -0.5628153 -0.4048016 -0.29350978 -0.39325908 0.49092418 0.5745395
0.44412163 -0.55002713 -0.34791768 -0.5179293 -0.20167102 -0.17768908 0.6874635 0.16360627
0.2719431 0.35607952 -0.37561077 -0.3064741 0.14032565 0.104693435 -0.28016892 0.28959
-0.15882355 0.2724042 0.37770543 -0.15912734 0.42435318 0.6707003 0.62820095 0.55930215
0.43823534 0.3966115 0.46917653 -0.4634167 0.49328446 0.17508699 -0.2519724 -0.2331801
-0.0542183 0.4664655 -0.28525618 -0.067281045 -0.34191805 -0.17115468 0.6843285 0.63086545
-0.46767092 0.50680673 0.19680439 0.55164754 0.49742523 0.45133057 -0.53400284 0.5263567

fc_q.weight f4 [32, 128]
00000000: f247 b33c 4c06 eabd 191b c7bd dc69 1cbd
00000010: 63b1 88be e5b2 bcbd 64bc 023d 7f52 fb3d
00000020: 7902 8f3d f19d e73c 6608 fd3d 227b 923d
00000030: dcc4 4ebd 8fb1 b13d 00e0 363d e0a1 163d
00000040: cd5c 043b b948 b33c f7b9 a4bd 2e8e 82bd
00000050: 22fe 143d 7a43 2a3b 803a 1bbd 9a0e 803d
00000060: ff23 21bc 17cc aebd 721d f93d 338b 20be
00000070: 0549 213e 215c 26bd d055 ee3c a41f 363d
00000080: 7133 3d3e aa21 db3b 46ce 203e 3ff2 bb3d
00000090: 6b3f 4a3d 13bb 1ebe 0ea6 223c 986c ab3d
000000a0: 1007 dabc 08cb 083e 8e24 8c3d e504 12bd
000000b0: 7ce7 9b3d b54d 32bd f527 713d 9774 c43d
000000c0: 4754 65bc 9b8f 183e 2f22 00bd a8e1 b3bc
000000d0: e790 f73d 2119 d7bc cb4f 01be aca6 5e3e
000000e0: 9382 d13c ac17 013e f9c9 52be 6ec1 13bd
000000f0: 2807 35be f5ad b33c ddb5 a3bc c9d8 b2bc
00000100: bec1 27bd cf35 b03c c000 4a3e 6691 b03d
00000110: 9e18 ca3b fe41 563e 0d39 383d c2b6 e93d
00000120: a1b6 3b3e 8632 a6bd 292f b83d 7a63 fdbc
00000130: 9d9e 2bbe 9e5a 5b3d 308d b63d 6183 623e
00000140: d793 4e3e a559 83bc a2d8 9bbd ec66 32bd
00000150: d111 513d 7304 843d d59d 6b3e 5a01 c03d
00000160: 3a56 633e 32bc 263e 94ae 113b 2ae6 37bd
00000170: 2afb 243e c4ce f13c bb33 7cbd 8398 863e
00000180: 9f8c e8bc 3dab e23d 1a99 ab3d e303 48be
00000190: cfbd a63e a6f5 613e 50b5 ff3d b821 453e
000001a0: 2ff5 a93e 860d 193e e5cd 7e3e 1274 943b
000001b0: b745 e53d 0b9a 34bd 3cce 75bd 56ec 153e
000001c0: 9b55 7abd 87a3 173e 086b 1abc b655 233d
000001d0: 16fa 91bd b753 c63b 5703 953e 0445 373e
000001e0: bdfa d6bc 649b 543e 76d0 1a3e 1042 6d3e
000001f0: 916a a93d 093b 2b3e 9a86 d93b 8f3a af3e
00000200: a262 803b 32cb 53bd 2e9d 18be 683f 4d3d
00000210: 05af 8bbc 6de4 09be b8f3 43bd db2a 65bc
00000220: e3b6 ecbd bf6a a9bd d770 b83d 2207 e93d
00000230: 350a 08bc e52c 1cbe c920 5c3c 605e 36be
00000240: 9830 b13d 4cf3 86bd c756 ba3c 1099 463e
00000250: 00dd c93d b2d0 e93c 6a09 efbc 1f83 33bd
00000260: 344e 85bd 3938 5c3d b704 a4bd 6602 a1bd
00000270: b9af 46be 3796 ab3c 683b 3d3d e6c8 1bbd
00000280: 279c 303d a715 a3bd 1529 133e ad95 133d
00000290: 2ef9 aa3d a1e7 cebb 0786 afbe 4aed d5bc
000002a0: c322 e7bd ae89 15be 95c7 9cbd 251f 97ba
000002b0: efbf a6bd 158b 0b3a ad1b 9f3b 4213 dbba
000002c0: 2dbe 86bd 186d 423c d8ae cf3c 9f07 a03d
000002d0: ad8e 903d 6ef4 97bd 5e9b 97bd 5c46 083d
000002e0: 3bf1 6b3d f272 d0bd 36e0 a73c ce82 1fbd
000002f0: c0bd 30bc bf27 303d bb7f 67bd fc93 86bd
00000300: b554 063d bf6e 203d 2040 3abe d019 43bd
00000310: 23ff 8e3d ad21 05be 612e 1abd d115 46bd
00000320: 95af 07be 0eee 233d 7ea3 12be 3fae 24bd
00000330: bcce 773a 69e7 72bd a6c1 97bd 7333 e5bd
00000340: ead9 5fbd 09ce 45bd adfb 02be 8d38 883d
00000350: 410e c7bd 5eb1 90bd 8f5a 2dbe 270c 2fbe
00000360: e532 02be 0978 c2bd 8367 ffbb 364f 98bd
00000370: be78 16be 0354 64be f1eb c03c b902 cebc
00000380: ae9b 1dbd e64a 97bd aa48 59be 84ff 083d
00000390: 1453 f3bd a4da 7ebd d5f8 00be 04ce f1bb
000003a0: f039 34be 22cb 59be 25d2 0ebe a79c 73bc
000003b0: 3100 47bb 511b 43bd a2ea 10bd 544d f5bd
000003c0: 6a15 543d 455c 05be f1f8 42bc d6be 2bbd
000003d0: 52d0 0f3d 940d f0bd ce69 9fbd 187d 37be
000003e0: a22f dcbd 5007 bebc e4d2 f8bd 5b6e 80bd
000003f0: 3701 2fbc a52e 0abe 847a 55bb bf3f acbc
0.021884892 -0.11426982 -0.09721965 -0.038186893 -0.26697835 -0.09213809 0.031917945 0.12271594
0.069828935 0.028273555 0.123551175 0.07152392 -0.05048071 0.08676445 0.044647217 0.03677547
0.0020196915 0.021885263 -0.080432825 -0.06374775 0.036375172 0.002598016 -0.037897587 0.06252785
-0.009835242 -0.08535021 0.121638194 -0.156781 0.15750511 -0.040615205 0.029093653 0.04446377
0.18476655 0.0066873627 0.15703687 0.09177064 0.049376886 -0.1550105 0.009927286 0.08370322
-0.026614696 0.133587 0.0684291 -0.0356492 0.076125115 -0.04353114 0.058875997 0.0959255
-0.013997144 0.14898531 -0.0312826 -0.021958187 0.12088185 -0.0262571 -0.12628095 0.21743268
0.025574958 0.12606686 -0.20584859 -0.03607314 -0.17678511 0.021933535 -0.01998418 -0.021831887
-0.04095625 0.021510033 0.19726849 0.086214826 0.0061674854 0.20923612 0.044976283 0.114118114
0.18331386 -0.08115105 0.0899337 -0.030931223 -0.16759725 0.053553216 0.08913648 0.2212043
0.20173584 -0.016033957 -0.07609679 -0.043555185 0.05104238 0.06446161 0.23009427 0.09375258
0.22200862 0.16282728 0.00222293 -0.044897236 0.16111436 0.029517539 -0.06157277 0.26288232
-0.028387366 0.11067817 0.08378811 -0.19532733 0.32566687 0.22066364 0.124857545 0.19251144
0.33194873 0.14946565 0.2488323 0.004530438 0.11194938 -0.04409222 -0.060011134 0.14640936
-0.061116796 0.14808474 -0.009424932 0.039876662 -0.07127778 0.00605246 0.2910411 0.17897421
-0.026242608 0.20762402 0.15118584 0.23169732 0.08272279 0.16721739 0.00663836 0.34224364
0.003918008 -0.051707454 -0.1490371 0.050109297 -0.01705123 -0.13466044 -0.04783985 -0.013987268
-0.115583204 -0.08272313 0.090058975 0.113783136 -0.008303215 -0.15251501 0.013435551 -0.17809439
0.08651847 -0.06589374 0.022746457 0.19394326 0.098566055 0.028541896 -0.029179294 -0.04382622
-0.06509057 0.053764556 -0.08008712 -0.078617856 -0.1940297 0.020945651 0.046199232 -0.03803339
0.04311767 -0.07963114 0.1437114 0.036031414 0.083483085 -0.0063142334 -0.34281942 -0.026114125
-0.11285927 -0.14603302 -0.07655255 -0.0011529668 -0.08142077 0.0005323154 0.004855594 -0.0016714113
-0.06579242 0.01186683 0.025351927 0.078139536 0.07058463 -0.07419668 -0.07402681 0.033270225
0.057603102 -0.10178174 0.020492654 -0.038943104 -0.010787427 0.043006655 -0.056518298 -0.065711945
0.032795627 0.039168116 -0.18188524 -0.04763204 0.06982257 -0.13001128 -0.037641887 -0.04836065
-0.13250573 0.04002195 -0.1432018 -0.040205237 0.0009453108 -0.05930272 -0.074099824 -0.11191454
-0.05465118 -0.048292194 -0.12791319 0.06651411 -0.097195156 -0.0706508 -0.16929077 -0.1709448
-0.12714727 -0.09495551 -0.007794322 -0.07436983 -0.14694497 -0.22297673 0.023550006 -0.025147783
-0.038478546 -0.073873326 -0.21219125 0.033446804 -0.1188108 -0.06222023 -0.12594922 -0.0073792953
-0.17600226 -0.21268895 -0.13947351 -0.014868892 -0.0030365104 -0.047633473 -0.035380013 -0.1197764
0.051778235 -0.1302348 -0.011900173 -0.041930042 0.03511078 -0.1172134 -0.077838525 -0.17918813
-0.10751273 -0.023196846 -0.12149599 -0.06271049 -0.010681442 -0.13494356 -0.0032574246 -0.02102649

fc_q.bias f4 [32]
00000000: 4e97 2f3e 88cd babd 85b1 403e 662d c0bd
00000010: dccb 63bd 1069 4a3e 4032 4b3e e0e5 513e
00000020: 45bf 81bd 0adc 853d 637c b63d 57a8 493e
00000030: dd8a ed3c ef57 c7bd b3ef cbbd 783b b7bd
00000040: fa10 8c3b ea17 9a3e a353 8e3c 5084 31bd
00000050: 5687 95bd 5727 c53d 43be e4bd fc30 6f3e
00000060: 5dc6 cdbd 3942 523d a61a 90bd cef9 39bd
00000070: 1ff7 a8bd 084d 2bbd 2f74 23bd 562c 7d3d
0.17147562 -0.09121233 0.18817718 -0.09383659 -0.055614337 0.1976664 0.19843388 0.20497847
-0.0633531 0.0653611 0.08910444 0.19693123 0.02899688 -0.09733569 -0.099578284 -0.0894689
0.0042744847 0.3009637 0.017373865 -0.043339074 -0.07301204 0.09626644 -0.11169102 0.2335853
-0.100476004 0.051332686 -0.07036333 -0.045404248 -0.082502596 -0.04182151 -0.039905723 0.06180986

fc_out.weight f4 [1, 32]
00000000: 48b1 42be d743 33bc 7102 18be c562 783d
00000010: 2001 253d 74ed b1bd 51fa 03be 89a8 1dbe
00000020: 523d e73d 1579 4f3d df82 6dbd b919 44bd
00000030: 4f0c e73d 92d9 103b bd3d 063e c58c 18bd
00000040: de51 0c3c ef18 d4be 10ea 583c 4f2b 4b3d
00000050: e8d5 4f3c adbd f83d 556f 193c 3c3b b2bd
00000060: dd1f 773d cc15 fbbb 20f5 d6bb cd68 8f3d
00000070: 32bc e23d 49fa c53d 9314 f33d c4ef 94bd
-0.1901294 -0.010941467 -0.14844681 0.06064107 0.040284276 -0.08687869 -0.12888457 -0.15396322
0.11290993 0.050652582 -0.057986137 -0.047876094 0.112816446 0.0022102338 0.13109489 -0.037243623
0.0085644405 -0.41425273 0.013239399 0.04960185 0.012685277 0.12145553 0.0093649225 -0.08702704
0.06033312 -0.0076625105 -0.006559983 0.07002411 0.11071052 0.09666879 0.118691586 -0.07272294
