LIRL results/EV-Charging/pdqn/run_4_seed_1092/pdqn_action_target.pth (torch, 31783 bytes, 8 tensors)

state_encoder.0.weight f4 [64, 39]
000000 0d 3c 20 3d 89 ef c5 3d 8d b1 f6 bd b8 da fe bd
       0.03911977 0.09664828 -0.12045584 -0.12444061
000010 e6 d3 cf 3a 18 4f 9b bb 3d 20 9b 3e ba a7 00 3f
       0.0015855997 -0.0047396533 0.30298033 0.5025593
000020 7a 0e fd 3e e5 bf 73 3c c7 74 e5 bc 5a 28 20 3e
       0.49425107 0.014877294 -0.028009785 0.15640393
000030 f4 0f 89 bd b1 90 aa 3d 6e d6 f1 bd d5 06 d8 be
       -0.06692496 0.08328379 -0.11808477 -0.42192712
000040 53 54 3e 3e f4 5b 8e bd 0d 9a 29 be 66 6f 04 3e
       0.18586855 -0.069511324 -0.16562672 0.1293312
000050 cc f0 2c bd ed bf 06 3d 9b 8c e2 3c af ba 1a 3f
       -0.04222183 0.03289788 0.027654937 0.60441107
000060 c8 5b 8e be 16 20 0c bd f1 d7 db 3c 7b 2c 74 3f
       -0.278044 -0.034210287 0.026836367 0.9538037
000070 ad 56 8b bd 0a 2d 59 be 56 94 d3 be e0 68 f5 3e
       -0.068036415 -0.21208587 -0.4132411 0.47931576
000080 f2 1f 0b 3e 28 2f 01 be ef c6 9a be 48 95 e4 3d
       0.13586405 -0.12615645 -0.302299 0.11161286
000090 c2 16 4c 3e d2 ab d9 3e 56 9f a4 3e df ec fd 3e
       0.19930556 0.425139 0.32152814 0.4959478
0000a0 82 e6 90 3e 22 5e 60 3e fc 54 d1 3d 26 aa d5 3e
       0.28300864 0.21910909 0.102212876 0.41731375
0000b0 97 b7 84 3c f6 e9 50 3e ec 87 12 3e c5 ac 97 be
       0.016200824 0.20401749 0.14309663 -0.29624
0000c0 0f b3 c8 3c ee ac b3 3d bc 62 20 be 78 53 12 bd
       0.024499444 0.08773218 -0.15662664 -0.035724133
0000d0 1e 1b 44 bc 70 24 d6 bd de 1d 8a 3e 1c 3f 0c bf
       -0.011969356 -0.10456169 0.26975912 -0.547838
0000e0 9c 1e 2b 3c 03 bb 18 be 1a 0e cf be 2d 25 09 3e
       0.01044431 -0.1491509 -0.40440446 0.13393088
0000f0 0e a2 bb bb 8d 35 ef 3d bc 40 43 be 7b 25 d3 bd
       -0.0057261055 0.11680136 -0.19067663 -0.10309883
000100 db 7d d4 3c 72 e6 2a 3e dc 0c f3 bf 8d 60 57 be
       0.025938919 0.1668947 -1.8988299 -0.21032925
000110 bd a3 cf bd 69 67 e9 be 63 26 07 bf 4a c5 bc be
       -0.101386525 -0.45586708 -0.5279295 -0.3686927
000120 ca 4b 46 bd bf 8b e1 3d a7 04 96 bd 6d b3 72 be
       -0.04841212 0.110129826 -0.07325106 -0.23701258
000130 fd c7 91 bd 7a 1c 43 3d 72 eb d2 3d 40 16 f4 3e
       -0.07118223 0.04763458 0.10298814 0.47673225
000140 7b 55 bb 3e b1 d5 5d 3e 7e 17 7e 3e 09 fc 5b 3c
       0.36588654 0.21663548 0.24813649 0.013426789
000150 6a 72 ae 3e b8 f9 4c bf 55 9b 2c 3f b7 d5 1e be
       0.34071666 -0.8006854 0.6742452 -0.15511213
000160 8b 11 65 3d fe 94 5d 3e f2 7d 5d be 0b 5d e5 bd
       0.055924933 0.21638867 -0.21630076 -0.11199387
000170 ed 88 07 be 76 ee 81 be f1 d4 f1 bd 83 09 a4 3c
       -0.13235827 -0.25377244 -0.118081935 0.020024067
000180 d7 4c 2b bc ff 37 6e bd 4a 07 61 be 61 6a 86 bd
       -0.010455332 -0.05815887 -0.21975437 -0.06563259
000190 df e4 64 3c 02 91 44 3f e4 6e 66 3e e4 f9 79 3c
       0.013970583 0.76783764 0.22503239 0.0152573325
0001a0 b8 14 9a 3d 46 c8 78 3f 15 9a 25 3e 91 03 c4 3d
       0.07523483 0.97180593 0.16172059 0.09570993
0001b0 0a 69 6d bd 40 8c 50 3d 72 11 da bd d8 63 57 bd
       -0.0579615 0.050915003 -0.10647859 -0.052585453
0001c0 8f f3 97 3d 2c 49 b7 be 42 2b 50 3e ff 62 8a 3c
       0.07419502 -0.35798013 0.20329002 0.016892908
0001d0 da 3c 68 be b7 5c 71 be 4c bf a6 bd 64 3b 2e be
       -0.22679463 -0.23570524 -0.08141956 -0.17014843
0001e0 a7 b1 6e be e8 19 84 be 38 ec 0f 3e 58 e5 33 3b
       -0.23309956 -0.25801015 0.14054954 0.0027449932
0001f0 0d f8 dd 3f 22 f5 ed bd 0f 26 fe bc 46 39 82 3d
       1.7341324 -0.11619021 -0.031024007 0.0635858
000200 91 74 20 be 33 a9 24 3d d8 f0 47 bd 9b a8 a2 3d
       -0.15669467 0.040200423 -0.04881367 0.07942315
000210 cf 1c 92 be 81 58 36 3d a0 57 28 3a c1 fe 4a bc
       -0.28537604 0.044517998 0.00064217485 -0.01238984
000220 06 a6 fa 3d 13 b7 a2 3d 53 b5 52 ba ae f9 5d bd
       0.12238698 0.07945075 -0.00080378837 -0.05419319
000230 5e 49 0e 3f c8 37 a3 3d 40 08 e8 3d 29 e0 c2 3d
       0.555807 0.07969624 0.113296986 0.095154114
000240 53 63 0b be 93 31 4e 3e 52 ee ce bc 32 90 29 3e
       -0.13612108 0.20136099 -0.025260124 0.16558912
000250 50 73 b5 be bf a1 87 3e 3c ce 32 3e f9 d2 40 3e
       -0.3543954 0.2649059 0.17461485 0.1883048
000260 70 f0 41 bf 31 9b 8c 3e 27 95 40 3e 82 16 02 3e
       -0.75757504 0.27462152 0.18806897 0.12703899
000270 b9 f1 56 3d ee 43 cb bc bc 46 51 bc 46 ad 17 3e
       0.05247662 -0.024812665 -0.012773212 0.14812192
000280 3c a1 82 3e 38 55 18 be e4 17 42 be 71 0e f8 3e
       0.25513637 -0.14876258 -0.18954426 0.48448518
000290 5b 1f cc 3c 7f b6 d9 bc bc 3b 3c 3c 73 42 6d 3f
       0.024917295 -0.026576279 0.011488851 0.9267952
0002a0 ec eb 43 bc fd a3 4a bd fa 06 89 3e 33 df 0c 3f
       -0.011958104 -0.049472798 0.26763135 0.55028075
0002b0 da 8f ae 3d 5d 64 57 3d 25 66 21 bb 7d ae a1 bc
       0.08523531 0.05258595 -0.0024627533 -0.019736523
0002c0 03 93 9a bd 23 58 a5 3d 12 79 fc 3d b3 8a b6 be
       -0.075475715 0.08073451 0.1232778 -0.35652694
0002d0 59 69 99 3e a8 3c 52 3d d3 39 38 3d 1d 64 45 bf
       0.29963186 0.051327378 0.04497702 -0.77105886
0002e0 de 7a 0a 3b ec 8b 72 3d d9 e9 db 3d 4d 8e 90 bf
       0.0021130363 0.05921547 0.10737962 -1.1293427
0002f0 45 11 05 be 7b 92 53 be b8 01 ac bd 76 66 ba be
       -0.12994869 -0.20661347 -0.08398765 -0.36406296
000300 c3 4a 1e be 82 ed e3 bc a8 e0 11 be 5a e2 6d bc
       -0.15458207 -0.027823213 -0.14245856 -0.014519298
000310 be 60 1d be d3 21 26 be 42 b1 c6 3b 89 8c a0 3c
       -0.15368935 -0.1622384 0.0060636112 0.019598262
000320 b6 a8 53 3c 3d db b1 3c 64 ea 89 be 65 92 8a 3d
       0.012918642 0.021710986 -0.26936638 0.06766204
000330 d5 85 53 bc 78 76 b2 3d d7 26 08 3e 88 57 74 3e
       -0.012910326 0.08714002 0.13296066 0.23861516
000340 93 7c f6 bc e2 41 87 bd 37 e1 3c 3e 10 0f 49 3e
       -0.030088698 -0.06604363 0.18445288 0.19634652
000350 14 b7 cd bc ef f6 e8 3c d4 5b 71 bf fc f1 75 be
       -0.025111713 0.02843806 -0.94280744 -0.24018091
000360 0a 46 21 3e c0 6b af 3d 14 31 ad 3e 7b e5 ff 3d
       0.15749374 0.085654736 0.33826506 0.12494942
000370 77 87 05 3d c1 cc 11 be b2 b3 d4 3e c4 89 82 3c
       0.032599892 -0.14238264 0.41543347 0.015934832
000380 c5 ff 2d 3d d0 6e 6d be d6 1c c8 3e a4 b0 af bd
       0.04248025 -0.23186803 0.390845 -0.085786134
000390 3c 56 e7 3d 60 f2 cb bd fa e8 3b 3f 57 1d 45 3d
       0.11295745 -0.09958339 0.7340237 0.048123684
0003a0 0c f9 bd 3d ef c5 a7 3e f8 40 5f 3e bc 58 f5 3d
       0.092760175 0.327682 0.21802127 0.11979815
0003b0 5a 10 2f 3e 3c 02 db 3d ee 47 55 3e b6 b9 ed bc
       0.17096081 0.106937855 0.2082822 -0.029019218
0003c0 1b f3 8a 3e dc f8 93 3d 34 e7 5e be 0c d1 39 3e
       0.271386 0.072252005 -0.21767884 0.18146151
0003d0 1a 39 9c 3d 5f 41 19 c0 9e 93 ed bd a9 4a 7d 3c
       0.07628079 -2.394615 -0.11600421 0.015459695
0003e0 17 25 4e 3d c7 b5 48 3d fb 42 27 bd b0 5b d0 bb
       0.05032834 0.04900148 -0.040835362 -0.0063585863
0003f0 9e 70 f2 bd ee 04 36 3f a8 76 63 be c6 7e 02 3d
       -0.11837886 0.7110127 -0.22213233 0.03185918

state_encoder.0.bias f4 [64]
000000 25 48 dd 3d 16 92 d7 3d d2 a6 42 3e 34 94 f6 bd
       0.10804776 0.105259106 0.1900895 -0.12039986
000010 e5 1e 71 3d 48 06 aa bd d3 4b 69 3e fa b1 07 3e
       0.058867354 -0.08301979 0.22782831 0.13251486
000020 85 d0 15 3e 27 a1 aa bd 0e ff f6 3d ed 52 ce 3e
       0.14630325 -0.083315186 0.120603666 0.40297642
000030 60 ee e3 3d f6 0c 5b 3e e7 ff 87 be 04 4d 62 be
       0.11129451 0.21391663 -0.26562425 -0.22099692
000040 13 42 52 3e cb 74 1a bc c9 04 48 3e 5b 2a 0c bd
       0.20533018 -0.00942726 0.19533075 -0.03422008
000050 6b d0 92 3d 1b 32 a9 3e 73 f7 43 3e d3 50 3f be
       0.07168659 0.3304604 0.19137363 -0.18683176
000060 8a c6 85 bd 83 e8 e3 bd 53 74 84 be af 90 4e 3e
       -0.06532009 -0.111283325 -0.25869998 0.2017238
000070 87 c4 72 3e d3 75 a2 3b e3 49 6a 3e 1e 94 10 3e
       0.23707782 0.0049578934 0.22879748 0.14119002
000080 b5 e1 8c bd d8 b8 b1 bd e0 01 06 3f d0 0c d1 bd
       -0.06878988 -0.08677834 0.5234661 -0.10207522
000090 a2 18 e1 bc 30 60 7d bc 6c 92 70 3d d6 e2 6f 3e
       -0.027477566 -0.015464827 0.05873339 0.23426375
0000a0 1b 8f 5e 3e 24 f8 dc 3c 5f 54 b4 3c c8 dc bb 3d
       0.21734278 0.026973791 0.022012888 0.0917297
0000b0 ca 7e 30 be 81 54 5c bd ab 1f 18 bd 0f fd aa bd
       -0.17235866 -0.053791527 -0.037139576 -0.08349048
0000c0 01 e8 27 3e 43 21 ca 3e 79 55 5a bd 68 83 a5 3d
       0.16397096 0.39478502 -0.05330417 0.080817044
0000d0 77 27 66 3e fb 13 74 3d 25 8e 46 3c c5 81 a7 3e
       0.22475992 0.059589367 0.012118851 0.32716194
0000e0 a5 68 77 bb 39 ef df bd 73 58 a3 bc 06 d2 9f 3d
       -0.0037751582 -0.109343 -0.019939637 0.07803731
0000f0 84 ac eb 3c 76 9d 2c be aa 83 75 3e 37 45 dd 3d
       0.028768785 -0.16856942 0.23976007 0.10804217

state_encoder.2.weight f4 [32, 64]
000000 2e 8d 7d be b4 24 98 3e 1f 1b bf 3c 61 14 8d 3d
       -0.24760887 0.29715502 0.023328362 0.068886526
000010 07 8b 3b 3e 03 b3 3a be 95 58 6d 3d eb d3 54 bd
       0.18314753 -0.1823235 0.057945807 -0.051959913
000020 b2 19 ad bd 4d 1b af 3d dd f7 92 bd 75 84 00 be
       -0.084521666 0.08550129 -0.071761824 -0.12550528
000030 18 df 0d bc 89 15 41 3d 03 b2 19 3e 21 58 3f be
       -0.008659147 0.04713968 0.15009312 -0.18685962
000040 30 6a 34 bc c8 04 3c 3e c3 2b 49 bd 52 a1 52 be
       -0.011011645 0.18361199 -0.049114 -0.20569351
000050 6a c3 8a 3d 76 aa 8e bd 0d 9a f0 3d 84 bf 8b 3d
       0.067755535 -0.069661066 0.11748133 0.06823638
000060 c6 58 9b 3d 43 3f 70 3e 54 78 9e 3b 71 9e 3f be
       0.075852916 0.23461632 0.0048361216 -0.18712784
000070 f8 0d 30 bb 2c 1f ac bd c7 29 21 be 70 45 23 be
       -0.0026863795 -0.08404383 -0.15738593 -0.15944457
000080 6c e9 a0 3d a6 ee 36 3e 61 4d 39 be 1e 35 d7 b8
       0.07857022 0.17864475 -0.18095924 -0.00010261893
000090 b6 86 ae 3e bc 07 f7 3c 21 c1 4b be 33 63 2f bd
       0.3408715 0.030155055 -0.19897892 -0.042819213
0000a0 e9 da aa bd 48 c8 7e bd 3b 37 57 3d d8 a7 2b 3e
       -0.08342535 -0.06220272 0.052542906 0.16763246
0000b0 cb 2f 0d bb 13 ed 6d 3e 21 12 de 3d 79 84 07 3d
       -0.002154338 0.23234968 0.108433016 0.03308532
0000c0 4d 3d 4e 3e 9e 27 ab 3d bc 81 4b 3e 59 f1 34 bd
       0.20140572 0.08357166 0.19873708 -0.04417548
0000d0 86 16 29 3d d6 49 76 bd 93 75 b3 3d ac 16 71 be
       0.041281246 -0.06012901 0.0876266 -0.23543805
0000e0 f1 c0 b7 bc 2d d7 ef bd 03 08 95 bd 71 2f 92 3d
       -0.022430869 -0.117109634 -0.07276919 0.07137955
0000f0 2f 2e 98 3c 8f e9 17 be 73 a2 3d bd 6b 81 bf 3d
       0.01857671 -0.1483519 -0.0462975 0.093508564
000100 f4 c0 83 bd 8f 97 65 3e e1 c3 02 3e 8d d0 96 3c
       -0.06433287 0.22421096 0.12770034 0.018409992
000110 10 d7 c9 3d b9 02 0b bc 5f ae 00 3c 58 5c 3f 3d
       0.09855473 -0.008484536 0.007854073 0.046718925
000120 b0 96 1c 3d 3d 5e 0a 3e 00 45 6e 3d 40 87 84 3c
       0.038229644 0.13512512 0.058171272 0.016177773
000130 0e 99 25 3d 4f 95 1a 3d de 80 98 bc 28 91 3c ba
       0.040429167 0.037740048 -0.018616136 -0.0007193261
000140 81 0d a4 3d 0d 6e c7 3d 15 79 ea bd 67 52 cd bd
       0.08010388 0.097377874 -0.11448876 -0.100254826
000150 30 a0 f6 bd 26 69 23 3d 40 a4 00 be ec b9 0d bd
       -0.12042272 0.0398952 -0.12562656 -0.034601137
000160 83 a1 a7 3d 65 a9 47 3e ed 8d af 3b 1f ea 28 bd
       0.08185103 0.19498213 0.005357495 -0.0412389
000170 75 3d eb 3d 34 1b 15 be 0f 0c 1f be c2 19 9f bd
       0.114863314 -0.14561158 -0.15531944 -0.07768585
000180 29 24 80 3d b8 1c 2b 3e 30 e9 7f be ca b5 35 3e
       0.06256897 0.16710174 -0.24991298 0.17745128
000190 e7 cd af 3e f8 12 5b 3d 9d d2 3c be a9 27 f6 3c
       0.3433678 0.053484887 -0.18439718 0.030048208
0001a0 d0 a1 1a bd b2 92 a6 bc 84 8a 51 3d 96 ad 95 3d
       -0.037751973 -0.020333622 0.05115749 0.073084995
0001b0 e9 33 c1 bd e8 cb 6a bd 83 af a4 3c e7 53 a7 bd
       -0.09433729 -0.057323366 0.020103222 -0.081703
0001c0 39 f1 14 3d 10 e3 d8 3d 43 e7 fb 3c db 04 a7 bc
       0.03636286 0.10590184 0.030749923 -0.020388057
0001d0 6b 72 82 3d 92 33 6c 3d e1 a4 3c 3d 98 fc 8d 3b
       0.0636948 0.05766637 0.04605568 0.00433309
0001e0 17 d2 01 bd e3 a4 f9 bc 0b 80 e9 bd 05 c4 33 3d
       -0.031694498 -0.030474132 -0.114013754 0.04388811
0001f0 74 ff 90 bc 45 1d 00 bd 61 be c6 3b 3e f0 67 3d
       -0.017699935 -0.031277914 0.0060651754 0.056625597
000200 ec 66 c3 bc 0d 44 40 3d 55 d2 55 3e 55 58 6e be
       -0.023852788 0.0469399 0.20881017 -0.23275883
000210 93 e9 74 be 88 60 6f bc cb 3e 5d 3d da b3 af 3b
       -0.23917226 -0.014610417 0.054014962 0.005362016
000220 42 b7 03 3d c2 d8 b5 bd fe 5e 15 3e a2 26 51 bd
       0.03215719 -0.08879234 0.14587018 -0.051062234
000230 13 db 21 3d 5d f6 2c be 9b 25 6e 3e 47 89 9a bc
       0.039515566 -0.16890855 0.23256533 -0.018864287
000240 9e 44 07 be 81 44 89 3d 6d 19 40 3e 62 a3 36 3d
       -0.13209769 0.06702519 0.18759699 0.044589408
000250 3e 34 a6 bd 09 25 05 3e 63 46 45 3d 91 83 e5 3c
       -0.08115433 0.13002409 0.04816283 0.028016837
000260 20 39 0c 3d 44 b4 94 3d 71 82 ba be ea b9 05 3d
       0.034234166 0.072609454 -0.36427644 0.032648005
000270 8c 5a 1c 3e aa 42 a4 bd 09 4f 76 bd ab 81 85 bc
       0.15268916 -0.08020528 -0.060133968 -0.016297182
000280 e5 5c 98 3c 6b e2 19 3d dc 58 d7 3d 10 5b 9c bd
       0.018598983 0.037569445 0.105149955 -0.07634556
000290 cd 52 24 be bc a9 f0 bd 7d 06 b4 bc 80 93 02 3d
       -0.16047211 -0.11751124 -0.02197575 0.03187895
0002a0 7e 42 ee 3d d3 b8 f0 3d a5 c4 4b bc 58 64 16 3c
       0.11633776 0.117540024 -0.01243702 0.009179197
0002b0 5c 01 db bd c3 7a 18 3e 1e 11 e4 3c 6a 52 5f 3b
       -0.10693619 0.1489058 0.027840193 0.0034076222
0002c0 ff 67 96 3b ca 21 4a be e8 97 b7 bd 62 b6 f6 bc
       0.004590034 -0.19739452 -0.08964521 -0.030116264
0002d0 9a 66 1f be c3 c4 53 3d f5 8f 12 bd 47 89 04 bd
       -0.15566483 0.05170132 -0.03578182 -0.03235748
0002e0 b8 b4 d9 3d c8 51 02 be a2 0c 15 3e 61 a1 1e 3e
       0.106301725 -0.1272651 0.145556 0.15491249
0002f0 05 95 a1 3d e6 fe 95 bd 51 82 a6 bd e0 64 f0 bd
       0.07889751 -0.07324009 -0.08130325 -0.117379904
000300 e2 23 f0 bd b3 5c 0a 3e 80 77 3f 3e c9 c7 26 3e
       -0.11725594 0.13511924 0.1869793 0.1628715
000310 57 ab 57 3c 34 19 61 bd 66 1f 14 3e 37 8d ea bd
       0.013163409 -0.054955676 0.14465103 -0.11452716
000320 01 7d f8 bd 7b f4 92 3d 5f 18 68 be 74 7b d6 bc
       -0.121332176 0.07175537 -0.22665547 -0.026181914
000330 05 8e 24 bd 2c 68 98 bb bc f0 b6 3d e0 5a de bd
       -0.040174503 -0.00465109 0.08932635 -0.10857177
000340 fd c1 50 bc 8f eb 30 3e 63 85 ed bd 58 c6 fb bd
       -0.012741563 0.17277358 -0.11597707 -0.122936904
000350 c7 38 04 3e f1 0b ef bd d9 48 16 be 5c 2c 15 3d
       0.12912284 -0.116721995 -0.14676227 0.036419258
000360 0e 65 26 3e dc 7c 30 3e dd 25 bb 3c 98 ff 05 3d
       0.16249487 0.1723513 0.022845203 0.032714456
000370 47 b5 37 bd 06 b8 75 3d 8d f8 c1 bd aa 9c d7 bd
       -0.044850614 0.05998995 -0.094712354 -0.10527928
000380 3f 64 19 3e 8c b4 1e 3e 12 77 fe bd 11 5c fc 3d
       0.14979647 0.1549856 -0.124250546 0.12322248
000390 7f fe ac 3e ee 83 30 3d 5e f2 52 bd 28 75 60 bd
       0.33787915 0.043094568 -0.05150067 -0.05479923
0003a0 28 9a 04 3d e9 3c 85 3d 83 6d 92 3d 68 68 f8 3d
       0.032373577 0.06505758 0.07149794 0.12129289
0003b0 d1 27 5d bd 40 5e 91 3e a2 d8 e0 bc d5 7a a8 bd
       -0.05399305 0.2839222 -0.027447049 -0.08226553
0003c0 e2 ff 3b 3d 9d f0 b2 bd d5 f3 90 3d 45 32 a2 bd
       0.045898326 -0.087372996 0.07077757 -0.079197444
0003d0 c3 88 f6 bd f8 94 a4 bd e2 9e a3 3d 66 f1 4f be
       -0.12037804 -0.08036226 0.07989289 -0.2030693
0003e0 14 d0 24 3d cb f2 ea 3d fe 2d 82 bd 1c 05 d4 bc
       0.0402375 0.1147209 -0.063564286 -0.025881343
0003f0 91 66 5e 3d eb 3a 8b be 05 1b f8 bd 53 06 f9 3d
       0.054297034 -0.27193388 -0.121145286 0.121594094

state_encoder.2.bias f4 [32]
000000 cd 99 e0 3d bd be 15 3d b0 f2 cb bd 0e 88 78 be
       0.10966835 0.036558855 -0.09958398 -0.2427065
000010 6a fb c4 3d 8c 0f 4c 3e db 22 18 be 57 98 83 3d
       0.09618266 0.19927806 -0.14857046 0.06425541
000020 b9 ce 6b 3d 3d 13 3a be 6e a9 77 be a1 b6 b6 3e
       0.057570193 -0.18171401 -0.24185726 0.3568621
000030 90 e9 d8 be 03 d3 ec bd 3f 92 aa bd 57 10 08 3e
       -0.42365694 -0.11563685 -0.083286755 0.13287483
000040 67 89 86 bc 1b f4 55 3e e4 bc 55 3e ee 0a 8d bc
       -0.01642294 0.208939 0.20872837 -0.017217126
000050 4e 03 ed 3c fe f8 3c be af e3 2a 3e e1 67 08 3e
       0.02893224 -0.18454358 0.16688417 0.13320877
000060 3b 17 ee bd 46 65 29 3d 20 48 6a 3e 11 3b ae ba
       -0.116255246 0.041356348 0.22879076 -0.001329275
000070 9e 7b 36 be 83 ef 13 3e 61 28 dc 3d 0b 01 5c 3e
       -0.17820594 0.14446835 0.10749889 0.21484773

action_head.0.weight f4 [64, 32]
000000 ab 36 31 3f 79 b2 94 3e 2c cd 31 3d 6a cb c8 3e
       0.6922404 0.29042414 0.043408558 0.39217693
000010 0b 9b 31 3e c4 01 bf 3c 66 26 21 3e 09 a2 aa 3e
       0.173443 0.023316272 0.15737304 0.33326748
000020 c6 00 80 3e 2e 7f 9a 3e 26 c1 f9 bc a2 5a 66 be
       0.2500059 0.30175155 -0.030487608 -0.22495511
000030 57 56 b2 bd ab b1 ed 3d 23 fc 1b be 09 69 8e be
       -0.08707874 0.11606153 -0.15232901 -0.2781451
000040 d4 be e1 be 92 60 5e be b5 35 e2 be 7d da cb bd
       -0.44090903 -0.21716526 -0.441816 -0.09953783
000050 a1 c0 d7 bd 0f 1c 6a 3e d2 10 50 3d 23 91 05 3f
       -0.10534788 0.22862266 0.05079729 0.52174586
000060 5a 30 62 bd cd 05 9f 3d d2 22 a8 3d dc ad dd 3e
       -0.055221893 0.07764778 0.082097664 0.43296707
000070 a8 26 52 3f 06 b7 98 3d e3 f7 c3 3e ce a6 7e be
       0.82090235 0.07456784 0.3827506 -0.24868318
000080 2e 05 d8 bd 6f a9 b1 3d c2 a0 81 bd 7b df 05 3e
       -0.10547863 0.08674895 -0.0632949 0.13073532
000090 b0 1f f0 3d e2 10 c1 bb 0c f6 0e 3e 0e 29 f6 bc
       0.11724794 -0.005891905 0.13961047 -0.030048873
0000a0 a8 ae cc bd 3e e2 7e be 46 f9 15 3e af 2c f0 3d
       -0.099942505 -0.24890992 0.14645872 0.11727273
0000b0 e9 90 f6 bd d1 32 d6 bd b9 79 dd 3d 86 b1 3e 3e
       -0.12039358 -0.10458911 0.108142324 0.18622407
0000c0 63 f8 65 3e 89 16 35 be 83 f3 34 3e 30 00 a4 3d
       0.22458033 -0.17684378 0.17671017 0.08007848
0000d0 d8 1b 9c bd 0f 04 8d be 4a 57 ad bd 50 fe 79 3e
       -0.07622498 -0.2754216 -0.08463915 0.24413419
0000e0 9e 4f 14 bd 32 6d eb bc 3a ce 21 3e 8a 1c ab 3d
       -0.03620874 -0.028738592 0.15801325 0.08355053
0000f0 20 eb 1a be eb b0 c9 be ec 63 c8 3c 8f 73 5b 3e
       -0.15128756 -0.3939279 0.024461709 0.21430801
000100 57 a5 8c 3d 16 5c 95 3d fb 5f 36 3e 34 9b 8c 3d
       0.068674736 0.072929546 0.17810051 0.0686554
000110 cd b5 33 bd 3f b4 de 3d 44 71 48 bd 1b 1a 39 bd
       -0.04387455 0.10874223 -0.048936144 -0.04519091
000120 0b fd f7 bc da 93 70 3d 59 c2 ef 3d 0a bf 7b be
       -0.030272027 0.058734752 0.11706991 -0.24584594
000130 a5 0a 3d be 1d 98 0a 3e 0f 07 a5 3d 5d a4 21 3e
       -0.18461092 0.13534589 0.08057987 0.15785356
000140 0f c6 5c 3d ec fa 2b be 1a 1e d0 3d 46 44 b3 3d
       0.05389982 -0.16794938 0.101619914 0.087532565
000150 ec c7 4b 3e 54 2f 86 bd 20 bd ea 3d 04 67 07 be
       0.19900483 -0.06551996 0.11461854 -0.13222891
000160 19 f0 da 3d 60 80 c1 bd af 9e 36 3d f6 75 9b bd
       0.10690326 -0.09448314 0.044584926 -0.07590859
000170 f1 84 86 bd 36 11 96 bd 51 68 1e 3e 2e 8f f0 bc
       -0.06568325 -0.073275015 0.15469481 -0.029365148
000180 b7 16 b1 3e 03 c3 59 3d f6 81 65 3e 0f 57 88 3d
       0.34587643 0.053164493 0.22412857 0.0665723
000190 9a 8c b1 bc 7c 04 d7 3d 47 51 0f be 31 b8 c6 3d
       -0.02167349 0.10498902 -0.13995849 0.097031005
0001a0 0f dc 16 3d 25 11 d8 3d be 8f 4a be 7b d3 22 be
       0.036830958 0.10550145 -0.19781396 -0.15900986
0001b0 5e 88 af bd 31 b2 3d bd d3 b4 70 3d 44 2d a8 bd
       -0.08570932 -0.046312515 0.058766197 -0.08211759
0001c0 97 38 92 be 72 9b f1 bd 54 b7 ed bd b3 29 d7 bd
       -0.285588 -0.11797227 -0.11607233 -0.10506
0001d0 6e ac ab bd e6 3b 1c 3e 69 d5 67 3d c4 92 d2 bd
       -0.08382498 0.15257224 0.05660001 -0.102818996
0001e0 fc e8 01 be dd 52 08 be 62 a7 be bc f2 21 35 3e
       -0.12686533 -0.1331286 -0.023273174 0.1768873
0001f0 d7 02 03 3f 03 72 c9 bc 7c d7 a4 3e 69 53 f6 bc
       0.5117621 -0.024590498 0.32195652 -0.03006907
000200 1b b2 04 3f 76 c6 88 3e 4d e8 1c 3d e1 f8 a2 3e
       0.5183427 0.26713914 0.038307477 0.31830505
000210 52 b7 1f be 18 58 ef 3d 2d 48 cb 3d 8c 81 82 3e
       -0.15597275 0.116867244 0.09925876 0.2548946
000220 9e 13 6f 3e 14 59 58 3e 9a 6f a9 bc 84 f6 64 be
       0.23347327 0.2112773 -0.020683099 -0.22359663
000230 06 92 ad 3d 9e 9c 1c 3e 38 06 b4 bd 85 4f 12 be
       0.084751174 0.1529412 -0.08790249 -0.14288147
000240 5b b0 a7 be f9 0e 6f be 58 8f b3 be 9d 29 04 be
       -0.32751736 -0.23345555 -0.350703 -0.12906499
000250 f1 2b f7 bd a8 e4 31 3e 0d e8 b4 3d 6d de f0 3e
       -0.12068928 0.17372382 0.08833323 0.47044697
000260 55 cf 89 3c 74 7a 87 bd 2d 87 c2 3c dd 3b a8 3e
       0.016822496 -0.06615153 0.023746097 0.32858172
000270 31 90 2a 3f 0d a8 68 3d d7 59 9e 3e 83 90 54 be
       0.6662627 0.05680089 0.30927917 -0.20758252
000280 2c 4c 68 3d 9f ac 21 bd 2d 97 85 3d 19 75 b2 bd
       0.05671327 -0.039471265 0.06522975 -0.08713741
000290 48 bd d7 bb fe 93 b9 bd be 0b 79 be 36 d4 99 3c
       -0.0065838434 -0.090614304 -0.24320886 0.018777948
0002a0 96 bd 38 3e bf 17 90 bc d8 c1 8d be 0c 83 18 bd
       0.18041071 -0.017589448 -0.27686954 -0.03723435
0002b0 5a bc 90 3c 9a c2 ec bc f7 ec 92 3e f3 e0 08 3e
       0.017667938 -0.028901387 0.28696415 0.13367061
0002c0 b2 b0 ae 3e 8a a6 f4 bd e3 86 20 3b 34 5a fe 3d
       0.34119183 -0.11945827 0.0024494461 0.12419549
0002d0 a7 4d 14 3e 6e ca db bc 0f d0 ce bd 84 4a 5b 3e
       0.14482747 -0.026829924 -0.10098278 0.21415144
0002e0 ba bb dd 3d c1 d5 de bb 7f 52 51 3e 71 f8 a8 3d
       0.108268216 -0.006800384 0.20441626 0.082505114
0002f0 b2 58 40 bd bc 84 a3 be d1 94 26 3d 04 c6 a4 3d
       -0.046959586 -0.31937206 0.040669266 0.08045581
000300 35 99 fe 3d 2c ca 17 3e fd d8 d4 3d a5 41 ac bd
       0.12431566 0.14823216 0.1039295 -0.08410958
000310 df 80 e9 3d b7 0b d0 bd e6 be e8 bd 98 e5 7a 3d
       0.11401533 -0.101584844 -0.11364536 0.061254114
000320 d1 cd f5 bd d4 55 ed 3d 52 0d 9c 39 13 d8 fe bd
       -0.12002147 0.11588636 0.00029764563 -0.12443557
000330 5b 18 e6 3d e8 66 fa 3d ff 92 11 3e 8c 6c 94 bc
       0.11235114 0.12226659 0.14216231 -0.018118165
000340 d1 e9 31 3e 6b 3a 0a bd 77 85 4c be fe 23 31 3c
       0.1737435 -0.033747118 -0.19972788 0.010811804
000350 21 10 cd bd d9 fc eb 3c d7 c4 2d 3e c7 6b e7 3b
       -0.10012842 0.02880709 0.1696962 0.0070624086
000360 2b 0d 03 bd 64 2e f0 bd 02 6a 12 be f8 65 74 be
       -0.03199498 -0.11727598 -0.14298251 -0.23867023
000370 cd 1f be 3d 13 7c 0b 3e 8b f6 3a bc fc 4c 71 3e
       0.09283409 0.1362155 -0.0114113195 0.23564523
000380 af 0f 40 bd e6 5d 0a 3d 4f af 93 bd 25 57 48 3c
       -0.046889957 0.033780955 -0.07211172 0.012227808
000390 4a 1e da bd 6e fa 03 3e ac 0b 0b 3e fd 15 e4 3c
       -0.106503084 0.128885 0.13578671 0.027842516
0003a0 cd 24 7b 3d 30 9d 50 3d f4 0a 13 3e 1a ae 9f 3c
       0.061314393 0.050931156 0.14359647 0.019492198
0003b0 d2 2c e2 3d 02 05 ed 3d 2e e3 44 3d 82 fc a8 bd
       0.11043705 0.11573221 0.048068218 -0.08251287
0003c0 a4 af ee 3d c8 f0 60 bd f7 ea 99 3b 9b d9 42 3d
       0.116545945 -0.054917127 0.0046971994 0.047570806
0003d0 2d bf 64 3d e5 2f 10 be 08 65 ed bd a3 d9 39 3c
       0.055846382 -0.1408077 -0.11591536 0.011343393
0003e0 4d 4f 19 be b6 01 18 bc ce e4 a1 bb 63 96 27 be
       -0.14971657 -0.009277752 -0.0049406057 -0.16365962
0003f0 21 14 1a be e7 59 97 bd 64 62 10 be 35 6a 07 3e
       -0.15046741 -0.073901944 -0.14100033 0.13224109

action_head.0.bias f4 [64]
000000 51 cd 90 bb d5 d0 8a be c7 0f 80 3d ea b9 8a bd
       -0.004419007 -0.2711245 0.06253009 -0.067737415
000010 d1 74 63 bd bb 2f 7e be e3 13 cd bc 2e dc 1a 3f
       -0.055531327 -0.24822895 -0.025033897 0.6049222
000020 58 dd 3e be eb ce e8 bd 90 ff 14 be 1a f1 29 3d
       -0.18639123 -0.113675915 -0.14550614 0.041489698
000030 a6 b0 3f 3e c7 c6 ad 3c 7a 0a b1 bc dc 71 68 bc
       0.1871973 0.021212948 -0.02161144 -0.014187302
000040 a8 36 c3 3d 5f 74 ce be 25 1f 84 3e e9 94 3c 3e
       0.09531909 -0.4032316 0.2580501 0.1841618
000050 04 e5 05 3e c4 95 35 3e cc ff e0 3d 9f d5 8e bc
       0.13075644 0.17732912 0.109862894 -0.017435847
000060 93 ae da 3d a6 e2 81 be c5 9c c8 3d 97 f5 a1 bd
       0.10677829 -0.25368232 0.097955264 -0.07908171
000070 6e 18 e6 3c 8d 26 0b be 5c 07 0f bd 98 ff 17 3d
       0.02808782 -0.13588925 -0.034919128 0.037108988
000080 37 5c be bd 39 2e 20 3e aa 3d eb bb 62 0a 20 3e
       -0.09294932 0.15642633 -0.007178982 0.1562896
000090 d5 44 a9 3e be cb c8 3e 01 3a ab 3e 80 7b 88 3e
       0.33060327 0.39217943 0.3344269 0.26656723
0000a0 84 a0 03 3e 87 8b 49 bc f6 ab 9d be 34 29 50 3e
       0.128542 -0.012301332 -0.30795258 0.20328218
0000b0 b1 5f 5a be 95 1f fd bd e8 23 a5 bd 18 ee 28 be
       -0.21325566 -0.123595394 -0.08063489 -0.16497076
0000c0 cd ac c3 bd e0 98 4d be 41 dd 78 be bf e4 8e 3e
       -0.095544435 -0.20077848 -0.24303152 0.27908894
0000d0 6f b3 85 bb 56 88 5d bd 2d 66 1d 3d 52 19 2b 3d
       -0.004080228 -0.0540851 0.03842752 0.041772194
0000e0 ce 1f 0b bc 22 81 b3 3d b4 8b 72 3d 7d 0d 3b bd
       -0.00849147 0.087648645 0.059215263 -0.04566716
0000f0 58 e8 b3 bd da 89 47 3b fb 86 46 bc 07 1d 7d bd
       -0.087845504 0.0030447156 -0.012117143 -0.06179526

action_head.2.weight f4 [3, 64]
000000 12 8b 2b 3d 0d b9 68 3e 07 e8 8c bd 27 c9 10 bf
       0.041880675 0.22726841 -0.06880193 -0.56556934
000010 a9 09 c0 bf ec d3 31 be 87 c1 94 3e ea 1f dc be
       -1.5002948 -0.17365998 0.290539 -0.42993098
000020 a7 5b df bd c4 ac ed bf c7 3e fc be ae b0 ee 3d
       -0.10906153 -1.8568349 -0.49266645 0.11654793
000030 fd 7b 17 3d 61 7a 8e bc b3 86 ed 3d 99 b7 23 3d
       0.03698348 -0.01739234 0.115979575 0.039970014
000040 e2 9c 68 3c cc 4a 85 bd 06 81 fc 3d 19 89 4d 3e
       0.01419756 -0.06508407 0.12329297 0.2007183
000050 c9 bd f2 3e 41 39 39 3d 24 4a 02 bc 29 a6 14 3e
       0.4741042 0.045220617 -0.007952247 0.1451651
000060 47 7d 09 bd 35 74 05 40 71 2f 0f 3d 7f 27 57 bc
       -0.03356674 2.0852177 0.034957353 -0.013131975
000070 9e 20 f6 3e 4c 78 03 3e ee c7 61 3c 68 03 97 3c
       0.4807176 0.12838858 0.013780577 0.018434241
000080 82 77 08 3e ca 23 82 3e 70 69 0f 3f a5 dc 44 be
       0.13326839 0.2541793 0.5602026 -0.19224794
000090 39 13 41 3e e8 c8 09 be b5 3a 90 be 11 42 b9 3d
       0.18854989 -0.13455546 -0.2816979 0.09045804
0000a0 3f 4f cb bb c2 d6 f0 bd f0 45 00 3d d9 9a fc bd
       -0.006204515 -0.11759712 0.031316698 -0.12334222
0000b0 3a a7 57 3d fc 07 9c be d9 65 66 3f 6b 14 80 3f
       0.052649714 -0.30474842 0.8999916 1.0006231
0000c0 86 db d4 3c 11 36 d1 3f 16 81 95 3f 88 33 3f be
       0.025983583 1.6344625 1.1680019 -0.18672001
0000d0 2f 6c 1b bf 57 8d 75 3e 4d 7e 8d be 75 19 23 3e
       -0.6071195 0.23979698 -0.27635422 0.1592768
0000e0 c2 da 4c bf 53 18 52 3d ba 45 36 be 5e e9 98 bd
       -0.800213 0.05129273 -0.17800036 -0.07466386
0000f0 dd 34 9d bd a9 52 ce bf de 1b d0 bd d9 a4 97 bd
       -0.076760985 -1.6118976 -0.10161565 -0.07404489
000100 e9 05 4a 40 5c 67 4c 3e f2 09 26 bc 6b 90 a7 3e
       3.1566107 0.19961303 -0.010134207 0.3272737
000110 48 ec 9a 3f 5d e6 0f bb 89 84 91 be ee 7d 67 be
       1.2103357 -0.0021957376 -0.2842143 -0.22606632
000120 31 f5 bc 3c aa 37 03 40 3a ca e9 3a e4 d7 96 3d
       0.023066135 2.0502725 0.0017836757 0.073653966
000130 a2 2c 34 3e 88 12 8e bd 7a bb 8d bd a2 09 57 3d
       0.17595151 -0.06937128 -0.06920524 0.05249942
000140 c4 96 f5 3d d7 ec c2 be 4a d3 30 3c 3f 5d 6d 3d
       0.11991647 -0.3807132 0.010792563 0.057950255
000150 8c 74 26 bc 24 0c 31 3d a7 e4 69 bd 5c b3 ad bd
       -0.010159623 0.04322447 -0.057102825 -0.08481476
000160 e6 92 41 bd 44 82 f6 bf 99 7f fb bd 75 34 a5 bd
       -0.047259234 -1.9258504 -0.12280197 -0.08066646
000170 8d 0c 53 be fd 8f fb bc 05 75 c4 bd 06 87 29 bd
       -0.20610256 -0.030708307 -0.09592632 -0.041388534
000180 3b ff 3d bd a0 b6 e0 3c ac 14 a5 3f be f4 a1 3e
       -0.046385985 0.027430832 1.2896934 0.31632036
000190 08 29 8a bd 82 da 98 bd 6b 38 a1 3d 42 98 ea 3d
       -0.06746107 -0.07463552 0.07872089 0.11454822
0001a0 40 f5 a1 bc 06 d1 22 3d 47 97 ca 3d 26 22 11 3e
       -0.019770265 0.03975012 0.09892135 0.14173183
0001b0 76 cb 85 bd d3 f8 11 bd 2d dd 05 c0 d6 34 e6 3f
       -0.06532948 -0.035637688 -2.0916245 1.7984874
0001c0 6b 0a 7d bd 5b 84 f0 3f c5 21 84 3f 91 aa 24 3e
       -0.061777513 1.8790392 1.0322806 0.16080691
0001d0 d3 66 36 3f a2 d1 ae bd a3 01 35 3c e5 53 b7 3d
       0.7125065 -0.08536078 0.0110477535 0.089515485
0001e0 bc 0f 03 3f d0 b2 b0 bd 08 3a 58 3e 33 db 02 3c
       0.51195884 -0.08627856 0.21115887 0.0079868315
0001f0 9a fd 04 bd 6a 44 84 3f 07 bd 5c bd 50 56 b5 3d
       -0.032468416 1.0333378 -0.053891208 0.088543534
000200 ea 15 06 3e 2c f9 d3 3e a0 41 37 3e 78 28 09 bf
       0.13094297 0.4140104 0.17896128 -0.53577375
000210 e3 d3 cf be 32 b6 3c 3e f0 c7 75 bd a6 a7 b1 3d
       -0.40591344 0.18428877 -0.06000513 0.086745545
000220 0a 07 ff 3d 8e f2 54 3f 0c f9 39 3e 45 58 8c 3e
       0.124525145 0.8318261 0.1816141 0.27411094
000230 d6 c3 86 3f 69 72 19 3e bf 3d bd bd a2 82 45 3e
       1.0528514 0.1498505 -0.09240293 0.19288114
000240 a0 7c 4b bc d1 46 f6 3e 1a ff 8b 3e 48 39 86 3f
       -0.01241985 0.48100904 0.27343065 1.0486231
000250 9f 2e 0b 3f d6 04 b2 3d de d5 57 3e 3a 07 20 3d
       0.54368013 0.08692329 0.21077678 0.03906939
000260 dc dd be 3e 9f 03 19 40 ad 66 52 3e 6f 0b a6 3e
       0.3727864 2.390846 0.2054698 0.32430598
000270 c7 60 29 3f fe 53 93 3e b6 f3 3d 3e 45 d0 aa 3e
       0.66163296 0.28775018 0.1855 0.33362022
000280 5f af 06 40 89 bd bb 3e 9d 9a 47 3f f1 c4 4b ba
       2.1044538 0.3666804 0.77970296 -0.0007773182
000290 bb 3b aa 3e a8 3e 36 3b 7c 41 54 40 84 5f 2d 3e
       0.33248696 0.0027808342 3.3164968 0.16930968
0002a0 7e ba a3 bd 19 fd 01 3e 2b 72 92 3d 74 d1 89 be
       -0.07994555 0.12694205 0.07150682 -0.26917613
0002b0 85 b8 96 3e ad 23 90 3e c0 9d ec 3f e9 93 e8 3d
       0.29437652 0.28152218 1.8485641 0.113563366
0002c0 02 13 f9 3d e3 d7 53 3f 91 e4 50 3f 1e 21 eb 3f
       0.121618286 0.8275129 0.81598765 1.8369482
0002d0 35 bb 6c bf f7 a7 ee 3d 44 ab 7c 3d 55 d0 d0 3d
       -0.92473155 0.116531305 0.06168677 0.10195986
0002e0 6c 9b df be a3 cd 9c 3c fb 2b 6c bd 3a 96 98 3e
       -0.43673265 0.019141024 -0.05765913 0.29802114
0002f0 e5 fa 82 3d 0e 26 17 3f c4 9d 82 3e 25 2b a9 3d
       0.063955106 0.5904244 0.2551099 0.08260182

action_head.2.bias f4 [3]
000000 78 60 9a 3d b4 df f9 bd d9 ed 50 3e
       0.07537931 -0.12200871 0.20403232
