LIRL results/EV-Charging/pdqn/run_4_seed_1092/pdqn_action_network.pth (torch, 31797 bytes, 8 tensors)

state_encoder.0.weight f4 [64, 39]
0.01616651 0.089727946 -0.12734215 -0.12720542 -0.006757563 -0.003574557 0.31803688 0.509736
0.49773476 0.01172721 -0.032729167 0.16903186 -0.050888225 0.07863271 -0.11706515 -0.413579
0.17675127 -0.058570195 -0.15346064 0.14260148 -0.041227207 0.040613953 0.038541462 0.6337027
-0.27051255 -0.024819668 0.026395109 0.9803176 -0.09257537 -0.23481642 -0.42493063 0.47235975
0.14621998 -0.13033918 -0.31767663 0.11331331 0.21651877 0.4349803 0.33149838 0.5163487
0.29740465 0.22506993 0.11393033 0.44127882 0.016377855 0.19013774 0.13908908 -0.29019457
0.022493264 0.09859822 -0.16274618 -0.038421914 -0.005141027 -0.10113709 0.28418544 -0.53248215
0.010193954 -0.15064792 -0.434231 0.13922411 -0.003524164 0.11119983 -0.19059761 -0.10091137
0.019061971 0.16691968 -1.9390945 -0.19120947 -0.09089502 -0.47794414 -0.5457853 -0.40138936
-0.04616417 0.11569717 -0.06785789 -0.26505837 -0.07332226 0.045532394 0.10233007 0.4713701
0.36215478 0.20945671 0.24867679 0.019823248 0.34593832 -0.80388814 0.6762054 -0.16004866
0.059829492 0.23152442 -0.21243264 -0.10427803 -0.13570514 -0.26280126 -0.12700577 0.0132341925
-0.020945601 -0.08287714 -0.22177263 -0.052491177 0.019498598 0.77863234 0.21775626 0.0075267325
0.05815834 0.991196 0.1645839 0.094131455 -0.06483902 0.028251685 -0.1087139 -0.056071676
0.077926 -0.368582 0.2080938 -0.011030679 -0.2553234 -0.23299547 -0.07985317 -0.17848891
-0.21204005 -0.2605825 0.13796309 -0.0036054505 1.7530876 -0.10727031 -0.03441158 0.0715056
-0.156735 0.027511977 -0.042440422 0.08598584 -0.29785952 0.054176718 0.0024339345 -0.008167945
0.12071328 0.05950639 0.00020020036 -0.054352418 0.5592767 0.062597066 0.11694698 0.077388965
-0.11691224 0.18756144 -0.031039562 0.16079538 -0.35593313 0.27084997 0.17421201 0.20645157
-0.77504665 0.2794727 0.19950399 0.13865189 0.05100596 -0.033942148 -0.024379773 0.15368308
0.24358906 -0.14826547 -0.20158851 0.48534295 0.015616982 -0.022776457 0.007689474 0.9394315
-0.029899424 -0.055078685 0.26192927 0.55830777 0.091495134 0.052564207 0.00020736548 -0.01469045
-0.090250604 0.076085575 0.1192944 -0.37974238 0.28729838 0.042581007 0.03679348 -0.7525076
0.00096514454 0.052169845 0.121681966 -1.16702 -0.11283767 -0.20212005 -0.057801645 -0.3394827
-0.12795308 -0.037765726 -0.15256703 -0.005597671 -0.16204694 -0.15903495 -0.015485107 0.012037472
0.0054436983 0.01880721 -0.27882284 0.056999575 -0.019077428 0.082135335 0.11542365 0.24873757
-0.030692184 -0.06646052 0.17976867 0.20130979 -0.025716947 0.019663086 -0.9816088 -0.23578739
0.15746048 0.0855975 0.3671995 0.13211875 0.02643357 -0.13807216 0.38867477 0.02371384
0.039852265 -0.2415261 0.39758366 -0.12226489 0.11519008 -0.103952855 0.7646933 0.039460585
0.11352802 0.3493211 0.23876393 0.1184237 0.17725012 0.08875433 0.22374421 -0.03174461
0.25966564 0.06731908 -0.22163258 0.18295603 0.111306995 -2.4205525 -0.09892223 0.013422062
0.05136399 0.046338975 -0.030809198 -0.0041446704 -0.1338602 0.64396423 -0.24674436 0.035611246
00000000: a16f 843c 49c3 b73d fb65 02be 2342 02be
00000010: 8c6e ddbb 1d43 6abb bbd5 a23e 0f7e 023f
00000020: 17d7 fe3e 7c23 403c 050f 06bd b016 2d3e
00000030: 2c70 50bd 300a a13d dabf efbd a0c0 d3be
00000040: 49fe 343e 4de7 6fbd c924 1dbe 1f06 123e
00000050: dcdd 28bd d15a 263d a7dd 1d3d 573a 223f
00000060: 9f80 8abe 9e52 cbbc 8e3a d83c 18f6 7a3f
00000070: 2898 bdbd b773 70be 8290 d9be 23d9 f13e
00000080: b1ba 153e a277 05be 83a6 a2be cf10 e83d
00000090: 19b7 5d3e bdb5 de3e 28ba a93e 6e2f 043f
000000a0: 6c45 983e bb78 663e 4e54 e93d 4cef e13e
000000b0: da2a 863c 78b3 423e 5e6d 0e3e 6294 94be
000000c0: cb43 b83c dded c93d efa6 26be 4c60 1dbd
000000d0: 0f76 a8bb f620 cfbd c180 913e c050 08bf
000000e0: 8b04 273c 7343 1abe 8753 debe c490 0e3e
000000f0: a9f5 66bb bdbc e33d 052c 43be 9faa cebd
00000100: da27 9c3c feec 2a3e 4034 f8bf 6acc 43be
00000110: 2b27 babd 18b5 f4be 96b8 0bbf e882 cdbe
00000120: a416 3dbd a3f2 ec3d 14f9 8abd bbb5 87be
00000130: fb29 96bd 2d80 3a3d 6e92 d13d 6c57 f13e
00000140: 5a6c b93e d27b 563e 21a5 7e3e 5d64 a23c
00000150: d41e b13e 9dcb 4dbf cc1b 2d3f cce3 23be
00000160: c50f 753d bd14 6d3e f187 59be b88f d5bd
00000170: 4af6 0abe e38d 86be cd0d 02be 3ad4 583c
00000180: 1c96 abbc 7dbb a9bd 5d18 63be fd00 57bd
00000190: 86bb 9f3c 7354 473f 7ffb 5e3e cfa2 f63b
000001a0: 7137 6e3d 05bf 7d3f af88 283e fec7 c03d
000001b0: 52ca 84bd 1470 e73c 65a5 debd 6aab 65bd
000001c0: ab97 9f3d c8b6 bcbe 8b16 553e 05ba 34bc
000001d0: c0b9 82be 5d96 6ebe 0f8a a3bd ccc5 36be
000001e0: 0721 59be 126b 85be 3246 0d3e 6c49 6cbb
000001f0: 2d65 e03f 89b0 dbbd 28f3 0cbd 8771 923d
00000200: 247f 20be cc60 e13c 02d6 2dbd 5819 b03d
00000210: 0b81 98be 68e8 5d3d a582 1f3b d8d2 05bc
00000220: 8638 f73d f9bc 733d e0ec 5139 a4a0 5ebd
00000230: c22c 0f3f e432 803d e681 ef3d 1b7e 9e3d
00000240: af6f efbd 1b10 403e ae46 febc 8ba7 243e
00000250: de3c b6be d9ac 8a3e a264 323e 0a68 533e
00000260: 7569 46bf 0c17 8f3e c64a 4c3e c3fa 0d3e
00000270: a0eb 503d ec06 0bbd 17b8 c7bc 195f 1d3e
00000280: 696f 793e e7d2 17be 386d 4ebe df7e f83e
00000290: 5fde 7f3c b195 babc fcf7 fb3b 957e 703f
000002a0: a3ef f4bc 309a 61bd 981b 863e 42ed 0e3f
000002b0: cd61 bb3d 914d 573d 3f70 5939 37b0 70bc
000002c0: 4fd5 b8bd c1d2 9b3d 9f50 f43d 986d c2be
000002d0: c618 933e 6c69 2e3d c3b4 163d 57a4 40bf
000002e0: c101 7d3a 0cb0 553d 6534 f93d e960 95bf
000002f0: 7017 e7bd 8ff8 4ebe 6bc1 6cbd add0 adbe
00000300: 2206 03be 3cb0 1abd 883a 1cbe ab6c b7bb
00000310: a2ef 25be 0fda 22be 3fb5 7dbc d138 453c
00000320: 0d61 b23b 9411 9a3c dec1 8ebe 6378 693d
00000330: 4448 9cbc 9236 a83d 3c63 ec3d 10b5 7e3e
00000340: 2d6e fbbc 741c 88bd 4715 383e 2724 4e3e
00000350: 59ac d2bc 7b14 a13c b74a 7bbf 4072 71be
00000360: 523d 213e be4d af3d 9301 bc3e 234a 073e
00000370: 378b d83c ca62 0dbe 6100 c73e 8743 c23c
00000380: 213c 233d 9e52 77be 1690 cb3e 0466 fabd
00000390: c7e8 eb3d 3ce5 d4bd f1c2 433f 6ca1 213d
000003a0: 6181 e83d 37da b23e 887e 743e 2088 f23d
000003b0: 0e81 353e d5c4 b53d 341d 653e a306 02bd
000003c0: e5f2 843e 96de 893d a7f3 62be d358 3b3e
000003d0: ecf4 e33d 55ea 1ac0 bd97 cabd 35e8 5b3c
000003e0: 0c63 523d f0cd 3d3d 9263 fcbc 04d0 87bb
000003f0: a612 09be d7da 243f 8eaa 7cbe 19dd 113d

state_encoder.0.bias f4 [64]
0.111439824 0.10936338 0.18631431 -0.1151685 0.05615613 -0.09236744 0.22426832 0.14853752
0.1462239 -0.07329029 0.11429084 0.39978287 0.11359911 0.22456768 -0.26711467 -0.21887855
0.22244576 -0.015699087 0.1945939 -0.04077387 0.081107475 0.32109734 0.18638325 -0.17936617
-0.06559828 -0.10588844 -0.25723565 0.20014511 0.23432918 0.0027882254 0.2259114 0.1347691
-0.068680786 -0.084923096 0.52575314 -0.09901806 -0.022567071 -0.010448463 0.057948314 0.24752069
0.21444613 0.028105045 0.02972447 0.09582703 -0.18264098 -0.049679928 -0.032514866 -0.102169886
0.17311956 0.40128362 -0.05045603 0.08086402 0.23113701 0.062996544 -0.010321391 0.32670635
-0.014241979 -0.105416685 -0.027398815 0.07026114 0.029693915 -0.17185542 0.2534637 0.11392547
00000000: 903a e43d e8f9 df3d 2ec9 3e3e 76dd ebbd
00000010: f803 663d 242b bdbd 98a6 653e 381a 183e
00000020: b8bb 153e 3819 96bd 5111 ea3d 57b0 cc3e
00000030: a6a6 e83d 12f5 653e 41c3 88be b321 60be
00000040: d2c8 633e 5f9b 80bc a043 473e 8002 27bd
00000050: ad1b a63d df66 a43e 40db 3e3e c4ab 37be
00000060: 6458 86bd 0adc d8bd 64b4 83be d7f2 4c3e
00000070: fdf3 6f3e a9ba 363b 5155 673e e900 0a3e
00000080: 83a8 8cbd 29ec adbd c297 063f fbc9 cabd
00000090: 94de b8bc 0830 2bbc 365b 6d3d 1076 7d3e
000000a0: c497 5b3e 8d3c e63c bb80 f33c f640 c43d
000000b0: 3d06 3bbe 2e7d 4bbd 4f2e 05bd 723e d1bd
000000c0: 4146 313e 0c75 cd3e fbaa 4ebd 099c a53d
000000d0: 2eaf 6c3e 5504 813d 0d1b 29bc 0e46 a73e
000000e0: 3157 69bc b4e4 d7bd 7b73 e0bc 13e5 8f3d
000000f0: a740 f33c defa 2fbe fec5 813e c251 e93d

state_encoder.2.weight f4 [32, 64]
-0.24575554 0.30469033 0.027082307 0.06752794 0.18698819 -0.18117549 0.059468985 -0.05224166
-0.08652705 0.09298373 -0.07784312 -0.117242016 -0.006905025 0.048547164 0.15025403 -0.18585475
-0.0023655314 0.18940197 -0.048864532 -0.20310703 0.07070772 -0.05471147 0.11832634 0.07219405
0.07745148 0.23863445 -0.0010248758 -0.18650755 -0.0060843914 -0.08060228 -0.16261071 -0.16164154
0.07793186 0.17712067 -0.18436185 0.0010257319 0.36421278 0.024974912 -0.20383947 -0.06572513
-0.08214239 -0.0610602 0.05406186 0.16988966 0.0005022873 0.23473741 0.11349832 0.03476714
0.19889435 0.08247479 0.2030571 -0.038828466 0.0394375 -0.056384534 0.08105994 -0.23593748
-0.028424254 -0.11903853 -0.07397919 0.074275166 0.01796366 -0.15100779 -0.040881213 0.0919484
-0.064633176 0.23517631 0.12803297 0.020076815 0.09733787 -0.011251484 0.011921507 0.037430458
0.035043985 0.14362524 0.057534117 0.015215877 0.04301812 0.03802257 -0.018524846 -0.0036267173
0.08109935 0.09345714 -0.11565512 -0.10056089 -0.11832685 0.06454947 -0.11449756 -0.03509989
0.08474695 0.19654566 0.011297935 -0.042470474 0.11363818 -0.14446765 -0.16059275 -0.080993064
0.0637203 0.16653144 -0.2521621 0.17538844 0.37121513 0.05436731 -0.18648858 0.011791025
-0.043439925 -0.022751667 0.04613316 0.07112872 -0.09286315 -0.058128715 0.023427151 -0.08174234
0.03301377 0.0953383 0.029535383 -0.028613575 0.06191279 0.056548387 0.032417536 0.0059066643
-0.031357978 -0.032933842 -0.11417888 0.04127976 -0.020560963 -0.038467236 0.0007877756 0.05827782
-0.023689106 0.04826212 0.2229182 -0.2336046 -0.2459278 -0.014679467 0.060244966 0.002358344
0.029671801 -0.0879567 0.15998426 -0.05458145 0.04375064 -0.16850662 0.23902531 -0.006117149
-0.14081891 0.066381186 0.19348168 0.04880858 -0.07390846 0.12617494 0.05319856 0.027489433
0.03959104 0.07315696 -0.37554434 0.039089587 0.152522 -0.07992198 -0.06253454 -0.01926513
0.02789265 0.04024109 0.107585825 -0.07743131 -0.14747351 -0.11417651 -0.026196241 0.042405058
0.11754466 0.11646213 -0.024272153 0.007222418 -0.103371784 0.1552821 0.024701584 0.0055840253
0.005497921 -0.19693433 -0.090173386 -0.027844239 -0.14722656 0.05055943 -0.02839035 -0.035543866
0.10980525 -0.11937572 0.14538132 0.15994085 0.07989752 -0.07070259 -0.07699441 -0.11752905
-0.12276096 0.15345348 0.18313114 0.1692437 0.0029864283 -0.057053015 0.14656642 -0.119300716
-0.12473088 0.08027815 -0.22090422 -0.029867366 -0.040270507 -0.0048660934 0.08627994 -0.12406645
-0.012625381 0.1755499 -0.11806573 -0.12406071 0.12566064 -0.10529874 -0.143662 0.035973363
0.16306996 0.1758584 0.023249062 0.03544492 -0.038442515 0.06008114 -0.09591066 -0.11172801
0.15226737 0.15561429 -0.1250453 0.12569843 0.36275178 0.046367537 -0.048751142 -0.049626086
0.03383788 0.06354362 0.06457003 0.12136682 -0.058459163 0.27735052 -0.020170541 -0.07847344
0.04661142 -0.078771345 0.07299801 -0.084117755 -0.121125415 -0.080692485 0.059241753 -0.20440312
0.038201444 0.12265648 -0.061448608 -0.031804793 0.056352638 -0.2715487 -0.12639673 0.12431855
00000000: 57a7 7bbe 5f00 9c3e b7db dd3c 174c 8a3d
00000010: d579 3f3e 1186 39be c095 733d 5afb 55bd
00000020: 1835 b1bd 416e be3d 376c 9fbd 951c f0bd
00000030: 8c43 e2bb 64d9 463d 31dc 193e b550 3ebe
00000040: 0807 1bbb 97f2 413e 2d26 48bd 4afb 4fbe
00000050: 36cf 903d 2219 60bd 1555 f23d 79da 933d
00000060: e29e 9e3d 975c 743e 2055 86ba d6fb 3ebe
00000070: 935f c7bb cf12 a5bd 6c83 26be 5c85 25be
00000080: bd9a 9f3d 1f5f 353e 5ac9 3cbe da71 863a
00000090: 197a ba3e 3098 cc3c 4bbb 50be e69a 86bd
000000a0: 453a a8bd 431a 7abd f86f 5d3d 8ef7 2d3e
000000b0: eeab 033a 015f 703e cf71 e83d fd67 0e3d
000000c0: f6aa 4b3e 8be8 a83d 33ee 4f3e 990a 1fbd
000000d0: 3789 213d 78f3 66bd c102 a63d 9899 71be
000000e0: fbd9 e8bc 79ca f3bd 6782 97bd 941d 983d
000000f0: 8728 933c c9a1 1abe 0f73 27bd 714f bc3d
00000100: 665e 84bd 0fd2 703e 131b 033e 2278 a43c
00000110: 1459 c73d 2558 38bc 6d52 433c ae50 193d
00000120: 488a 0f3d 7f12 133e e5a8 6b3d 044c 793c
00000130: c533 303d 8ebd 1b3d 6bc1 97bc 38ae 6dbb
00000140: 6a17 a63d 7566 bf3d 97dc ecbd def2 cdbd
00000150: 5955 f2bd 8332 843d b27d eabd e7c4 0fbd
00000160: cf8f ad3d 4443 493e f91a 393c 85f5 2dbd
00000170: 22bb e83d 54ef 13be 6d72 24be b1df a5bd
00000180: ca7f 823d 3887 2a3e 641b 81be 0799 333e
00000190: e90f be3e 42b0 5e3d ddf6 3ebe 252f 413c
000001a0: 10ee 31bd b461 babc 20f6 3c3d efab 913d
000001b0: 092f bebd 6018 6ebd 4cea bf3c 8768 a7bd
000001c0: 7239 073d ba40 c33d 30f4 f13c 0467 eabc
000001d0: 4498 7d3d 489f 673d 40c8 043d b18c c13b
000001e0: 3971 00bd a3e5 06bd 9ed6 e9bd f714 293d
000001f0: 776f a8bc d28f 1dbd ba82 4e3a b9b4 6e3d
00000200: a80f c2bc 80ae 453d ab44 643e 0b36 6fbe
00000210: 7fd4 7bbe 2682 70bc 6dc3 763d 728e 1a3b
00000220: 4712 f33c a422 b4bd ead2 233e cc90 5fbd
00000230: df33 333d 008d 2cbe 0dc3 743e 5d72 c8bb
00000240: d532 10be dcf2 873d 1020 463e 81eb 473d
00000250: 525d 97bd 0134 013e bce6 593d 8531 e13c
00000260: 372a 223d 51d3 953d 5947 c0be 671c 203d
00000270: ba2e 1c3e 23ae a3bd 1c12 80bd e8d1 9dbc
00000280: 207f e43c d7d3 243d f555 dc3d 4f94 9ebd
00000290: 4c03 17be 60d5 e9bd 8099 d6bc edb0 2d3d
000002a0: 41bb f03d b283 ee3d 65d6 c6bc 09aa ec3b
000002b0: 96b4 d3bd 4502 1f3e fa5a ca3c 33fa b63b
000002c0: e727 b43b 27a9 49be d3ac b8bd 9a19 e4bc
000002d0: 8fc2 16be 6817 4f3d e192 e8bc 7296 11bd
000002e0: 93e1 e03d 427b f4bd d7de 143e 89c7 233e
000002f0: 50a1 a33d 85cc 90bd 3faf 9dbd 12b3 f0bd
00000300: 196a fbbd e922 1d3e bb86 3b3e 384e 2d3e
00000310: f4b7 433b 6cb0 69bd 8215 163e ef53 f4bd
00000320: e772 ffbd df68 a43d b734 62be 68ac f4bc
00000330: b0f2 24bd c073 9fbb 8ab3 b03d 8d16 febd
00000340: b0da 4ebc 5ac3 333e 72cc f1bd 8b13 febd
00000350: 2fad 003e dea6 d7bd 221c 13be ce58 133d
00000360: d0fb 263e 3914 343e d174 be3c b12e 113d
00000370: e675 1dbd a417 763d cf6c c4bd a8d1 e4bd
00000380: faeb 1b3e 5a59 1f3e e00b 00be 17b7 003e
00000390: 9aba b93e e3eb 3d3d 47af 47bd b944 4bbd
000003a0: 9799 0a3d 2823 823d 4b3d 843d 2b8f f83d
000003b0: e072 6fbd e300 8e3e b13c a5bc afb6 a0bd
000003c0: 9eeb 3e3d df52 a1bd fb7f 953d ee45 acbd
000003d0: 9a10 f8bd 1a42 a5bd 7ba7 723d 0d4f 51be
000003e0: 1e79 1c3d 5233 fb3d 89b1 7bbd be45 02bd
000003f0: 06d2 663d 6e08 8bbe 256e 01be b99a fe3d

state_encoder.2.bias f4 [32]
0.11591311 0.037589315 -0.10300483 -0.24134974 0.09618266 0.20521468 -0.15372719 0.06403629
0.056339584 -0.183817 -0.27728146 0.3499609 -0.42414588 -0.11563749 -0.08182934 0.1449002
-0.016971733 0.2126985 0.19636752 -0.022213684 0.022802206 -0.18692161 0.18076505 0.14273061
-0.116255246 0.041356184 0.24600846 0.009880936 -0.17738578 0.1562041 0.10450852 0.22740342
00000000: da63 ed3d 41f7 193d 32f4 d2bd 6324 77be
00000010: 6afb c43d cc23 523e a96a 1dbe 7525 833d
00000020: 56c4 663d 863a 3cbe d6f7 8dbe 132e b33e
00000030: a629 d9be 59d3 ecbd 2496 a7bd b860 143e
00000040: 4e08 8bbc a3cd 593e 9114 493e 79f9 b5bc
00000050: b1cb ba3c 6168 3fbe 791a 393e f927 123e
00000060: 3b17 eebd 1a65 293d a4e9 7b3e a6e3 213c
00000070: 9ea4 35be f8f3 1f3e 9008 d63d 71dc 683e

action_head.0.weight f4 [64, 32]
0.6973918 0.2931306 0.04849113 0.40801713 0.173443 0.021415658 0.15982771 0.33959898
0.27364895 0.3085842 -0.02895553 -0.23433128 -0.08707853 0.11606185 -0.15297244 -0.28423393
-0.4394318 -0.22093157 -0.43170586 -0.10291309 -0.11130756 0.22171414 0.05636793 0.5481649
-0.055221412 0.07764766 0.08147099 0.4500941 0.8423377 0.07788253 0.37804273 -0.25098222
-0.10689475 0.07949035 -0.07653193 0.14374028 0.11724794 -0.0058850776 0.13959612 -0.030446652
-0.095231764 -0.2425034 0.15544835 0.12286825 -0.11990281 -0.104588814 0.072551064 0.18355075
0.19954829 -0.18191627 0.17300269 0.07646178 -0.08058222 -0.27523753 -0.08224195 0.23507352
-0.036209237 -0.028738242 0.16133952 0.087708004 -0.15462983 -0.4060676 -0.018253433 0.21741314
0.070124656 0.072082765 0.17735466 0.059816845 -0.04387455 0.11088362 -0.05463669 -0.041696906
-0.025203062 0.050324388 0.115942545 -0.24944538 -0.18506548 0.1353462 0.100261144 0.1586074
0.06453262 -0.16557051 0.09777755 0.0932796 0.19920632 -0.05582868 0.11581704 -0.116573386
0.106902525 -0.09448201 0.04692887 -0.0740141 -0.060343377 -0.07273281 0.15754747 -0.0357998
0.3525068 0.056452565 0.20386192 0.07394347 -0.02167349 0.10653271 -0.13441713 0.09726894
0.030351443 0.11354326 -0.1961524 -0.14802688 -0.085708365 -0.046312515 0.040340636 -0.08262146
-0.3108936 -0.11843467 -0.121079735 -0.10458338 -0.073108755 0.16813286 0.053070456 -0.108064756
-0.12686533 -0.13313015 -0.016017802 0.18261601 0.51042306 -0.026243322 0.3158465 -0.025093066
0.53473336 0.2635601 0.019516744 0.33159283 -0.15597275 0.104731515 0.10529877 0.26623932
0.24779151 0.21699762 -0.011363722 -0.21352307 0.08475043 0.15294315 -0.108466044 -0.1505871
-0.3530284 -0.23391992 -0.3482394 -0.12920476 -0.12358474 0.17191826 0.08511527 0.48545083
0.016822567 -0.06615039 0.02522704 0.3535249 0.6843953 0.056673307 0.30419344 -0.22333832
0.04828496 -0.014310448 0.05437361 -0.08559591 -0.0065838434 -0.074069396 -0.2552841 0.02840195
0.16858949 -0.010406968 -0.2777752 -0.023146152 0.017197834 -0.028901065 0.2886153 0.13325082
0.33945718 -0.116500534 -0.0036528655 0.120934 0.15336968 -0.031965762 -0.09312572 0.1966424
0.1082696 -0.0068003316 0.20788346 0.064009815 -0.036472984 -0.31302035 0.053235706 0.08574084
0.123873845 0.14189437 0.09330135 -0.08169636 0.11401533 -0.10138834 -0.10379803 0.059436597
-0.12811619 0.122778505 0.008820726 -0.13389689 0.1123524 0.12226659 0.13880801 -0.025405882
0.15437652 -0.036046658 -0.22654524 0.0126251215 -0.09954256 0.028869554 0.17476512 -0.019576203
-0.03199498 -0.11727611 -0.16373235 -0.24285781 0.10137843 0.14048435 -0.00032683118 0.24169515
-0.04426991 0.038589627 -0.07717633 0.004562497 -0.106503084 0.13673805 0.14340203 0.035364587
0.0735863 0.05978554 0.14060573 0.017322287 0.10993505 0.11573202 0.074482195 -0.08745978
0.1204826 -0.05543043 0.01366805 0.05478253 0.069188885 -0.1310806 -0.11929716 0.05082292
-0.14971562 -0.00927791 -0.013498299 -0.16053192 -0.11658576 -0.085236095 -0.13024661 0.13502555
00000000: 4588 323f 3715 963e a39e 463d 9fe7 d03e
00000010: 0b9b 313e e46f af3c e0a9 233e ebdf ad3e
00000020: b71b 8c3e c0fe 9d3e 2634 edbc 8af4 6fbe
00000030: 3a56 b2bd d6b1 ed3d cfa4 1cbe 1c87 91be
00000040: 34fd e0be e33b 62be 8d08 ddbe 19c4 d2bd
00000050: 38f5 e3bd 0809 633e 0fe2 663d 8954 0c3f
00000060: d92f 62bd bd05 9f3d 43da a63d bc72 e63e
00000070: 72a3 573f e080 9f3d d18e c13e be80 80be
00000080: a2eb dabd d6cb a23d c6bc 9cbd a730 133e
00000090: b01f f03d 9cd7 c0bb 49f2 0e3e 426b f9bc
000000a0: df08 c3bd d052 78be da2d 1f3e 59a2 fb3d
000000b0: 9b8f f5bd a932 d6bd a795 943d baf4 3b3e
000000c0: 6356 4c3e 4248 3abe 9e27 313e fe97 9c3d
000000d0: 4a08 a5bd efeb 8cbe 786e a8bd 1db7 703e
000000e0: 2350 14bd 766c ebbc 3036 253e 41a0 b33d
000000f0: 4857 1ebe 18e8 cfbe 3988 95bc 8da1 5e3e
00000100: 849d 8f3d 21a0 933d 769c 353e 8202 753d
00000110: cdb5 33bd f416 e33d b9ca 5fbd 60ca 2abd
00000120: a776 cebc f220 4e3d 4973 ed3d 9c6e 7fbe
00000130: ce81 3dbe 3298 0a3e b755 cd3d fa69 223e
00000140: ae29 843d 518b 29be 993f c83d 6009 bf3d
00000150: befc 4b3e 9dac 64bd 7c31 ed3d 07be eebd
00000160: b6ef da3d c97f c1bd 7d38 403d b494 97bd
00000170: 9e2a 77bd f1f4 94bd 2054 213e d0a2 12bd
00000180: c57b b43e ce3a 673d 2ec1 503e ad6f 973d
00000190: 9a8c b1bc d22d da3d a5a4 09be f034 c73d
000001a0: 97a3 f83c 5e89 e83d 2ddc 48be 5c94 17be
000001b0: de87 afbd 31b2 3dbd 393c 253d 7135 a9bd
000001c0: 722d 9fbe e08d f2bd a7f8 f7bd d02f d6bd
000001d0: 0bba 95bd 052b 2c3e 6860 593d 0e51 ddbd
000001e0: fce8 01be 4553 08be c437 83bc b1ff 3a3e
000001f0: 16ab 023f 3cfc d6bc a2b6 a13e f98f cdbc
00000200: 49e4 083f 59f1 863e 94e1 9f3c 89c6 a93e
00000210: 52b7 1fbe 7a7d d63d e2a6 d73d 8550 883e
00000220: 0fbd 7d3e a034 5e3e e82e 3abc cba5 5abe
00000230: a291 ad3d 219d 1c3e 7223 debd 8133 1abe
00000240: 23c0 b4be b488 6fbe 6f4c b2be 414e 04be
00000250: ff19 fdbd 570b 303e ea50 ae3d 038d f83e
00000260: 7bcf 893c db79 87bd f0a8 ce3c 3701 b53e
00000270: 8834 2f3f 4522 683d 3ebf 9b3e cdb2 64be
00000280: 73c6 453d 5f76 6abc ddb6 5e3d e94c afbd
00000290: 48bd d7bb b2b1 97bd 99b4 82be 35ab e83c
000002a0: b9a2 2c3e fd81 2abc 8d38 8ebe 009d bdbc
000002b0: 79e2 8c3c edc1 ecbc 62c5 933e e772 083e
000002c0: 55cd ad3e d597 eebd ea64 6fbb 3fac f73d
000002d0: f10c 1d3e 88ee 02bd b3b8 bebd a05c 493e
000002e0: 74bc dd3d 51d5 debb 67df 543e 9417 833d
000002f0: b264 15bd 3444 a0be af0d 5a3d e598 af3d
00000300: 92b1 fd3d c24c 113e c714 bf3d 6c50 a7bd
00000310: df80 e93d b1a4 cfbd 1094 d4bd ca73 733d
00000320: e430 03be 4c73 fb3d ce84 103c 441c 09be
00000330: 0419 e63d e866 fa3d b023 0e3e ff1f d0bc
00000340: e114 1e3e a9a5 13bd 7afb 67be 99d9 4e3c
00000350: f8dc cbbd d87f ec3c a1f5 323e 465e a0bc
00000360: 2b0d 03bd 752e f0bd 74a9 27be b8af 78be
00000370: 7f9f cf3d 21db 0f3e 8a5a abb9 ef7e 773e
00000380: 5d54 35bd 2810 1e3d a00e 9ebd 0081 953b
00000390: 4a1e dabd 0f05 0c3e fbd7 123e 75da 103d
000003a0: 6ab4 963d afe1 743d f3fa 0f3e 78e7 8d3c
000003b0: a125 e13d e904 ed3d 1f8a 983d 1d1e b3bd
000003c0: 95bf f63d 050b 63bd f5ef 5f3c a563 603d
000003d0: e7b2 8d3d fe39 06be 1252 f4bd b22b 503d
000003e0: 0d4f 19be 6002 18bc f827 5dbc 7b62 24be
000003f0: 84c4 eebd 4390 aebd 5e5f 05be 2344 0a3e

action_head.0.bias f4 [64]
-0.005685185 -0.278491 0.031634074 -0.066843174 -0.06328169 -0.24747248 -0.058092143 0.5995434
-0.2048552 -0.111393265 -0.15919834 0.06195485 0.20991957 0.032612763 -0.021614242 0.0011758143
0.095317885 -0.41889995 0.2839469 0.21061032 0.127992 0.20988622 0.10339072 -0.011746536
0.09741213 -0.26277748 0.10209897 -0.09480319 0.026209427 -0.11172047 -0.03672067 0.037418734
-0.07373867 0.12757555 0.0107974075 0.18541117 0.36544058 0.39009082 0.31348675 0.29387605
0.12853998 -0.05175314 -0.2982098 0.22770794 -0.22809252 -0.14870246 -0.08674818 -0.16432214
-0.10835242 -0.20297661 -0.24232209 0.280968 0.0008735688 -0.03971746 0.03842738 0.069518164
-0.01627515 0.08763859 0.07343866 -0.07466556 -0.1241215 0.0017040065 -0.03271809 -0.071620554
00000000: ca4a babb 5f96 8ebe bb92 013d 13e5 88bd
00000010: d599 81bd 6d69 7dbe 07f2 6dbd ad7b 193f
00000020: 90c5 51be 2722 e4bd e404 23be 5ec4 7d3d
00000030: 28f5 563e f694 053d 5a10 b1bc c81d 9a3a
00000040: 0636 c33d 0e7a d6be 7d61 913e 3baa 573e
00000050: 5610 033e 6aec 563e 84be d33d 8b74 40bc
00000060: 0380 c73d c58a 86be 4419 d13d 2d28 c2bd
00000070: 27b5 d63c b4cd e4bd 6a68 16bd 6344 193d
00000080: 4d04 97bd 2aa3 023e 9ce7 303c 6ddc 3d3e
00000090: 071b bb3e fcb9 c73e 5681 a03e ec76 963e
000000a0: fc9f 033e 1afb 53bd f4ae 98be 452c 693e
000000b0: 1691 69be 7545 18be 08a9 b1bd 1044 28be
000000c0: e0e7 ddbd 1ad9 4fbe 4823 78be 0adb 8f3e
000000d0: 3600 653a c6ae 22bd 0766 1d3d 8a5f 8e3d
000000e0: 7753 85bc dc7b b33d 0267 963d 42ea 98bd
000000f0: 6a33 febd f858 df3a 6703 06bd ccad 92bd

action_head.2.weight f4 [3, 64]
-0.008748443 0.22459483 -0.06064262 -0.5470518 -1.5419507 -0.148383 0.27776316 -0.41416457
-0.111037225 -1.9135641 -0.48196676 0.116409644 0.04013258 -0.021738084 0.115979925 0.029962208
0.014197383 -0.07570091 0.123564124 0.19695608 0.48718542 0.053383667 -0.0094297 0.1439766
-0.027814105 2.1798658 0.03134817 -0.006626156 0.5144114 0.12295589 0.012736573 0.014703311
0.12757972 0.26249 0.56366926 -0.20145616 0.17036541 -0.13194723 -0.28403604 0.100227006
-0.006204309 -0.100911334 0.029490821 -0.10251719 0.058608748 -0.30432752 0.9790701 1.0005702
0.038375013 1.6329616 1.1680237 -0.18509905 -0.59371567 0.22838931 -0.27635452 0.16275176
-0.7896579 0.051335823 -0.18219265 -0.07825209 -0.07618026 -1.6541868 -0.10386049 -0.07518703
3.2977087 0.20829223 -0.017326454 0.34369168 1.3321111 0.001405533 -0.3044876 -0.24982013
0.012779703 2.1980329 -0.004787914 0.07301591 0.17079182 -0.0717869 -0.06920319 0.05228369
0.11991687 -0.39070833 0.006352154 0.065385856 -0.017844984 0.042238202 -0.05817512 -0.099308304
-0.04790881 -1.9667776 -0.12648942 -0.076921746 -0.20911983 -0.02709509 -0.10162097 -0.040304326
-0.042569965 0.04032452 1.3230722 0.3432647 -0.066251524 -0.08410612 0.07935717 0.11734956
-0.019769182 0.03648602 0.11197049 0.14801729 -0.063804 -0.040961646 -2.1349368 1.7986157
-0.083036244 1.8761436 1.0323455 0.16267253 0.77116966 -0.07955954 0.01104833 0.09302407
0.5787768 -0.0862793 0.19855873 0.0039039303 -0.032512363 1.1624948 -0.057979077 0.09212715
0.1565863 0.49555334 0.25856796 -0.5249614 -0.381431 0.18844332 -0.056175586 0.17613508
0.22044459 0.8567772 0.18311544 0.35964411 1.0574135 0.24374737 -0.092401534 0.28951216
-0.012419815 0.48270807 0.36936232 1.06838 0.5438839 0.12081785 0.3131511 0.038225215
0.4419173 2.4016027 0.2994624 0.3842337 0.6612425 0.35357237 0.2839738 0.43701917
2.21587 0.36752632 0.7949571 0.013335489 0.3878837 0.06827586 3.4240582 0.18051669
-0.079944886 0.21013597 0.11421167 -0.2624789 0.35241607 0.2831066 1.8565918 0.11446108
0.20798595 0.82939905 0.8167158 1.8385329 -0.9164063 0.11719903 0.061686818 0.11846545
-0.41363457 0.01916315 -0.057213996 0.39638883 0.13242175 0.61383945 0.3544457 0.1562279
00000000: a155 0fbc 30fc 653e 6564 78bd 960b 0cbf
00000010: a45e c5bf b7f1 17be f936 8e3e 610d d4be
00000020: 7c67 e3bd abef f4bf 59c4 f6be 2e68 ee3d
00000030: 0f62 243d 1114 b2bc e286 ed3d 4e73 f53c
00000040: 249c 683c 1409 9bbd 300f fd3d dbae 493e
00000050: 5e70 f93e d5a8 5a3d 077f 1abc 9a6e 133e
00000060: 68da e3bc ec82 0b40 f066 003d 3a20 d9bb
00000070: 77b0 033f 4cd0 fb3d 0fad 503c 28e6 703c
00000080: 42a4 023e 1765 863e a14c 103f 864a 4ebe
00000090: 4574 2e3e 2d1d 07be 2c6d 91be d143 cd3d
000000a0: 844d cbbb 9aaa cebd bc96 f13c 88f4 d1bd
000000b0: ba0f 703d d1d0 9bbe 57a4 7a3f af12 803f
000000c0: 1e2f 1d3d e304 d13f cd81 953f 9b8a 3dbe
000000d0: c0fd 17bf e3de 693e 577e 8dbe 66a8 263e
000000e0: 0527 4abf 8345 523d b690 3abe a242 a0bd
000000f0: 6504 9cbd 65bc d3bf cfb4 d4bd a8fb 99bd
00000100: a90d 5340 8f4a 553e 35f0 8dbc 5bf8 af3e
00000110: 9e82 aa3f dd39 b83a cce5 9bbe d9d0 7fbe
00000120: f661 513c 92ac 0c40 efe3 9cbb 5e89 953d
00000130: 0de4 2e3e 0305 93bd 67ba 8dbd 6c27 563d
00000140: fa96 f53d ec0a c8be bb25 d03b 05e9 853d
00000150: a52f 92bc f701 2d3d 0949 6ebd 2762 cbbd
00000160: 073c 44bd 5ebf fbbf 7186 01be 2689 9dbd
00000170: 8223 56be 86f6 ddbc a81e d0bd 2616 25bd
00000180: d85d 2ebd 532b 253d 6e5a a93f 64c0 af3e
00000190: e1ae 87bd d43f acbd 0386 a23d f754 f03d
000001a0: fbf2 a1bc 5d72 153d c950 e53d d891 173e
000001b0: acab 82bd 66c7 27bd cea2 08c0 0a39 e63f
000001c0: e80e aabd 7925 f03f e623 843f a193 263e
000001d0: 606b 453f 1df0 a2bd 0e04 353c 6783 be3d
000001e0: b72a 143f 34b3 b0bd fb52 4b3e 15d9 7f3b
000001f0: af2b 05bd a1cc 943f 787b 6dbd 29ad bc3d
00000200: 2958 203e 2bb9 fd3e 0563 843e df63 06bf
00000210: ed4a c3be 49f7 403e 5f18 66bd c15c 343e
00000220: 3abc 613e c055 5b3f 9d82 3b3e 4623 b83e
00000230: 5359 873f e998 793e 043d bdbd f03a 943e
00000240: 7b7c 4bbc 8325 f73e 0f1d bd3e adc0 883f
00000250: fa3b 0b3f 596f f73d 5755 a03e 0b92 1c3d
00000260: fc42 e23e dcb3 1940 2353 993e 48ba c43e
00000270: 3047 293f 7007 b53e 0465 913e fac0 df3e
00000280: d0d0 0d40 692c bc3e 4f82 4b3f 187d 5a3c
00000290: b198 c63e 37d4 8b3d c523 5b40 5ed9 383e
000002a0: 25ba a3bd e22d 573e cfe7 e93d a263 86be
000002b0: e16f b43e 59f3 903e cda4 ed3f 926a ea3d
000002c0: 45fa 543e 7f53 543f 4914 513f 0c55 eb3f
000002d0: 9a99 6abf 0c06 f03d 51ab 7c3d 049e f23d
000002e0: e9c7 d3be 0afc 9c3c 3959 6abd 7af3 ca3e
000002f0: 9199 073e 9524 1d3f e879 b53e 35fa 1f3e

action_head.2.bias f4 [3]
0.10307592 -0.118599884 0.29814622
00000000: 7819 d33d 7fe4 f2bd 9fa6 983e
