LIRL results/CityFlow/Algs_compare/hppo_multi_run_20250914_193429/seed_3047/low_policy.pth (torch, 167736 bytes, 7 tensors)

log_std f4 [2]
0	0xbecdad37	-0.40171215
1	0xbecee37f	-0.4040794

mean_network.0.weight f4 [64, 607]
0	0x3c0f8a7a	0.008761043
1	0xbc718412	-0.014740961
2	0xbd14f28b	-0.03636412
3	0x3caf109a	0.02137022
4	0x3cc4239b	0.02394276
5	0x3d34fda9	0.04418722
6	0xbc443c5d	-0.011977282
7	0x3b62fa5f	0.0034634096
8	0xbab3693d	-0.001368798
9	0xbce0a7a3	-0.027423685
10	0xbb733766	-0.0037111877
11	0x3c70ed30	0.014704987
12	0x3cafad6c	0.021444999
13	0xbb7b8181	-0.003837675
14	0xbcf45cbe	-0.02982938
15	0x3c62c59c	0.013841059
16	0x3d12091b	0.035653215
17	0xbce269ac	-0.027638279
18	0x3d033e13	0.03204162
19	0x3cc2db4d	0.023786211
20	0x3ccbbc54	0.024870075
21	0x3d08609f	0.03329527
22	0x3d29507f	0.041336533
23	0xbaeb6531	-0.0017959235
24	0xbca3cb67	-0.01999445
25	0xbbcb1935	-0.0061980733
26	0xbb19fa4b	-0.0023495134
27	0x3ce01dd5	0.027357975
28	0xbc20526b	-0.009785275
29	0xbd075654	-0.033041313
30	0xbc0b7e7d	-0.008514044
31	0x3d24469f	0.040106412
32	0x3cbb3f22	0.022857253
33	0xbc2555cb	-0.010091255
34	0xbbd07cc8	-0.0063625313
35	0x3d1e8ef6	0.038710557
36	0x3cf0660d	0.029345537
37	0x3d31ed43	0.04343916
38	0xbbcb0b25	-0.006196397
39	0x3cbde0cb	0.023178479
40	0xb9bdfe94	-0.00036238565
41	0x3ced4e78	0.02896808
42	0x3d001ac2	0.03127552
43	0x3d33a0a8	0.043854386
44	0x3c7342fd	0.014847514
45	0x3c9e555d	0.019327814
46	0xbc505daa	-0.012717644
47	0x3cd079ff	0.025448797
48	0x3d052b60	0.03251207
49	0xbc3f6923	-0.011682781
50	0x3c743bb0	0.014906809
51	0x3c32ec9b	0.010920669
52	0x3b0935c5	0.002093659
53	0x3c9a36f2	0.018825028
54	0x3d08b1e0	0.03337276
55	0x3c01a1e3	0.007912132
56	0xbc27073d	-0.010194597
57	0x3d0383bd	0.032108057
58	0xbb75425f	-0.0037423593
59	0xbb4d4710	-0.0031322874
60	0x3c5c8c9c	0.013461258
61	0xbba75259	-0.005106252
62	0xbce32b15	-0.027730504
63	0x3c475984	0.012167338
64	0x3c5e3ace	0.013563825
65	0xbbac8eca	-0.005266045
66	0x3c915cab	0.017744383
67	0xbab161cf	-0.0013533178
68	0x3d36db15	0.044642527
69	0x3d4ccfde	0.050002925
70	0x3cfc4ad3	0.030797398
71	0x3c856780	0.016284704
72	0x3d0ec259	0.034853313
73	0x3a24aae9	0.0006281571
74	0xb89a9860	-7.371674e-05
75	0x3cc95a29	0.024579125
76	0xbbcdea10	-0.006284006
77	0x3cfee513	0.03111509
78	0xbd11f47b	-0.035633545
79	0xbbb5b137	-0.0055448073
80	0x3cf2cd67	0.02963896
81	0x3ce58835	0.02801905
82	0xbc518782	-0.012788655
83	0xbd0b5803	-0.03401948
84	0x3ca6ad7c	0.020346396
85	0x3b3dd200	0.002896428
86	0x3d115909	0.0354853
87	0xbc045637	-0.008077196
88	0xbc48c671	-0.012254343
89	0xbd0af39c	-0.03392373
90	0xbccd1c61	-0.025037946
91	0xbcf46ad2	-0.029836092
92	0x3d5d33f0	0.05400461
93	0x3d19e8be	0.037575476
94	0xbc8bdd1a	-0.017073203
95	0xbc7b1077	-0.01532375
96	0x3cf2a377	0.029618962
97	0x3c7f0859	0.015565955
98	0x3d26c46e	0.040714674
99	0xbcc9f3be	-0.024652358
100	0x3d7a75d1	0.061147515
101	0xbb29ed0e	-0.002592865
102	0x3d264f4c	0.040602967
103	0x3d2b15aa	0.041768707
104	0x3ba94151	0.005165257
105	0xba89d4a9	-0.0010515648
106	0x3c327f1e	0.010894565
107	0x3c983c56	0.018583458
108	0x3d72c7fe	0.05927276
109	0xbd243aec	-0.040095255
110	0xbc45d793	-0.012075323
111	0x3c6e69fc	0.014551636
112	0x3d0fa562	0.03506983
113	0x3d26099d	0.04053651
114	0xbcd1993a	-0.02558576
115	0x3cee812a	0.029114325
116	0x3d0db1ba	0.03459332
117	0x3caaf576	0.020868998
118	0x3be26e40	0.0069101155
119	0x3d614038	0.054992884
120	0x3b5e5019	0.0033922254
121	0x3cd7d36b	0.02634593
122	0xbd28741a	-0.041126348
123	0xbd0c2dc8	-0.034223348
124	0xbc9e3719	-0.019313382
125	0x3cc3fcbf	0.02392423
126	0xbc9b1f41	-0.018935801
127	0xbc918dd1	-0.017767819
128	0xbcad3e5b	-0.021147897
129	0x3d036acc	0.03208427
130	0xbbfd54e9	-0.0077310693
131	0xbc84be19	-0.016203927
132	0x3b8636d0	0.0040958896
133	0x3cbaf987	0.022824062
134	0xb9f11552	-0.00045982987
135	0xbc783996	-0.015150448
136	0xbb88d15b	-0.0041753477
137	0xbc8e264f	-0.017352251
138	0xbc6a7863	-0.014310929
139	0x3c9f3666	0.019435119
140	0x3d52b5ba	0.05144284
141	0xbb44c526	-0.0030024736
142	0x3b861b66	0.0040926216
143	0x3d210899	0.03931484
144	0x3b90c1ad	0.004417619
145	0x3d3f98cd	0.04677658
146	0xbb88513a	-0.0041600736
147	0xbc81a8e7	-0.01582761
148	0xbca09260	-0.019601047
149	0xbc0ac4f0	-0.008469805
150	0x3ceae065	0.028671453
151	0x3c6b352e	0.014355941
152	0xbc89f3dc	-0.016839914
153	0x3cfb4540	0.03067267
154	0x3d0f94c1	0.035053972
155	0xbcb747c3	-0.022373086
156	0x3d77b951	0.060479466
157	0x3cf18889	0.02948405
158	0xbcba5148	-0.022743836
159	0xbc12ae49	-0.008952686
160	0xbd009105	-0.0313883
161	0xbc8d8769	-0.017276483
162	0xbc87caec	-0.016576253
163	0xbc71ce90	-0.014758721
164	0x3ca41fb7	0.020034654
165	0x3d1eb36a	0.03874532
166	0x3c76bab6	0.015059164
167	0x3c13227e	0.008980392
168	0x3d1c2978	0.038125485
169	0xbc155bae	-0.009116096
170	0xbcac5d16	-0.02104048
171	0x3bfab6a7	0.0076511684
172	0x3d575100	0.052567482
173	0x3ce948f6	0.028477173
174	0xbc84af4c	-0.01619687
175	0x3abcc0f1	0.0014400763
176	0x3bbc8d6a	0.0057541626
177	0xbbeb32cb	-0.007177686
178	0xbcfcca13	-0.030858075
179	0x3d387b96	0.045039736
180	0x3d4e4e8a	0.05036787
181	0x3d34dc62	0.044155486
182	0x3a27f0b3	0.00064064114
183	0x3d487d70	0.04894775
184	0x3d1de65c	0.038549766
185	0x3d18cebc	0.037306532
186	0x3cc2c42c	0.023775183
187	0x3ccabeb4	0.024749137
188	0x3b4ab9bc	0.003093346
189	0x3cb917e5	0.022594402
190	0xbc9ca16f	-0.019119946
191	0xbd01a2ec	-0.031649515
192	0xbd022655	-0.031774838
193	0xbc5d1ac2	-0.013495149
194	0xbc7aade7	-0.015300251
195	0xbcb27884	-0.021785982
196	0x3d279acd	0.040919114
197	0x3cf4304b	0.029808184
198	0x3cdefa50	0.027218968
199	0xbc73bf4f	-0.0148771545
200	0xbc2bee1d	-0.010493782
201	0xbc14ec17	-0.009089491
202	0xbcc57123	-0.0241018
203	0xbd045063	-0.032303225
204	0x3d100024	0.035156384
205	0xbb46b267	-0.0030318738
206	0xbb76a825	-0.0037636843
207	0x3b048f10	0.0020226873
208	0xbc0b2087	-0.008491642
209	0x3d1e9e29	0.038725052
210	0xbd14389b	-0.036186796
211	0xbb856600	-0.0040709972
212	0xbb52e475	-0.0032179628
213	0x3cef2d85	0.02919651
214	0xbc18e017	-0.009330771
215	0xbd0ab1a2	-0.03386081
216	0x3cb8f573	0.022577977
217	0xbcda9919	-0.02668433
218	0x3d334f7a	0.043776967
219	0x3c7d5510	0.015462175
220	0xbc5235d9	-0.012830221
221	0x3d0d25f0	0.03446001
222	0x3d057aa1	0.03258765
223	0x3cf2b063	0.029625123
224	0x3d0c4c03	0.034252178
225	0xbc8f81c7	-0.017517937
226	0xbc89ff3d	-0.01684534
227	0x3d0fdc02	0.035121925
228	0x3d322451	0.043491665
229	0x3cc2680a	0.02373125
230	0x3cf027a3	0.029315775
231	0xbc30ef9b	-0.010799314
232	0x3ac9a681	0.0015384705
233	0x3c3b85a7	0.011445439
234	0x3cc43d3f	0.023954986
235	0xbba4f370	-0.005033903
236	0x3c18f63b	0.00933605
237	0x3d546c19	0.051860902
238	0xbc4dabb3	-0.012553143
239	0x3c3c8a6b	0.011507611
240	0xbcfe8c55	-0.031072775
241	0xbc6bbbff	-0.0143880835
242	0x3d28450e	0.04108148
243	0xbcb38212	-0.021912608
244	0x3d42b266	0.047533415
245	0x3d52e2eb	0.051485937
246	0xbc2cec54	-0.010554392
247	0x3bf89e03	0.007587196
248	0xbc6f81b0	-0.014618322
249	0x3d17d522	0.037068494
250	0x3d05f8dd	0.032708038
251	0x3d51e65f	0.05124509
252	0x3d564bb3	0.052318286
253	0x3c05d3ca	0.00816817
254	0x3d1fb075	0.038986642
255	0x3be89435	0.007097746

mean_network.0.bias f4 [64]
0	0x3c35d457	0.011097989
1	0x3d02f5a7	0.031972554
2	0x3ccdc489	0.02511813
3	0x3c52dc1a	0.012869859
4	0x3c7158f8	0.014730684
5	0xbd04c4f3	-0.032414388
6	0x3c14c122	0.00907925
7	0x3d6b3887	0.057426956
8	0x3ce45018	0.027870223
9	0x3da4e99e	0.080523714
10	0x3bf3c5ef	0.007439367
11	0xbc69ed77	-0.014277807
12	0x3d466ce7	0.0484437
13	0xbd2fdd47	-0.042935636
14	0x3d5a833c	0.05334781
15	0x3d408ea3	0.04701103
16	0xbd24a574	-0.04019685
17	0x3d020666	0.031744383
18	0xbc4154cb	-0.011800001
19	0x3bcc9cff	0.0062443013
20	0x3d104140	0.035218477
21	0x3ca10bdb	0.019658973
22	0x3d09dd5b	0.033658367
23	0x3cfcf093	0.030876433
24	0x3cbf367f	0.023341415
25	0x3c3f5b25	0.011679445
26	0xbd0c8bc6	-0.034312986
27	0xbd3b90cd	-0.04579239
28	0x3cef3d07	0.029203905
29	0x3cef4bdd	0.02921098
30	0xbc9a0721	-0.018802227
31	0x3c8a84e4	0.01690907
32	0xbced7ab0	-0.028989166
33	0x3d0d4140	0.034486055
34	0x3cf0ba48	0.0293857
35	0xbccd89d0	-0.025090128
36	0x3d56f062	0.05247534
37	0x3c8003ff	0.015626905
38	0x3c36b1fb	0.011150832
39	0x3d82d6d6	0.06388633
40	0xbcc3fd5c	-0.023924522
41	0x3d8dc5fe	0.0692253
42	0x3cfdd220	0.030983984
43	0x3d0ca62e	0.03433817
44	0x3ceeb8d2	0.029140864
45	0x3baec546	0.0053335754
46	0x3a8f09f7	0.0010913004
47	0xbcbed356	-0.023294132
48	0xbc97e9f2	-0.018544171
49	0xbc83f977	-0.016110165
50	0xbc8b875a	-0.017032314
51	0x3d051740	0.032492876
52	0xbc84c6e7	-0.016208125
53	0x3c42ec0c	0.011897098
54	0xbb7ddee0	-0.003873758
55	0x3b5092f0	0.0031825863
56	0x3d019061	0.03163183
57	0x3b26fe21	0.0025481062
58	0x3ced6f03	0.028983599
59	0x3c133790	0.008985415
60	0xbacb4407	-0.0015507945
61	0xbd1defc6	-0.038558744
62	0x3d467c86	0.0484586
63	0x3cd897eb	0.026439628

mean_network.2.weight f4 [32, 64]
0	0x3d2d6a5f	0.04233777
1	0xbd20837e	-0.0391879
2	0x3dccab2b	0.09993585
3	0xbe03077f	-0.12795828
4	0xbe020dab	-0.12700526
5	0xbde30037	-0.11084025
6	0x3ca2457d	0.019808525
7	0x3d4d8fb9	0.050185893
8	0x3cd0eeae	0.025504436
9	0xbdfbd4ee	-0.122964725
10	0x3d5400a4	0.051758423
11	0xbcc94bbd	-0.024572248
12	0x3d530b8a	0.051524676
13	0x3d324811	0.04352576
14	0xbc19b59c	-0.009381678
15	0xbddb9ffb	-0.10723873
16	0x3d6017ac	0.054710075
17	0x3de08d01	0.10964394
18	0x3dcc46d1	0.09974445
19	0x3cd118ea	0.025524575
20	0x3df8e6cc	0.12153396
21	0xbd693385	-0.0569339
22	0x3de82ff7	0.113372736
23	0x3c8007f5	0.015628794
24	0x3bc73066	0.0060787676
25	0x3dbd1aa7	0.09233599
26	0xbb97d86b	-0.0046339533
27	0x3d90a4e1	0.07062698
28	0x3ad08a17	0.0015910295
29	0xbda8b7f6	-0.08238213
30	0x3dcf2a17	0.1011545
31	0x3cc9bd7d	0.024626488
32	0xbdc93937	-0.09825366
33	0xbdc59d22	-0.09649111
34	0x3cab2c8d	0.020895267
35	0x3dd859d2	0.10564007
36	0xbdc494a7	-0.09598666
37	0xbdab16c9	-0.08353955
38	0xbd9aa9e1	-0.07551933
39	0x3d49383a	0.049125887
40	0xbdd5257d	-0.10407541
41	0xbdc16e65	-0.09444884
42	0x3dedecfe	0.11617468
43	0x3d253c0e	0.040340476
44	0xbca80162	-0.020508472
45	0x3d72e703	0.05930234
46	0xbd9b83de	-0.07593511
47	0xbd3c6716	-0.045996748
48	0xbc9eaff1	-0.019371005
49	0x3d402eb5	0.046919543
50	0xbe00d98d	-0.12582989
51	0x3c522c62	0.0128279645
52	0xbdc56055	-0.096375145
53	0x3dde0e93	0.108426236
54	0x3cbc8d43	0.023016578
55	0x3df88a30	0.12135732
56	0xbdf1a773	-0.117995165
57	0x3cad27cc	0.02113714
58	0x3dc42326	0.095770165
59	0xbd1bfc7a	-0.038082577
60	0xbdd2f610	-0.10300839
61	0x3c310bd2	0.010806041
62	0x3dd06e52	0.10177292
63	0x3d80a89e	0.06282161
64	0xbdedad55	-0.11605326
65	0x3dd3db80	0.10344601
66	0x3d9bb7de	0.07603429
67	0x3c44335c	0.011975136
68	0x3d5a8c76	0.05335661
69	0xbdc29787	-0.09501558
70	0x3d64dfdd	0.055877555
71	0xbd2e22b2	-0.042513557
72	0xbe010963	-0.12601237
73	0xbd7fda25	-0.0624639
74	0xbda5d17c	-0.080965966
75	0xbda75f2f	-0.08172452
76	0xbd8d3f0f	-0.06896793
77	0x3ce3f679	0.027827488
78	0xbd9cfea7	-0.076657586
79	0xbc8597a4	-0.01630766
80	0x3db74873	0.089493655
81	0x3db0f227	0.08639937
82	0xbc54d87b	-0.012991066
83	0x3ba25c83	0.004954876
84	0xbca6b3d4	-0.02034942
85	0x3dd79356	0.10526149
86	0xbdcb5152	-0.0992762
87	0x3d2f109d	0.042740453
88	0x3cce8c34	0.025213338
89	0x3dcc00ce	0.09961091
90	0x3d83f6b6	0.06443541
91	0x3d240d39	0.040051673
92	0x3c3a4028	0.011367835
93	0x3c05d77f	0.008169054
94	0xbda21ece	-0.07916032
95	0x3e04cc80	0.12968636
96	0xbd0c45b8	-0.034246176
97	0x3dc593d5	0.09647337
98	0xbbe64160	-0.0070268363
99	0x3ddca0c2	0.107728496
100	0xbd187c4f	-0.037227925
101	0xbe06062a	-0.13088289
102	0x3c47e909	0.012201556
103	0x3d9471f4	0.07248297
104	0xbd12ce92	-0.035841532
105	0xbc93840c	-0.0180073
106	0xbd6dfedd	-0.058104385
107	0x3c65f31b	0.014035012
108	0x3ca70b44	0.020391114
109	0xbc8d2118	-0.017227694
110	0x3d9fe748	0.07807785
111	0xbc53f8dc	-0.012937751
112	0xbd0c1df7	-0.034208264
113	0xbd4f780f	-0.050651606
114	0xbdcf6b7d	-0.10127924
115	0xbd6ce376	-0.05783411
116	0x3d4995de	0.04921519
117	0x3c48763e	0.012235222
118	0xbacbad07	-0.0015539237
119	0x3d8c04d1	0.06836856
120	0xbda42cc9	-0.080163546
121	0xbdde0dc9	-0.10842473
122	0xbd728b7f	-0.059215065
123	0xbda6d31e	-0.08145736
124	0x3d4d2184	0.05008079
125	0x3cf38c45	0.029729972
126	0x3a85ea28	0.0010216879
127	0x3d729b14	0.059229925
128	0x3e0f4637	0.13991629
129	0x3be4346b	0.0069642565
130	0x3d3d5441	0.04622293
131	0x3da644f1	0.08118618
132	0xbcb47b21	-0.022031369
133	0xbd255fe0	-0.040374637
134	0x3e03f371	0.12885834
135	0x3db2a953	0.08723702
136	0x3c616b31	0.013758467
137	0x3d46a0f5	0.048493344
138	0x3cbc4739	0.02298318
139	0x3df59311	0.11990941
140	0xbda361f6	-0.07977669
141	0xbde7666f	-0.112988345
142	0xbd517229	-0.051134262
143	0x3e044925	0.12918527
144	0x3d3299c1	0.043603662
145	0xbcb95710	-0.022624522
146	0x3d857004	0.06515506
147	0x3dae4649	0.085094996
148	0xbcc36920	-0.023853838
149	0x3d0ba14d	0.034089375
150	0x3d5d9855	0.054100353
151	0xbcbce2ce	-0.023057368
152	0x36f10950	7.183444e-06
153	0xbc63f954	-0.013914425
154	0x3a81a67f	0.0009891539
155	0xbde137dd	-0.10996983
156	0x3c889c6b	0.016676148
157	0x3e1914b0	0.14949298
158	0x3dcc0065	0.09961013
159	0xbd8b275d	-0.06794617
160	0x3ce6e089	0.028183239
161	0x3dc2b983	0.0950804
162	0x3dee6744	0.1164079
163	0x3d35bf82	0.04437209
164	0xbb0cc52f	-0.0021479835
165	0x3e0c2632	0.13686445
166	0x3dd8abcc	0.10579643
167	0x3dea8fd6	0.11453216
168	0xbdbe7f45	-0.093016185
169	0x3ce432b0	0.027856201
170	0x3e248403	0.16065983
171	0xbd7dfeda	-0.062010624
172	0x3deedc6e	0.116631374
173	0xbdc56b04	-0.09639552
174	0xbdc817b7	-0.09770148
175	0xbd017275	-0.031603295
176	0xbdec95c6	-0.115520045
177	0x3d92cea3	0.07168319
178	0x3d937d7d	0.07201669
179	0x3dce11d1	0.10061992
180	0x3be0e24a	0.0068629133
181	0x3c26bbf1	0.010176645
182	0x3db4f83d	0.0883641
183	0xbdbc9a09	-0.092090674
184	0x3dccf178	0.10006994
185	0xbd531adc	-0.051539287
186	0xbda659b2	-0.08122577
187	0xbd500810	-0.05078894
188	0x3d9d4959	0.076800056
189	0x3da98053	0.08276429
190	0x3c9b9243	0.018990641
191	0xbc897392	-0.016778741
192	0xbd988236	-0.07446711
193	0xbd5a556d	-0.053304125
194	0x3dd6b29e	0.10483287
195	0x3d18eb3c	0.037333712
196	0xbdbe185d	-0.09281991
197	0xbd24a806	-0.040199302
198	0xbcb43e01	-0.022002222
199	0x3d32968d	0.043600608
200	0x3d02f1cc	0.031968877
201	0xbca43845	-0.020046363
202	0xbdf6ebb0	-0.120566726
203	0xbdb75582	-0.08951856
204	0xbdf6957f	-0.12040233
205	0x3d1d7a14	0.0384465
206	0x3de1a3f1	0.110175975
207	0xbd158cb7	-0.03651115
208	0x3c8fad36	0.017538648
209	0x3df5ada4	0.1199601
210	0x3dd9468c	0.10609159
211	0x3d9d4de9	0.07680876
212	0x3bd3773d	0.0064534233
213	0xbdf7a9a7	-0.120929055
214	0xbe0583c8	-0.13038552
215	0xbdd5ec40	-0.10445452
216	0x3c105c8d	0.008811128
217	0x3dc24736	0.09486239
218	0xbdd27470	-0.10276115
219	0xbdf26c5e	-0.11837076
220	0xbdd82b09	-0.10555083
221	0xbdbb9849	-0.091599055
222	0x3d748e95	0.05970629
223	0x3daf25a4	0.08552101
224	0xbde88d39	-0.11355061
225	0x3d46b7a8	0.048514992
226	0x3dee72da	0.11643
227	0x3dd28b5b	0.10280486
228	0x3d807aeb	0.06273445
229	0xbd929253	-0.071568154
230	0x3ce7e9c0	0.028309703
231	0xbce868c5	-0.02837027
232	0x3d5bc43e	0.053653948
233	0x3bcb2ab9	0.0062001613
234	0xbdccd2c9	-0.100011416
235	0x3d50d526	0.050984524
236	0x3d79ae8b	0.060957473
237	0xbd79880b	-0.060920756
238	0xbd8b9416	-0.068153545
239	0x3d237456	0.03990587
240	0x3de8866f	0.11353766
241	0x3d33dba0	0.043910623
242	0x3d979364	0.074011594
243	0xbd4e1834	-0.05031605
244	0xbde4aa9b	-0.11165353
245	0x3d5bfc58	0.05370745
246	0x3d9dec31	0.077110656
247	0x3d1ce40a	0.038303412
248	0xbde475b5	-0.11155263
249	0x3ba19cf6	0.0049320413
250	0xbd6af2a3	-0.057360303
251	0x3df4aba7	0.119468026
252	0x3cd0029d	0.025391871
253	0xbda08acd	-0.07838974
254	0xbd09c91e	-0.033639066
255	0x3d0b1844	0.03395869

mean_network.2.bias f4 [32]
0	0x3da0051e	0.07813476
1	0xbcfb3631	-0.030665489
2	0x3e232dfb	0.15935509
3	0x3de01e76	0.1094331
4	0xbd4cbd4b	-0.04998521
5	0x3d8c830e	0.06860934
6	0xbd43d2b0	-0.04780835
7	0x3c46e169	0.012138703
8	0x3d8a203d	0.0674443
9	0x3d9f93dd	0.077918746
10	0xbdddba00	-0.10826492
11	0x3e130357	0.14356743
12	0x3d0d0c0b	0.034435313
13	0xbb509e40	-0.0031832606
14	0x3dc45579	0.09586615
15	0xbd72d185	-0.059281845
16	0xbc05b954	-0.008161861
17	0xbcf1eabb	-0.029530874
18	0xbd2ccd11	-0.042187754
19	0xbdd179f5	-0.102283396
20	0xbe01d6e3	-0.12679629
21	0x3dae8d86	0.08523087
22	0xbdfa1a90	-0.12212098
23	0xbd986a7e	-0.07442187
24	0xbd7ef75a	-0.06224761
25	0xbd700518	-0.058598608
26	0xbd2a2037	-0.04153463
27	0xbd25ea8e	-0.040506892
28	0xbe036529	-0.12831558
29	0xbd0b504f	-0.034012135
30	0x3d8d0fe9	0.068878
31	0x3db4a8cc	0.08821258

mean_network.4.weight f4 [2, 32]
0	0xbd9e811e	-0.07739471
1	0xbdff240a	-0.12458046
2	0x3e2d3147	0.16913329
3	0x3b16bc7d	0.0023000531
4	0xbda6c336	-0.08142702
5	0x3c9d375e	0.01919144
6	0x3e08c6ae	0.1335704
7	0x3d1c8a81	0.038218025
8	0xbe0950ab	-0.13409679
9	0xbdb11fd8	-0.08648652
10	0xbc535c3f	-0.012900411
11	0x3e146956	0.14493307
12	0x3e1b5386	0.1516858
13	0x3dd744bc	0.10511157
14	0x3d807141	0.062716015
15	0x3d4bb59a	0.049733736
16	0x3de7cdbf	0.1131854
17	0x3d2fc6e3	0.042914283
18	0xbd79fbbe	-0.061031096
19	0x3e13cc26	0.14433345
20	0xbdc4f4b5	-0.09616987
21	0x3e171350	0.14753461
22	0xbd969e19	-0.073543735
23	0xbdfb81e8	-0.12280637
24	0x3e1f33df	0.15547131
25	0xbd14c57f	-0.03632116
26	0xbdeaea3f	-0.1147046
27	0x3ddf7caf	0.109124534
28	0xbe1c28cd	-0.1524994
29	0x3e178e11	0.14800288
30	0x3df1b254	0.118015915
31	0x3e0bbb66	0.13645706
32	0x3e0f75a4	0.1400972
33	0x3daf4cd5	0.085595764
34	0x3df1c376	0.11804859
35	0xba4514cf	-0.00075180543
36	0xbd88ba02	-0.06676103
37	0x3e3629b1	0.17789342
38	0x3e60c30e	0.21949407
39	0x3df89a8b	0.12138852
40	0xbd454000	-0.04815674
41	0x3d7b2fbc	0.06132482
42	0xbda918cc	-0.08256683
43	0x3e3da36e	0.18519375
44	0x3da6652c	0.08124766
45	0x3c476ee7	0.012172437
46	0x3dec532a	0.115393
47	0x3e557dbf	0.2084875
48	0xbd8e1c9f	-0.06939053
49	0xbd63b29b	-0.055590253
50	0x3df018e5	0.11723498
51	0xbd9ce661	-0.07661129
52	0x3e0ee0ba	0.13952914
53	0x3bf468be	0.0074587753
54	0x3e24724e	0.16059229
55	0x3e1a5020	0.15069628
56	0x3e0a3d01	0.13499834
57	0xbda27754	-0.07932916
58	0x3e2f49ff	0.17118071
59	0x3c87e8f4	0.016590573
60	0x3deab5b2	0.11460437
61	0xbd4d6000	-0.05014038
62	0x3dce9215	0.10086457
63	0x3dbd913b	0.09256216

mean_network.4.bias f4 [2]
0	0x3b62cd7e	0.0034607346
1	0x3d8fd03a	0.07022138
