LIRL results/EV-Charging/pdqn/run_5_seed_1386/pdqn_q_network.pth (torch, 142845 bytes, 11 tensors)

state_encoder.0.weight f4 [128, 39]
000000 e2 d8 00 c0 7c d6 76 bf fc b2 70 bf dc a9 d3 bf
       -2.0132375 -0.9642103 -0.9402311 -1.6536212
000010 ba 6a b7 bf 36 7a 20 bb 21 07 c7 bd ae a1 02 40
       -1.4329445 -0.0024486906 -0.097181566 2.0411181
000020 26 99 d8 3f d5 00 cb 3d 61 17 b7 be 2b 6e 23 40
       1.6921737 0.09912268 -0.35760024 2.553599
000030 22 72 fd 3e b0 8b bc 3d 9e 7e 12 3e 61 e2 10 40
       0.4950114 0.09206331 0.14306113 2.263817
000040 2b 61 40 be 13 99 9c bc a2 77 08 bf 81 ea 68 c0
       -0.18787067 -0.01911596 -0.53307545 -3.639313
000050 35 12 58 3f 25 aa 6e 3d 4d 06 84 bf f3 9a 09 c0
       0.8440278 0.05826773 -1.0314423 -2.1500823
000060 ef 96 0b 3f 78 a2 f7 3d 68 84 7d bf b3 23 69 bf
       0.5452718 0.12091535 -0.9903016 -0.910701
000070 17 a0 3d 3e e8 d0 1d 3c 5f 0a 37 3f e9 68 88 bf
       0.185181 0.009632327 0.715002 -1.0657016
000080 08 ea 46 40 e1 5c db 3c 37 e9 a6 bc 14 6a 37 c0
       3.1080341 0.026777687 -0.020374877 -2.8658495
000090 6a 72 e6 3f b0 33 70 3f b4 81 57 3f f2 ec a2 be
       1.8003666 0.9382887 0.84182286 -0.318214
0000a0 59 5e 6a 3d c5 f8 50 bf 72 19 a7 bf 94 47 b3 3e
       0.057218883 -0.8162959 -1.305464 0.35015547
0000b0 ce 39 1e bf 51 e6 73 3e 93 15 80 3e c0 aa 6d 3e
       -0.6180695 0.23818327 0.2501646 0.23209667
0000c0 a7 ac 96 be f5 e1 7e bd aa 31 74 3e a8 76 c5 be
       -0.29428598 -0.06222721 0.2384707 -0.3856709
0000d0 23 e9 7f be 8b 8a fc 3f b3 68 bd 3f 77 58 3b 3f
       -0.24991278 1.972978 1.4797577 0.7318186
0000e0 02 01 76 3d c9 4e 2d 3f 4e 48 99 bf f0 63 47 c0
       0.060059555 0.6769834 -1.1975191 -3.1154747
0000f0 0d bf ec 3c 84 67 a9 be b3 f0 16 be bd c5 b2 bf
       0.028899694 -0.3308679 -0.14740257 -1.3966595
000100 ca ef 34 3e c6 99 16 3f 29 b9 c5 3f 56 18 fe be
       0.17669597 0.5882839 1.5447131 -0.49627942
000110 54 a6 14 be 57 5a 02 3f 08 83 9a be 84 08 3c bf
       -0.14516574 0.509191 -0.30178094 -0.73450494
000120 6e b9 28 3e 9d 82 0c 3f b7 77 44 c0 62 e7 77 3f
       0.16476986 0.548868 -3.0698068 0.9683744
000130 d6 c5 15 c0 9d 85 26 c0 99 1c 4e 3e 5f 7c 89 3f
       -2.3402 -2.601905 0.20128097 1.074108
000140 ce 4c c3 bf 4f 3e 93 bf 70 20 9b 3f a5 f7 dc be
       -1.5257814 -1.150339 1.2119274 -0.43157688
000150 6b 12 8f bf 63 9b 15 c0 b1 31 a4 3d 7f 25 56 3e
       -1.1177496 -2.337609 0.080172904 0.20912741
000160 33 83 1e bf b8 49 9f 3f f3 48 d6 3f 2b 83 4e 3d
       -0.61918944 1.2444372 1.6741012 0.05041806
000170 61 2a f6 bd b1 ad 53 bf a9 48 9b bd 0b 62 2f be
       -0.12019802 -0.8268691 -0.07582218 -0.17127244
000180 05 7b 8d 3e 17 17 07 c0 b1 3c 21 bf 50 50 29 be
       0.2763292 -2.1107843 -0.6298323 -0.16534543
000190 eb 49 35 3f 99 83 28 3e 03 d0 26 40 e3 75 c0 ba
       0.70815915 0.1645645 2.606446 -0.001468357
0001a0 d0 71 7f bf 07 fe e2 be 09 6e cc bf 49 9b 7e bd
       -0.9978304 -0.44334432 -1.597108 -0.06215981
0001b0 50 86 6a be ac 92 da bf 60 26 08 c0 e4 c0 6b 3e
       -0.22902799 -1.7076011 -2.1273422 0.230228
0001c0 49 1c f2 3e d6 e8 35 be 5c fe b8 3f 27 19 8d bd
       0.47287205 -0.17764601 1.4452624 -0.06889563
0001d0 a3 84 23 3e 63 ce a2 3e 24 dc 93 3d d0 5a e9 3e
       0.15968566 0.31798086 0.07219723 0.45577097
0001e0 11 f9 5b bf f0 b0 d0 3d f5 08 53 bc e7 a0 d3 be
       -0.8592692 0.10189998 -0.0128805535 -0.41333696
0001f0 38 72 0e 40 d2 30 91 3e 92 53 5f bc d3 61 48 bd
       2.2257214 0.2835756 -0.013630765 -0.048921417
000200 f5 a8 57 3f 1b 9a ce be a8 29 ff 3c 11 08 71 be
       0.8424218 -0.40351948 0.031147793 -0.23538233
000210 7b 37 1e 3e 62 12 74 be f2 04 42 3d 96 c7 83 be
       0.15450852 -0.23835137 0.047367997 -0.2573821
000220 6d 10 88 bf 2c 7b 7a 3f 19 88 61 3d 6c 44 65 3f
       -1.0630013 0.97844195 0.055061433 0.8955753
000230 52 41 cb c0 fa 1a bf 3f 69 d7 e8 be 9b de 3d bf
       -6.3517237 1.4930108 -0.45476845 -0.74167794
000240 30 83 53 c0 19 06 d2 bf 8d 1e a5 bc a2 87 b9 bf
       -3.304882 -1.6408111 -0.02015617 -1.4494517
000250 4e ad ed bf 50 76 c4 bf 9e 96 cd 3d 92 60 8f bf
       -1.8568513 -1.5348606 0.100384936 -1.1201346
000260 64 d5 50 c0 56 12 39 bf b0 a0 8e 3f 0d 1d 95 3f
       -3.2630243 -0.72293603 1.1142788 1.164949
000270 44 07 e1 3d 34 8e 79 3e 55 f7 c5 be 19 e9 8b be
       0.10987714 0.24370652 -0.38665262 -0.27326277
000280 74 ae 80 3e fe 55 cf bd b6 5d ae 3e dd fd a0 3e
       0.25133097 -0.101238236 0.3405587 0.31443682
000290 d3 d6 0a 40 24 27 35 be 05 14 81 3f 5f 24 a5 3f
       2.1693618 -0.17690712 1.0084234 1.2901725
0002a0 47 bf 19 3f 70 df 8e bd 3a a0 ff be 26 8c b6 3e
       0.6005749 -0.06976211 -0.4992693 0.356538
0002b0 7a a9 53 3f cb 84 be bc 72 85 8e 3f 80 f9 38 c0
       0.82680476 -0.02325668 1.1134474 -2.8902283
0002c0 9a 43 0a 40 f3 bc 20 3e 71 de 43 3f e5 c9 87 40
       2.160376 0.15697078 0.76511294 4.2433953
0002d0 80 ed fb bc 18 0a df be b8 2b 84 bf 2b f9 10 bf
       -0.030752897 -0.43562388 -1.0325842 -0.566302
0002e0 67 ba 23 bf 58 b7 2f be b3 34 9f be 3a cc ce be
       -0.639563 -0.17159784 -0.31094894 -0.40390188
0002f0 45 55 01 bf b1 d2 26 be 37 1b 4d bf 5b 71 57 be
       -0.50520736 -0.1629131 -0.8011965 -0.21039335
000300 58 9c 0b 3f 8b 42 15 3f 65 67 1a 3f 56 85 d3 3e
       0.54535437 0.5830466 0.6031402 0.41312665
000310 d8 98 50 3f 53 bb cc 3e 41 1a 34 3f 58 89 cb be
       0.8148322 0.39986667 0.7035256 -0.39753222
000320 49 f1 b6 be be 50 55 bf d5 0d 65 3f 9d dd 21 bf
       -0.3573096 -0.8332633 0.8947423 -0.6322878
000330 fb b5 d1 bd 75 78 f3 bf af 14 8c 3f c6 2f f1 bf
       -0.10239788 -1.9021136 1.0943812 -1.8842704
000340 79 0b 31 bd 90 bc 15 3f 4b cb 31 3f 8b 4f 93 3f
       -0.04322383 0.5849085 0.69450825 1.150865
000350 6b b2 cc 3d e3 8d 39 be 3c 81 99 bf 36 6c 07 c0
       0.09994968 -0.18120532 -1.1992564 -2.1159797
000360 14 4c 5f 3e 2b 62 c0 be 43 17 40 c0 f2 51 16 c0
       0.21806365 -0.37574896 -3.0014198 -2.3487515
000370 6c d5 35 bc fb 98 96 3e f1 de 22 c0 36 12 f0 bf
       -0.011098247 0.2941359 -2.5448573 -1.8755558
000380 cc 98 08 be 23 a8 bd 3e ef 97 29 c0 1c c5 eb 3f
       -0.13339537 0.3704234 -2.6498983 1.8419528
000390 42 9c 52 bd e0 85 9b bd 9f 28 2e 40 0b c9 cd bf
       -0.05141855 -0.07593894 2.7212293 -1.6076978
0003a0 57 a1 73 c0 6e a1 76 c0 ab 9c 90 be 58 f1 2a 3f
       -3.8067224 -3.853603 -0.28244528 0.6677451
0003b0 54 05 a2 be 87 7f 91 bf c6 98 b0 3f 00 2c e8 bd
       -0.3164469 -1.1367043 1.3796623 -0.11336517
0003c0 b1 0c ab 3d 7e 34 44 bf 60 55 f7 3f cf b1 c9 be
       0.0835203 -0.76642597 1.9322929 -0.3939347
0003d0 61 e5 33 bf 0c ca 06 3f 47 cf 10 bf 0a 2e 41 3a
       -0.7027188 0.5265205 -0.5656628 0.0007369226
0003e0 50 41 c1 3f 3a 33 a3 3f 82 81 41 3f a1 b6 8a bd
       1.5098057 1.2750008 0.7558824 -0.06773115
0003f0 36 8f ed 3f 34 12 b5 be 15 55 92 3f 24 1d 2b be
       1.855933 -0.3536545 1.1432215 -0.16710335

state_encoder.0.bias f4 [128]
000000 e0 00 d6 bf 98 f6 6b bd b9 40 3f bf 09 d5 6f bf
       -1.6719017 -0.057608217 -0.74708134 -0.9368444
000010 40 da 88 3e 41 ed 2a 3e d7 82 45 3e 9f c1 e9 be
       0.26729012 0.16692068 0.19288193 -0.45655534
000020 dc 57 14 be 41 16 68 be fd 02 1a 40 b1 e9 1f 3e
       -0.1448664 -0.22664739 2.4064324 0.1561649
000030 21 b8 b4 be 0e 50 92 be f0 45 b0 3e 47 bc a7 bf
       -0.3529673 -0.28576702 0.34428358 -1.3104333
000040 7a 24 01 bf 9b 0c 19 3f 0a 99 72 be 5a 7a 6f 3e
       -0.50446284 0.5978486 -0.23691192 0.23386517
000050 9f 46 3c be 30 09 53 3f bd 53 f9 3e 61 af 1d 3e
       -0.18386315 0.82435894 0.486967 0.15398933
000060 5d 56 f6 3e 18 5b 09 3f 65 d0 4f bd 56 7e 86 be
       0.48112765 0.53654623 -0.05073585 -0.26268262
000070 26 c7 eb bd 79 9c 22 3d 56 cf 5a be a7 08 cc 3d
       -0.11512594 0.039700005 -0.21368155 0.09962588
000080 1d eb 92 be 6a f7 23 be 09 c2 6d 3d 6f 04 f3 3d
       -0.28695002 -0.1601235 0.058046374 0.1186608
000090 68 93 f0 bd 17 c5 17 3f 62 bd 17 3f 29 d6 f5 3e
       -0.117468655 0.5928511 0.5927335 0.48014954
0000a0 b7 3c 96 be 42 43 9e bf 23 a9 83 3f 44 84 3d bf
       -0.29343197 -1.2364275 1.0285991 -0.74029946
0000b0 e7 c3 ab bd 1a 80 b7 3e 72 13 29 be 56 0e 02 be
       -0.08386975 0.3583992 -0.16511324 -0.12700781
0000c0 0f 34 a5 be 05 3b 19 3e c8 e3 bd bf f9 96 15 40
       -0.3226628 0.1496392 -1.4835138 2.3373396
0000d0 18 c5 b0 bf 1d 99 ac bf f2 31 ab bf cc a0 1d 3f
       -1.3810148 -1.3484226 -1.3374617 0.6157348
0000e0 5b 39 04 3e 30 90 20 3f b6 3c 56 bf 5a 1b ae 3e
       0.12912504 0.6272001 -0.8368639 0.34005243
0000f0 03 25 1d 3c 15 4b 40 3e 84 00 ce be 0b 66 08 3f
       0.009591344 0.18778642 -0.40234768 0.53280705
000100 e3 78 8d bf fd 76 25 3f 3a 18 59 bf ee b9 99 bf
       -1.1052517 0.64634687 -0.8480259 -1.2009866
000110 61 f4 b5 3e 64 05 22 3e a8 ad 59 be 88 50 7e bf
       0.3553801 0.15822369 -0.21257651 -0.9934163
000120 49 67 53 3b c2 10 c5 3e 7e de 6c be 54 5f 82 bf
       0.0032257608 0.38489348 -0.23131749 -1.0185342
000130 5c 54 a3 bf 6f f2 0c 3e c6 f4 ac bd 11 10 88 bf
       -1.276012 0.13764356 -0.08445124 -1.0629903
000140 ff e3 c9 3e 59 85 6c be 35 ae 87 bf 4f 8e 93 be
       0.3943176 -0.23097743 -1.0600039 -0.2881951
000150 40 11 c8 bc a6 bc 18 3e 8c 83 98 3f 24 3e 89 3e
       -0.024422288 0.14915714 1.1915145 0.26805222
000160 ee e2 88 3e 3e ee 4f 3e 1d ea 9a be 94 08 f9 bd
       0.26735634 0.20305726 -0.3025674 -0.12159839
000170 06 d1 27 bf 04 bc 95 bf 42 ed b1 be 91 10 6c be
       -0.6555332 -1.1698003 -0.34751326 -0.23053195
000180 02 52 3d bf f9 ab bd 3e ab 64 59 bf 23 c0 e1 3e
       -0.7395326 0.37045267 -0.8491923 0.440919
000190 64 8b 6f be e8 d8 98 bd 6b d5 24 bf 64 40 c2 3e
       -0.23393017 -0.074632466 -0.6438815 0.3793975
0001a0 b1 b9 99 bf 1a f7 3b bf 66 51 2f 3f cd 4a 44 3e
       -1.2009794 -0.7342392 0.6848358 0.19169159
0001b0 61 52 94 3e 75 fe 90 bf b7 79 51 3d bd 1c 1e 3f
       0.289691 -1.1327654 0.051141467 0.617626
0001c0 42 83 6c bf 91 26 ff bf 58 0f ad bd 4d 81 a3 be
       -0.92387784 -1.9933645 -0.08450192 -0.31934586
0001d0 67 79 2c 3f dc db 97 3e 85 03 c2 3e c3 f3 38 bf
       0.67372745 0.29659927 0.3789331 -0.7224695
0001e0 c9 3c 5c 3d 24 ec 47 3f ac 78 81 3c d8 c8 9a bf
       0.053768907 0.78094697 0.015804611 -1.2092543
0001f0 e6 20 d6 bf bc bc cd be 13 2b 3c 3f e3 0b cd 3d
       -1.672879 -0.40183055 0.73503226 0.10012033

state_encoder.2.weight f4 [64, 128]
000000 45 29 8d be 60 d0 01 bf 98 ce 0e be df 31 85 be
       -0.2757055 -0.5070858 -0.13945997 -0.2601461
000010 52 21 83 bf 79 38 4a 3c c9 d4 5e be af 6b d8 be
       -1.0244544 0.012342566 -0.21760859 -0.42269656
000020 4a cd a5 bd c9 50 33 3e d2 23 d4 3f ec 70 6b bc
       -0.080957964 0.17511286 1.6573431 -0.014370184
000030 35 b3 f7 be 6b 0b 03 3e a5 fb db be e5 73 00 3e
       -0.48378912 0.12797324 -0.42965427 0.1254421
000040 a4 1b d6 be a9 d7 b5 be 16 3a ab be 9d 03 08 3e
       -0.41817963 -0.35516098 -0.33442754 0.13282628
000050 ce 6c 5d be 48 93 88 bd 3a 10 37 be 73 c9 b3 be
       -0.21623537 -0.06668717 -0.17877284 -0.3511463
000060 1b d9 2c 3e 74 8a c3 bd 67 4a fc 3e 79 09 49 3e
       0.16879694 -0.09547892 0.49275514 0.1963252
000070 63 1c b3 bd 40 02 bf bd e9 21 b8 bd ed e5 e5 3e
       -0.08745649 -0.09326601 -0.08990843 0.44901982
000080 1c 30 7a 3f e1 6d be 3e 2e be ba bb 3d 7b 1e bf
       0.9772966 0.37193206 -0.0056989407 -0.61906797
000090 3a d5 0e 3e 10 a9 8a 3f cf 65 29 3e 78 a5 76 be
       0.13948527 1.0832844 0.16542743 -0.24086559
0000a0 b2 b6 ae 3c 10 3d 2b bf 0d f1 52 bc de 0c 65 bd
       0.02132735 -0.6689005 -0.012874854 -0.055920474
0000b0 0d 68 1f 3d 40 09 44 be 47 04 89 3e 6b 6c 1d bf
       0.03891759 -0.19144154 0.26761076 -0.6149356
0000c0 2c f0 eb 3e 63 a3 ab be c6 ad 83 3e e9 4c bc 3d
       0.46081674 -0.33523092 0.25718516 0.09194357
0000d0 81 7c 1e 3e a0 ae 11 3d 61 fd 90 3e 19 d7 25 be
       0.15477182 0.035566926 0.28318313 -0.16195334
0000e0 90 bd 39 bd be 49 a6 be 5c 3d 6e 3c f8 53 bd 3d
       -0.045346797 -0.32478136 0.014540996 0.092445314
0000f0 80 d8 aa 3e 29 c0 1a 3d d9 37 6a bf ef 9e 74 3f
       0.333683 0.037780914 -0.91491467 0.95555013
000100 2a 60 bc be 40 e5 65 be 61 51 42 be 87 8f ad 3e
       -0.36792117 -0.22450733 -0.18976356 0.33898565
000110 81 50 17 3f f9 85 81 be 99 a5 95 3e a2 41 63 3e
       0.59107214 -0.25297526 0.29227903 0.22193006
000120 0a 6a ce be 5d d2 b2 be ef 70 fc be b1 d3 83 3c
       -0.40315276 -0.3492612 -0.49304911 0.016092153
000130 5e a7 ea 3e 78 27 ff 3e 39 10 25 be 45 c8 6a 3e
       0.45830816 0.498348 -0.1611947 0.2292796
000140 a2 b0 19 3c 42 12 a5 3e 0f 3d 34 be 10 b3 96 be
       0.009380491 0.32240492 -0.17601417 -0.2943349
000150 07 b7 97 3e 1b db 09 3f e5 f3 e3 bd c3 81 86 3e
       0.29631826 0.53849953 -0.111305036 0.26270875
000160 22 5d 0c 3e 72 7c 06 bf 1d f9 d5 3e fd cf 45 bf
       0.13707402 -0.5253364 0.4179162 -0.7727049
000170 81 c5 48 3e ef 9f aa bd 6d 31 28 3d e1 0a 8e be
       0.19606592 -0.08331286 0.04106276 -0.27742675
000180 24 f2 9c 3d 58 f0 49 be 1d 11 e9 3e 5b fb 47 3e
       0.07663372 -0.1972059 0.4552087 0.19529478
000190 5b 7d d3 3e 43 cf d6 3e f0 bf 31 be 12 bb 2a be
       0.41306576 0.41955003 -0.17358375 -0.16672924
0001a0 b9 19 8a 3d 0b a9 7d 3e 94 c5 13 bf 3a b3 28 bf
       0.067431875 0.24771516 -0.57723355 -0.6589848
0001b0 14 29 9a 3e 48 c3 b1 be f2 b9 b6 3d 4e da 7e 3e
       0.30109465 -0.347193 0.08922185 0.24887964
0001c0 1a 69 80 be 1a f9 ed be 5d 95 63 3e 1c 72 a3 be
       -0.25080186 -0.46479112 0.22224946 -0.31922996
0001d0 73 3d cd bd e1 41 62 3e a2 74 69 be 2d 02 98 3e
       -0.10021486 0.22095443 -0.22798398 0.2968916
0001e0 de 06 3f 3d 76 40 c5 3e 81 5b 12 3e 77 b5 5a bc
       0.04663741 0.38525742 0.14292718 -0.013348929
0001f0 3a 2e 4b 3e 55 f6 87 bd 93 00 d0 3e 6e a8 4a 3e
       0.19841853 -0.06638781 0.40625438 0.19790813
000200 c3 0f ab 3d 6b 99 09 bf 6b 25 76 3d bf f7 12 3e
       0.08352616 -0.5374972 0.06009428 0.1435232
000210 30 2b 80 bf 3f 78 85 bd 20 60 be 3e 32 24 30 be
       -1.001318 -0.06517076 0.37182713 -0.17201307
000220 3c 95 4b 3f d7 7d bf be 57 13 a4 3f 03 3c a1 be
       0.7952459 -0.37400696 1.2818402 -0.31491098
000230 2f 61 41 3f b0 ea 19 3f 6f 3c 1f 3e 0d f0 33 3c
       0.75538915 0.6012373 0.15550397 0.010982526
000240 a9 88 f7 bc aa 79 97 3e 8d 9c 92 3d b8 d3 1c 3e
       -0.030216532 0.2958501 0.07158766 0.1531514
000250 45 2b ae bf c5 ac 99 bf 0b 3f 6c be e8 27 0a 3d
       -1.3606955 -1.200585 -0.23070924 0.033729464
000260 a2 b5 15 3d 6e 73 6a be a3 8e 7a 3f 5d 92 4d 3e
       0.03655017 -0.22895595 0.97873896 0.20075364
000270 24 f4 da be 59 66 66 be b3 10 3b bf 81 e2 56 be
       -0.4276439 -0.2249998 -0.73072356 -0.20984842
000280 70 0d 69 be 09 ec 8c be 58 e0 41 3f 92 39 49 be
       -0.22759032 -0.2752383 0.75732946 -0.19650868
000290 2c 81 37 bb 8e f0 4f bf b2 2d 46 be 0f 23 cf 3e
       -0.0028000576 -0.8122643 -0.19353369 0.40456435
0002a0 fd 0d 0a 3e 8b 4c a7 3d e6 f5 c5 3e 2a 5d 42 be
       0.13481899 0.08168896 0.38664168 -0.18980852
0002b0 a0 bd 95 bf 7d 5b d1 3c 70 f8 89 bf cd 5f e1 3e
       -1.1698494 0.02555632 -1.0778942 0.44018403
0002c0 f3 fe f2 3e d6 2a 8d bd fc 07 25 bd 41 da 68 bd
       0.47460136 -0.06892936 -0.040290818 -0.05684877
0002d0 45 38 c8 3d 15 3e de be 51 bb de be 01 10 2d be
       0.097763576 -0.4340674 -0.43502286 -0.16900636
0002e0 dd 05 ba 3e 3a 4e f6 be f1 e0 dc 3e 25 c5 67 3d
       0.36332598 -0.48106557 0.43140367 0.056584496
0002f0 6e 01 6f bc 57 48 4e 3d e9 bc 98 bf f1 5d 3e 3e
       -0.014587743 0.050361957 -1.1932651 0.18590523
000300 e3 c0 9b 3d a9 7d 56 3e 7b 3d 8c bb 08 ea 2c 3f
       0.076051496 0.20946373 -0.00427979 0.67544603
000310 d8 c6 80 3c 7c 71 06 3e 2b eb c3 3d e9 48 0b be
       0.015719816 0.13129228 0.09566339 -0.13602032
000320 ff 8f da 3e 4a 1a da bf 5b 97 22 be 7c 62 c7 be
       0.42687985 -1.7039273 -0.1587805 -0.38942325
000330 63 59 fe be a5 99 88 bf 4e 3a 19 b9 ef 8a 80 3e
       -0.49677572 -1.0671889 -0.00014612937 0.25105998
000340 cb bd db be e2 ba 6f 3e 42 0d 94 be 06 f7 58 3d
       -0.42918238 0.23411134 -0.28916365 0.052969955
000350 a9 42 48 be 5a 1f 37 bd 73 7e e3 bd f9 93 06 c0
       -0.19556679 -0.044707634 -0.11108103 -2.1027815
000360 65 3c 34 bf 9e bd 27 bf 91 72 57 be 7f 05 a1 be
       -0.70404655 -0.6552371 -0.21039797 -0.31449506
000370 61 9a cf bd a4 7a 9a 3e 34 91 36 bf ec 39 d1 3e
       -0.10136867 0.30171692 -0.7131531 0.40864503
000380 bf d4 f4 3d ed 96 ea 3e 5d 6b 86 be 0b 0f 25 bf
       0.119546406 0.45818272 -0.26253787 -0.6447608
000390 c4 d8 7a 3e 3c b9 da 3c 03 9a 6e bd d7 7d d3 3e
       0.24496752 0.026699655 -0.058252346 0.41306946
0003a0 ca ca d6 3d 95 4e 62 3e 5f 06 73 3c db 92 42 be
       0.10487898 0.22100289 0.014833062 -0.19001333
0003b0 ec 4e 13 bb c5 0d 1f 3d dd 7c 27 bf ad 71 f5 3d
       -0.002247746 0.03883149 -0.654249 0.119845726
0003c0 2f 33 68 bf 18 cc e2 bd 36 6c e9 3d d1 b2 af bf
       -0.907031 -0.11074084 0.11397593 -1.3726445
0003d0 73 07 3a bf 3a d2 58 bf 5d a3 3a 3f aa 53 c4 3e
       -0.72667617 -0.8469578 0.7290552 0.3834508
0003e0 c9 8e e8 3c 70 96 84 bf 58 39 07 be 72 4d 3c 3e
       0.028388398 -1.035841 -0.13205469 0.18388918
0003f0 e0 36 d4 3d 70 7c 7c 3f 37 72 81 be cd 76 8e be
       0.10362029 0.98627377 -0.25282452 -0.27825013

state_encoder.2.bias f4 [64]
000000 c9 74 0c bf 2b 66 04 bf 4f 88 b0 3e 73 ac 4f 3e
       -0.548657 -0.51718396 0.34478995 0.20280628
000010 0d dd c9 3e 07 cf 77 3d 55 0b a2 3e 2f eb ff be
       0.3942646 0.06050017 0.3164927 -0.49984118
000020 c2 0d 49 3e 81 b6 93 3d 07 56 22 3f 30 20 e8 3e
       0.19634154 0.07212544 0.6341252 0.45337057
000030 94 da 07 3f ce 3e f0 be 11 74 18 3f 3d bd 3d 3f
       0.530679 -0.46922916 0.59552103 0.7411688
000040 8a d5 23 bf c4 9a 8d bf 58 44 6a 3f 90 7e 68 3e
       -0.6399771 -1.1062856 0.91510534 0.2270453
000050 92 e4 4e bf 84 58 cd 3e c1 18 6a 3e 3f 4a b8 3b
       -0.8081752 0.40106595 0.22861005 0.005624085
000060 4f 8a 91 bd bb a5 d9 3e 0d d7 6a bb a1 83 68 bf
       -0.071064584 0.42509255 -0.0035833747 -0.9082585
000070 23 5c da be f2 df 4a 3f 0a 79 54 3f 5a f3 8e be
       -0.4264842 0.79247963 0.8299719 -0.27920038
000080 7f 11 49 be 05 30 04 3f 72 d5 fe be c5 8e 89 bf
       -0.1963558 0.5163577 -0.4977222 -1.0746695
000090 79 5e f0 be 62 3a ff 3f 8c 6c 83 3e e0 50 9b be
       -0.46947077 1.9939692 0.25668752 -0.3033514
0000a0 5b c6 31 bf a9 b4 94 3e 56 60 9a bd 60 da 72 be
       -0.6944329 0.29044083 -0.07537906 -0.23716116
0000b0 55 13 37 3f 62 b4 a2 3e 46 53 f2 be 37 36 d1 be
       0.71513873 0.31778246 -0.47329158 -0.40861675
0000c0 bf e1 06 3f 08 5e d0 3e 50 66 11 3f 26 96 01 bf
       0.5268821 0.4069674 0.5679674 -0.50619733
0000d0 93 03 11 bf 30 9b c7 3d 5e 0e 46 3f af fb ea 3e
       -0.5664608 0.097463965 0.7736567 0.45895144
0000e0 4e d4 02 40 ed 8d e8 3e 6e e1 9e 3e 46 f6 a2 be
       2.044208 0.4542078 0.31031364 -0.31828517
0000f0 5c 62 06 be 0b a0 00 bd a4 b5 5c bf 53 27 e2 3e
       -0.13123459 -0.03140263 -0.8621466 0.44170627

action_encoder.0.weight f4 [64, 3]
000000 47 98 e5 bc d1 cf af be ac 29 41 be d6 d0 51 3f
       -0.028026713 -0.3433824 -0.18863553 0.81959283
000010 71 75 11 3f d5 11 cf bd 56 21 b4 be 97 8c 76 bf
       0.56819826 -0.10110823 -0.35181683 -0.96308273
000020 a9 14 3f 3f b4 2b 86 3e d4 3a 8d bf 46 4f 8c 3e
       0.746409 0.26205218 -1.1033578 0.2740423
000030 7b b3 2d be 3c a3 94 be 27 9c 96 be 3d 8a 71 3f
       -0.16962998 -0.29030788 -0.2941601 0.9435156
000040 d9 19 55 be c3 8d 1c bf 7e 47 93 3e 03 92 1f bf
       -0.20810641 -0.6115381 0.28765482 -0.6233217
000050 99 cc 25 3d 24 cb 02 3f 2d 1d 35 be 56 f5 67 bf
       0.040478323 0.5109122 -0.17686911 -0.9060873
000060 10 11 a9 bc ed 37 b9 be 29 91 03 bf 6d f0 9d be
       -0.020638019 -0.3617548 -0.5139337 -0.30847493
000070 fe 85 74 3f cb 07 99 bf 7b 4b f2 bd e1 fc 04 3f
       0.95516956 -1.1955503 -0.11830803 0.5194836
000080 2b a9 0a bf 05 e0 d7 be c6 c7 01 bf 4c 58 a3 be
       -0.5416438 -0.421631 -0.50695455 -0.31903303
000090 c4 33 2f bf 43 69 2b 3f ea 84 85 be 8e 47 1f 3f
       -0.68438363 0.6695749 -0.26077968 0.6221856
0000a0 f5 09 2b 3f 0f 30 f0 be 8e f8 6d be 50 fe 88 3d
       0.6681207 -0.46911666 -0.23239347 0.06689131
0000b0 9f b9 85 bd de 24 99 3e e9 64 17 bd 35 1a bb 3d
       -0.06529545 0.2991094 -0.03696147 0.09135858
0000c0 09 9b 0a 3f 4e 0e 1d 3f c9 eb 10 be a6 9f 13 3f
       0.54142815 0.6134995 -0.14152445 0.5766548
0000d0 bf 70 25 bf ba 4e 90 bd a9 ab 0c bf 3c e2 b3 be
       -0.6462516 -0.07046266 -0.5494943 -0.3513354
0000e0 17 04 c4 3e b0 40 48 3f c5 39 06 bf e8 f2 ab bf
       0.3828437 0.78223705 -0.524319 -1.3433504
0000f0 a8 f6 03 3e 0c 87 ff bd b5 2e f5 bd fe 6d 9d bd
       0.1288706 -0.1247693 -0.11971799 -0.07686995
000100 56 70 37 3f b5 95 30 bf 3c ef 3a be 22 d0 28 bf
       0.71655786 -0.68978435 -0.18255323 -0.65942585
000110 a5 02 30 3f 0f a5 be 3e 22 ca a0 be 76 27 cf bd
       0.68754035 0.37235305 -0.31404215 -0.101149485
000120 14 63 de 3e 01 46 ce be 85 07 6e bf ae 3c 2b 3f
       0.43434966 -0.40287784 -0.92980224 0.66889465
000130 d8 f6 1b 3f c5 5d 7f 3e ae 9c 5f bd a5 70 ba bd
       0.6092353 0.24938114 -0.05459278 -0.091035165
000140 de 57 54 3f a5 c7 ba be 48 d2 99 3d e8 ef cb be
       0.82946575 -0.36480442 0.07510811 -0.3983147
000150 bd c9 95 bd 99 f0 21 3f f6 cc c0 be 96 7b f8 3c
       -0.07313869 0.6325775 -0.37656373 0.030332368
000160 fb 44 f5 be 2c da d4 3d 34 62 a5 be f8 78 04 bf
       -0.4790419 0.103931755 -0.32301486 -0.51747084
000170 86 59 ca 3d fd 91 46 3f ff 97 a5 3e f7 14 07 3e
       0.098803565 0.7756651 0.32342526 0.13191591
000180 9d e3 73 3d 0f 95 87 bf 05 80 20 3c b7 1c 1e bf
       0.05954324 -1.0592364 0.009796147 -0.61762565
000190 93 5d 2c 3f 83 02 43 3f c9 f6 05 bf 35 ee f5 be
       0.6733028 0.7617571 -0.5232969 -0.480333
0001a0 ff 30 ce be b9 58 fe be 42 2e e1 3d e4 cd a7 bc
       -0.40271756 -0.49677065 0.10995151 -0.020483918
0001b0 96 64 1a 3e 7e 5e 3e c0 78 33 25 3f 63 49 6a 3f
       0.15077433 -2.9745173 0.6453166 0.9151823
0001c0 74 52 02 c0 c0 47 bc 3c 2b 58 ee be 4d 4c 11 3f
       -2.0362825 0.022983432 -0.46551642 0.5675705
0001d0 4f 51 1c bf 59 74 f5 3d 80 22 27 bf 10 a7 01 3e
       -0.6106157 0.11985082 -0.6528702 0.12661386
0001e0 77 0b 53 bd b7 a9 3c c0 68 22 4f 3e 70 8e 80 be
       -0.051524606 -2.9478586 0.20227969 -0.2510867
0001f0 37 cd c0 bf bb 19 7f 3d ad 0e a2 3e 68 29 ab bd
       -1.5062627 0.062280398 0.31651822 -0.08357507
000200 49 7f f0 be 11 0b 82 3c 22 89 4f bf 90 80 3f 3f
       -0.4697211 0.015874417 -0.81068623 0.74805546
000210 ae df 3e be ef 2c 34 bf bb 26 ad 3d e1 56 4e 3f
       -0.18640015 -0.70381063 0.08454653 0.80601317
000220 aa 59 e4 be 11 b6 3b 3f 30 a1 76 bf 2e 90 63 be
       -0.44599658 0.73324686 -0.963397 -0.22222969
000230 2a 39 19 3f d0 38 b8 bd 47 83 41 bf 79 04 8a 39
       0.5985285 -0.08995211 -0.7559094 0.00026324744
000240 8f 93 8b 3e a4 4d f7 be 1d c6 56 be 6c cb 56 3f
       0.27261016 -0.48301423 -0.20974012 0.8390415
000250 e1 79 69 be 6b 2a 94 3e fa c2 92 be 47 ca 87 bc
       -0.228004 0.28938612 -0.2866438 -0.016575946
000260 ea 89 39 be 4c c3 cb be bc d7 1f be 2f f1 13 be
       -0.18119016 -0.39797437 -0.1560964 -0.14447473
000270 27 bd bc be db 92 66 3f e7 5f 25 3f fe d3 6a be
       -0.36863062 0.90067834 0.6459946 -0.22932431
000280 ec 93 5d 3f c3 82 fd 3e 33 6f dd 3e 68 f2 87 bf
       0.86553836 0.49513826 0.432489 -1.0620852
000290 5d 15 53 3e 24 27 08 bf c9 c3 26 3e f3 fd aa be
       0.20613618 -0.53184724 0.16285624 -0.33396873
0002a0 0c b2 97 bd dd 2c 9a 3f 2b ad 62 3d 7c 60 3d 3f
       -0.074070066 1.2044941 0.055340927 0.7397535
0002b0 31 3d da 3d 8d 04 c7 be 95 a8 66 be a9 93 b5 3d
       0.106562026 -0.3887066 -0.22525246 0.088660546
0002c0 e0 c0 52 3e 56 73 0c 3e 4c f6 66 be 13 af 40 3d
       0.20581388 0.13715872 -0.22554892 0.047041964
0002d0 fa db dd be 32 c1 2f 3c 33 04 5b be ee bf 2d be
       -0.4333189 0.010727214 -0.2138832 -0.16967747
0002e0 39 da d0 3e b9 b4 67 3f ab 18 99 3e c1 39 ba bf
       0.4079149 0.90510136 0.29901633 -1.4548875
0002f0 ee 98 98 be fd 76 90 3c 2f 7d b4 3f 83 90 3f 3e
       -0.29804176 0.017634863 1.4100703 0.1870747

action_encoder.0.bias f4 [64]
000000 bd a9 87 be bd 32 18 bf 52 2b c5 bb 31 b8 97 3e
       -0.26496688 -0.5945242 -0.006017127 0.29632714
000010 ca b0 0e be 0e c1 20 be f7 ce 6e 3f 6d f5 02 3f
       -0.13934627 -0.15698645 0.93284553 0.5115574
000020 50 4c 10 bf a5 9f 2c 3f 4f f8 10 bf c9 42 90 be
       -0.56366444 0.674311 -0.5662889 -0.28175953
000030 e5 bf ab 3e 78 bd a5 3e 2e d8 61 be 29 8e 2a 3f
       0.3354484 0.32371116 -0.22055122 0.6662317
000040 fd 06 4d 3f f1 7c 8a 3f f1 78 f9 be 15 c9 b3 be
       0.8008879 1.0819379 -0.48725083 -0.3511435
000050 d9 0f 55 be e4 e4 03 3f e7 1c 71 3f a8 8d 00 bf
       -0.20806827 0.51521134 0.94184726 -0.5021615
000060 b4 13 0d 3f de c0 3a bf f8 63 f4 be dc ee 4a be
       0.5510819 -0.7295054 -0.4773252 -0.1981768
000070 58 c3 5e 3e d2 5a 44 be 1b 5e ec be 7c 36 3a bf
       0.21754205 -0.1917527 -0.46165547 -0.72739387
000080 cf fc 5e 3f 82 9e f6 3d b3 0e ac be 9d 2d 08 bf
       0.87104505 0.12041952 -0.33604965 -0.531946
000090 d2 de 99 be 5b 74 6d bd 94 a9 0b 3f 7a 37 3b 3f
       -0.3005281 -0.057972293 0.5455563 0.73131526
0000a0 9a dc 03 3f 61 b0 50 3f be ca 3f 3f 16 94 53 be
       0.51508486 0.8151913 0.74918735 -0.20661959
0000b0 e0 60 7d 3f ec a6 59 bf a0 9b a1 3e 31 ee 2e 3f
       0.98975945 -0.8502033 0.31564045 0.683322
0000c0 38 fb e0 be 7f df 33 bf 8b 8f 3a 3f bc f9 da be
       -0.43941665 -0.702629 0.7287528 -0.42768657
0000d0 46 8e 3d 3f e2 40 02 3e c1 05 21 3f 3f ff 8d be
       0.7404522 0.12720063 0.62899405 -0.277338
0000e0 6c 4b 54 bf 85 ac ec be 44 33 4c 3f cd 02 b8 be
       -0.82927585 -0.46225372 0.79765725 -0.35939637
0000f0 d9 be 2c be 11 53 a1 be 64 28 4b 3f 48 fd 22 bf
       -0.16869678 -0.31508687 0.79358506 -0.63667727

action_encoder.2.weight f4 [64, 64]
000000 2c 08 88 bd 64 16 99 bd 57 45 0e be b3 af 4d bc
       -0.06642184 -0.07474974 -0.13893639 -0.012554097
000010 a0 f4 69 3d ce 3f b1 bc f4 81 08 bd ce 06 30 bd
       0.05711806 -0.02163687 -0.033327058 -0.04297524
000020 e8 c4 d7 bd 58 9f c4 3c 4a 35 e6 3d 8c 31 a1 bd
       -0.10535604 0.024001762 0.11240633 -0.078707784
000030 1f cd a1 3d 6c d7 08 be c0 5d 65 bb 3a d3 d8 bc
       0.07900452 -0.13363427 -0.0034998506 -0.026467908
000040 33 83 4b bd d1 4a bf bd 80 e0 f3 3b f0 42 b9 3c
       -0.04968567 -0.09340442 0.007442534 0.022614926
000050 6c 34 39 bd 7e c8 aa bd 06 64 ef bd e0 f1 ca 3c
       -0.04521601 -0.08339022 -0.11689 0.024773538
000060 b4 fb 30 3d 8e 9a da bd 99 d1 b4 bc f4 68 d9 bd
       0.043208793 -0.1067401 -0.0220726 -0.10615721
000070 92 ed 3e bd 80 1d 5b 3c 72 e4 d5 bd 07 50 76 3d
       -0.046613283 0.013373733 -0.10443963 0.060134914
000080 99 ec da 3c 92 f6 05 be 00 9b 94 bc 40 a6 0a 3b
       0.026724147 -0.1308234 -0.018140316 0.0021156222
000090 1a ee c4 bd 9d 86 7e bc 1a 2e a9 bd ba ef 8b 3d
       -0.09615727 -0.015535024 -0.08260746 0.068328336
0000a0 74 68 98 3d 1f 8c 5b 3d 3b c4 53 3d 68 42 4c bc
       0.07441798 0.053600427 0.05170081 -0.012467004
0000b0 9f 21 f6 bd 6a 76 d1 3c 67 d7 f3 bc f5 30 7e 3c
       -0.120181315 0.02556916 -0.029765798 0.015514602
0000c0 60 24 0a bc b7 97 39 bd 90 86 86 bd 68 dc c6 bd
       -0.008431524 -0.045310702 -0.065686345 -0.09710008
0000d0 e3 93 88 3d 18 ca a1 bd b5 26 32 bd 18 6c 0f 3d
       0.06668832 -0.078998744 -0.043493945 0.035015196
0000e0 ac 79 3b bd b4 40 96 3c 24 67 b6 bd 32 30 cf 3d
       -0.045770332 0.0183414 -0.08906391 0.101166144
0000f0 84 85 6c bd 23 33 9c bc 85 f8 a3 3d 30 2a 1d 3c
       -0.057744518 -0.019067353 0.08006386 0.009592578
000100 d6 cd 87 bd a8 6c 78 bf a5 84 db bf 7c 9a c1 be
       -0.06631057 -0.97040796 -1.7149855 -0.37813175
000110 c4 99 74 bd 3d 05 82 3d 11 f1 0c 3e 54 3d 30 3f
       -0.059716955 0.063486554 0.13763835 0.6884358
000120 8c 6f 6c bd ba d0 0e 40 04 d0 cf bd 2c 3c ce 3d
       -0.057723567 2.2314897 -0.10147098 0.100700706
000130 62 73 92 3f 96 e4 c8 3e a0 93 94 bd a7 4b 89 3a
       1.1441462 0.39236897 -0.0725472 0.0010474817
000140 4b 72 94 3e 9f a3 3b 3e b0 b9 17 3d e1 7a d8 bf
       0.2899345 0.18324135 0.03704232 -1.69125
000150 c0 cf b8 bd 08 4b 96 3f 01 d3 e1 bd b2 73 b7 3d
       -0.09024 1.1741648 -0.11026574 0.08957614
000160 46 79 e2 3e 6d 19 01 c0 83 3e 0a c0 1c 95 84 3d
       0.4423315 -2.0171769 -2.1600654 0.06473753
000170 4f ef 1f 3f cc 77 5b bd 50 27 2f bc f1 3b de bf
       0.6247453 -0.053581044 -0.010690525 -1.7362043
000180 32 96 91 3e d2 8f 02 be dc e7 06 3d 20 7b 96 3c
       0.28434902 -0.12750176 0.032935962 0.018369257
000190 f9 bc 8b bf ca 9a a4 3e 98 93 c5 3f 8a 7b 8d 3e
       -1.0917045 0.32149345 1.5435667 0.27633315
0001a0 19 71 b2 be 1d 0e 20 3e 03 a0 30 3f 17 54 be bf
       -0.34851912 0.15630384 0.6899416 -1.4869412
0001b0 bd eb 14 3f e0 d0 ba bf b5 82 46 3f bd 69 b0 3e
       0.5817221 -1.4594994 0.77543193 0.34455672
0001c0 a4 87 90 bd 24 59 96 bf 35 7c 95 3f 48 9c ca bd
       -0.070571214 -1.1745954 1.167853 -0.098930895
0001d0 3d 25 7a 3e 83 7c 5d 3d 6e c4 c1 bd e4 d2 af 3d
       0.24428268 0.05407382 -0.09461294 0.08585146
0001e0 20 2e 81 3e c6 81 5f bf 47 bc 20 3f 00 79 9a 3c
       0.25230503 -0.87307394 0.6278729 0.018856525
0001f0 5c ff e9 bd 06 3e 1c c0 37 eb d3 3e d2 72 f8 bd
       -0.11425659 -2.4412856 0.41390392 -0.12131275
000200 a8 db bc bc 39 77 95 3e e0 17 a0 3f 76 76 68 3e
       -0.023053959 0.29192522 1.2507286 0.2270144
000210 c0 37 47 bb 0a 5e 7b bf 1a 7a da bd e3 cc 07 c0
       -0.003039822 -0.9819037 -0.1066782 -2.1218803
000220 10 1f 4a bc f4 7b e9 bf a0 29 b8 3b d2 18 b8 bd
       -0.012336507 -1.8240952 0.0056201965 -0.08989109
000230 b5 55 f0 bd 7b a5 b0 be ac 86 4a 3d 95 dd ed bd
       -0.11735097 -0.34501252 0.04944484 -0.11614529
000240 25 f8 93 bd 0d 37 3a be 8c c7 7d bd 56 7f e5 bf
       -0.07225064 -0.18185063 -0.06195788 -1.7929485
000250 80 08 ce 3d 7c d9 fd be fa 09 a2 3e c0 d6 55 3d
       0.10060215 -0.4957999 0.31648237 0.052206755
000260 73 ad b8 bf 6d b3 00 3f 28 97 4a 3f 18 58 67 3d
       -1.4427933 0.5027378 0.79136896 0.056480497
000270 16 c9 59 be 74 46 9b 3d 60 6f 9d 3b d5 ce 8e 3e
       -0.21268114 0.07581797 0.0048045367 0.27892175
000280 26 0e 93 bb 67 21 0e 3f c0 19 ee 3b c0 ec 06 bc
       -0.0044877706 0.5551972 0.0072662532 -0.008235157
000290 71 b6 df 3f 57 48 3c bf b2 da 38 bf fd 1c 53 be
       1.7477552 -0.7354788 -0.722087 -0.20616527
0002a0 70 ca 48 3f c9 23 34 3f d0 9c 28 bf d8 19 02 3f
       0.78433895 0.70367104 -0.65864277 0.50820684
0002b0 b8 59 27 be 60 0a d4 3d 15 74 4a 3e 24 6d 42 3c
       -0.16342819 0.103535414 0.19770844 0.011866841
0002c0 92 5e c1 bd a4 2e 59 3f e8 5a ad be 00 a2 7f 3d
       -0.09441866 0.8483679 -0.33858418 0.062410355
0002d0 a6 e3 f1 3e c7 17 fe 3e a8 31 a7 3d 06 ad 8f bd
       0.47243994 0.49627516 0.08163768 -0.070154235
0002e0 e1 0e 4f 3f 4f 72 c8 bc fc f4 8c 3d 68 8a eb bc
       0.8088208 -0.02446857 0.068826646 -0.02875252
0002f0 5a 8f c5 bd 7a 18 49 3f db 42 f2 3e a3 2a a7 3e
       -0.09646483 0.78552973 0.47316632 0.32649717
000300 a0 31 86 bb da 3f d2 bf 61 c0 72 3e 35 1f c6 3d
       -0.004095271 -1.6425736 0.23706199 0.09673921
000310 e0 fa b9 bc f5 d5 8d 3d 8e 89 00 3f 14 68 2b 3f
       -0.022702634 0.06925575 0.5020989 0.66955686
000320 20 ba 43 3d 28 b3 70 3f 70 3b 2f bc 00 24 e3 39
       0.047784925 0.9402337 -0.010695323 0.00043323636
000330 9a f1 e7 be 49 5b 86 be 3c 8c ea 3d e7 99 29 bd
       -0.45301515 -0.2624152 0.11452529 -0.04140654
000340 c2 d0 9b bc 16 54 ee 3e 60 c5 e0 3d 9c c9 c9 bf
       -0.019020442 0.46548527 0.10975146 -1.5764651
000350 08 08 ee 3c 37 08 90 bd df b8 51 bd 7c 84 58 3d
       0.029056564 -0.07032817 -0.051201697 0.052860722
000360 ed 03 3c 3f 3a 9c 09 c0 62 23 8e be 84 43 a4 3d
       0.7344349 -2.1501603 -0.2776137 0.0802069
000370 7b ed d9 be 52 10 fa bd 5c 1f 56 bd 16 82 e0 bf
       -0.42563996 -0.12210144 -0.052276 -1.7539699
000380 5b 75 dd 3e 34 09 8d bf 60 d4 15 bc 5c af e4 3d
       0.43253598 -1.1018434 -0.009144872 0.1116626
000390 fc cd 25 3f 8a bc a2 3f c3 91 17 3f aa 92 e7 3e
       0.6476743 1.2713788 0.5920679 0.45229083
0003a0 cc 8d 29 3f 22 14 b8 3e b8 f4 fc 3e 4a ab dc 3e
       0.6623199 0.3595286 0.49405456 0.43099433
0003b0 1e 50 f6 3e 9a c0 e8 3e bb 21 8f bf 91 09 35 3f
       0.48108 0.45459443 -1.1182169 0.7071772
0003c0 b0 96 74 3c 10 5a 27 bf 6c 42 23 3f 50 da b2 3c
       0.014928505 -0.653718 0.63773227 0.021832615
0003d0 a3 0e 82 be 31 6c 49 bf 95 82 9d 3e da 93 ac 3d
       -0.25401792 -0.7868071 0.3076369 0.08426638
0003e0 70 4c 8c be 56 46 73 bf 71 96 87 3e 36 d7 e0 3d
       -0.27402067 -0.950292 0.26481965 0.10978548
0003f0 30 e9 8b bd e3 44 e4 bf 39 ea 45 3e d0 cd 54 bf
       -0.06831586 -1.7833523 0.1932763 -0.83126545

action_encoder.2.bias f4 [64]
000000 a0 7f e4 bd 83 3b 06 3f cd df 33 3e 14 c5 4c 3e
       -0.11157155 0.5243456 0.17565842 0.19997054
000010 55 fb 4f 3f 65 88 93 3e 65 57 0b bc 9f de de 3d
       0.8124288 0.28814998 -0.008504723 0.10882305
000020 46 9b cb 3e d4 87 3a 3f 38 fe 07 3f f8 12 f1 bd
       0.39766902 0.7286351 0.5312228 -0.11771196
000030 34 ab 95 bd 8f 5a 26 3f 3b c7 da 3e 09 17 20 3e
       -0.07308045 0.6498193 0.42730126 0.15633787
000040 1a 47 d6 3e 3a af 01 3f 01 0c d8 3e 23 cc 4a 3f
       0.4185112 0.50658 0.42196658 0.7921774
000050 e8 57 1a be 49 32 5e 3f 40 5a 15 3f c1 ba d4 3e
       -0.15072596 0.8679548 0.58340836 0.41548732
000060 e9 50 50 3e 27 9d 80 3e ce f6 b5 3e 05 77 10 bd
       0.20343365 0.25119898 0.3553986 -0.035269756
000070 b4 ae 20 3f b3 09 2d 3f 71 68 a4 3e f3 ee a9 3e
       0.62766576 0.67592925 0.32110932 0.33190116
000080 97 52 9c 3b 61 97 fa bd f2 5a fa bd 03 6a 00 3f
       0.0047705877 -0.122359045 -0.12224378 0.5016176
000090 9a f9 da 3e 6c 8c 90 bd e4 2f 5f bc 17 0f cd 3e
       0.42768556 -0.07058033 -0.013622258 0.40050575
0000a0 74 e8 82 3f c0 4a b5 bd 1c 48 b0 3e 31 4c ab 3e
       1.0227189 -0.08852148 0.34430015 0.33456567
0000b0 11 73 05 3f 1b 38 2a 3d cb 0b 31 3e 52 7a 9a 3c
       0.521287 0.041557413 0.17289655 0.018857155
0000c0 bb 7f 25 bd 15 37 41 3e c0 16 25 bd 6f 53 18 be
       -0.040405016 0.18868668 -0.0403049 -0.14875577
0000d0 74 2b 4b bd 8f e9 0c 3f 84 3e de bd f3 f1 01 3f
       -0.049601987 0.5504388 -0.10851768 0.5075981
0000e0 f5 8e c0 bd 2c c1 f0 bd 30 5b 03 3c 65 0e ca bd
       -0.09402267 -0.117555946 0.008017346 -0.09866027
0000f0 cf af 1c be 64 d2 22 3f 9d d0 87 bd fa 64 fd bd
       -0.1530144 0.6360228 -0.06631587 -0.123727754

q_layers.0.weight f4 [128, 128]
000000 cb 63 31 bf 2d 06 a7 be 16 43 1a 3f 88 2d af be
       -0.69292897 -0.326219 0.60258615 -0.34214425
000010 4d 2d 56 bf e2 e5 ea bc 63 3e 3f bf a5 11 e2 bd
       -0.83662874 -0.02867407 -0.7470457 -0.11038522
000020 53 44 2a bf db 9d 9f 3e db 0a 6e 3e 6a 1f b8 3e
       -0.66510504 0.31175122 0.23246329 0.35961467
000030 6c 8f 9b be 84 87 05 bf 76 7e c6 3d af d1 95 3e
       -0.3038286 -0.52159905 0.09692089 0.29261538
000040 2e 3b a8 3e 1e ab 3b be 92 81 b4 3e 2b 2f 2b 3f
       0.3285765 -0.18326995 0.35255104 0.6686885
000050 67 ce 5f be 5b 19 5c 3f 4c e3 ec be 5c 9a 9b bf
       -0.2185608 0.8597619 -0.46267164 -1.2156482
000060 da 90 5d bc e3 7a f0 3c 47 49 da 3d 4f 3d b8 bc
       -0.013523305 0.029355472 0.10658508 -0.022490172
000070 b0 86 b8 be 31 7c f8 bd 40 1c c5 3e 3f 39 23 bc
       -0.36040258 -0.12133063 0.38498116 -0.009962379
000080 70 e3 11 be 39 bc 5b bf 3c fa 46 bd d4 09 03 bf
       -0.14246917 -0.8583408 -0.048578486 -0.5118687
000090 1e ab 08 be 77 c4 a9 be e6 14 79 bf 7c ce 7f be
       -0.13346526 -0.33157703 -0.97297513 -0.24981111
0000a0 4e d8 95 3e af bd b0 be 48 8e 64 3e 51 6d cb be
       0.2926659 -0.34519717 0.22319901 -0.3973184
0000b0 3d 31 1d be 7e 71 9c bf 36 93 c7 bf 07 ab 88 be
       -0.15350814 -1.2222135 -1.55918 -0.26692984
0000c0 db 12 06 3e b4 a7 66 3f ba 7b 32 3e 38 37 61 bf
       0.1309313 0.90099645 0.1743001 -0.8797488
0000d0 3c a8 32 3e 47 75 76 3f 11 38 47 be 2b b4 cf be
       0.17446989 0.962727 -0.19454981 -0.40567145
0000e0 8a fc f9 bd 67 3d 32 3f a8 d0 b8 3e 95 d9 a0 bd
       -0.12206371 0.6962494 0.36096692 -0.078540005
0000f0 6a 59 e6 bd 92 1c 27 3f b6 5e 01 bf ff ef c6 3e
       -0.11247523 0.6527797 -0.5053514 0.38854977
000100 d1 b1 5d 3d 7b 2a aa 3d 2d 19 bf 3d e1 83 1b 3f
       0.054124657 0.08308884 0.09330974 0.60748106
000110 54 7f ff 3e 98 07 5c bf 32 6c 6c bd 7c f8 75 bd
       0.4990183 -0.8594909 -0.05772037 -0.060051426
000120 2d b3 ea 3e 6d 21 aa 3e a1 e8 19 3e b4 49 74 3d
       0.45839825 0.33228627 0.15030147 0.0596406
000130 fb 89 0e 3c 4f 9e 07 bf f4 ed 0d 3f fc f6 69 3e
       0.008699889 -0.52975935 0.5544121 0.22848123
000140 ea 64 5b 3e 29 9e 02 3f 85 d1 dc 3e a1 b6 24 bf
       0.21425214 0.51022583 0.431286 -0.6434117
000150 86 39 b3 bd 36 83 2f bf b9 da 1a bf 90 9f 1f 3e
       -0.08751206 -0.68559587 -0.60489994 0.15588212
000160 f0 86 71 3f 56 a1 f0 be 51 83 b3 be b5 b1 2e 3d
       0.94346523 -0.4699809 -0.35061124 0.042649943
000170 f8 10 50 be ee 23 ef be 6e 87 de 3e ae 7f 9f bf
       -0.20318973 -0.467071 0.434627 -1.246084
000180 09 b8 24 bd 9a bd 98 bd 02 d7 52 bd c0 18 f8 be
       -0.040214572 -0.07458039 -0.05147458 -0.48456383
000190 c5 fc 0e 3f 64 d1 36 3e 18 d9 d5 3c d8 b0 cb bf
       0.55854446 0.17853314 0.026104495 -1.5913343
0001a0 7d 3f 68 3e ca e8 51 3d b3 ff 36 3f cd 06 43 3f
       0.22680469 0.051247396 0.71483916 0.7618225
0001b0 cf 6d 4a be 07 c2 84 bd 84 cd d1 bd 83 26 00 c0
       -0.19768451 -0.0648232 -0.10244277 -2.0023506
0001c0 31 a0 17 3d fc ab 4b 3e c8 fd 14 bd fb c7 26 bc
       0.037018005 0.19889826 -0.036374837 -0.010179515
0001d0 8a cd 2c bd b2 fe 11 bf 1f d6 a0 3d b6 f0 a8 3e
       -0.042188205 -0.5702926 0.0785334 0.32996148
0001e0 16 09 72 3d 7e 34 0d bc aa 64 39 bd 9e dd 9c 3d
       0.059090696 -0.008618472 -0.045262016 0.076594576
0001f0 77 f6 1b 3d 42 7c 6c bf 7f 72 12 bd 14 8a d8 3b
       0.038076844 -0.923771 -0.035753723 0.006608257
000200 b7 68 70 3e 49 cb ef bd c0 e9 e6 3e 0d 73 92 bd
       0.23477446 -0.117086954 0.45100212 -0.071508504
000210 0a af eb be ac ad 89 be 73 e5 e6 3e 08 9b 8e bf
       -0.46031982 -0.26890314 0.4509693 -1.1141062
000220 17 49 ed bd 71 d7 b7 bd d6 4e ec bd e7 cd b6 3d
       -0.115862064 -0.08976639 -0.11538474 0.089259915
000230 a2 e0 a6 3f 5d b7 85 3e 6f cd c7 be 24 ba b7 bf
       1.3037302 0.26116458 -0.3902392 -1.4353681
000240 c6 db b9 3e d6 85 9e 3d 2b 7f 96 3c c7 94 13 be
       0.36300486 0.07740371 0.018371185 -0.14412223
000250 f2 45 98 3e 25 45 9c bf aa 42 16 3e d2 ab e3 bd
       0.29740864 -1.2208601 0.14673868 -0.111167565
000260 c7 ba 13 bd c4 e1 b7 3e 9a 9b 40 3e 0c b5 5b 3d
       -0.036066797 0.35914433 0.18809357 0.053639457
000270 31 b9 ea be 6a 45 3b 3e 4c ef b0 be 05 5b 4c 3e
       -0.45844415 0.18288198 -0.3455757 0.19956596
000280 2a 55 0f 3f ad 08 10 3f 61 ad 9f 3e 35 4a 11 3e
       0.55989325 0.5626324 0.31186965 0.14188464
000290 81 a7 0e 3e af ee 1f 3f 86 26 47 bf 47 13 d5 3e
       0.13931085 0.6247358 -0.7779316 0.4161627
0002a0 00 5e aa 3d bb d7 9d 3e 4f 3c 5b 3e 2e 24 e4 be
       0.0831871 0.30828652 0.21409725 -0.44558853
0002b0 00 f4 47 bd f0 93 f2 be b8 e9 46 be c9 d9 45 3e
       -0.04881668 -0.47378492 -0.19425094 0.1932136
0002c0 1f 28 06 bf 0f 9a e2 be 28 58 d9 be 46 fd 26 bd
       -0.5240497 -0.44258162 -0.4245007 -0.040768884
0002d0 a2 ea 9f 3e ab fc 11 bf 73 37 33 3f 7f 9d 69 bf
       0.31233698 -0.57026166 0.70006484 -0.91255945
0002e0 e8 56 56 bf f2 e6 17 3f dc ec f3 be 34 83 6d 3e
       -0.8372636 0.5933677 -0.47641647 0.23194581
0002f0 b9 9b d1 3c e9 59 8f bf db 91 23 bf 89 a4 7b 3e
       0.02558695 -1.1199313 -0.6389443 0.24574484
000300 f2 23 14 bd ab 67 90 be ac 7b e8 bd b3 70 c3 bb
       -0.036167093 -0.28204092 -0.113517135 -0.0059643625
000310 6a 8e 83 3d 07 84 ae be 54 0e 19 3d 3c ce 06 bc
       0.06423648 -0.34085104 0.03736718 -0.008227881
000320 26 5c 83 3d a2 41 c9 be 5f 09 81 bf 7e bd 87 bd
       0.0641406 -0.39307886 -1.0080985 -0.0662794
000330 17 08 9a bd ed 4d d5 be 08 3e 88 3f 1b 0c 59 3f
       -0.07521074 -0.41661015 1.064393 0.84784096
000340 e8 0b 80 bf 2e d7 05 3e 1a 97 95 3e 49 ea 22 bf
       -1.0003633 0.13070366 0.29216844 -0.6363874
000350 bb a6 81 bd 31 f1 28 bf db d5 58 be 99 72 a6 be
       -0.063306294 -0.6599303 -0.2117533 -0.32509306
000360 18 ee 3d be 59 81 de 3e 76 38 46 bf 28 ab 79 3d
       -0.18547857 0.4345806 -0.774299 0.060954243
000370 ed 94 d0 bf bc 6b f9 be 60 bd 04 3f fa f1 bc be
       -1.6295449 -0.48715007 0.51851463 -0.36903363
000380 17 08 3b bd ca b4 9f 3d e7 b9 a0 bc eb d3 08 3e
       -0.045662012 0.07798155 -0.019619895 0.1336209
000390 9d d3 1c 3e 4a bc 88 3f 4f d2 97 3d d5 c7 fa bd
       0.15315099 1.0682461 0.0741316 -0.12245146
0003a0 fa 4a 7e be e9 f5 45 3d 0a 5d 8b bd 27 74 25 be
       -0.24833289 0.04833022 -0.06804855 -0.1615759
0003b0 45 54 bc 3e 2c 9b 10 3c 6b 1c 1b 3f 34 a0 82 3e
       0.36783043 0.008826058 0.6059024 0.2551285
0003c0 28 6a 70 3c 47 ef 54 3e 26 df 96 3d 65 fc 9e bd
       0.014673747 0.20794402 0.07366781 -0.07762984
0003d0 31 a5 8f 3d 0e 3a 26 be ea 9d d9 bc 56 5e a8 3e
       0.0701393 -0.16233084 -0.026564557 0.32884473
0003e0 71 ca 61 3d 14 5f 15 3d a3 4d ff bc 62 08 a7 bc
       0.055124704 0.036467627 -0.03116495 -0.02038974
0003f0 9f 8d 3c bd 02 be d8 3c 52 07 1f 3d 37 7c 12 bd
       -0.046033498 0.02645779 0.03882534 -0.03576299

q_layers.0.bias f4 [128]
000000 d9 6a 1a be f7 bd 67 bf d3 91 cc be f1 c5 4d bf
       -0.15079822 -0.9052424 -0.39955005 -0.8038016
000010 92 d8 10 3d 11 96 80 bf 89 f6 91 3e c9 d2 7d 3f
       0.035362788 -1.0045797 0.28508404 0.9914976
000020 59 da 05 3f cf 65 21 3f 59 25 e5 be 06 1f 1d 3e
       0.522863 0.6304597 -0.44755057 0.15343866
000030 d5 7a 67 bf a5 db a1 3e 30 e5 c6 3e 84 ef 7a 3f
       -0.904218 0.31612888 0.3884673 0.9802172
000040 21 d6 9d 3e 10 52 eb 3e d4 9e 86 3e 11 80 80 3e
       0.3082743 0.45961046 0.2629305 0.25097707
000050 7e 69 d4 3f 86 bb af 3e 6f 42 62 3f e8 f1 7e bf
       1.6594694 0.34322757 0.8838262 -0.9958787
000060 cb 0f d1 3f 72 23 dc be c4 27 12 bf 1e 0f 29 3f
       1.6332945 -0.42995793 -0.5709193 0.6603869
000070 75 3e a3 3e a7 d0 1e bf 52 9b 01 3f 9a 29 c9 3f
       0.31883588 -0.6203713 0.50627625 1.5715821
000080 04 e0 7e 3f 10 bb 54 3f 47 8a d0 3f 10 46 da be
       0.9956057 0.83097935 1.6292199 -0.42631578
000090 08 59 49 bf cd d1 12 bf b7 a1 54 3e fc ae b7 3f
       -0.78651476 -0.5735138 0.20764814 1.4350276
0000a0 1a 64 5b 3e 07 9a 80 bf ca 22 04 bf 6c e1 47 bf
       0.21424904 -1.0047005 -0.51615584 -0.7807834
0000b0 40 25 51 bf c5 03 9e 3e 45 0b 63 3d 92 06 63 be
       -0.81697464 0.3086225 0.05543067 -0.22170475
0000c0 0d c3 a0 3e 67 b4 dd 3f 30 df 61 3e 5a 8b 8f bf
       0.31398812 1.732068 0.22057796 -1.1214402
0000d0 bc cc 24 bf 2a 16 0b bf b2 09 14 bf fb bd 3c 3f
       -0.643749 -0.54330695 -0.57827294 0.7372739
0000e0 04 c8 e9 be 39 b4 65 3d b9 10 d4 3d be ac f2 3e
       -0.45660412 0.056080077 0.10354752 0.47397417
0000f0 38 cd 58 bf 7a f0 00 bf 61 11 dd be b8 6a a3 3e
       -0.8468814 -0.5036694 -0.43177322 0.31917357
000100 e6 58 b0 3f b2 03 d2 3e 08 79 d9 3e 9a bf 28 3f
       1.377713 0.41018444 0.42475152 0.6591736
000110 a9 6b db be 25 08 91 be 45 ae 7f 3e 3f dc b4 bd
       -0.42855576 -0.28326526 0.24968822 -0.08831071
000120 a5 d5 8d 3e e3 3f a1 bc 97 af ad 3f 24 af 1b bf
       0.2770206 -0.019683784 1.3569211 -0.6081412
000130 6c 65 e4 bb 70 36 63 bf f9 7c d4 3f d6 8c e9 3e
       -0.0069700982 -0.8875494 1.6600639 0.45615262
000140 e3 15 d6 3e 64 78 6e 3f 15 c2 81 bf e2 2f 47 be
       0.41813573 0.9315245 -1.0137354 -0.1945186
000150 e8 1f 04 bb 26 6b 04 3d 65 f2 20 3e 4c 0b b1 3d
       -0.002016062 0.032328747 0.15717466 0.08644733
000160 56 b5 2c 3e 34 af 9f be 25 8d 57 3e 3b d0 14 bf
       0.16866049 -0.31188357 0.21049936 -0.58130234
000170 fb 44 fa 3e 19 59 b8 3e af ed 01 3f dc 3a 65 3f
       0.48880753 0.36005476 0.507533 0.8954294
000180 4f 5d 0b bf 64 37 a3 3e 89 9b 05 be 9e f4 a5 bc
       -0.5443925 0.31878197 -0.13047613 -0.020258244
000190 53 19 0a 3f a6 c6 a6 3e 17 f1 63 3e 4f 42 2e bf
       0.5394489 0.32573432 0.22259937 -0.6806993
0001a0 ee 1c 44 bf 29 0f ee be 41 11 1b bf 67 b1 4b be
       -0.76606643 -0.4649594 -0.605732 -0.19891892
0001b0 33 86 3a bf bf 1d 27 bf 70 af de 3d 3e 40 35 be
       -0.7286102 -0.65279764 0.10873306 -0.17700288
0001c0 48 be 06 3e 09 84 0c bf fa 05 39 bf 1f c3 5f 3e
       0.13158524 -0.5488897 -0.72274745 0.21851777
0001d0 97 0c a0 3f 5b 69 07 bf e1 ea 04 bf 01 53 96 3f
       1.2503842 -0.52895135 -0.51920897 1.1744081
0001e0 e8 3f 80 bf 27 4d 83 be 45 d4 46 3c 29 c0 60 3d
       -1.0019503 -0.256448 0.01213557 0.05487076
0001f0 44 09 d7 bd 7e 87 b8 3f c1 ce 8d bc 87 d1 fd bd
       -0.10499814 1.4416349 -0.017310502 -0.1239348

q_layers.2.weight f4 [1, 128]
000000 03 f4 3f bf 98 c2 13 be 47 50 25 bf 58 58 7f be
       -0.7498171 -0.144297 -0.6457562 -0.24936044
000010 2b 21 fe 3f b1 8c 96 be 01 e4 f4 3e c5 3d cf 3e
       1.9853872 -0.29404214 0.47830203 0.40476814
000020 32 ab ce 3e 7b ca 60 3f 7f 04 6d be b7 7c 99 3f
       0.40364987 0.8780896 -0.23146246 1.1991185
000030 6f 43 b1 be 95 f5 36 3f 07 33 c4 3f 32 17 95 3e
       -0.3462176 0.7146848 1.5328072 0.2911926
000040 13 9b 83 3f e2 ff 5c 3f 64 8b 08 3f 02 7e 83 3f
       1.02817 0.86327946 0.53337693 1.027283
000050 8c 87 85 3e ec 15 15 3f a2 22 92 3e f0 ec a7 bf
       0.26079977 0.58236575 0.28542048 -1.3119183
000060 8a 0c 61 3e 90 d9 d8 be c7 16 c4 be f0 3d 46 3f
       0.2197744 -0.42353487 -0.38298628 0.7743826
000070 76 d9 d3 3f 90 26 c2 be 50 8e a8 3f fe 19 5e 3e
       1.6550739 -0.37920046 1.316843 0.21689603
000080 2a 52 2e 3e a8 b9 16 3e b3 6c d3 3f e3 7a 77 be
       0.1702353 0.1471926 1.6517547 -0.24167971
000090 ea 2b 1c be 11 ac 44 be f7 65 2f 3f 60 40 a0 3d
       -0.15251127 -0.19206263 0.6851496 0.078247786
0000a0 18 5e a6 3f 0b a6 f6 be c4 61 f6 be d2 e6 87 be
       1.2997465 -0.48173556 -0.48121464 -0.2654329
0000b0 9d 31 0f be 22 ac 5c 3f de 3d 00 40 06 62 ca be
       -0.1398377 0.86200154 2.003776 -0.3952791
0000c0 cb 52 5e 3f ab e8 80 3e 8c de 1c 40 90 56 25 be
       0.8684508 0.25177512 2.4510832 -0.16146302
0000d0 a8 d0 e4 be bd db 82 be 4a 34 82 be 06 f7 da 3e
       -0.44690442 -0.25558272 -0.25430518 0.4276659
0000e0 48 d1 35 be ec 12 b7 3f 52 e9 15 40 07 47 37 3f
       -0.17755616 1.430265 2.3423657 0.71592754
0000f0 50 23 b9 be 5a f1 0c bf ba 17 5e be 64 75 6b 3f
       -0.36159754 -0.55055773 -0.21688738 0.91976
000100 41 27 2a 3d 48 e0 ff 3f 5e b1 15 40 e9 20 df 3e
       0.04154134 1.999032 2.3389506 0.43579796
000110 0b c9 c3 be 0b 6c 5d be 8b c7 02 40 60 89 45 3f
       -0.3823932 -0.21623246 2.0434291 0.7716274
000120 55 c4 c9 3f ac 77 b1 3f a4 48 8b 3e f7 00 b4 be
       1.5763041 1.3864646 0.27203858 -0.35156986
000130 3e 3b f6 bc a0 25 b9 be e6 f2 69 3f 80 23 2d 3f
       -0.030057546 -0.36161518 0.9138626 0.67632294
000140 9d cb 39 3f 71 08 39 bf 95 51 0d bf bb ee 97 be
       0.72576314 -0.72278506 -0.5520261 -0.29674324
000150 a8 53 32 3f b8 d9 ec 3f 62 a7 44 3f a3 3e e1 3f
       0.696589 1.8503942 0.76817906 1.759724
000160 5a 78 38 3f b2 23 d7 be cf d8 40 3f 34 07 b5 be
       0.7205864 -0.4201942 0.75330824 -0.35357058
000170 d4 1b db 3e dd 26 d2 3e 5c 3d 27 3f 09 fe 5f 3e
       0.4279467 0.41045275 0.65328 0.2187425
000180 c9 0f b1 be 79 c8 a0 3f 86 2b d4 bc 1f 11 d8 3f
       -0.34582356 1.2561179 -0.02589966 1.6880225
000190 5e bd 03 3f 1a ab 94 3f 4e 24 2c 40 db 24 06 bf
       0.51460826 1.1614716 2.6897159 -0.52399987
0001a0 f3 d8 f8 be ca fa 90 be f4 cd 4e be c0 f1 c2 be
       -0.4860302 -0.28316337 -0.20195752 -0.38075066
0001b0 c1 33 e2 be c9 6e 9c be e2 56 b6 3f 1a 83 ee 3f
       -0.4418011 -0.30553272 1.4245265 1.8633759
0001c0 76 27 85 3f 1b c2 f3 be 50 5a b2 be 9b 89 b8 3f
       1.0402668 -0.47609028 -0.34834528 1.4416994
0001d0 96 fa 2f 3e 8a de 89 bf b6 d6 19 be a2 75 05 3e
       0.17185435 -1.0771039 -0.15023312 0.13033155
0001e0 21 21 7b bf c2 37 56 bf ea 2b 8a 3f 71 af ec 3f
       -0.98097426 -0.8367883 1.0794652 1.849104
0001f0 c1 9f fa 3f 9a 5f d9 3d 59 b1 c4 bc 3f fc 45 be
       1.9580003 0.10613938 -0.024010347 -0.19334505
