LIRL results/Robustness experiment/Noise_level/ddpg_lirl_pi_multi_run_20250908_noise_0.1/run_7_seed_42/ddpg_lirl_pi_mu_20250908_170256.pth (torch, 297269 bytes, 6 tensors)

fc1.weight f4 [128, 507]
0	0x3ce32324	0.027726717
1	0x3aa3cb06	0.0012496419
2	0xbc837cb9	-0.016050683
3	0x3d5e5f8a	0.054290332
4	0x3c7bbbcf	0.015364601
5	0xbda76267	-0.08173066
6	0xbd88822c	-0.06665453
7	0x3cd0b10c	0.025475048
8	0xbc9eae3f	-0.019370196
9	0x3ce09cc9	0.027418511
10	0xbd837fdc	-0.064208716
11	0xbd024788	-0.0318065
12	0xbd7c1cc8	-0.061550885
13	0xbc5d0cff	-0.013491868
14	0xbdbbfbd7	-0.09178894
15	0xbd83a2e7	-0.064275555
16	0xbc382990	-0.011240378
17	0xbd965cc8	-0.07341915
18	0xbd185764	-0.037192717
19	0xbd6d97b9	-0.058006022
20	0xbc95be0f	-0.018279104
21	0xbd28a6d6	-0.041174732
22	0xbcd06cc2	-0.025442485
23	0xbd86cdc4	-0.065822154
24	0xbd4ef82e	-0.05052965
25	0xbc845eec	-0.016158544
26	0xbd67f8f3	-0.0566339
27	0xbdb91c7f	-0.09038638
28	0xbbf978ca	-0.007613276
29	0xbd299caa	-0.041409172
30	0xbdb34fa7	-0.08755427
31	0xbd48217a	-0.04886005
32	0xbcfa162d	-0.030528152
33	0xbdf37750	-0.118879914
34	0xbd0a6c4e	-0.033794694
35	0xbd4defbe	-0.050277464
36	0xbdcf463c	-0.10120818
37	0xbd09a977	-0.03360888
38	0xbd6905d2	-0.056890316
39	0xbd3bf4a0	-0.04588759
40	0xbdbee68e	-0.093213186
41	0xbd125838	-0.035728663
42	0xbde4b11f	-0.11166596
43	0xbd55f76a	-0.052237906
44	0xbd5ec94f	-0.0543912
45	0xbd41b5b9	-0.047292445
46	0xbd928178	-0.071536005
47	0xbd90b7c9	-0.07066304
48	0xbdb829af	-0.089923255
49	0xbe0a2770	-0.13491607
50	0x3d80db88	0.06291872
51	0xbdf08a89	-0.117451735
52	0xbde109fa	-0.10988231
53	0xbd28d566	-0.041219138
54	0xbda4fc67	-0.080559544
55	0x3ca165a5	0.019701788
56	0xbdc5022f	-0.09619557
57	0xbe057225	-0.13031824
58	0xbd8c3c9e	-0.06847499
59	0xbe17447e	-0.14772221
60	0xbb986c68	-0.004651595
61	0xbda2612f	-0.079286925
62	0xbd307d95	-0.043088514
63	0xbe0f5350	-0.13996625
64	0xbdf6350c	-0.12021837
65	0x3d1886f8	0.03723809
66	0x3d87b343	0.06625988
67	0xbd61fa03	-0.05517007
68	0xbe021752	-0.12704208
69	0xbdf79557	-0.12089031
70	0xbdcd0454	-0.10010591
71	0xbe0d4015	-0.13793977
72	0xbdbcc068	-0.09216386
73	0xbd080d58	-0.03321585
74	0xbd0949a6	-0.033517502
75	0x3d8b3d2b	0.06798776
76	0xbd86d4c0	-0.065835476
77	0xbda78bf2	-0.08180989
78	0xbdb1182a	-0.08647187
79	0xbde02a40	-0.109455585
80	0xbdc9a6a0	-0.09846234
81	0xbd2e10e4	-0.042496577
82	0xbca45ee5	-0.02006478
83	0xbc9a62d3	-0.018845951
84	0x3c58991e	0.0132201
85	0xbc6ef307	-0.014584309
86	0xbcd99290	-0.026559144
87	0xbd19e4b9	-0.037571643
88	0xbd847de2	-0.06469323
89	0xbd28323b	-0.04106353
90	0xbc91483f	-0.017734645
91	0xbd7fe29a	-0.062471963
92	0xbdbfe51b	-0.0936987
93	0xbcfd8d7b	-0.030951252
94	0xbdacd6f4	-0.084394366
95	0x3ccd251d	0.025042111
96	0xbcf30f4b	-0.029670378
97	0xbd225eae	-0.039641075
98	0xbd7c7773	-0.061637353
99	0xbbdb47c1	-0.0066919033
100	0x3cf28bcb	0.029607674
101	0xbd4a6d7f	-0.04942083
102	0xbd0e4911	-0.03473765
103	0x3d452427	0.04813018
104	0x3b39866c	0.0028308881
105	0x3d760f94	0.06007345
106	0xbc4dfedc	-0.01257297
107	0xbd1bc560	-0.03803003
108	0xbd814247	-0.063114695
109	0xbd2699d4	-0.040674046
110	0x3d979c03	0.07402804
111	0xbbb7709b	-0.0055981404
112	0xbd398824	-0.04529585
113	0x3c9ca896	0.019123357
114	0xbcc388eb	-0.023868999
115	0xbd0c7fb3	-0.03430147
116	0xbd938db7	-0.07204764
117	0xbbd10457	-0.006378691
118	0x3d1fdff7	0.03903195
119	0xbd9c6d5e	-0.07638048
120	0x3cd079b3	0.025448656
121	0x3d4b20c2	0.049591787
122	0xbc8f90f3	-0.017525172
123	0xbce0e753	-0.027454054
124	0xbd3db8f5	-0.046318967
125	0xbcbd62ec	-0.023118459
126	0xba5d341e	-0.0008438247
127	0x3d04abcf	0.032390412
128	0x3be1c533	0.006889963
129	0xbcbd1f36	-0.023086172
130	0x3c4fb96f	0.012678488
131	0x3d325a97	0.043543424
132	0xbbdf36dc	-0.0068119597
133	0xbd87c5be	-0.06629513
134	0xbd16b5cc	-0.03679447
135	0xbdc31197	-0.09524839
136	0x3d4aa288	0.049471408
137	0xbba9abc9	-0.005177949
138	0x3d40893d	0.04700588
139	0x3d07e21a	0.03317461
140	0xbd61b651	-0.05510551
141	0x3d3cc9a3	0.046090733
142	0x3dc2d522	0.09513308
143	0x3d8a63ae	0.06757294
144	0x3d92ae85	0.07162193
145	0x3c8a3720	0.016871989
146	0x3d467493	0.048451018
147	0x3d8f370c	0.06992921
148	0x3e0483da	0.12940922
149	0x3e0a22fa	0.13489905
150	0x3d36f6b9	0.044668887
151	0x3ceba2cf	0.028764157
152	0x3d6eaad0	0.05826837
153	0x3e010fe9	0.12603725
154	0x3df87b61	0.12132908
155	0x3d1298e3	0.035790335
156	0x3d839893	0.064255856
157	0x3dfc0377	0.12305348
158	0x3e1219e9	0.14267696
159	0x3e33bf9c	0.17553562
160	0xbb55d9ac	-0.0032630963
161	0x3dfaa512	0.12238516
162	0x3da95d97	0.08269804
163	0x3e427a84	0.18992049
164	0x3de9513e	0.11392449
165	0x3d90bf44	0.07067731
166	0x3dfecc58	0.12441319
167	0x3d6fc60e	0.05853849
168	0x3dbe3227	0.092869096
169	0x3dfc32b3	0.123143576
170	0x3d05327b	0.032518845
171	0x3ccb07f2	0.024784062
172	0x3d8c8ee6	0.06863193
173	0x3dcc138e	0.09964667
174	0x3df28bb8	0.118430555
175	0x3d97f153	0.07419076
176	0x3d666738	0.05625078
177	0x3dee6ca2	0.11641814
178	0x3d54f60c	0.05199246
179	0x3cff2e06	0.031149875
180	0xbb167a36	-0.0022961027
181	0x3c9e6287	0.01933409
182	0x3d6b48da	0.057442524
183	0xbcb6f59a	-0.022333909
184	0xbb119d37	-0.0022218951
185	0xbd3c0fe3	-0.04591359
186	0x3dc024e4	0.09382036
187	0x3da886bf	0.08228826
188	0x3d9bdf2b	0.07610925
189	0xbc8e6ea7	-0.017386748
190	0x3c96d666	0.01841278
191	0xbd023ecf	-0.03179818
192	0x3dabe5ef	0.08393466
193	0x3dad7b54	0.084707886
194	0x3ce01e42	0.027358178
195	0xbc9a24cc	-0.018816374
196	0xbd3d6769	-0.046241198
197	0x3c8cd28a	0.017190237
198	0x3cf77ec5	0.030211816
199	0x3cad44c4	0.021150954
200	0x3c87c541	0.01657355
201	0x3b5d42ad	0.0033761666
202	0x3cd9e11d	0.0265966
203	0x3d6bba2d	0.057550598
204	0x3dd09b13	0.10185828
205	0xbbcb0d44	-0.0061966497
206	0x3cb347b6	0.02188478
207	0x3d51eebc	0.051253065
208	0xbbf4f8b4	-0.007475937
209	0x3cecba4c	0.028897427
210	0x3d7ceaaa	0.06174723
211	0x3d3ec2d3	0.046572518
212	0xbc936e63	-0.017996972
213	0x3d2d47bf	0.04230475
214	0x3c1c7219	0.009548687
215	0x3a365864	0.000695592
216	0x3ca053d3	0.01957122
217	0x3ce6401c	0.028106742
218	0x3c6f6373	0.014611113
219	0xbd3f71f3	-0.04673953
220	0x3c6b5749	0.014364072
221	0x3bfb7e64	0.007674979
222	0xbcf58753	-0.029971754
223	0xbd3fe1ce	-0.046846204
224	0xbd9f6e50	-0.07784712
225	0xbda80504	-0.08204082
226	0xbd594296	-0.053042017
227	0xbd59a127	-0.053132202
228	0x3b74592d	0.0037284598
229	0xbd2a8677	-0.041632142
230	0xbcc89462	-0.024484817
231	0xbd594332	-0.053042598
232	0xbcd3a2f4	-0.025834538
233	0xbd4da476	-0.05020567
234	0x3bb130d7	0.0054074335
235	0x3d2077db	0.039176803
236	0x3d6edffa	0.05831907
237	0x3d96365a	0.073345855
238	0x3d2e28c1	0.042519335
239	0x3b9cecae	0.0047889566
240	0x3d9e69f7	0.07735055
241	0x3ba26399	0.0049557206
242	0x3cc8eff4	0.024528481
243	0xbc8ec205	-0.0174265
244	0xbae3ae76	-0.0017370719
245	0x3c8ca974	0.017170645
246	0x3d837752	0.06419243
247	0x3c4d1523	0.012517246
248	0x3d1dd8f7	0.038536992
249	0x3c829bd4	0.015943445
250	0xbd953d5d	-0.07287095
251	0xbdcd4785	-0.10023407
252	0xbd84392c	-0.06456217
253	0xbd987225	-0.07443646
254	0xbdaf33ca	-0.085548
255	0x3ceaa5e7	0.028643562

fc1.bias f4 [128]
0	0x3dd9274d	0.10603199
1	0xbdaad7fa	-0.083419755
2	0x3cff46de	0.031161722
3	0xbd0ac7b3	-0.033881854
4	0x3e304147	0.17212401
5	0x3ea942f9	0.3305891
6	0xbdffb627	-0.12485915
7	0x3d655440	0.05598855
8	0x3e871c1f	0.26388642
9	0x3e0ef23a	0.1395959
10	0x3e1eb90c	0.15500277
11	0x3e3b986d	0.18319865
12	0x3cd94f72	0.02652714
13	0x3e80b4ad	0.25137845
14	0xbc02928b	-0.007969509
15	0xbd9341c0	-0.07190275
16	0xbbe1f73d	-0.006895928
17	0xbdc127e3	-0.09431436
18	0xbc3031d5	-0.010754068
19	0xbd8646d8	-0.06556481
20	0xbe311cf9	-0.17296208
21	0xba0f948c	-0.00054771523
22	0xbc55162e	-0.013005776
23	0xbe8fde6e	-0.28099388
24	0x3ddd178a	0.10795505
25	0xbc6975b4	-0.014249254
26	0x3e1daa5f	0.15397023
27	0x3de03d3b	0.10949179
28	0xbd35d94e	-0.04439669
29	0xbda5fbe5	-0.08104686
30	0x3e3dbe14	0.1852954
31	0x3ca362a4	0.019944496
32	0x3d0db79f	0.034598943
33	0xbd6bd2eb	-0.057574194
34	0x3e3907ef	0.18069433
35	0xbc2e92bb	-0.0106551
36	0xbdffa87c	-0.12483308
37	0xbe43c988	-0.19119847
38	0xbd157c27	-0.036495354
39	0xbdad7291	-0.084691174
40	0x3dd14798	0.102187335
41	0x3e104542	0.1408892
42	0xbdd1eafe	-0.10249899
43	0x3c863155	0.016380945
44	0x3de1985b	0.110153876
45	0x3c2ae2be	0.010430036
46	0xbdaa50cf	-0.08316194
47	0xbdae8dec	-0.08523163
48	0xbdbf6c92	-0.0934688
49	0x3d92d69e	0.07169841
50	0xbd52026e	-0.05127185
51	0x3dd1f4b5	0.10251752
52	0xbdae9543	-0.08524563
53	0x3d927d96	0.0715286
54	0xbdd491a8	-0.10379344
55	0x3e1efec7	0.15526877
56	0xbd416e92	-0.04722459
57	0x3dcbdfe8	0.09954816
58	0x3dbecc60	0.09316325
59	0xbca12562	-0.019671146
60	0x3e0adac9	0.13560022
61	0x38df31d5	0.000106427506
62	0xbd5460b8	-0.05185005
63	0xbd3e0872	-0.046394773
64	0x3c97d748	0.018535271
65	0xbd83ef9f	-0.064421885
66	0x3e5e4ed0	0.21709752
67	0xbb57fa06	-0.0032955422
68	0xbd8c02e5	-0.068364896
69	0xbc6b5c27	-0.014365233
70	0x3e96a78f	0.29424712
71	0xbe58e262	-0.21180108
72	0x3f0ef289	0.5583883
73	0xbd4e44aa	-0.050358452
74	0xbc9bcdda	-0.019019056
75	0xbceb13cb	-0.028695961
76	0x3d2a4199	0.041566465
77	0x3e9400f0	0.28906965
78	0x3e9f11fd	0.3106841
79	0xbe114cae	-0.14189407
80	0xbdb48410	-0.088142514
81	0x3dcd3bab	0.100211464
82	0x3dde17b3	0.10844364
83	0xbd1f0c56	-0.038830124
84	0x3ddc8576	0.10767643
85	0xbe3ba8e2	-0.18326142
86	0x3ddacc79	0.10683531
87	0x3d70d01c	0.05879222
88	0x3eb8ff8a	0.3613246
89	0x3ddf21ad	0.10895095
90	0x3da7eb74	0.08199206
91	0xbe435251	-0.1907437
92	0x3e8fad83	0.28062066
93	0x3e38c244	0.18042856
94	0xbe859a12	-0.2609411
95	0x3d2f29f4	0.04276462
96	0x3dfe68a4	0.12422302
97	0x3e3c3d70	0.18382812
98	0xbd2ea05f	-0.04263341
99	0xba110746	-0.0005532395
100	0xbcac1a04	-0.021008499
101	0x3e3f5d16	0.18687853
102	0xbdbf574e	-0.09342824
103	0x3eb0db32	0.34542233
104	0x3f4b34f6	0.79377687
105	0x3e43f01d	0.19134565
106	0xbd349a05	-0.044092197
107	0x3e57be44	0.21068674
108	0x3ecc7e10	0.39939928
109	0xbd765420	-0.06013882
110	0xbd057671	-0.032583658
111	0x3e492e73	0.19646625
112	0x3e4c70f2	0.1996496
113	0x3d6ae1d9	0.05734429
114	0xbd10e1a2	-0.03537143
115	0xbd7c990e	-0.0616694
116	0xbc9ed68d	-0.019389415
117	0xbe281a7b	-0.16416351
118	0xbd33791c	-0.04381667
119	0xbd94f3f5	-0.072730936
120	0x3df9c4a8	0.12195712
121	0xbde0b5d2	-0.109721795
122	0x3c85687e	0.016285177
123	0xbe0aa5dc	-0.13539833
124	0xbd61dcec	-0.05514233
125	0x3e7c6c1b	0.24650614
126	0xbc36bef9	-0.01115393
127	0x3cd3b5c5	0.02584351

fc2.weight f4 [64, 128]
0	0xbd4f595d	-0.050622333
1	0xbd8c9490	-0.068642735
2	0xbd909423	-0.07059505
3	0x3d76ca7d	0.0602517
4	0x3d185cc8	0.037197858
5	0xbd182482	-0.03714419
6	0x3c7fafff	0.015605926
7	0xbd251aaf	-0.04030865
8	0x3d1d6af7	0.038432088
9	0x3d1f6213	0.03891189
10	0xbd689807	-0.05678561
11	0x3c8c63fa	0.017137516
12	0xbd0a3173	-0.033738565
13	0xbd6653a0	-0.056232095
14	0x3db1985a	0.08671637
15	0x3d49c04e	0.04925566
16	0x3d90a953	0.07063546
17	0x3cec3788	0.028835073
18	0xbc74a864	-0.014932726
19	0xbcf8eb84	-0.03038574
20	0xbcecdd7e	-0.02891421
21	0x3d84f43a	0.06491895
22	0x3d454bdd	0.048168052
23	0x399ca3c3	0.0002987665
24	0x3d8ec1d1	0.06970561
25	0x3cc6efcc	0.024284266
26	0xbd034bd3	-0.032054733
27	0x3db0315b	0.08603164
28	0xbdd43c86	-0.103631064
29	0x3c76ddb2	0.015067505
30	0x3de80535	0.11329118
31	0xbc7e1921	-0.015508921
32	0x3c34d2bb	0.01103657
33	0x3ce9dbb8	0.028547153
34	0xbdcefb47	-0.10106521
35	0xba364f4f	-0.0006954567
36	0x3d102d06	0.035199188
37	0x3c703025	0.014659916
38	0xbc8f3f00	-0.017486095
39	0xbc32f289	-0.010922083
40	0x3d879093	0.06619372
41	0xbd1593e8	-0.036518008
42	0x3dc16797	0.09443586
43	0xbd8d6709	-0.06904418
44	0xbd18d69b	-0.03731404
45	0x3da2f9a5	0.07957772
46	0x3d58808c	0.052856967
47	0x3cb348ce	0.021885302
48	0xbc6095c4	-0.013707582
49	0xbd596f9a	-0.053084947
50	0xbd710cc6	-0.058850072
51	0xbd4d2a41	-0.050089125
52	0xbd8fe53c	-0.07026145
53	0x3de846f0	0.11341655
54	0x3d650512	0.05591304
55	0x3ccad7ce	0.024761107
56	0xbcc0b57f	-0.023524044
57	0xbadf545d	-0.0017038692
58	0x3d4fbd3a	0.05071757
59	0xbc3a5ad1	-0.011374191
60	0xbddb0f66	-0.106962964
61	0x3d9e344e	0.0772482
62	0xbc30c4be	-0.0107890945
63	0x3dc154b7	0.09439986
64	0x3dd092ab	0.10184225
65	0xbc7fe605	-0.015618806
66	0x3da0c8e4	0.07850817
67	0xbd0acc27	-0.0338861
68	0xbd942eb9	-0.07235474
69	0xbdc44629	-0.095836945
70	0xbe187719	-0.14889182
71	0x3d209fdd	0.039214958
72	0xbda07c46	-0.07836203
73	0xbd7e5f4a	-0.062102593
74	0x3b9b04fa	0.004730818
75	0xbc5f824b	-0.013641904
76	0xbd89c829	-0.06727631
77	0xbc6d12fc	-0.014469858
78	0xbd71c9e1	-0.059030417
79	0x3c7e4790	0.0155199915
80	0x3d0d56fe	0.03450679
81	0xbd17c412	-0.03705222
82	0x3d1a378f	0.03765064
83	0x3db0e63e	0.08637665
84	0x3b0194d6	0.001977255
85	0x3d9e25bc	0.07722041
86	0x3c3b0b59	0.01141628
87	0xbd84f995	-0.064929165
88	0x3cf78b90	0.030217916
89	0xbe0259ec	-0.12729615
90	0xbd4fe1a0	-0.050752282
91	0xbd422793	-0.047401022
92	0xbddaac05	-0.10677341
93	0xbdfd4566	-0.12366752
94	0xbd8f98dc	-0.070115775
95	0x3d8172b3	0.06320705
96	0x3d045e41	0.03231645
97	0xbd37293c	-0.04471706
98	0xbd9fa5b8	-0.0779528
99	0x3dc1037b	0.09424492
100	0x3d3f64bf	0.04672694
101	0x3db2d2fe	0.0873165
102	0xbda15c51	-0.07878936
103	0xbdfae5c4	-0.122508556
104	0xbc9afa38	-0.018918142
105	0xbb4d01ff	-0.0031281707
106	0xbd712107	-0.058869388
107	0xbdce1711	-0.10062993
108	0x3b9c388a	0.004767482
109	0x3d1297cb	0.035789292
110	0xbd9ab539	-0.07554097
111	0x3d60fa22	0.054926045
112	0x3d5e8a97	0.05433139
113	0x3d4b78ad	0.049675632
114	0x3d7ada16	0.06124314
115	0xbd3116e5	-0.043234725
116	0x3d9b7ab9	0.07591767
117	0x3dd207db	0.102554046
118	0xbcfbafac	-0.030723415
119	0xbc8f9223	-0.017525738
120	0x3d497db8	0.04919216
121	0xbd8babc2	-0.068198696
122	0x3c5f3d7c	0.013625499
123	0xbe0bc64f	-0.13649867
124	0xbda0d98d	-0.078539945
125	0xbd17b526	-0.03703799
126	0xbdae98f1	-0.08525265
127	0xbd132639	-0.035925124
128	0x3c4eb031	0.0126152495
129	0x3bc63b20	0.0060495287
130	0x3da2ee53	0.07955613
131	0xbdda34c1	-0.10654593
132	0xbe3ebb41	-0.18626119
133	0xbe091e59	-0.13390483
134	0xbe474fe0	-0.19464064
135	0x3d91b574	0.071146876
136	0xbd1a8529	-0.037724648
137	0xbd860060	-0.0654304
138	0x3cd6086b	0.02612706
139	0xbc4f0df2	-0.012637602
140	0xbd948af7	-0.07253068
141	0x3e2bf1aa	0.16791406
142	0x3d00e5e7	0.031469252
143	0x3c374306	0.011185413
144	0x3cec3ab6	0.02883659
145	0xbd943538	-0.07236713
146	0x3cc0d317	0.023538155
147	0x3d0736cf	0.033011254
148	0xbd7420f2	-0.05960173
149	0xbdad5184	-0.084628135
150	0x3d8b37a8	0.06797725
151	0xbb9badea	-0.004750957
152	0xbe076985	-0.13223846
153	0x3db85a01	0.09001542
154	0xbd2061b3	-0.039155673
155	0xbe07bac8	-0.13254845
156	0x3bebffc3	0.00720212
157	0xbd867a91	-0.065663464
158	0x3d8b09bd	0.06788967
159	0xbcad8d5b	-0.021185568
160	0xbe45211e	-0.19250914
161	0xbdb466f7	-0.088087015
162	0xbddb7700	-0.10716057
163	0xbda4074a	-0.08009203
164	0xbd8f4314	-0.06995216
165	0x3c70079e	0.014650254
166	0x3c847541	0.016169192
167	0xbd7661a7	-0.060151722
168	0xbd153111	-0.036423746
169	0xbd84b783	-0.064803146
170	0xbe2dbe0d	-0.1696703
171	0xbc80603e	-0.015670892
172	0x3caaef05	0.020865927
173	0xba70e0c9	-0.0009188769
174	0xbdac60db	-0.08416911
175	0xbc7c070b	-0.015382539
176	0x3d0ffa57	0.035150852
177	0xbd7ba5d8	-0.061437458
178	0xbd0d14be	-0.03444361
179	0xbd4b3396	-0.049609743
180	0x3cc329df	0.023823677
181	0xbc77bc96	-0.015120646
182	0x3cc6787e	0.024227377
183	0xbddbbe95	-0.1072971
184	0x3c02b72e	0.007978244
185	0xbe186ccf	-0.14885257
186	0xbe046fa2	-0.1293321
187	0x3d62ccbf	0.055371042
188	0x3bba0d76	0.005677874
189	0xbd8f5878	-0.06999296
190	0xbc8dc2de	-0.017304834
191	0x3dcbd016	0.099517986
192	0x3cf0ffcf	0.029418854
193	0xbd919b5e	-0.07109712
194	0xbdc6d905	-0.09709362
195	0xbcc7f04e	-0.024406578
196	0xbc9a2d9b	-0.018820575
197	0xbbbe01fe	-0.0057985773
198	0xbe30083a	-0.17190638
199	0xbd2c1b62	-0.0420183
200	0xbe0183aa	-0.12647882
201	0x3d87c96c	0.06630215
202	0x3cfeaa52	0.031087074
203	0xbe2892f1	-0.16462304
204	0xbc3b2c7b	-0.011424179
205	0xbe051e2d	-0.12999792
206	0x3bdc0a0f	0.0067150663
207	0x3d2857e9	0.041099463
208	0xbaa2d62e	-0.001242345
209	0x3dbbcf46	0.09170394
210	0x3d9b2281	0.075749405
211	0xbc6a8c97	-0.014315746
212	0x3e80fed5	0.2519442
213	0xbcc3af58	-0.023887321
214	0xbe1613d0	-0.14655995
215	0xbdb6868c	-0.089123815
216	0xbe263143	-0.1622973
217	0xbdd77fa4	-0.105223924
218	0x3d89ce36	0.06728785
219	0x3d631af7	0.055445638
220	0xbdb108a4	-0.08644226
221	0xbe3b6212	-0.1829913
222	0xbc79c23a	-0.015244061
223	0xbd3b0f7a	-0.045669056
224	0xba907a1a	-0.0011022717
225	0xbd3385e2	-0.043828852
226	0xbcb709b6	-0.022343498
227	0x3c309893	0.010778564
228	0x3c206202	0.009788992
229	0xbe091690	-0.13387513
230	0xbd5a35b5	-0.053273875
231	0x3d68fef6	0.056883775
232	0x3c17dd7b	0.009269114
233	0xbdb2c490	-0.087288976
234	0xbd5759f2	-0.052576013
235	0x3d3974f8	0.045277566
236	0xbce59f2f	-0.028030006
237	0x3d204cf9	0.039135907
238	0xbce429aa	-0.027851898
239	0xbe0690b7	-0.13141142
240	0xbd3473a5	-0.0440556
241	0xbd94db72	-0.07268418
242	0x3d5d99c4	0.05410172
243	0x3ba76b1c	0.005109204
244	0xbb9ca130	-0.0047799572
245	0xbe0ac38c	-0.13551158
246	0xbbf95e3a	-0.0076101096
247	0xbe2d45a7	-0.16921102
248	0x3e408d7f	0.18803976
249	0xbd2b0282	-0.04175044
250	0xbd272668	-0.04080811
251	0xbc9259d1	-0.017865093
252	0x3d433d29	0.04766575
253	0xbcfa874d	-0.030582095
254	0xbdb54f16	-0.08852975
255	0x3c83fffa	0.01611327

fc2.bias f4 [64]
0	0xbcb86cb0	-0.022512764
1	0xbcb4915b	-0.022041967
2	0x3b924b0a	0.0044645118
3	0x3e53ed4c	0.2069599
4	0xbddd4557	-0.10804241
5	0xbde58ea4	-0.11208847
6	0xbe003614	-0.12520629
7	0x3dbde0b0	0.09271371
8	0xbd834149	-0.064089365
9	0xbc872fb9	-0.016502248
10	0x3d8e9447	0.069618754
11	0xbd8ef2f8	-0.06979936
12	0xbe339c06	-0.17539987
13	0x3dff8edc	0.1247842
14	0xbe41742b	-0.18891971
15	0xbda6b42b	-0.08139833
16	0xbd91ee94	-0.07125583
17	0x3e4fb56d	0.20284052
18	0x3d0ce2fe	0.034396164
19	0xbe1ad92e	-0.1512191
20	0xbe1a6131	-0.15076138
21	0xbd5cdb10	-0.05391985
22	0xbda3c8f9	-0.07997317
23	0xbdc1fc60	-0.09471965
24	0x3c29b895	0.010358949
25	0xbdc030e0	-0.09384322
26	0xbbcb9ab2	-0.0062135095
27	0xbe2b73fa	-0.1674346
28	0x3de4ed35	0.11178056
29	0x3a87b20e	0.0010352747
30	0xbd0b53ab	-0.03401534
31	0x3ddf7b06	0.10912137
32	0x3e792d13	0.243336
33	0xbda6e790	-0.08149636
34	0xbd7336a8	-0.059378296
35	0x3e09b683	0.13448529
36	0x3d020408	0.031742126
37	0x3c1f4a1f	0.009722262
38	0xbd1f4ae5	-0.038889784
39	0x3d902bc1	0.070395954
40	0xbe295f4c	-0.16540259
41	0x3e005648	0.12532914
42	0x3ea690ae	0.32532257
43	0xbe266fa5	-0.16253527
44	0x3dc95ac6	0.09831767
45	0xbd5d038c	-0.05395846
46	0xbc196ef7	-0.009364835
47	0x3e5b9e0e	0.21447012
48	0x3e316211	0.17322566
49	0x3c602aa3	0.01368204
50	0x3dad2552	0.08454384
51	0xbdcd0e24	-0.10012463
52	0x3e9e0f17	0.30870888
53	0xbd7ccf7d	-0.061721314
54	0xbe07a4ff	-0.13246535
55	0x3b40fc31	0.0029447193
56	0x3e4840cb	0.19555967
57	0x3d381416	0.04494103
58	0x3d88ad9c	0.06673738
59	0x3d8934c5	0.06699518
60	0xbe176306	-0.14783868
61	0xbeadf6d3	-0.33977374
62	0xbb8cb7fe	-0.0042943945
63	0x3da19219	0.07889194

fc_mu.weight f4 [3, 64]
0	0x3bf41602	0.0074489126
1	0x3dea7ffb	0.114501916
2	0xbdae0132	-0.08496322
3	0xbd2e9115	-0.04261883
4	0xbc49715a	-0.0122950915
5	0x3e96e0b4	0.2946831
6	0xbd4c0024	-0.04980482
7	0xbc9c989b	-0.019115737
8	0x3cb35164	0.021889396
9	0xbe2cfbae	-0.16892883
10	0xbe1d86b0	-0.1538341
11	0x3d9098f4	0.070604235
12	0x3da60b4b	0.08107623
13	0xbc367635	-0.011136581
14	0x3e08162e	0.13289711
15	0x3d62a873	0.055336427
16	0xbcb5e58d	-0.022204185
17	0xbd7547e4	-0.059883013
18	0xbe60677f	-0.2191448
19	0x3d49b021	0.049240235
20	0x3d59054d	0.05298357
21	0xbd4d5082	-0.050125606
22	0xbce7a282	-0.028275732
23	0x3dc69f97	0.09698408
24	0x3e0e92cd	0.13923188
25	0xbd738398	-0.05945167
26	0x3e03afb3	0.12859993
27	0x3ef6f0ec	0.48230684
28	0x3bc4da58	0.006007474
29	0xbe49e307	-0.1971551
30	0x3de0ee07	0.109829
31	0x3b9f258c	0.004856771
32	0xbcbf67f2	-0.023364995
33	0xbcc71041	-0.024299743
34	0xbe06d6a0	-0.1316781
35	0xbce90474	-0.028444506
36	0xbd5cf3bd	-0.053943384
37	0xbd3b648d	-0.04575019
38	0xbcd277c8	-0.025691882
39	0xbd4e2494	-0.050327852
40	0x3d9521f2	0.07281865
41	0x3c73e92d	0.014887136
42	0xbd7da836	-0.061927997
43	0x3ea1c1e5	0.31593242
44	0xbd43784e	-0.047722153
45	0x3dceb84a	0.10093744
46	0x3cf79fed	0.030227626
47	0xbc83bb89	-0.016080635
48	0xbd1f44d3	-0.038883995
49	0x3d93b2f8	0.0721187
50	0xbcc37a07	-0.023861898
51	0xbd9e27ab	-0.0772241
52	0xbd738d0e	-0.059460692
53	0x3dadd6ce	0.08488236
54	0xbe01b008	-0.12664807
55	0xbc854353	-0.016267454
56	0xbe268774	-0.16262609
57	0xbe7097f6	-0.23495468
58	0xbd58f5fd	-0.052968968
59	0x3d6f7a0b	0.058466
60	0x3e85a9f5	0.2610623
61	0x3cc55ca6	0.02409203
62	0xbe531eb1	-0.20617177
63	0x3d4244ff	0.04742908
64	0x3c4d19ec	0.012518387
65	0x3d1fd9b3	0.039025974
66	0xbe256a5a	-0.16153851
67	0x3d6a1779	0.05715129
68	0xbd497063	-0.049179446
69	0xbf1787ee	-0.5919179
70	0x3db99363	0.09061315
71	0x3d84cec5	0.06484751
72	0x3d2fa79f	0.042884465
73	0xbef49136	-0.47767037
74	0xbe8ce094	-0.2751509
75	0xbe22aff3	-0.15887432
76	0xbe9115e0	-0.28337002
77	0x3d92da7c	0.07170579
78	0xbe6004b5	-0.21876796
79	0x3dcd0441	0.10010577
80	0x3dbfa1cc	0.09357032
81	0x3d9e0ed6	0.077176735
82	0xbf07f4d4	-0.53107953
83	0xbd63cfa1	-0.055617932
84	0x3c3e16ed	0.011602146
85	0x3dbe7513	0.09299674
86	0xbdd243e4	-0.10266855
87	0xbc81ac07	-0.0158291
88	0xbd3a9260	-0.04554975
89	0x3dc0d46d	0.09415517
90	0xbdf867d7	-0.12129181
91	0xbfa94753	-1.3224891
92	0x3d1be1f0	0.038057268
93	0xbf06e2fa	-0.5269009
94	0xbdd338cf	-0.1031357
95	0x3d90478a	0.07044895
96	0x3d063254	0.03276284
97	0xbcf3c5e6	-0.029757451
98	0x3db66f04	0.08907893
99	0x3d2193c3	0.039447557
100	0xbf3fc16b	-0.7490451
101	0xbe1d4d85	-0.15361603
102	0xbd8a3c2a	-0.06749757
103	0x3da294fc	0.07938573
104	0xbbd27bd9	-0.006423455
105	0x3db047cd	0.08607445
106	0x3d72df2c	0.059294865
107	0xbdb1fc9e	-0.08690761
108	0x3d2a9d7f	0.041654106
109	0xbe30dd11	-0.1727183
110	0xbe465285	-0.19367416
111	0x3d6faf9d	0.058517087
112	0xbe97eb15	-0.2967154
113	0xbcdaf81c	-0.026729636
114	0x3cfc7e70	0.030822009
115	0xbc46a467	-0.0121241575
116	0x3d8e5989	0.06950671
117	0xbc9d5ab9	-0.019208299
118	0xbe259f70	-0.16174102
119	0x3cf16fa0	0.029472172
120	0xbe10d580	-0.14143944
121	0xbf290ea5	-0.6603797
122	0xbdacd61e	-0.08439277
123	0x3dd3c6ab	0.10340627
124	0xbe700c89	-0.23442282
125	0xbe030938	-0.12796485
126	0xbf03332c	-0.5124996
127	0x3e031638	0.12801445
128	0xbd5f3cfc	-0.05450152
129	0x3e0b24fb	0.13588326
130	0xbe1b6fdc	-0.1517939
131	0xbd47a452	-0.048740692
132	0x3d3cb068	0.04606667
133	0xbcee99a9	-0.029126005
134	0x3db91c1e	0.09038566
135	0x3b8b0e6b	0.004243662
136	0x3d4b257f	0.049596306
137	0xbe38dd7f	-0.18053244
138	0xbe8b7c8b	-0.27243456
139	0xbe5f5542	-0.21809867
140	0x3bf79841	0.007555992
141	0xbda20c7e	-0.07912539
142	0x3ba8e7d4	0.005154589
143	0xbda83737	-0.082136564
144	0x3db41e3d	0.0879483
145	0xbe443903	-0.19162373
146	0xbe0f0fc3	-0.13970856
147	0xbfaf4294	-1.3692193
148	0x3dc496b0	0.09599054
149	0xbe41fa66	-0.18943176
150	0x3ce42ab1	0.027852388
151	0x3d403b81	0.046931747
152	0x3d5b22e3	0.053500067
153	0x3d53b0f6	0.051682435
154	0xbec7a465	-0.3899261
155	0xbe8784fc	-0.26468647
156	0xbd6a03b3	-0.057132434
157	0xbe7d0d77	-0.24712168
158	0xbf551db5	-0.83248454
159	0xbde903aa	-0.11377652
160	0xbd491a88	-0.049097568
161	0xbde964e6	-0.11396198
162	0xbe339eff	-0.17541121
163	0xbd90c6fe	-0.07069205
164	0xbe6ef49b	-0.23335497
165	0xbdabc37c	-0.08386895
166	0x3c84c0d0	0.016205221
167	0xbe5b5a0c	-0.21421069
168	0xbff299ae	-1.8953149
169	0xbdbf6066	-0.093445584
170	0xbe434d61	-0.19072486
171	0xbd576d53	-0.052594494
172	0xbf5b79c6	-0.85732687
173	0xbca593d9	-0.0202121
174	0x3da8810a	0.08227737
175	0xbd9c479b	-0.07630845
176	0xbeb069b1	-0.34455636
177	0xbd73d1d8	-0.059526294
178	0xbd6df77e	-0.058097355
179	0x3d941975	0.07231418
180	0xbe321941	-0.17392446
181	0xbc41b0c6	-0.011821931
182	0xbcdb2661	-0.026751699
183	0xbf07f6cb	-0.5311095
184	0xbf06fbf1	-0.5272818
185	0xbe82184f	-0.2540917
186	0xbe85ef6c	-0.26159227
187	0xbb4a93f7	-0.0030910948
188	0xbdc698d9	-0.09697122
189	0x3da63359	0.081152625
190	0xbec6aced	-0.38803807
191	0xbd8ab01c	-0.067718714

fc_mu.bias f4 [3]
0	0x3c8e2e8e	0.017356183
1	0x3e6a8e22	0.22905782
2	0xbe610f7e	-0.21978566
