LIRL results/Robustness experiment/Noise_level/ddpg_lirl_pi_multi_run_20250909_noise_0.3/run_4_seed_1092/ddpg_lirl_pi_mu_target_20250909_015349.pth (torch, 297353 bytes, 6 tensors)

fc1.weight f4 [128, 507]
0	0xbd3f722f	-0.046739753
1	0xbdad526b	-0.084629856
2	0xbdb6006d	-0.088868
3	0xbd901f28	-0.070371926
4	0xbd66ea4e	-0.056375794
5	0x3b1cd663	0.0023931495
6	0xbd1ed219	-0.038774583
7	0x3c562f35	0.0130727785
8	0x3bee6213	0.007274875
9	0xbcf735d9	-0.030177044
10	0xba0d9710	-0.0005401233
11	0xbcf363f5	-0.02971075
12	0xbd34dd80	-0.04415655
13	0xbd2e37bf	-0.042533632
14	0xbd6d6441	-0.057956938
15	0xbd431669	-0.047628794
16	0xbd1b1166	-0.03785839
17	0xbc8e0a7d	-0.017338986
18	0xbd2eea85	-0.042704124
19	0xbd389187	-0.04506066
20	0xbc474b82	-0.012163999
21	0xbc73a2e9	-0.014870384
22	0xbba772e4	-0.0051101316
23	0xbd893c98	-0.067010105
24	0xbd1f9ac6	-0.038965963
25	0xbda6fa23	-0.081531785
26	0xbd930090	-0.07177842
27	0xbc2bd9f8	-0.0104889795
28	0x3bab73dd	0.005232318
29	0xbcad343b	-0.02114307
30	0xbd842d58	-0.06453961
31	0x3c03d43b	0.008046205
32	0xbcd535d8	-0.026026651
33	0x3b3667bc	0.0027832827
34	0xbd7b9201	-0.061418537
35	0xbcb3ab16	-0.021932166
36	0xbc7e2d98	-0.0155138
37	0xbd082d5b	-0.03324638
38	0xbd02fbb4	-0.031978324
39	0x3c1c3a9e	0.00953546
40	0xbb81419f	-0.00394459
41	0xbd0d0f4f	-0.034438428
42	0xbd7992fd	-0.060931195
43	0xbd6cad5b	-0.057782512
44	0xbd5ddcfe	-0.054165833
45	0xbd729666	-0.059225462
46	0x3a8a7e8b	0.0010566277
47	0x3bf863ac	0.007580241
48	0xba9c1ba9	-0.0011910099
49	0xbd101f41	-0.035186056
50	0x3c9cb1f7	0.019127829
51	0x3cbd3123	0.02309472
52	0x3c5e7f91	0.013580219
53	0x3d6c74fe	0.05772876
54	0x3d433e30	0.04766673
55	0xbccc71eb	-0.024956664
56	0x3c991eb9	0.018691408
57	0xbb5f3527	-0.003405878
58	0xbce1e6f5	-0.02757595
59	0xbc351a94	-0.0110537
60	0xbcfb996f	-0.030712811
61	0xbc18f93c	-0.009336766
62	0x3c377b88	0.011198886
63	0x3c8ea5ff	0.017413137
64	0xbca9e4e3	-0.020739025
65	0xbcbdbfad	-0.023162687
66	0x3ad8f90f	0.0016553717
67	0xbcc3d731	-0.023906322
68	0x3d204e9b	0.039137464
69	0x3d00c506	0.031437896
70	0x3ce221fb	0.027604094
71	0x3cdcea0a	0.026967067
72	0x3b462433	0.0030233979
73	0xbc9b86da	-0.0189852
74	0xbc8bfcbf	-0.017088292
75	0x3d039742	0.032126673
76	0xbd065d31	-0.032803718
77	0xbc254155	-0.010086377
78	0xbd152ed1	-0.0364216
79	0x3d19987d	0.03749894
80	0xbc8d64b5	-0.017259935
81	0xbbb7d926	-0.005610603
82	0xbc91cac0	-0.017796874
83	0x3c40c3eb	0.0117654605
84	0x3cdfe1bf	0.027329324
85	0xbc75e775	-0.015008797
86	0x3cb196bf	0.021678327
87	0x3aa60162	0.0012665207
88	0x3d74d85f	0.05977666
89	0x3d396cf4	0.04526992
90	0x3d43dc2b	0.04781739
91	0x3d947bdc	0.07250187
92	0x3d97bb08	0.0740872
93	0xbc101df8	-0.008796208
94	0x3c70ffbe	0.014709411
95	0x3d3ccadb	0.046091896
96	0x3ca1b894	0.019741334
97	0x3d7808bb	0.0605552
98	0x3d9fb3f9	0.07797999
99	0x3c0cb158	0.008587204
100	0x3cd63050	0.026146084
101	0x3d6fa014	0.05850227
102	0x3d8dc5bf	0.06922483
103	0x3e159055	0.1460584
104	0x3dd7fb6a	0.10546
105	0x3e1eea16	0.15518984
106	0x3dfeeec0	0.12447882
107	0x3dae8763	0.08521917
108	0x3e42b3a7	0.19013844
109	0x3e469300	0.19392014
110	0x3e8a0ab2	0.26961285
111	0x3e8532f7	0.26015446
112	0x3e8757b9	0.26434115
113	0x3e937a13	0.28804073
114	0x3e8a7190	0.27039766
115	0x3e596428	0.21229613
116	0x3e223e7d	0.1584415
117	0x3e3ca077	0.18420587
118	0x3e16f76e	0.14742824
119	0x3e2a6e7e	0.16643712
120	0x3e2b6673	0.167383
121	0x3e1d866d	0.1538331
122	0x3e0d990d	0.13827915
123	0x3de6a895	0.11262623
124	0x3dfae62d	0.12250934
125	0x3e06c77f	0.13162039
126	0x3dd5a11a	0.10431118
127	0x3d0fffdf	0.035156127
128	0x3d8c5c93	0.06853595
129	0x3d4fe4ec	0.050755426
130	0x3d8174e7	0.063211255
131	0x3d4f6221	0.050630692
132	0x3d0589f7	0.032602277
133	0x3c9527fd	0.018207544
134	0xbc63fca4	-0.013915215
135	0x3d853253	0.06503739
136	0xbba7ca41	-0.005120546
137	0x3d13e8f7	0.036110844
138	0xbc62355b	-0.013806666
139	0x3cbedbca	0.023298163
140	0x3c5a80df	0.013336389
141	0x3d20e677	0.03928229
142	0x3ab0d9c2	0.0013492631
143	0x3cdb86f6	0.026797753
144	0xbd7bcbbf	-0.061473604
145	0x3b299016	0.0025873235
146	0xbc98344b	-0.018579623
147	0x3d40f979	0.047112916
148	0x3d03738e	0.032092623
149	0xbbe8fb1f	-0.007110014
150	0xbcad5f54	-0.02116362
151	0x3b855907	0.004069451
152	0x3ca81400	0.02051735
153	0x3bc2dad0	0.0059464946
154	0xbc25595d	-0.010092107
155	0x3c8f0dcc	0.017462634
156	0x3d24b1d5	0.040208656
157	0xbcf4797e	-0.029843088
158	0xbd055c13	-0.032558512
159	0x3d3f5912	0.046715803
160	0x3cec8ed6	0.028876703
161	0x3cfb2a2e	0.030659761
162	0xbca8f833	-0.020626163
163	0xbc979e93	-0.018508231
164	0x3cbd3f8b	0.023101589
165	0x3cba3f47	0.022735251
166	0x3af2f5d5	0.0018536398
167	0xbc298f65	-0.010349129
168	0x3c498ecd	0.012302113
169	0x3c739966	0.014868116
170	0xbc97c2fd	-0.018525595
171	0xbc31e156	-0.010856947
172	0xbacc1e6b	-0.001557303
173	0x3d690ac6	0.05689504
174	0x3cb4aa69	0.022053914
175	0x3bd9da87	0.006648365
176	0xbd07dc20	-0.033168912
177	0xbc2c2249	-0.010506221
178	0x3cad26d3	0.021136677
179	0xbcf129d0	-0.029438883
180	0xbcbe4e5e	-0.023230728
181	0x3bb57fad	0.005538902
182	0xbcaf1c2c	-0.021375738
183	0x3cd5271a	0.026019622
184	0xbcbe57d9	-0.023235248
185	0xbd23567b	-0.039877396
186	0xbcb61f59	-0.022231745
187	0x3d65a9aa	0.056070007
188	0x3c573d0d	0.013137114
189	0x3c83a79a	0.01607113
190	0x3d845660	0.06461787
191	0x3d85b5fa	0.0652885
192	0x3d92a1a0	0.07159734
193	0x3dd40af9	0.10353655
194	0x3dcde10f	0.10052692
195	0x3d806e3c	0.062710255
196	0x3dd39a96	0.10332219
197	0x3d83319f	0.06405949
198	0x3dffabe8	0.124839604
199	0x3e0a2515	0.13490708
200	0x3d650c58	0.055919975
201	0x3db65356	0.08902614
202	0x3d76180e	0.060081534
203	0x3d19a72c	0.037512943
204	0x3da995ef	0.08280551
205	0x3d5b0517	0.05347165
206	0x3d3a3900	0.045464516
207	0x3c2908af	0.010317012
208	0x3c532e43	0.012889448
209	0x3d24726b	0.04014818
210	0xbcade837	-0.021228893
211	0xbca565ee	-0.020190205
212	0xbb97ae8c	-0.004628962
213	0x3d861f3f	0.065489285
214	0x3c99f502	0.018793587
215	0xbd222687	-0.039587524
216	0x3c75a127	0.014992035
217	0xbcaca445	-0.021074424
218	0x3b964ece	0.004587031
219	0x3d22919f	0.039689656
220	0xbcba0663	-0.022708124
221	0xbc72f10e	-0.01482798
222	0xbc4e114d	-0.012577367
223	0xbd3972cf	-0.045275506
224	0xbd801da2	-0.06255652
225	0xbd2c76aa	-0.042105354
226	0xbbf6ca17	-0.007531415
227	0xbdb83962	-0.0899532
228	0xbe03b504	-0.1286202
229	0xbe1436c4	-0.14474016
230	0xbe572091	-0.21008517
231	0xbe455952	-0.19272354
232	0xbe95caf2	-0.29256397
233	0xbeb4b261	-0.35292342
234	0xbeb830c8	-0.35974717
235	0xbe83069d	-0.25590983
236	0xbe659133	-0.2241867
237	0xbe2f05e7	-0.17092095
238	0xbddc43f2	-0.10755147
239	0xbdcd0408	-0.100105345
240	0xbdc75f80	-0.09735012
241	0xbdba1528	-0.090860665
242	0xbe0855fd	-0.13314052
243	0xbe286827	-0.16445981
244	0xbe803297	-0.25038597
245	0xbe88190d	-0.26581612
246	0xbe3d35f0	-0.18477607
247	0xbd950cad	-0.07277808
248	0x3d98315e	0.07431291
249	0xbca67296	-0.02031831
250	0x3d97c0ab	0.074097954
251	0x3de14b90	0.110007405
252	0x3d9e7218	0.077366054
253	0x3dc7247b	0.09723755
254	0x3dcc0ebd	0.099637486
255	0x3cb24eb8	0.021766052

fc1.bias f4 [128]
0	0x3c28ce8b	0.01030315
1	0x3d576bfb	0.052593213
2	0x3e08cc95	0.13359292
3	0xbb4a4b0d	-0.0030867488
4	0x3e7dfed9	0.24804248
5	0x3dd78d1b	0.105249606
6	0x3ba8cdb6	0.005151476
7	0xbddd9e04	-0.10821155
8	0x3d22e08a	0.03976492
9	0x3d259a47	0.040430333
10	0x3dae86f5	0.08521835
11	0x3e0dbb48	0.13840973
12	0xbc7ce45d	-0.015435305
13	0x3e0444e6	0.12916908
14	0xbda6d696	-0.08146398
15	0x3c978760	0.018497169
16	0x3db9b846	0.090683505
17	0x3d8efccd	0.06981812
18	0x3dab9d8c	0.08379659
19	0xbcdc383e	-0.026882287
20	0xbd74dbb8	-0.059779853
21	0xbbccfe22	-0.006255881
22	0x3e9f4a19	0.3111122
23	0x3e0d6155	0.1380666
24	0xbc5298f7	-0.0128538525
25	0x3df47274	0.11935893
26	0x3e849bf0	0.2590022
27	0x3cbf8535	0.023378948
28	0xbda8ee86	-0.0824862
29	0x3dcca1da	0.09991808
30	0x3df1375a	0.117781356
31	0x3e049238	0.12946403
32	0x3d246b9d	0.04014169
33	0xbc9d969b	-0.019236853
34	0x3df96b6b	0.121786915
35	0xbda0840e	-0.078376874
36	0xbd56e761	-0.052466754
37	0x3d02b975	0.031915147
38	0x3c8769a1	0.01652986
39	0x3c75b3f7	0.01499652
40	0x3c8a3ce4	0.016874738
41	0x3d38261d	0.044958223
42	0x3e357f21	0.17724277
43	0xbce1b689	-0.02755286
44	0x3e4f9ece	0.20275423
45	0x3d821569	0.0635174
46	0x3d9943e9	0.07483656
47	0xbbd68282	-0.0065463195
48	0xbd5e8bbd	-0.054332484
49	0x3c6a16ee	0.014287693
50	0x3ccfc853	0.025364077
51	0x3d064781	0.032783035
52	0x3e814ee4	0.252555
53	0x3ddcad7a	0.107752755
54	0xbcf23f4c	-0.029571198
55	0x3db33d18	0.08751887
56	0x3afdd6fa	0.0019366436
57	0xbb8f6d01	-0.004377008
58	0x3c1e2083	0.009651306
59	0x3e612660	0.21987295
60	0x3d52feac	0.051512405
61	0xbd1f1c74	-0.038845494
62	0xbba7efba	-0.005125013
63	0x3e33901c	0.17535442
64	0x3dfbb641	0.122906215
65	0xbb1aa15c	-0.0023594713
66	0x3e4eaecc	0.20183867
67	0xbca9c92d	-0.02072581
68	0x3c36a073	0.0111466525
69	0x3d430e98	0.04762134
70	0x3dad38ba	0.08458085
71	0x3e5e5980	0.21713829
72	0x3e15c6d6	0.14626631
73	0x3d8b91a4	0.06814888
74	0x3e419000	0.18902588
75	0xbd5e3436	-0.05424901
76	0x3dc3780c	0.095443815
77	0x3e03c547	0.12868224
78	0x3e67166a	0.22567144
79	0x3e62658a	0.22109047
80	0x3e42da9f	0.1902871
81	0x3dba1dba	0.09087701
82	0xbcce465a	-0.02518003
83	0x3e03776a	0.12838522
84	0x3db51906	0.088426635
85	0x3e429d34	0.1900528
86	0xbd76cc63	-0.060253512
87	0x3d96afe5	0.07357768
88	0xbd57c6cd	-0.052679826
89	0x39d24470	0.0004010531
90	0xbd43e266	-0.047823332
91	0xbbed2e5c	-0.0072381925
92	0x3e115776	0.1419352
93	0xbc7e5bda	-0.015524829
94	0x3dee436f	0.11633956
95	0xbd615663	-0.055014025
96	0x3c439fef	0.011939987
97	0x3d63867d	0.05554818
98	0x3e06ee9b	0.13176958
99	0x3ce7d9be	0.02830207
100	0xbd53b79e	-0.051688783
101	0xbd7a4790	-0.061103404
102	0x3e3239f7	0.17404924
103	0x3b82bf84	0.0039901156
104	0x3e44f944	0.19235712
105	0xbc0ce57e	-0.008599637
106	0x3e1e8760	0.15481329
107	0xbde4b4aa	-0.111672714
108	0x3e92d62a	0.2867902
109	0xbcc5daa3	-0.024152106
110	0x3d1b45a0	0.037908196
111	0x3db47f22	0.08813311
112	0x3dc437fa	0.09580989
113	0xbd474482	-0.04864932
114	0x3ca435c2	0.020045165
115	0x3c604eb6	0.013690641
116	0x3e7e6941	0.24844839
117	0x3e988e82	0.29796225
118	0xbbad0f8f	-0.0052813957
119	0x3db4cf89	0.08828647
120	0x3dd099a5	0.10185555
121	0x3e6422e2	0.22278932
122	0xbdc2a4c3	-0.09504082
123	0xbc8a4615	-0.01687912
124	0x3cb98b4d	0.022649432
125	0xbc87b57b	-0.016566029
126	0x3e9e1451	0.30874875
127	0xbc075190	-0.008259192

fc2.weight f4 [64, 128]
0	0xbd388511	-0.045048777
1	0x3d0a51e7	0.033769514
2	0x3d823442	0.06357624
3	0xbc878c6d	-0.016546452
4	0x3d563a6b	0.052301805
5	0xbd9c4f73	-0.07632341
6	0x3d36f848	0.044670373
7	0x3bb8796f	0.0056297104
8	0x3dd0a526	0.101877496
9	0xbc81e9b3	-0.015858507
10	0x3ca3480e	0.01993182
11	0xbcbf0255	-0.023316542
12	0xbd3364f4	-0.04379745
13	0xbd9f9f1b	-0.07794019
14	0x3da18fce	0.07888757
15	0xbd2cab18	-0.042155355
16	0x3ccb84f4	0.02484367
17	0x3e2e8217	0.17041813
18	0xbd5db9fc	-0.054132447
19	0xbdb9fd63	-0.09081533
20	0xbd601117	-0.0547038
21	0x3d203427	0.039112236
22	0x3b975fc9	0.004619573
23	0x3d214127	0.039368775
24	0xbd420fc4	-0.047378317
25	0x3d3748d4	0.04474719
26	0x3dd4d3f0	0.10391986
27	0xbd9fcb75	-0.07802478
28	0x3c7ffbb3	0.015623975
29	0x3d15b87b	0.036552887
30	0x3d5ac935	0.053414542
31	0xbbd3d75d	-0.0064648823
32	0xbd09d3e5	-0.033649344
33	0xbd559451	-0.0521434
34	0x3d3ab25f	0.045580264
35	0x3d7b365d	0.06133114
36	0xbcd0dd27	-0.025496079
37	0xbc8103da	-0.015748907
38	0xbd23ac90	-0.03995949
39	0xbdcf3294	-0.10117069
40	0x3ca795fe	0.020457264
41	0x3c0bcdf4	0.00853299
42	0xbd9a5deb	-0.07537445
43	0x3d3e380d	0.046440173
44	0xbde32401	-0.110908516
45	0x3cde01e8	0.027100518
46	0xbda77e8e	-0.08178435
47	0x3d8fdbc4	0.07024339
48	0x3d909f15	0.070615925
49	0x3c5f1436	0.0136156585
50	0xbd3bb327	-0.04582515
51	0x3c324365	0.010880326
52	0x3ca1ce9a	0.019751836
53	0xbc2dde3b	-0.010612066
54	0xbab602f8	-0.0013886383
55	0x3d34f89e	0.044182412
56	0x3e06321a	0.1310505
57	0x3db71620	0.08939767
58	0xbd820f67	-0.06350594
59	0xbddc9d96	-0.10772245
60	0xbc962457	-0.018327875
61	0x3d73d5d8	0.05953011
62	0xbe107f0e	-0.14110968
63	0x3be78ffb	0.0070667244
64	0xbba0df16	-0.0049094064
65	0xbb1fd598	-0.0024388786
66	0xbc0ad747	-0.008474178
67	0x3d5b25d9	0.05350289
68	0xbd0eaf0d	-0.03483491
69	0xbd6d5a1e	-0.05794727
70	0xbd6b5cf9	-0.057461713
71	0xbdd8a20d	-0.10577784
72	0xbe3a5434	-0.18196183
73	0x3c501c13	0.012702006
74	0x3cef8f11	0.029243024
75	0x3bc259af	0.0059311013
76	0xbd830330	-0.06397092
77	0xbd25d3ff	-0.04048538
78	0x3d3768ee	0.044777803
79	0x3d99dff1	0.075134166
80	0xbd255dee	-0.04037278
81	0xbb4c5fb4	-0.0031184973
82	0xbda52adb	-0.08064815
83	0xbd30c612	-0.043157645
84	0x3d53df1f	0.051726457
85	0x3d005fe0	0.031341434
86	0xbd0b5452	-0.03401596
87	0x3cb29641	0.021800162
88	0x3d5aef77	0.053451028
89	0xbd2ff0b7	-0.042954173
90	0x3d298f24	0.041396275
91	0x3c065b3d	0.008200464
92	0x3c9e78c1	0.01934469
93	0x3d03c9e4	0.03217496
94	0xbd9d26f7	-0.076734476
95	0x3d88e5bc	0.06684443
96	0xbd631b82	-0.055446155
97	0xbc8d974a	-0.017284054
98	0xbbd070a8	-0.006361086
99	0xbda73e8f	-0.08166229
100	0xbd936399	-0.07196731
101	0x3db79ad3	0.08965077
102	0xbd70fa94	-0.05883272
103	0xbd198856	-0.037483536
104	0xbd779599	-0.0604454
105	0xbd48a021	-0.048980836
106	0xbc847aa9	-0.01617177
107	0x3d8610d1	0.06546176
108	0xbd3033da	-0.0430182
109	0x3dcde527	0.10053473
110	0x3da8357c	0.08213326
111	0xbc3658de	-0.011129586
112	0xbd20c9e8	-0.039255053
113	0xbcd5345d	-0.026025945
114	0xbd8d3d49	-0.06896455
115	0x3d3bfead	0.045897175
116	0xbb921b50	-0.0044588223
117	0xbd810c48	-0.063011706
118	0x3c13b80e	0.00901605
119	0x3e00f7a7	0.12594472
120	0xbcdd11c8	-0.026986018
121	0x3d6b2a2b	0.05741326
122	0x3dc23722	0.09483172
123	0x3d479c71	0.04873318
124	0x3d26f875	0.04076429
125	0xbd08f495	-0.033436377
126	0x3d9bba6f	0.07603919
127	0x3d2022c0	0.03909564
128	0x3d293b39	0.041316245
129	0xbd0a9a74	-0.033838704
130	0xbd860055	-0.06543032
131	0x3cf3ca9b	0.029759696
132	0x3d80b66c	0.06284794
133	0xbc42b8e0	-0.011884898
134	0xbced6cea	-0.028982598
135	0x3d9b7ac5	0.07591776
136	0x3ddefc09	0.10887916
137	0x3d15f57d	0.03661107
138	0x3bceeac0	0.0063146055
139	0xbd93f04e	-0.07223569
140	0xbd86719c	-0.06564638
141	0x3dc8a2f0	0.09796703
142	0xbdab25b7	-0.08356803
143	0xbdad6327	-0.084661774
144	0x3d0e6975	0.03476854
145	0xbd8c010d	-0.06836138
146	0xbd6bc643	-0.057562124
147	0xbd273457	-0.0408214
148	0x3ca01806	0.019542705
149	0xbd2b1f77	-0.041778054
150	0xbe290cff	-0.16508864
151	0x3db277ef	0.08714282
152	0x3ca4dde6	0.02012534
153	0xbda74d57	-0.08169048
154	0x3d5271e1	0.051378135
155	0xbcc43d29	-0.023954945
156	0x3ca45dc7	0.020064248
157	0xbd54bb0a	-0.051936187
158	0xbdae3617	-0.085064106
159	0x3caf74d6	0.021418016
160	0xbc3b3f98	-0.011428736
161	0xbd57c079	-0.05267379
162	0x3cfab104	0.030601986
163	0x3d6ce36a	0.057834066
164	0x3d96853d	0.07349632
165	0x3d874c5c	0.06606361
166	0x3d4c92c1	0.049944643
167	0x3d9c8cfd	0.07644079
168	0x3bb65811	0.0055646976
169	0x3d8227f4	0.06355277
170	0xbd7f2414	-0.062290266
171	0xbd1a8c7e	-0.03773164
172	0xbc360488	-0.011109479
173	0x3da46c9e	0.080285296
174	0x3c55bffa	0.013046259
175	0xbcac7caf	-0.021055548
176	0x3d6cb0a2	0.057785638
177	0xbd1bfece	-0.038084798
178	0xbe0e6b05	-0.13908012
179	0xbc23328e	-0.009960784
180	0xbd1893ce	-0.037250333
181	0xbd44ef49	-0.048079763
182	0xbd0ab75d	-0.033866275
183	0x3d6d10bb	0.057877284
184	0xbda5dd5f	-0.08098864
185	0x3db66ae0	0.089071035
186	0x3ca5718e	0.020195749
187	0xbdfb143c	-0.12259719
188	0xbc6e9c0a	-0.01456357
189	0xbd763b9c	-0.06011544
190	0xbcf6756c	-0.030085288
191	0xbdf798d4	-0.120896965
192	0xbd7025cb	-0.058629792
193	0x3bc3397a	0.0059577795
194	0xbdb638df	-0.08897566
195	0x3bfb8583	0.007675828
196	0xbdc320c9	-0.09527738
197	0x3c6d7bc3	0.014494839
198	0xbd542122	-0.05178941
199	0x3db67c10	0.08910382
200	0xbe1ac32d	-0.15113516
201	0xbc905736	-0.01761971
202	0xbdaba1ef	-0.08380496
203	0x3d61b5b2	0.05510492
204	0xbdb7f30f	-0.089819066
205	0xbe30e660	-0.17275381
206	0xbd457be9	-0.048213873
207	0x3e00ad0c	0.12566012
208	0xbddbda7a	-0.107350305
209	0x3d16bfd5	0.03680404
210	0x3d17aee5	0.037032027
211	0xbce3c69b	-0.027804663
212	0xbeff1dd4	-0.49827445
213	0xbd685692	-0.056723185
214	0xbc6baa23	-0.0143838255
215	0xbd48e301	-0.049044613
216	0xbdb8ce97	-0.09023779
217	0xbdcb4dc1	-0.0992694
218	0x3d35f4e7	0.04442301
219	0x3d19652e	0.037450008
220	0xbe0579f5	-0.13034804
221	0xbaaa7847	-0.0013005816
222	0xbd3eac28	-0.0465509
223	0x3daa9916	0.0832998
224	0xbd1b6675	-0.037939508
225	0xbd53f242	-0.051744707
226	0xbdceb411	-0.10092939
227	0xbdbfdff7	-0.0936889
228	0x3d36ebc7	0.04465845
229	0x3d86a52c	0.06574473
230	0xbec39cce	-0.3820557
231	0xbcf518fc	-0.02991914
232	0xbd67b02b	-0.05656449
233	0xbb4dbc09	-0.0031392595
234	0xbdc6b789	-0.09702975
235	0x3d314807	0.04328158
236	0xbd0a021e	-0.033693425
237	0x3cfb7a94	0.030698098
238	0xbccddec9	-0.025130646
239	0xbde2f6cb	-0.11082228
240	0xbdcff461	-0.101540335
241	0x3d12c9c5	0.035836954
242	0x3cb5fbef	0.022214858
243	0xbdbf2c48	-0.09334618
244	0xbd853d74	-0.06505862
245	0xbd553bf2	-0.05205912
246	0xbdc62ed1	-0.09676898
247	0xbcccf918	-0.02502112
248	0xbd4aa9b1	-0.049478237
249	0x3d955ded	0.072933055
250	0xbcba92f0	-0.022775143
251	0xbd747b2b	-0.059687775
252	0x3d83b024	0.064300805
253	0xbdc923d9	-0.098212905
254	0xbd400641	-0.046880964
255	0xbd648792	-0.055793352

fc2.bias f4 [64]
0	0xbcea654e	-0.028612759
1	0x3db52da2	0.088465944
2	0x3c8c3df9	0.017119395
3	0x3e624a24	0.22098595
4	0xbd9fd076	-0.07803433
5	0x3e4d8a69	0.2007233
6	0xbe10de09	-0.141472
7	0xbd63fac4	-0.05565907
8	0xbe016d16	-0.12639269
9	0xbd83a8c2	-0.064286724
10	0xbd522867	-0.051308062
11	0x3d9bbb1d	0.076040484
12	0xbdf7f28c	-0.12106809
13	0xbd09a03d	-0.03360008
14	0xbd9f25b0	-0.0777086
15	0xbdadf96a	-0.084948376
16	0xbe104160	-0.14087439
17	0xbdacd637	-0.08439296
18	0x3d9946b6	0.0748419
19	0x3d26a10b	0.040680926
20	0x3de4819f	0.11157536
21	0xbc8f333b	-0.017480483
22	0x3de57fdc	0.11206028
23	0xbcc3781d	-0.023860985
24	0xbd9515b9	-0.07279534
25	0xbdc65754	-0.09684625
26	0xbd633a34	-0.05547543
27	0xbdbc3587	-0.09189897
28	0x3dd13e07	0.10216909
29	0x3d901d39	0.07036824
30	0xbe5a0a16	-0.2129291
31	0xbca58381	-0.020204308
32	0x3f29b8ce	0.66297615
33	0xbd0ff1cf	-0.035142716
34	0x3cef6f77	0.029227955
35	0xbe329fae	-0.17443725
36	0x3e0a4d30	0.13506007
37	0xbd74c1f0	-0.059755266
38	0x3dff08bf	0.1245284
39	0x3e49d84a	0.19711414
40	0xbda52117	-0.08062952
41	0xbe18519f	-0.14874886
42	0xbce01de3	-0.027358001
43	0xbde53310	-0.1119138
44	0x3d920e75	0.07131664
45	0xbdb6df48	-0.08929306
46	0xbe76161e	-0.24031875
47	0xbd0933fc	-0.03349684
48	0x3dda312b	0.10653909
49	0x3d21b7dc	0.039481983
50	0x3e5cfdf2	0.21581247
51	0x3ded71d6	0.11593978
52	0x3d971c30	0.07378423
53	0x3da212ce	0.07913743
54	0xbe40606d	-0.18786784
55	0x3cf8f1f1	0.030388804
56	0x3918e1b4	0.0001457993
57	0xbdc8ac3a	-0.097984746
58	0xbd7c52fd	-0.06160258
59	0x3db17550	0.08664954
60	0x3e033080	0.1281147
61	0xbd6d67d6	-0.057960354
62	0x3dd2ec1b	0.1029894
63	0xbc5be93e	-0.0134223085

fc_mu.weight f4 [3, 64]
0	0x3d40fcc4	0.047116056
1	0xbc1b6179	-0.0094836885
2	0xbec7eb01	-0.3904648
3	0xbe161afa	-0.14658728
4	0xbf05c675	-0.52255946
5	0xbf7477d6	-0.95495355
6	0xbed68923	-0.41901502
7	0xbee23c73	-0.44186744
8	0x3c114e15	0.008868714
9	0xbe581ed2	-0.21105507
10	0x3bbdb067	0.005788851
11	0x3cc11c36	0.023573022
12	0xbdbfc001	-0.09362794
13	0x3cb21220	0.021737158
14	0x3c073ccd	0.008254242
15	0xbef9474c	-0.48687208
16	0xbcd5a428	-0.026079252
17	0xbee5d362	-0.44887835
18	0xbea9847b	-0.33108887
19	0xbe6420b7	-0.22278105
20	0xbf28833f	-0.65825266
21	0xbf0109cd	-0.5040558
22	0xbfbacab9	-1.4593116
23	0xbde3231e	-0.110906824
24	0x3bee0039	0.00726321
25	0xbd98d245	-0.07461981
26	0x3d179d3d	0.03701519
27	0xbe2bf9ee	-0.1679456
28	0xbf9e4a54	-1.2366433
29	0xbb9b2d02	-0.00473559
30	0xbdddb192	-0.108248845
31	0xbee8c644	-0.45463765
32	0xbfc32d96	-1.5248287
33	0xbec67ce8	-0.3876717
34	0xbee6210f	-0.44947097
35	0xbb6f08a4	-0.0036473656
36	0xbee67778	-0.45013022
37	0x3c4b6c3a	0.01241594
38	0xbf1aaed4	-0.60423017
39	0xbeb701a6	-0.35743445
40	0x3cbc6a07	0.022999777
41	0x3d086bb7	0.03330585
42	0x3dc474a0	0.09592557
43	0xbd9fe362	-0.07807042
44	0xbec19a66	-0.3781311
45	0xbc281eb7	-0.010261229
46	0xbd812de7	-0.06307583
47	0xbedcbde0	-0.43113613
48	0xbfb03965	-1.3767515
49	0x3db17f4f	0.0866686
50	0xbede4ed5	-0.4341952
51	0xbf01482a	-0.5050074
52	0xbf6eab15	-0.932298
53	0xbe0a6fb9	-0.13519181
54	0xbe0626a7	-0.13100682
55	0xbc66986a	-0.014074424
56	0xbeaa2641	-0.3323231
57	0xbe4db6c7	-0.20089255
58	0xbe02f7c5	-0.12789829
59	0xbd699c08	-0.05703357
60	0xbda70272	-0.08154763
61	0xbe6ff33f	-0.23432635
62	0xbf7044be	-0.9385489
63	0xbf8ddea3	-1.1083568
64	0xbb5258e5	-0.0032096442
65	0x3e68ffa0	0.22753763
66	0xbebbe956	-0.3670146
67	0xbe80e116	-0.25171727
68	0xbe6e9135	-0.2329758
69	0xbbb24d18	-0.005441319
70	0xbf3500d7	-0.70704406
71	0x3c9db514	0.019251384
72	0x39e6b0d0	0.00044000754
73	0x3c8d2722	0.017230574
74	0xbdc5989f	-0.09648251
75	0x3dc27cd3	0.094964646
76	0xbe37d0f4	-0.17950803
77	0xbe56156c	-0.2090661
78	0xbd9a3f4d	-0.07531605
79	0xbd25ff42	-0.040526636
80	0x3c8f8ff3	0.017524695
81	0xbd6e5bf3	-0.05819316
82	0xbd52cb36	-0.05146333
83	0x3cf67a3c	0.030087583
84	0xbd2d8051	-0.0423587
85	0x3d6c6787	0.05771592
86	0x3cb44b14	0.022008456
87	0xbe8cd6d4	-0.2750765
88	0xbd13efd5	-0.036117394
89	0x3a965b85	0.0011471367
90	0x3e0e3cf9	0.13890447
91	0xbd6c281f	-0.05765545
92	0xbd2d3230	-0.04228419
93	0x3c98cb33	0.01865158
94	0xbeffcef4	-0.4996258
95	0xbeb4ee48	-0.35338044
96	0x3ad9f4db	0.0016628759
97	0x3d26f23d	0.04075836
98	0xbceb1606	-0.028697025
99	0xbe2439c6	-0.16037664
100	0x3d047d41	0.032346014
101	0xbe62175a	-0.2207922
102	0x3af2cdf8	0.0018524518
103	0xbbec61c1	-0.0072138016
104	0x3a102d05	0.00054998725
105	0xbe9390e4	-0.2882148
106	0xbbad63ee	-0.0052914536
107	0x3d7196b6	0.05898162
108	0xbd9c2e8e	-0.07626067
109	0x3cfda2eb	0.030961474
110	0x3dd703d6	0.104987785
111	0xbc9a7ede	-0.018859323
112	0x3bbcb1bf	0.0057584937
113	0xbe1b9935	-0.15195163
114	0x3d279db4	0.04092188
115	0x3e0cc641	0.13747503
116	0x3b257150	0.0025244541
117	0xbd939b97	-0.07207411
118	0xbd20f129	-0.03929249
119	0x3de85ca3	0.11345794
120	0x3d3e255c	0.046422347
121	0xbdecbaab	-0.115590416
122	0xbe811e09	-0.25218228
123	0x3e3a9304	0.18220145
124	0xbde8c982	-0.113665596
125	0xbeb6a068	-0.35669255
126	0x3d4ee0a8	0.050507218
127	0x3d088a31	0.033334915
128	0x3c30f083	0.01079953
129	0xbe02683e	-0.12735078
130	0xbed716ed	-0.42009678
131	0xbcc3d490	-0.023905069
132	0xbef6c56c	-0.48197496
133	0xbf6f327e	-0.9343642
134	0xbeb411b6	-0.35169762
135	0xbf06db29	-0.5267816
136	0x3d7933c3	0.06084038
137	0xbe27b2b6	-0.16376767
138	0xbc61349a	-0.013745451
139	0xbdbed13c	-0.09317252
140	0xbe1f5292	-0.15558842
141	0x3dac87cc	0.08424339
142	0x3dbf5ed4	0.09344259
143	0xbee4b208	-0.44667077
144	0x3af9af44	0.0019049426
145	0xbef792f6	-0.4835431
146	0xbed13d87	-0.40867254
147	0xbeca1136	-0.39466256
148	0xbf00b323	-0.5027334
149	0xbedcd625	-0.4313213
150	0xbfad4f8a	-1.3539898
151	0xbe27b0c5	-0.16376026
152	0x3d367b38	0.044551104
153	0xbdbe9372	-0.09305467
154	0x3d7392c4	0.05946614
155	0xbe30d05c	-0.17266983
156	0xbf5379ae	-0.82607543
157	0xbccd37d6	-0.025051039
158	0xbd88efe5	-0.06686381
159	0xbedf226b	-0.43580946
160	0xbfc9853d	-1.5743786
161	0xbeb34455	-0.3501307
162	0xbea448ab	-0.3208669
163	0xbe2252d8	-0.15851915
164	0xbf25e48f	-0.6480188
165	0xbd34c28a	-0.04413084
166	0xbf10664d	-0.564061
167	0xbef69dc0	-0.4816723
168	0x3b6429d2	0.0034814966
169	0x3dc08972	0.094012156
170	0x3d896834	0.06709328
171	0xbd89c55d	-0.06727097
172	0xbe970a85	-0.29500213
173	0x3d93f8e5	0.07225207
174	0xbe0803bb	-0.13282673
175	0xbedc4698	-0.4302261
176	0xbfa887ca	-1.316644
177	0xbb0dbdf2	-0.0021628109
178	0xbee6f39f	-0.45107743
179	0xbf059740	-0.52183914
180	0xbf5478a7	-0.829966
181	0xbe7962a6	-0.24354038
182	0xbddc7a8d	-0.10765562
183	0x3d725eaa	0.05917231
184	0xbea65316	-0.32485265
185	0xbe1e7fe0	-0.15478468
186	0xbdc71099	-0.097199626
187	0xbddac9fe	-0.10683058
188	0xbd5de23f	-0.054170843
189	0xbdc1afc4	-0.09457353
190	0xbf82e2c5	-1.0225455
191	0xbf99abb0	-1.200552

fc_mu.bias f4 [3]
0	0xbed0d2b3	-0.4078575
1	0x3da5c2f8	0.08093828
2	0xbe8d3566	-0.27579802
