LIRL results/Ablation result/ddpg_lirl_pi_multi_run_50_5/run_2_seed_294/ddpg_lirl_pi_q_target_20250905_150413.pth (torch, 151793 bytes, 7 tensors)

fc_s.weight f4 [64, 507]
00000000: 6351 66bd ed85 9f3c 102a cc3c 4bc4 e0bc
00000010: 3acb 50bd 9807 3cbd f6c3 1abd 4c59 76bc
00000020: a90b 46bc b299 ee3c 7189 46bd ce09 96bc
00000030: 2a2e d3bc f671 97bc 2dbd 1b3c 756c 01bd
00000040: 66c3 1ebd 8c96 0a3d 5f35 28bd ff32 abbc
00000050: bea4 97bb c5db 0fbd f943 d93c baf3 dcb9
00000060: fb1a 64bc 1ac2 2dbd c533 923c c7c4 303c
00000070: 1983 cfbc a461 75bc b34e 073c 9dc9 08bc
00000080: 1b91 6ebc a0b8 413c 32e5 57bc 0729 27bd
00000090: 302a 87bd 104e 27bc 8fab 91bc b09e 853c
000000a0: 7b98 00bd 45af 8cbc 96d5 a23b 7d41 1a3c
000000b0: 6c30 f5bc 9e70 e7bc b97c 42bc 810d dd3c
000000c0: eddc 04bc fec1 a83b 4574 01bd fa05 5bbc
000000d0: de76 9bba 8279 643c 313e 45bd ba77 003d
000000e0: 7a82 59bd e72a adbb a958 4ebd 9dc3 09bd
000000f0: a82e 3cbb 438d e8bc 79de d23b 10d5 bcbb
00000100: f175 dc3b 5790 393c 096b 593c fc22 043d
00000110: 1745 b83c a210 5dbd 064c a83c c38c ff3b
00000120: c6f4 a83c b6ef 1abd 7bb9 6dbc 2dab 9e3c
00000130: a840 b9bc 1f96 343c a0a8 b3bb 7d2f 04bd
00000140: 49fe 4ebd 9029 ca3c e94f c4bb 3a9b 58bd
00000150: 6a7c e03c ddb0 09bd 0849 b5bc fa0a 56bd
00000160: cd62 1c3c e0c3 3cbd 68de bfbc 618f 4bbd
00000170: 5999 44bb e77a 28bd c85b 35bb bebc 133c
00000180: b490 fc3c 244e 8bbc 7fa0 b83c 9d5e 85bc
00000190: 450a 02bc 4e15 12bc a87e b7bc d8e7 b9bc
000001a0: 78be 4fbd a050 b1bc f4f3 f9bc ec53 063c
000001b0: 264b 18bd 770a 22bb 346f 8c3c b931 c2bc
000001c0: a038 35bd 74f9 f6bb df53 25bd 6aab 54bb
000001d0: 6957 49bd 7ccd f23c 14e9 0cbd ec4c 033c
000001e0: d5cc 983c fd36 09bd b10b dc3c 3176 44bd
000001f0: f7f0 383c 61a9 4fbd b61f 93bc 0fe7 20bd
00000200: 7dda 0dbd 39d4 5b3c 6db1 05bc 23f5 6bbc
00000210: 8bbe fb3b 8c75 033d 2a99 6f3b d3ca f73c
00000220: f034 39bd 204b 34bd d700 21bd 5f85 23bd
00000230: 82d9 54bd 6e7c ab3c b66c 1bbc c172 49bd
00000240: f40f 863c c563 8abc 1541 0fbd 8c4a 863b
00000250: 3db4 0abd 7013 30ba fb02 e8bc eac3 52bd
00000260: 8667 99bc b13e 47bd 26a4 1ebd fedd 1bbd
00000270: 007e c43c c4c8 8e3c 595c 4abd c2fe 53bd
00000280: 3df0 993c 2528 09bd 839e e2bc fe57 90bc
00000290: 5401 f1bc d8ad cb3c 2dca 84bc 68de 3fbd
000002a0: 18e2 bbbc 9d7f 0cbd 2b57 fa3c 4451 8b3c
000002b0: 3dcc 9f3a 2d2a 8ebb d154 48bd 8acd d3bc
000002c0: 05c7 87bc 7607 af3c 1486 77bb 9e8e af3b
000002d0: a86d 3ebd 1366 743c 28e2 b5bc 1731 333c
000002e0: c90a cfbc 4d91 0ebc cf1a 28bd 2035 c03b
000002f0: 2e82 90bc 81d0 49bd 6ea2 ad3c 6d43 0fbd
00000300: 5d4b 9c3c 84b9 833c 8079 b2bc bfb9 b93c
00000310: f62b 12bc d50d 0abd 91a8 d23b d096 3dbd
00000320: 0120 dc3c 90c5 c93c 72de 6e3c f3b5 e2bc
00000330: d6dd 91bc 2a5d 003d f896 c73b 64e9 873c
00000340: 1183 523c 64b0 043d 386d cf3c 1b85 703c
00000350: 1daf 9b3c 963b 2b3c 9521 0ebd 5031 37bc
00000360: e7a4 21ba 61cc de3b 7487 093d 3e9e 2f3c
00000370: f143 dc3c ce0e 91bc 6f3f b13a 50dc 403c
00000380: 24e0 fbbc 0d77 09bd b03f 32bb 33b0 64bc
00000390: 8e5e 243d 3c67 823c 09a2 d43c 78b2 b8bc
000003a0: 8b5c 6abc 4d14 8ebb 7e4b 90bc 7417 0b3d
000003b0: 5f4d a4bc b497 983c 0c42 fdbc c8ea 32bc
000003c0: a82b 30bd dd67 913c 7787 a2bc 028e d2bc
000003d0: 6408 073b 63c9 ebbc cd5c 9d3c 12f4 ed3b
000003e0: 398c cebc b22c 8bbc edce 17bd 1875 30bd
000003f0: 707a 7fbd a82a 45bc 4c82 843b 5ed5 1ebc
-0.05622996 0.01947304 0.0249224 -0.02743735 -0.050975062 -0.04590568 -0.03778454 -0.0150359385
-0.012087741 0.029126022 -0.048470918 -0.018315222 -0.025778849 -0.018486958 0.009505552 -0.031597573
-0.038760565 0.03383498 -0.041066524 -0.02089834 -0.004627793 -0.035121698 0.02652167 -0.0004214326
-0.013922448 -0.042421438 0.017846951 0.010789103 -0.025331067 -0.014976893 0.008258509 -0.00834885
-0.014560963 0.011823803 -0.013177203 -0.04081061 -0.065998435 -0.010211483 -0.017782 0.01631102
-0.031395417 -0.017173419 0.004969309 0.009415028 -0.029930316 -0.028251942 -0.0118705565 0.026983978
-0.008109313 0.005150079 -0.031605024 -0.013368124 -0.0011860987 0.013944985 -0.048155013 0.03136418
-0.053102948 -0.0052846554 -0.05037752 -0.033633817 -0.0028714333 -0.028387671 0.006435212 -0.0057627037
0.006727927 0.011325917 0.013270148 0.032259926 0.022493882 -0.05397094 0.020544063 0.0077987625
0.02062453 -0.037826262 -0.014509554 0.019368732 -0.022613838 0.01102212 -0.005482748 -0.03227185
-0.050535474 0.024678022 -0.0059909713 -0.05288241 0.027403075 -0.033615936 -0.02212955 -0.05225656
0.00954504 -0.04608524 -0.023421481 -0.049697284 -0.002999863 -0.041132834 -0.0027673114 0.009017168
0.030830719 -0.017005034 0.022537468 -0.016280467 -0.007937019 -0.008916212 -0.022399262 -0.02269356
-0.050718755 -0.02164489 -0.030511834 0.0081987195 -0.037181042 -0.0024725476 0.01714287 -0.02370535
-0.044243455 -0.0075370613 -0.04036319 -0.0032450804 -0.049155626 0.029638998 -0.034401968 0.008013945
0.018652359 -0.033499707 0.026861044 -0.04796428 0.011287919 -0.05069864 -0.017959457 -0.039282855
-0.034632195 0.013417297 -0.008159977 -0.014401707 0.0076826266 0.032094523 0.0036559799 0.030248081
-0.0452165 -0.044016957 -0.03930744 -0.039922114 -0.051965244 0.020933356 -0.009486368 -0.049181703
0.016365029 -0.016893277 -0.034974176 0.004098242 -0.033863295 -0.00067167636 -0.028321734 -0.05145637
-0.018726122 -0.04864377 -0.038730763 -0.038053505 0.023985863 0.017429717 -0.049404476 -0.051756628
0.018791312 -0.03348555 -0.027663475 -0.017620083 -0.029419579 0.024863169 -0.016209686 -0.046842963
-0.022934958 -0.03430139 0.030559143 0.017006524 0.0012191605 -0.004338524 -0.048909012 -0.025854845
-0.016574392 0.021365862 -0.0037769126 0.0053575775 -0.046491295 0.0149169145 -0.022202566 0.010936997
-0.025273697 -0.008701635 -0.04104119 0.005865708 -0.0176402 -0.04927111 0.021195617 -0.03497641
0.019078905 0.016079672 -0.021786451 0.022671578 -0.008921614 -0.033704598 0.006428786 -0.046286404
0.02687073 0.024630338 0.014579402 -0.02767465 -0.017805975 0.03133885 0.006090995 0.016590782
0.0128486315 0.03239478 0.025320634 0.014680172 0.019004399 0.010451218 -0.034699995 -0.011181191
-0.0006166235 0.006799266 0.033576444 0.01071888 0.026887866 -0.017707255 0.0013522933 0.011771277
-0.030746527 -0.0335608 -0.0027198605 -0.013958025 0.040129237 0.015918367 0.02595617 -0.022546038
-0.0143042905 -0.004335916 -0.017614122 0.033957914 -0.020056425 0.018627025 -0.030915283 -0.010920234
-0.043010384 0.017749721 -0.019839985 -0.02570248 0.0020604366 -0.028782552 0.01920929 0.0072617615
-0.025213348 -0.016989086 -0.037062574 -0.04308042 -0.062372625 -0.012034096 0.004043853 -0.009694425

fc_s.bias f4 [64]
00000000: d396 89bc c873 efbd 9218 51bd e96a 4cbc
00000010: 3122 c5bd bb1b e7bd 90f3 b9bd 4b00 843e
00000020: 7780 36bb b8d9 01be 26ae 85bd 0856 ae3e
00000030: 296e 40bd d6ac 95bd edf4 03be 964e 13bc
00000040: 153f 87bd 1843 7abd 5a76 5cbc 2160 bc3e
00000050: 0fa2 9b3e f18a 9f3e 359b 983e a51e 9a3e
00000060: 0721 38be 8f49 613b 0e9e cf3e d9fc 42bd
00000070: 39a7 e23d 46d5 febd b82e 10be f2cd 183e
00000080: 4885 3ebd 1377 143d b78a 2fbd 9dee 86bd
00000090: 0e31 1dbd 4420 8ebc 3573 b23d 6330 3b3e
000000a0: 4438 f2bd e762 473c 261e 623e 1753 b73d
000000b0: 1005 8cbd 497f 80bd f31d d13c 9e49 95bd
000000c0: 64a4 86bd fddf 8bbd 1f71 a93e 9988 88bd
000000d0: 430a 69bd c3d3 c33e 433d 633e 3dfc 553c
000000e0: 62aa d3bc c7e2 063d dabe 52bd 273c a7bc
000000f0: e0bd aa3b 689e b9bd a286 c3bd 15e0 81bd
-0.016795551 -0.116920054 -0.051048823 -0.012476661 -0.09625662 -0.11284586 -0.09079659 0.25781474
-0.0027847567 -0.1268071 -0.06527357 0.34050012 -0.046980057 -0.073083565 -0.128864 -0.008990904
-0.06603829 -0.06109914 -0.013455952 0.3679209 0.30397078 0.3116069 0.29805914 0.30101505
-0.17981349 0.003437612 0.40550274 -0.047604416 0.110670514 -0.124430224 -0.14080322 0.14922312
-0.046513826 0.03624637 -0.0428569 -0.065884806 -0.03837686 -0.01734937 0.0871338 0.18280177
-0.11827138 0.012169576 0.22081813 0.08951395 -0.06836903 -0.06274278 0.025526976 -0.07289432
-0.06574324 -0.06829832 0.33094117 -0.06666679 -0.056894552 0.382475 0.22191338 0.013060627
-0.02583808 0.032931115 -0.05145154 -0.020414425 0.005210623 -0.09063417 -0.095471635 -0.063415684

fc_a.weight f4 [64, 3]
00000000: 440b 063f dfd3 b13d 09ef dcbe 551f 5f3d
00000010: d731 fc3e 807f d73e b393 c93e 3018 0bbf
00000020: 65c1 9dbd e5e8 22be 8a5f 543e b362 21be
00000030: f20e a43d 22fd 063e daea 3b3c bd74 063f
00000040: 6d42 423d 6f0c 363e b25b 3a3e 78cd 83bd
00000050: 37de 3e3e a2a6 07bd ed2f e4be 3a3b 9fbe
00000060: 09e3 51ba cc17 9fbe fd30 023f 6147 9e3e
00000070: 48c6 39bf 0f83 d9be 24d1 b8be 5303 a03e
00000080: 27f3 acbd 4b2d 063e 0ce0 fabe 83d4 a6bd
00000090: dca0 00bf af9c 5a3e 99d1 c93e bd81 873d
000000a0: 167f ca3e 1b32 443e b6db 70bd 1f0d a93e
000000b0: d19b 2cbd 4a49 ffbe c2f9 033f 2e4f b0bd
000000c0: 2abd f83c 6b5c 82be 1551 0e3f f20e 0abf
000000d0: 2d16 e8bd f8a4 f2bc a55c 593e 47f7 c93e
000000e0: 2662 02bf 2265 03bf 2158 073e 5c44 82be
000000f0: b4da cf3e f967 3f3e eb28 a53e 69b5 c3be
00000100: c627 d53e 9cf2 dcbe 33e8 dcbe 5790 91be
00000110: 06e0 cdbe 4ece b1be fd9d 3fbc bf14 173e
00000120: ee44 bebd 4146 6e3e 0ef6 5f3e d6bf c53e
00000130: 5eaf 033f ca67 10be d364 af3d 93b7 9e3e
00000140: 4373 7abe bf81 003f 8002 87be 8116 71bd
00000150: bcba 0b3f 0c08 0f3e 634b e7ba a0cd b1be
00000160: aca2 fcbd 30e3 b6be dc4b 053f 4d0e 0fbd
00000170: ed57 163e 101b 123e 26e6 02bd df8f 95be
00000180: ffec 953e 5a5d 9ebe 3bd3 8b3d 2c62 e839
00000190: 702e 13bf 00c8 813e 185e 693e ce59 ca3e
000001a0: accc 81be 0e15 c8be c8c0 fd3e b7dd da3e
000001b0: 2af8 f53e 43cc 0dbf 53c0 853e 441e dc3e
000001c0: 1d19 c23e aed3 9cbe 252e f0be e2af efbd
000001d0: b898 b5bd 9399 88be 2e7f ef3e 1acb 5c3d
000001e0: 97b7 57be 10db 5bbe cf94 afbe a0b7 8fbc
000001f0: 1b8c 93be 05e2 693e 37d8 47be 4d73 193f
00000200: 662d d0be d383 0ebd 80db 783e 6547 08bd
00000210: e9e8 94be 5702 0d3e 3ca2 f03e 4e49 4ebd
00000220: 002a 903e fc3d c1be f32b c23d 50ca adbe
00000230: e3dc 61be ef98 c9be d354 e03e f193 5ebe
00000240: dae7 04bf ce18 dabe dc91 223f 6782 80bd
00000250: e055 ecbd 4ea7 a8be 70f1 25bc 580a 2ebf
00000260: c54c 1dbf 967f b6bd 87bb aa3e 845e 333e
00000270: 2ece 3e3e 57a7 35be 1876 b53e d16c b53e
00000280: 49c1 39be 6e17 a3be b834 a03e 4617 b3bd
00000290: 71a6 11bd 74da dfbd 1670 70be a64b 953d
000002a0: bfc8 90be 0829 963e 6adc cc3e 7057 d63e
000002b0: 520d 0a3f af53 9f3e 17cc aebd ded1 10bd
000002c0: 20bb 32be bf6b 41be b3df 2dbe 2529 46be
000002d0: 49da 5bbd 20c8 5fbd 089d 0c3f 5345 c23e
000002e0: adc0 b93e a569 d7bd 420d 89be a5a1 cfbd
000002f0: 736a ccbe fc05 293e fcd6 1dbd 1f90 da3e
0.5236094 0.08682989 -0.4315112 0.05447324 0.49256775 0.42089462 0.39370498 -0.5433378
-0.07702903 -0.15909155 0.2073957 -0.15760307 0.08010663 0.131825 0.011469567 0.5252188
0.04742663 0.1777818 0.18199041 -0.064356744 0.18639456 -0.033117898 -0.44567814 -0.31099874
-0.0008006548 -0.31072843 0.50856 0.30913833 -0.7256818 -0.42482802 -0.36097062 0.31252536
-0.08444815 0.13103215 -0.4899906 -0.08146002 -0.5024545 0.21348833 0.39417723 0.066165425
0.39550084 0.19159739 -0.058803283 0.33017823 -0.042140786 -0.49860603 0.51552975 -0.08608852
0.030363638 -0.25461134 0.5559247 -0.53929055 -0.11332355 -0.029619679 0.21226747 0.3944647
-0.5093101 -0.5132619 0.13217212 -0.2544278 0.40596545 0.18692006 0.3225778 -0.38224342
0.41631907 -0.43153846 -0.43145904 -0.28430435 -0.4020998 -0.3472771 -0.011695382 0.14754008
-0.09290491 0.23268987 0.21871206 0.38622922 0.51439464 -0.14102092 0.085641526 0.3099943
-0.24458031 0.50197977 -0.26369095 -0.058859352 0.5458181 0.13967913 -0.0017646368 -0.34727192
-0.12335715 -0.35720205 0.5206888 -0.034925748 0.14681979 0.14268136 -0.031957768 -0.29211327
0.29282376 -0.30930597 0.068273984 0.00044323632 -0.57492733 0.253479 0.227898 0.3952164
-0.25351465 -0.39078563 0.49561143 0.4274728 0.48040897 -0.55389804 0.26123294 0.4299184
0.37909785 -0.3063025 -0.46910205 -0.11703469 -0.088670194 -0.26679668 0.46776718 0.05390463
-0.21066128 -0.21470284 -0.3429322 -0.017543614 -0.2881783 0.22840126 -0.19516073 0.5994156
-0.40659636 -0.034793686 0.24302483 -0.033271212 -0.29083946 0.13770424 0.46998775 -0.050362878
0.28157043 -0.37742603 0.09481039 -0.33943415 -0.22056918 -0.39374492 0.43814716 -0.21736123
-0.5191628 -0.4259705 0.63503814 -0.06274872 -0.11539817 -0.32940143 -0.010128364 -0.67984533
-0.61445266 -0.08911054 0.33346197 0.17516524 0.18633339 -0.17739616 0.3544166 0.35434583
-0.18140139 -0.31853813 0.3129022 -0.087446734 -0.03555912 -0.109303385 -0.23480257 0.072898194
-0.28278157 0.2932818 0.40011913 0.41863585 0.53926575 0.31118533 -0.08535021 -0.035356395
-0.17454195 -0.18888758 -0.16979866 -0.19351633 -0.05367497 -0.054634213 0.5492711 0.37943515
0.36279812 -0.10518197 -0.26767927 -0.10138253 -0.39924964 0.16506189 -0.038535103 0.4268808

fc_a.bias f4 [64]
00000000: 3e14 94be ac61 f93e 007b e83d c697 0ebf
00000010: f958 a13d 17f8 d7be e036 df3e e258 153f
00000020: 8680 d33e ce25 c2bd 1a8a 92be b3da 0dbe
00000030: bbb9 85bd cc9c de3e 09b1 fc3e 1f01 cf3e
00000040: 76a1 d83d 0629 91be c84c 833e accd 1e3f
00000050: fec5 1c3f f8a2 f03e cd63 24be 1e69 36be
00000060: e55e bf3e 1909 263f 71f5 023f bcc1 0a3f
00000070: b0b9 bfbe d81a bebb 3f7e acbe 0ab0 f13e
00000080: fb32 f73e 694b dbbe 2816 96be 2a30 dbbe
00000090: e981 b0be 8c48 063f 5eab a9be aa77 8bbe
000000a0: 8591 09bf ec87 153f bb30 b23c 9896 df3d
000000b0: 159b e43e a632 8b3e cc7f 123f 7c7f 11bf
000000c0: 2470 9a3e 8655 493e 10a7 193f 14f9 c13e
000000d0: 42ba cc3e c75c d3bd 3306 133d d8a3 a7be
000000e0: 59a9 28be f477 95be ef62 29bc 8675 163f
000000f0: d5de 31be 167b 263e 4739 0ebf 28ad b43e
-0.28921694 0.4870733 0.113515854 -0.5570034 0.07878298 -0.42181465 0.43596554 0.5833875
0.41308993 -0.09479867 -0.28620988 -0.13852958 -0.06529566 0.43479002 0.49353817 0.40430543
0.10577671 -0.2835161 0.25644517 0.6203258 0.6123961 0.46999335 -0.16053696 -0.17813537
0.37377086 0.6485763 0.51155764 0.54201865 -0.37446356 -0.00580154 -0.33690068 0.4720462
0.48281083 -0.4283097 -0.2931378 -0.42810184 -0.34474114 0.5245445 -0.33138555 -0.27239734
-0.5373767 0.58410525 0.021751752 0.10917395 0.44649568 0.2718708 0.5722625 -0.5683515
0.30163682 0.19661531 0.6002054 0.37885344 0.39985853 -0.1032043 0.035894584 -0.3274219
-0.16470851 -0.2919308 -0.010338529 0.58773077 -0.1737016 0.16257891 -0.5555615 0.35288358

fc_q.weight f4 [32, 128]
00000000: cd6e 81bd 4df1 97bd 1ec1 183c add0 05bd
00000010: 97b9 afbc 37a4 31bd da56 663d a3be 433d
00000020: c9a9 c1bd 8d37 85bd a65f 9fbd f0ce 0abd
00000030: 8bc1 6e3a bef4 92bd 7519 13bd 7fca b1bc
00000040: bd55 873d 1ff7 283d 0de9 0f3c b241 ac3d
00000050: 3d87 1ebe cf4a 39ba f414 42bd b754 60be
00000060: 824a f1bd 2db3 8cbd 3e64 bdba d41f 07bd
00000070: 41a2 d83c 0d8c 12bd fc34 813d 43b9 69be
00000080: f853 ce3c 8471 f63c dcf3 02bd 52cd e83d
00000090: 336a f83b 7de7 8f3d c811 b9bd 1fbb b23a
000000a0: 1bad 7a3b 4618 21bd d7c9 593e 3ac5 ea3d
000000b0: 938d fcbc ed2c 013d 767d b33d 4ef6 abbd
000000c0: a631 afbb 4688 42bc 4eea d33c f2af 633c
000000d0: 5709 aa3d add2 abbd e796 b4bc 3966 783d
000000e0: 19d8 45bd 3ed5 113d c0fe ba3c 7219 e1bb
000000f0: 4296 daba 8c2d 8fbd 06c2 25bd 28c2 32bd
00000100: f53c aabd 2eac 11bd acaf 1bbe deab ba3b
00000110: c28d 873c 48da 733d faa7 55bd 1aed d93b
00000120: 5471 a0bd 647a 74bd a533 54bd 7f4d 99bd
00000130: 11b4 4ebc 6df1 a3bd f268 b8bd eb27 ebbb
00000140: 2781 50bd 7dbd 823d ab03 07bb 8b80 0dbe
00000150: 875d 52bd 35bc 6dbd 1d9d 3b3d 488f c5bb
00000160: 74e2 8a3c 25fa 6ebc 4d34 86bd fba8 07bd
00000170: 34a6 87bd ec8c e63c 2f39 313d 12b6 03bd
00000180: 7fa8 74bd 02d8 2fbd d149 a2bc 414a 383d
00000190: f32b 7dbc 4381 2a3d 0518 783c 9124 66bd
000001a0: 0e76 9e3c ddc5 eabd 542b 5f3d 2a59 bfbd
000001b0: 6b8b c3bd ce41 debd 53d8 05bd 7947 20bd
000001c0: 972f afbd 6097 2f3d 7c9c e53c 1f67 b5bd
000001d0: c9b2 debd ee78 1dbe 8659 8bbd 1d5e 2cbd
000001e0: 5d37 173d c986 cbbd 61b5 4dbd 4135 d9bd
000001f0: 033b e4bd c373 94bb 6fc3 36bd b1b9 063d
00000200: 6fb6 f43c 2d7a a5bc b98c d03d 234b ffbb
00000210: efd2 273d 029b 543d dfe8 21bb 5b38 c93d
00000220: 2d8b c4bb 8375 3abe b2db 6fbc a18b 813c
00000230: 6d0d 183c 7e97 943b e4ad 52be 0101 5dbd
00000240: 754f 0a3d 808b 5dbd dbbc bbbd cea5 693e
00000250: a469 973d f741 463d eb17 d13d 034c d53d
00000260: 42f0 49bd 5738 913b 591a 7d3e f21e de3c
00000270: 69b6 a43c 89c8 74bd c3fc 963d 628e ce3d
00000280: 7e20 a3bc 424c 513e 0437 86bc 40a9 c2bd
00000290: 84e5 043d 7359 c4bc 7293 b43d b25f 3c3d
000002a0: af9c 2f3b c9b9 753d b177 583e 740a e23d
000002b0: 2118 ae3d 84de aebd 245d 823d c616 9b3d
000002c0: d79d 583d 3613 acbd c43a 113e 8d62 3b3b
000002d0: 15c3 0abd 298b 3c3e 750d 7f3e ed7d f3bc
000002e0: d080 30bd 9e72 28bd 4ede b43d 25d4 96bb
000002f0: 3032 0bbd e4ab 723d 20bc f13c 05b8 163d
00000300: 1670 9c3c 63c8 283e beb0 003e 295b 883d
00000310: 6889 c63d 1492 75bc f933 363e 3429 9a3d
00000320: 77fe dd3d 9170 aabb 752f a23d 3fbc b43d
00000330: 1796 bf3d 29cd 213e 62eb 0f3d 4bfb 123e
00000340: 43ad d93d 5211 57bd 38a6 513d ed09 493e
00000350: 140a 013e 7684 1f3d fdab 12bc 718c a9bd
00000360: 1236 673d 5fa3 b23d 945a a53d ff08 083e
00000370: 01c9 c4bc 9792 a93b 2586 0a3d 5978 f53d
00000380: 10ca 1c3e 1147 b9bc 9cf1 4e3d c2a3 9c3c
00000390: 7029 66bb d0cd d43d acac 5a3c 2e53 4dbd
000003a0: 6f67 42bd 8623 d73d ed76 c0ba a2c7 7abc
000003b0: 1ab7 4f3e de9d 673c 70e5 ec3d 4ef3 8bbd
000003c0: 96c7 653e d780 fa3d 503c 413e a0e5 143e
000003d0: 3bf4 2d3e 1317 a7bd 3e97 53bd d8f0 b13d
000003e0: 63f4 b83d 2146 b2bd ac80 8abd b128 1f3e
000003f0: 5cc7 483e 837e 643d f478 753d 5f6d 7f3d
-0.06319962 -0.07419071 0.0093233865 -0.03266971 -0.0214508 -0.043369498 0.05623517 0.047789227
-0.09456212 -0.06504736 -0.07781915 -0.033888757 0.00091078196 -0.07175587 -0.03591295 -0.021703003
0.0660815 0.041251298 0.008783591 0.08410968 -0.15481277 -0.0007068337 -0.047383264 -0.21907316
-0.11781789 -0.068701126 -0.001444943 -0.032989338 0.026444556 -0.035778094 0.06308934 -0.22824578
0.025186524 0.030083425 -0.031970844 0.11367287 0.0075810193 0.07026575 -0.09036595 0.0013636089
0.0038250152 -0.03932979 0.21268402 0.11463399 -0.030829227 0.031536985 0.08764164 -0.08396588
-0.0053464947 -0.01187331 0.025868561 0.013896929 0.08302563 -0.083897926 -0.022044612 0.060644362
-0.04830179 0.035603754 0.022826552 -0.0068694884 -0.001667686 -0.06991109 -0.04046824 -0.043642193
-0.08312408 -0.035564594 -0.15203732 0.0056967577 0.016547088 0.05953434 -0.052162148 0.006650579
-0.078341156 -0.059687033 -0.051807065 -0.07485484 -0.012616173 -0.08005033 -0.09004392 -0.0071763895
-0.05090442 0.06383798 -0.0020601552 -0.13818567 -0.051358726 -0.058040816 0.04580413 -0.0060290433
0.016953684 -0.014586006 -0.06552944 -0.033120137 -0.066234976 0.028143369 0.043267425 -0.032156058
-0.059731003 -0.04293061 -0.019810589 0.04499269 -0.015452373 0.04162718 0.015142445 -0.056187216
0.019343402 -0.11463521 0.05448468 -0.093431786 -0.09548076 -0.10852395 -0.032677006 -0.03913066
-0.08553999 0.04286897 0.02802872 -0.088575594 -0.10873944 -0.15378162 -0.068041846 -0.04208194
0.036918033 -0.099378176 -0.050221805 -0.106058605 -0.11144068 -0.0045304014 -0.044619974 0.032891933
0.029872147 -0.02019986 0.10183091 -0.0077909394 0.040972646 0.05190564 -0.0024705452 0.09825202
-0.0059980364 -0.1820889 -0.014639782 0.01581365 0.009280545 0.004534661 -0.20574147 -0.053956036
0.033767182 -0.054088116 -0.09166881 0.22817156 0.07393196 0.048402753 0.1020964 0.10414889
-0.049301393 0.004431765 0.24717082 0.027114365 0.020106511 -0.059761558 0.07372429 0.10085751
-0.019912954 0.20439246 -0.016383655 -0.09504938 0.032445446 -0.023968434 0.088171855 0.0459897
0.0026796272 0.05999163 0.21139409 0.1103715 0.08500696 -0.08538535 0.063654214 0.07572703
0.052884903 -0.08402102 0.14182574 0.0028592676 -0.03387745 0.1841246 0.24907477 -0.029723132
-0.043091595 -0.041124932 0.08831464 -0.0046029263 -0.03398341 0.05924596 0.02950865 0.03679659
0.019096415 0.16482691 0.12567422 0.066580124 0.09694177 -0.014988441 0.17793263 0.0752739
0.10839551 -0.0052014072 0.07919208 0.088249676 0.09354799 0.15800919 0.035136588 0.14353673
0.1062875 -0.052506752 0.05118391 0.19632693 0.12601501 0.038944684 -0.008952138 -0.0827874
0.05644805 0.08722567 0.08073917 0.13284682 -0.024021627 0.0051749456 0.033819336 0.11985845
0.15311456 -0.022616895 0.050523385 0.019121055 -0.0035119914 0.10390818 0.013346832 -0.050128154
-0.047461923 0.105048224 -0.001468388 -0.015306385 0.20284691 0.01413676 0.11567199 -0.06833516
0.22439417 0.122316055 0.18870664 0.1454072 0.16987698 -0.08158698 -0.051657908 0.086885154
0.09030988 -0.08704782 -0.067628235 0.15542866 0.196073 0.055784713 0.059929803 0.062360164

fc_q.bias f4 [32]
00000000: a8cf 003d 3d71 553e d6ca 31bc 2ddb 163d
00000010: e60a aa3b 8db1 db3d a3ae e4bc 9076 ff3d
00000020: c33b 67bd 4359 e0bd 2acc dabc 0660 aebd
00000030: 132d 97bd 488f bbbc 9e40 e83c f8e5 3ebd
00000040: 21eb 43bd 4719 a5bd 2611 91bd 76a8 4b3d
00000050: c99f cbbd 6064 053e aa66 54bd ecad c53d
00000060: 2236 5dbd cb33 9f3c 03a6 67bd 5e7a 70bd
00000070: 2111 c6bd fa11 d9bd 8508 353e 8f5a adbd
0.031448036 0.20843978 -0.0108515825 0.036830116 0.0051892875 0.107272245 -0.027915305 0.12473786
-0.056453478 -0.10954525 -0.026708681 -0.08514409 -0.07381644 -0.02289547 0.028351124 -0.046606034
-0.04783166 -0.08061462 -0.07083349 0.049721204 -0.09942586 0.13026571 -0.05185572 0.096523136
-0.054006703 0.019433876 -0.056554805 -0.05871045 -0.09671236 -0.10599132 0.17679031 -0.08464538

fc_out.weight f4 [1, 32]
00000000: 5435 c7bc 4883 05be fdf3 8a3c d892 13be
00000010: 6d53 9d3d 3f5b 16be 744d 023e 2e36 66be
00000020: f4c4 05be 1be4 f53d f6df a63b 409a 8cba
00000030: 7abf db3e 9639 233d 7378 1dbe 784c c93d
00000040: 8dbf 18be f908 a439 053b 96bd 6945 32bd
00000050: 807a 4f3b d07e 30be 82d0 e2bd b51b 34be
00000060: 9e0f 27be 4777 7abd 4998 df3d c817 16bc
00000070: 5d07 9fbc 1eb9 11bc 536d 05be 50ef 413c
-0.024317421 -0.13038361 0.016962046 -0.14411485 0.07681928 -0.14683245 0.12724859 -0.22481605
-0.13063413 0.12006398 0.005092616 -0.0010727122 0.42919523 0.03984984 -0.15377979 0.098290384
-0.14916821 0.00031287203 -0.07335476 -0.043523226 0.003165871 -0.17235875 -0.11074926 -0.17588694
-0.16314551 -0.061148908 0.10917718 -0.009160943 -0.01941269 -0.008894233 -0.13029985 0.011836842
