LIRL results/Robustness experiment/machine_breakdown/ddpg_lirl_pi_multi_run_20250920_failure_0.3/run_7_seed_42/ddpg_lirl_pi_q_target_20250920_232241.pth (torch, 151793 bytes, 7 tensors)

fc_s.weight f4 [64, 507]
-0.024596812 -0.021689221 -0.056779813 0.032800093 0.0027634462 -0.055080336 -0.0676044 -0.019900335
-0.041754212 -0.11348661 -0.06447303 -0.10672893 -0.02062863 -0.0474256 0.003037721 -0.16755196
-0.008182888 -0.03585484 -0.06315193 -0.031098567 0.0649576 -0.15467173 -0.13770325 0.011084332
-0.053433754 0.069128335 -0.15282172 -0.060362056 -0.18535721 -0.0913062 0.025006615 -0.105587244
-0.25364485 0.07294498 -0.13530417 0.014632683 -0.37660152 -0.070109285 -0.038545243 -0.07272892
0.23667613 0.0075490978 -0.1971202 -0.09957338 -0.084013574 0.023943828 0.090117045 -0.053254634
-0.11158127 -0.037803166 -0.13010463 -0.24926835 -0.10292764 0.01479547 0.0027423517 0.14493118
-0.05239136 -0.28016296 0.0058170925 -0.056408774 -0.10800591 -0.12995167 -0.101008356 -0.036330186
-0.0074274447 -0.071569994 0.023139847 -0.03883656 -0.039000474 -0.04729298 0.14675312 -0.0044126576
0.023522437 -0.055864137 -0.06326369 -0.08729729 -0.09349817 -0.056759696 -0.051501073 0.028708046
-0.324038 -0.19618143 -0.06101547 -0.008778561 -0.021444468 -0.0972191 -0.019090082 -0.012621574
-0.041395094 2.3705637e-05 -0.078316495 0.046347693 -0.0058322735 0.015420574 -0.04697633 -0.18079746
0.02258925 -0.033062357 -0.033820827 -0.061049 0.028577242 0.23384939 -0.06858639 -0.07507436
-0.04179519 -0.18008518 -0.10804917 -0.068698145 -0.08311205 -0.0725203 -0.12691188 -0.06225168
-0.0020853498 -0.120762855 -0.060455933 0.076617464 -0.02979993 -0.14208719 -0.05924149 -0.07478081
-0.12467739 -0.07263802 -0.04336205 -0.065239586 -0.064466216 -0.16676353 -0.019059533 0.01433223
-0.009284457 -0.052396633 -0.02880795 -0.026963491 -0.07418029 -0.0022396701 -0.041284826 -0.11607196
-0.0021354083 0.028879782 -0.0024562494 -0.03471117 -0.080945425 -0.06309531 0.015939228 -0.05113525
-0.028845137 -0.14224812 -0.031227462 -0.01841059 -0.0073157786 -0.06389699 -0.118712455 -0.057933908
-0.014823597 -0.04319814 0.030496186 -0.18267798 -0.016623193 -0.02475104 -0.0008992918 -0.04411903
0.03602468 -0.09028548 -0.04630503 -0.059477672 -0.0016969063 -0.04946062 -0.056744795 -0.012561412
-0.0408065 -0.075279996 -0.10507236 -0.0686147 -0.027240653 -0.06338589 -0.045679927 -0.21330713
-0.05351869 -0.004501785 0.014036069 -0.06215094 -0.12694317 -0.013180183 -0.04283529 -0.036155842
0.0028399078 -0.12276557 -0.034755133 -0.02814441 -0.032100488 -0.015589144 -0.10840875 -0.06473444
-0.023112282 0.017827207 -0.024736883 -0.14344555 -0.060192183 -0.022991955 -0.009663319 -0.007894737
-0.19282867 -0.06800971 0.017060168 -0.0030396304 -0.022549018 -0.17514992 -0.07890992 -0.08447997
-0.034816224 -0.0053423974 -0.11105623 -0.031416524 -0.059597626 -0.047047857 -0.02734906 -0.09822434
-0.1233944 -0.085831515 -0.0019666061 -0.037255548 -0.1622157 0.014694887 -0.040533807 -0.02924337
-0.06451986 -0.0026256996 -0.15214548 -0.0041545876 -0.051307358 -0.06417117 -0.038330268 -0.0738167
-0.030772232 -0.0147218965 0.0029254963 0.0070441775 -0.056969058 -0.08586132 -0.05839063 -0.061880484
-0.07046543 -0.12514232 -0.06592057 -0.025559086 -0.008092832 -0.094860144 0.04315641 0.10869289
-0.013198955 0.027417174 -0.111459896 0.223146 -0.015645333 0.10918842 0.08166077 -0.10082508
00000000: 417f c9bc 98ad b1bc f391 68bd 6459 063d
00000010: ef1a 353b eb9b 61bd 2d74 8abd 0706 a3bc
00000020: 7706 2bbd ab6b e8bd 700a 84bd b294 dabd
00000030: 5ffd a8bc 5941 42bd 8014 473b be92 2bbe
00000040: 8511 06bc 86dc 12bd cd55 81bd 6cc2 febc
00000050: 7d08 853d 4462 1ebe 1502 0dbe 0f9b 353c
00000060: 5add 5abd 2893 8d3d 4c7d 1cbe 343e 77bd
00000070: 48ce 3dbe bffe babd acda cc3c 203e d8bd
00000080: bddd 81be 2d64 953d 2d8d 0abe ecbd 6f3c
00000090: ead1 c0be 7595 8fbd 9ee1 1dbd e6f2 94bd
000000a0: 3a5b 723e 6c5e f73b e1d9 49be 21ed cbbd
000000b0: 4f0f acbd d925 c43c 498f b83d 8821 5abd
000000c0: b984 e4bd 7ed7 1abd 263a 05be 3440 7fbe
000000d0: bacb d2bd b368 723c 07b9 333b d768 143e
000000e0: 5398 56bd 8571 8fbe 4f9d be3b e30c 67bd
000000f0: 3432 ddbd 0d12 05be 78dd cebd f6ce 14bd
00000100: ec61 f3bb 4a93 92bd c78f bd3c 1613 1fbd
00000110: f6be 1fbd 49b6 41bd 7346 163e 0e98 90bb
00000120: 20b2 c03c cbd1 64bd 6590 81bd ecc8 b2bd
00000130: f87b bfbd db7c 68bd caf2 52bd 232d eb3c
00000140: 4fe8 a5be c9e3 48be 5ceb 79bd f4d3 0fbc
00000150: 4fac afbc cf1a c7bd ce62 9cbc b8ca 4ebc
00000160: e78d 29bd 78db c637 6664 a0bd 14d7 3d3d
00000170: a81c bfbb 93a6 7c3c 416a 40bd f822 39be
00000180: 170d b93c 656c 07bd b587 0abd 840e 7abd
00000190: d21a ea3c 3776 6f3e 0577 8cbd 96c0 99bd
000001a0: 6f31 2bbd 4068 38be e248 ddbd 9db1 8cbd
000001b0: a736 aabd 8685 94bd 30f5 01be 9efb 7ebd
000001c0: 5daa 08bb 8452 f7bd a4a0 77bd 9ee9 9c3d
000001d0: fc1e f4bc 4e7f 11be 34a7 72bd ae26 99bd
000001e0: dc56 ffbd 3ec3 94bd 689c 31bd 559c 85bd
000001f0: dd06 84bd 0fc4 2abe bd22 9cbc bbd1 6a3c
00000200: d61d 18bc da9d 56bd a6fe ebbc 8ae2 dcbc
00000210: d6eb 97bd 6ec7 12bb 471a 29bd 23b7 edbd
00000220: 35f2 0bbb 4b95 ec3c 07f9 20bb 4d2d 0ebd
00000230: b7c6 a5bd 1d38 81bd fc92 823c 3273 51bd
00000240: a34c ecbc 7ea9 11be bcd0 ffbc ced1 96bc
00000250: 33b9 efbb 6ddc 82bd 841f f3bd 1b4c 6dbd
00000260: acde 72bc 88f0 30bd 23d3 f93c f00f 3bbe
00000270: 5d2d 88bc b1c2 cabc 73be 6bba 28b6 34bd
00000280: 9d8e 133d 98e7 b8bd 58aa 3dbd dc9e 73bd
00000290: ba6a deba 3897 4abd 3b6d 68bd 61ce 4dbc
000002a0: b724 27bd 662c 9abd 2d30 d7bd dd85 8cbd
000002b0: ca27 dfbc 76d0 81bd e01a 3bbd 2f6d 5abe
000002c0: 6a36 5bbd b683 93bb 8af7 653c fc91 7ebd
000002d0: 64fd 01be b2f1 57bc 0f74 2fbd 2618 14bd
000002e0: bf1d 3a3b 846c fbbd 665b 0ebd 1b8f e6bc
000002f0: cd7b 03bd 9c69 7fbc 6805 debd 7d93 84bd
00000300: f855 bdbc 5d0a 923c 01a5 cabc 64e3 12be
00000310: 148c 76bd a059 bcbc e652 1ebc ed58 01bc
00000320: e174 45be ad48 8bbd c4c1 8b3c 8934 47bb
00000330: b8b8 b8bc 805a 33be 869b a1bd d603 adbd
00000340: 759b 0ebd 470f afbb 7371 e3bd 9dae 00bd
00000350: a41c 74bd 41b5 40bd 230b e0bc d829 c9bd
00000360: 34b6 fcbd 6fc8 afbd 2de2 00bb 4699 18bd
00000370: df1b 26be d3c2 703c c706 26bd cb8f efbc
00000380: fd22 84bd ee13 2cbb 06cc 1bbe 3523 88bb
00000390: aa27 52bd 2d6c 83bd 3300 1dbd 362d 97bd
000003a0: 0c16 fcbc 1c34 71bc afb9 3f3b d8d2 e63b
000003b0: 6358 69bd 0fd8 afbd 032b 6fbd 6476 7dbd
000003c0: 2e50 90bd 4f25 00be 5d01 87bd 4a61 d1bc
000003d0: cc97 04bc 0946 c2bd c7c4 303d 619a de3d
000003e0: 6e40 58bc fb99 e03c 1645 e4bd 6380 643e
000003f0: a42a 80bc 2e9e df3d c33d a73d 617d cebd

fc_s.bias f4 [64]
0.1255988 -0.17371087 0.018192345 -0.1287765 -0.07801616 -0.22146875 -0.19160514 -0.14670953
-0.07631712 0.013434354 0.21026213 0.061159056 -0.11442067 0.17411596 -0.087477945 0.0637464
-0.121187404 -0.16294467 -0.042243797 0.23974247 0.05434955 0.0050790305 -0.16176963 -0.11681125
0.28618264 -0.07010294 0.16720137 -0.10659132 0.25245315 -0.11048327 -0.18991917 -0.16097848
-0.1772513 -0.033202417 0.017741337 -0.18450634 -0.1738988 -0.1724337 -0.14158745 0.036360357
-0.106634066 -0.21498595 -0.060996905 -0.08550311 -0.08838423 -0.0032718263 -0.07172638 0.021966672
-0.15451503 0.014597833 -0.11034751 0.0420028 -0.13258314 -0.1045714 0.08099651 -0.085524336
0.28978175 -0.123618826 -0.25509787 0.18715405 -0.1941029 -0.11628014 0.03081677 -0.08363865
00000000: f99c 003e 43e1 31be 1d08 953c fddd 03be
00000010: f0c6 9fbd b4c8 62be 2334 44be 063b 16be
00000020: 264c 9cbd c41b 5c3c f54e 573e eb81 7a3d
00000030: 6255 eabd 744b 323e a327 b3bd 798d 823d
00000040: 1a31 f8bd f8da 26be d507 2dbd 0d7f 753e
00000050: a29d 5e3d ff6d a63b f0a6 25be bd3a efbd
00000060: 8886 923e 2192 8fbd d636 2b3e 8d4c dabd
00000070: 8a41 813e 0d45 e2bd 2c7a 42be 8bd7 24be
00000080: 5d81 35be 42ff 07bd 4856 913c 3bef 3cbe
00000090: 8712 32be 7692 30be 4dfc 10be 99ee 143d
000000a0: f662 dabd 4725 5cbe e4d7 79bd 411c afbd
000000b0: cb02 b5bd 236c 56bb 48e5 92bd 73f3 b33c
000000c0: 3039 1ebe c02b 6f3c e0fd e1bd 210b 2c3d
000000d0: e0c3 07be 8829 d6bd 80e1 a53d 6227 afbd
000000e0: 465e 943e de2b fdbd 309c 82be 50a5 3f3e
000000f0: e9c2 46be 4824 eebd 7373 fc3c be4a abbd

fc_a.weight f4 [64, 3]
0.06771715 -0.45064276 -0.13020417 0.27755463 -0.26319957 0.26356283 -0.4316066 0.00906988
-0.077141285 -0.42522344 -0.09242454 -0.27453348 -0.040068414 0.13901679 -0.09428755 -0.02665978
0.5086448 0.47247303 -0.2326749 0.1541546 0.2414343 0.013986336 0.0089599835 -0.28804272
0.16444452 -0.26243412 -0.10774305 -0.25325194 0.1975571 0.20147933 -0.49472943 -0.45530343
0.01085516 0.17354064 -0.55307 0.0450569 -0.40229896 -0.54296905 0.4532848 -0.37026194
-0.27536434 0.55803096 -0.3070336 -0.22405832 -0.49038222 -0.30302078 0.06782424 0.3010591
0.19198501 -0.23002659 0.10679494 -0.5193709 0.4862416 -0.8059209 0.33664772 -0.30352908
0.08785977 -0.6439361 0.031657815 0.43214494 -0.60645086 0.1670417 0.117084436 0.19677208
-0.29777667 -0.3243176 -0.05802063 0.27600965 -0.588858 -0.2706163 -0.3256595 -0.106534705
-0.414413 -0.31102753 -0.26529023 -0.39179152 -0.33901495 -0.252201 -0.090769574 0.54546165
-0.050695915 0.50783324 0.10979149 0.23362966 0.27150527 0.04705625 0.6214818 -0.3336062
-0.157716 0.10284163 0.04576518 -0.21914071 0.32213554 -0.49491423 0.5673263 0.17712775
-0.10445205 0.42004082 -0.16360708 -0.4343462 -0.26511267 0.45350215 -0.42292815 0.07543794
-0.24587387 0.4168983 -0.17662051 0.5458552 0.5342144 0.076625794 -0.39938012 0.16433686
-0.2720032 -0.4561546 -0.08306424 -0.030205835 0.094070494 -0.022691768 0.16670251 -0.022927834
-0.4999267 0.08593889 0.19013783 0.45702526 -0.46751395 -0.24054621 -0.3072341 -0.19961499
-0.051300164 0.578814 -0.31730175 -0.4112145 -0.029421361 0.18651815 0.49280024 0.17351386
0.55440867 0.14199996 -0.5364016 0.17983158 -0.0016437725 -0.17858315 0.12556252 -0.3361786
0.50450104 -0.39785892 0.41675517 0.27875158 0.26081672 -0.23048711 -0.5583825 0.40707308
-0.8989408 -0.46124086 -0.035513207 -0.43918833 0.15541396 0.5087662 -0.06877295 -0.115871206
-0.2432201 0.17725156 0.14405893 0.49978518 -0.5151001 0.21207196 -0.3062654 0.28872713
-0.17410009 0.49863094 -0.2129067 -0.5653197 -0.06978583 0.5400473 -0.50286984 0.024976283
-0.017071333 -0.18314195 0.30428022 -0.21018349 -0.35339704 0.5686301 -0.3872261 -0.16210543
0.4913424 -0.2000766 0.24871758 0.44543794 -0.08604169 -0.07243036 -0.061209437 0.17875795
00000000: 4aaf 8a3d a6ba e6be 3e54 05be a41b 8e3e
00000010: 18c2 86be b5f1 863e 8afb dcbe d599 143c
00000020: 40fc 9dbd e3b6 d9be 1449 bdbd a78f 8cbe
00000030: c71e 24bd 6b5a 0e3e d519 c1bd 9c65 dabc
00000040: 8c36 023f fce7 f13e 5442 6ebe b4da 1d3e
00000050: 8e3a 773e f226 653c e5cc 123c 567a 93be
00000060: 2564 283e c45d 86be 63a8 dcbd 3daa 81be
00000070: 694c 4a3e 9950 4e3e 2d4d fdbe 881d e9be
00000080: d7d9 313c a3b4 313e ff95 0dbf 958d 383d
00000090: 21fa cdbe 0500 0bbf f214 e83e f992 bdbe
000000a0: 8efc 8cbe 1edb 0e3f 8233 9dbe 8b6f 65be
000000b0: 6113 fbbe 8a25 9bbe 6fe7 8a3d 6b24 9a3e
000000c0: b897 443e 178c 6bbe 4eb7 da3d 7ef5 04bf
000000d0: a9f4 f83e d550 4ebf 175d ac3e 2a68 9bbe
000000e0: d3ef b33d ffd8 24bf a0ab 013d 1a42 dd3e
000000f0: 5d40 1bbf fb0c 2b3e f7c9 ef3d 9f7e 493e
00000100: 2f76 98be f50c a6be 0aa7 6dbd 2351 8d3e
00000110: 66bf 16bf 388e 8abe d8bc a6be de2e dabd
00000120: f12d d4be 003f 9fbe 1fd4 87be e698 c8be
00000130: 5e93 adbe 7d20 81be 66e5 b9bd 60a3 0b3f
00000140: 85a6 4fbd 5c01 023f 5cda e03d 9d3c 6f3e
00000150: bd02 8b3e 0ebe 403d 6e19 1f3f 6fce aabe
00000160: 4e80 21be a29e d23d 4574 3b3d 6c66 60be
00000170: f3ee a43e 6665 fdbe 4c3c 113f fa60 353e
00000180: f5ea d5bd 970f d73e 9d88 27be a062 debe
00000190: d9bc 87be 6f31 e83e 0a8a d8be 357f 9a3d
000001a0: 5cc6 7bbe b273 d53e 02dc 34be 2bbd 0b3f
000001b0: 46c2 083f fced 9c3d 8d7b ccbe ec47 283e
000001c0: 0144 8bbe 198d e9be 961d aabd 3a72 f7bc
000001d0: 08a8 c03d 16e4 b9bc 10b4 2a3e 27d3 bbbc
000001e0: 64f6 ffbe bb00 b03d 7eb3 423e 37ff e93e
000001f0: fd5d efbe bf51 76be ca4d 9dbe df67 4cbe
00000200: 1f20 52bd 282d 143f 6075 a2be b58a d2be
00000210: 1105 f1bc 9dfe 3e3e 5050 fc3e 9ead 313e
00000220: baed 0d3f 7068 113e 9e51 09bf c525 383e
00000230: da73 d7ba 80de 36be 7693 003e 9a1f acbe
00000240: fb26 013f 2ab4 cbbe ef60 d53e 87b8 8e3e
00000250: c589 853e d004 6cbe 28f2 0ebf e26b d03e
00000260: fc20 66bf c327 ecbe 4c76 11bd 4bdd e0be
00000270: d624 1f3e 803e 023f d5d8 8cbd e24d edbd
00000280: b10e 79be 6f81 353e 2f84 133e d8e3 ff3e
00000290: 9add 03bf 6429 593e d2ce 9cbe 0bd4 933e
000002a0: 4b47 32be 8e4c ff3e 3704 5abe cbb8 10bf
000002b0: e0eb 8ebd 8a40 0a3f 14bc 00bf 109b cc3c
000002c0: 2ed9 8bbc 9089 3bbe 9eca 9b3e 573a 57be
000002d0: 75f0 b4be be91 113f 8042 c6be f7fe 25be
000002e0: 3b91 fb3e e1e0 4cbe d2af 7e3e 7110 e43e
000002f0: a036 b0bd 5e56 94bd bfb6 7abd 530c 373e

fc_a.bias f4 [64]
-0.07668621 0.7236164 -0.014555561 -0.46336564 0.6321174 0.2704718 0.33799595 -0.029615529
0.5552051 -0.41409552 -0.1344483 -0.54287964 -0.13850494 -0.5759232 0.60048413 -0.4765431
0.034578297 -0.26865098 0.42701185 0.057258774 -0.01496867 0.55481774 0.61698854 0.7369779
-0.22016807 -0.26124775 0.6474391 0.39611325 0.2322644 -0.2936651 -0.44335738 0.46486393
0.09703044 0.7318486 -0.080547564 0.5904633 0.18376923 0.20497535 0.27784467 0.6072486
0.5027709 0.6439522 0.30551827 0.4738908 0.24847697 0.5461612 0.37252408 -0.12824996
0.19186519 -0.12097661 -0.21761584 -0.25847283 0.12975518 0.58197224 0.64384115 0.51609755
0.38164026 -0.27616808 0.07262258 0.6696419 0.47386783 -0.49435246 -0.4359993 0.6756676
00000000: a90d 9dbd ed3e 393f 737a 6ebc 433e edbe
00000010: 72d2 213f 487b 8a3e ce0d ad3e 449c f2bc
00000020: ec21 0e3f 5404 d4be d1ac 09be 29fa 0abf
00000030: 3dd4 0dbe b46f 13bf 54b9 193f 75fd f3be
00000040: f9a1 0d3d 9f8c 89be 4ca1 da3e 2d88 6a3d
00000050: 273f 75bc 8908 0e3f f6f2 1d3f 95aa 3c3f
00000060: bd73 61be 44c2 85be 92be 253f 5bcf ca3e
00000070: b8d6 6d3e 465b 96be bdff e2be a502 ee3e
00000080: e5b7 c63d 6e5a 3b3f 1ff6 a4bd 9a28 173f
00000090: 002e 3c3e 0fe5 513e a841 8e3e a574 1b3f
000000a0: 98b5 003f 0dda 243f e46c 9c3e d1a1 f23e
000000b0: bf70 7e3e 38d1 0b3f 7abb be3e f553 03be
000000c0: 4f78 443e 96c2 f7bd b0d6 5ebe 8d56 84be
000000d0: 8bde 043e 22fc 143f c6d2 243f f81e 043f
000000e0: 5a66 c33e e765 8dbe 26bb 943d a76d 2b3f
000000f0: ce9e f23e c41b fdbe 4d3b dfbe 8df8 2c3f

fc_q.weight f4 [32, 128]
0.09206354 -0.13393982 0.06387124 -0.23074697 -0.26012024 0.24536894 -0.101587124 -0.3839225
-0.036625225 -0.18831809 -0.14614421 0.03418034 -0.21787494 -0.19420585 -0.20252249 0.2568501
0.36532965 -0.14598536 -0.26180488 -0.035567064 0.32940367 -0.22907332 -0.32560825 -0.7205003
-0.31182054 -0.2263936 0.038260102 0.20085838 0.047684956 -0.36762 -0.08905842 -0.30049634
-0.20143312 -0.35342383 0.18593077 0.11971905 -0.58945096 -0.16615988 -0.04365779 0.3001676
-0.13411714 -0.18462111 0.21252581 0.17455567 -0.2076109 0.07642522 -0.28802168 -0.2455407
-0.16651262 0.043492638 -0.18809362 0.13003516 -0.3326489 -0.1444764 0.13108331 -0.30184758
-0.082282856 -0.24451812 0.02265874 0.0644253 -0.26280907 -0.30455467 -0.22725484 -0.20961668
0.009915636 0.12182008 0.00011895948 0.05274532 0.064520136 0.05781471 -0.016711473 0.010340624
0.09660273 -0.06687257 0.08771674 0.060355213 0.08043133 -0.07297083 0.2733908 0.08357776
0.13212417 -0.32209405 -0.11893964 -0.36510158 -0.190505 0.08641234 0.040409524 0.13354689
0.025988527 0.008893322 0.10874504 -0.02697596 0.006184483 -0.006139238 -0.06090913 -0.03394586
0.014335682 0.055371944 -0.07163964 0.012177956 0.14242269 0.21344934 0.0062817913 0.048168294
-0.053552784 0.14145994 0.50313884 0.15784402 0.044957917 0.013133477 0.16304706 -0.057793837
-0.007164778 -0.00019529207 -0.3072999 0.08422299 -0.02625981 0.12323791 0.03248961 0.103229865
0.11695249 0.060142826 -0.25436255 0.06751106 0.09077239 0.008833137 0.0056459387 0.1440157
-0.08366638 0.0103022065 0.02160391 0.0772991 0.06372264 -0.027930578 0.017093323 -0.06536177
-0.0059489687 -0.03617149 0.0787624 0.050019145 -0.063031234 0.08751833 -0.09168767 0.0048623933
0.045665767 0.042879246 0.03239627 -0.019277837 0.07760755 -0.0035012874 -0.01841543 -0.036459822
-0.09020203 -0.036682595 -0.014594677 0.0052795326 -0.01571981 0.0042083245 0.005092616 -0.048881445
-0.00764109 -0.08261733 0.0066951443 0.07560185 -0.037085675 0.035692416 -0.032730058 -0.03347437
-0.011297233 -0.09631748 0.0497323 0.060318094 0.00010207669 -0.0020776663 -0.05523158 -0.05465863
0.02513735 0.0330929 0.03867861 -0.068154246 0.046445098 -0.092011034 0.068531245 0.00216237
-0.13839465 -0.07789962 -0.08395695 -0.03360327 0.024157971 -0.08486145 0.074339725 -0.059179645
-0.02820171 -0.015743652 -0.049957987 -0.003953996 -0.12814863 -0.12374458 -0.045470566 -0.03671836
0.023076518 -0.050451875 0.049513936 0.06504871 -0.023560584 -0.016583467 -0.025985975 -0.047849886
0.0025640964 -0.09698952 -0.017892402 -0.09320611 0.022718145 -0.11473682 -0.08009755 -0.017268786
-0.061523523 0.0071206996 0.0315551 -0.01180257 0.02959094 -0.06673995 0.046136595 -0.05288539
-0.050653193 -0.073596165 -0.074743554 0.021721257 0.0002573043 -0.14023049 0.028160054 0.032792643
-0.089848876 -0.020522458 -0.021728337 -0.13061328 -0.0033943714 0.03024212 -0.10200377 -0.08084708
-0.072641 0.013083884 -0.08935118 -0.004796332 -0.04893509 -0.0027413275 -0.007900138 -0.024233596
-0.14369652 0.05778789 0.0025826297 -0.05056006 -0.12892349 -0.098722525 0.016812066 0.026625233
00000000: cf8b bc3d 8527 09be edce 823d ef48 6cbe
00000010: 7b2e 85be ff41 7b3e e90c d0bd 7d91 c4be
00000020: 5504 16bd 75d6 40be d4a6 15be af00 0c3d
00000030: 9c1a 5fbe e6dd 46be 0e62 4fbe db81 833e
00000040: 7d0c bb3e 307d 15be 4a0b 86be c5ae 11bd
00000050: 99a7 a83e 3292 6abe 20b6 a6be b572 38bf
00000060: f1a6 9fbe b9d3 67be a0b6 1c3d d2ad 4d3e
00000070: 4d51 433d b038 bcbe 4364 b6bd a8da 99be
00000080: 7c44 4ebe f8f3 b4be a364 3e3e 432f f53d
00000090: 42e6 16bf d125 2abe 83d2 32bd 91af 993e
000000a0: 0156 09be 510d 3dbe 5ea0 593e b9be 323e
000000b0: f497 54be d384 9c3d 9477 93be 056f 7bbe
000000c0: 4982 2abe 5625 323d 9d9b 40be f027 053e
000000d0: f550 aabe 9ff1 13be b43a 063e c48b 9abe
000000e0: ea83 a8bd f562 7abe d29e b93c 69f1 833d
000000f0: e98e 86be 97ee 9bbe 7eb5 68be c1a5 56be
00000100: 3175 223c ce7c f93d e279 f938 7a0b 583d
00000110: 2223 843d 1ecf 6c3d 80e6 88bc b86b 293c
00000120: a7d7 c53d 7cf4 88bd d6a4 b33d 0737 773d
00000130: 2eb9 a43d bb71 95bd e1f9 8b3e d12a ab3d
00000140: 8f4b 073e 83e9 a4be a096 f3bd 98ee babe
00000150: be13 43be f4f8 b03d 7584 253d 84c0 083e
00000160: e4e5 d43c 4cb5 113c b8b5 de3d b0fc dcbc
00000170: 34a7 ca3b a92b c9bb da7b 79bd d00a 0bbd
00000180: 35e0 6a3c b1cd 623d ceb7 92bd 0d86 473c
00000190: 41d7 113e 7792 5a3e 7cd7 cd3b 1e4c 453d
000001a0: 2a5a 5bbd e0da 103e b5cd 003f dda1 213e
000001b0: cb25 383d cc2d 573c cff5 263e 3bb9 6cbd
000001c0: 84c6 eabb 51c7 4cb9 6a56 9dbe 1a7d ac3d
000001d0: d01e d7bc 2864 fc3d d313 053d 2e6a d33d
000001e0: c984 ef3d 5358 763d cf3b 82be 3d43 8a3d
000001f0: e0e6 b93d ddb8 103c 9101 b93b da78 133e
00000200: 4759 abbd 96ca 283c affa b03c fe4e 9e3d
00000210: 0481 823d abce e4bc 4c07 8c3c 64dc 85bd
00000220: 91ef c2bb 8e28 14bd 2e4e a13d e0e0 4c3d
00000230: 8516 81bd cf3c b33d bfc6 bbbd b654 9f3b
00000240: 070c 3b3d 26a2 2f3d f4b1 043d 8eec 9dbc
00000250: b5f0 9e3d db75 65bb f5db 96bc e556 15bd
00000260: d8bb b8bd 7d40 16bd 831e 6fbc eeff ac3b
00000270: d5c6 80bc fce5 893b f6df a63b e937 48bd
00000280: 1c62 fabb 4633 a9bd f162 db3b 25d5 9a3d
00000290: 26e7 17bd 3632 123d f40f 06bd 6c1c 09bd
000002a0: 0818 39bc 1942 c5bd 19b4 4b3d 1b10 773d
000002b0: 0112 d638 7529 08bb 823a 62bd bae1 5fbd
000002c0: d8ec cd3c 6c8c 073d 766d 1e3d 7494 8bbd
000002d0: 373d 3e3d 4870 bcbd 1c5a 8c3d 8cb6 0d3b
000002e0: 54b7 0dbe d689 9fbd 9ff1 abbd 95a3 09bd
000002f0: f0e6 c53c d7cb adbd 6d3f 983d 5b66 72bd
00000300: 4607 e7bc d5f8 80bc bfa0 4cbd 8690 81bb
00000310: 6539 03be cc6d fdbd 583f 3abd fe65 16bd
00000320: f70a bd3c a0a6 4ebd 20cf 4a3d 4238 853d
00000330: 2002 c1bc 0dda 87bc 8ae0 d4bc 3efe 43bd
00000340: 660a 283b 71a2 c6bd 1693 92bc d8e2 bebd
00000350: 671b ba3c 23fb eabd 2f0a a4bd 4577 8dbc
00000360: 1700 7cbd c254 e93b ec3f 013d 915f 41bc
00000370: b368 f23c f4ae 88bd baf9 3c3d 5a9e 58bd
00000380: b979 4fbd 96b9 96bd 2613 99bd c7f0 b13c
00000390: cce6 8639 9598 0fbe eaaf e63c 9451 063d
000003a0: b002 b8bd b71e a8bc a0ff b1bc 7dbf 05be
000003b0: 1a74 5ebb 53be f73c 5ae7 d0bd 2793 a5bd
000003c0: cec4 94bd c95d 563c c0fd b6bd 8d2a 9dbb
000003d0: 2970 48bd d8a7 33bb 956f 01bc 8985 c6bc
000003e0: 2e25 13be ffb2 6c3d 5641 293b 1118 4fbd
000003f0: 8504 04be 092f cabd 75b9 893c 291d da3c

fc_q.bias f4 [32]
0.03740765 -0.10961082 0.26029176 -0.11369672 -0.040879514 0.14550953 0.20233224 -0.13485388
-0.049837355 0.0018739043 -0.10741587 0.30338827 0.11879138 0.22154826 -0.014099974 -0.0920006
0.022058109 -0.026233483 -0.060180567 0.015857881 0.18336588 0.15504129 0.041814394 -0.083270006
-0.026152216 0.26502958 0.040077023 0.1593318 -0.11299543 0.17098428 -0.08310162 -0.118465096
00000000: c438 193d a37b e0bd f644 853e d3d9 e8bd
00000010: 4771 27bd 7300 153e 2f30 4f3e 2317 0abe
00000020: 4122 4cbd cb9d f53a dafc dbbd b555 9b3e
00000030: e548 f33d 8cdd 623e 9403 67bc d06a bcbd
00000040: 35b3 b43c 9ae7 d6bc e67f 76bd 63e8 813c
00000050: 44c4 3b3e 25c3 1e3e 9245 2b3d 7789 aabd
00000060: 2c3d d6bc f5b1 873e ce27 243d e027 233e
00000070: 266a e7bd 8116 2f3e 2f31 aabd d49d f2bd

fc_out.weight f4 [1, 32]
-0.16922283 -0.0012718037 -0.12737522 -0.0998252 -0.08957022 -0.18418871 -0.2455059 0.0019814312
0.14102025 0.14251037 0.14995201 -0.328182 -0.32371244 -0.11837723 -0.11190098 -0.05386961
0.14872536 0.07938747 -0.1458291 0.06832679 -0.1793331 -0.25118053 0.0933824 0.011029757
0.0970825 -0.18915826 -0.016919432 -0.053488024 0.21688956 -0.22950424 0.03494586 0.016783379
00000000: c048 2dbe a7b2 a6ba a66e 02be 2871 ccbd
00000010: 9770 b7bd f79b 3cbe e665 7bbe e6da 013b
00000020: 9d67 103e 3dee 113e 058d 193e 7907 a8be
00000030: a3bd a5be c36f f2bd 572c e5bd 61a6 5cbd
00000040: 764b 183e e695 a23d 3954 15be ebee 8b3d
00000050: 19a3 37be bc9a 80be 463f bf3d 27b6 343c
00000060: 31d3 c63d b4b2 41be 9f9a 8abc 4216 5bbd
00000070: 4c18 5e3e 2903 6bbe 6423 0f3d 4c7d 893c
