LIRL results/Ablation result/ddpg_mask_multi_run_100_5/run_4_seed_1092/ddpg_mask_q_20250905_105138.pth (torch, 322597 bytes, 7 tensors)

fc_s.weight f4 [64, 1007]
00000000: 0035 72bd 2884 91bd 67b9 0cbd ae35 e43a
00000010: f1d1 edbc 3c46 0abd fa6e bd39 d8f9 87bc
00000020: d0b7 3dbc dd96 0bbd 1823 18bd 056a cabd
00000030: b5ef 243c 3329 3abc 2395 14bd 9b1a d1bd
00000040: ea29 683c 331d 63bd 08b0 87bd dfe0 ae3b
00000050: 6cda 05be 6108 42bd b9da aabc 6d18 ad3c
00000060: 1913 08bd 6485 86bc b517 293c ea06 d3bb
00000070: 0045 26bc c25a 7dbc 8fef 39be 3847 15bd
00000080: 692b 12bd 472f 24bc 5398 edbc e47a 9bbd
00000090: 5c05 d83d 6c66 1bbe 3f41 633c 3fa9 733c
000000a0: 647b 49bd 84d9 81bc 2598 a93c 1fde c9bc
000000b0: 4f53 773b 2d64 f7bd aa99 2ebd 685a 8d3b
000000c0: ff9a 60bc c76c 8b3c 3362 d6bd ac30 903b
000000d0: d8c8 fa3a 6f1d 08bd 0773 abbc b4fa c3bd
000000e0: 85d0 0b3c a2ad 0bbc 4dfe 55bc 451f 863c
000000f0: e198 babd 9825 c8bc fd90 153b 3047 1b3c
00000100: e71b 9ebc 541d 34be d62a 09bd 0d68 b0bc
00000110: 6ca5 f8bc cd2c 5c3b 67dc c5bd 8072 ebba
00000120: 4f42 94bc f047 98bb ec99 b23a d88f 84be
00000130: f436 503c 3809 be3b cdd6 5abc d087 643c
00000140: 1485 ffbd 3377 edbc 763c 8d3c 67e1 ffbc
00000150: 8158 6e3c b328 0dbe 7f13 9ebc 3931 723c
00000160: dfe3 12bd 505d 7cbc 43c9 103d 1950 9cbd
00000170: 39e6 71bd a783 03bd 8cca 46bc b65c 0fbe
00000180: 2719 01bd dc39 b23b bb77 213c cb64 b5bc
00000190: 5f14 9c3a 59d1 643b c3cd dbbc 3d15 e13b
000001a0: dbe3 e2bc 166f 623d 4acd 29be a525 6fbd
000001b0: bfa5 a3bc 0d58 b9bc ea6a 81bd 4579 bfbd
000001c0: 770b 253c e060 1f3b 851e ca3b 4b0a 17be
000001d0: 6729 5dbd 52c9 7f3b 6dd0 b93b 36b0 4e3c
000001e0: 5631 26be 8420 31bd f1d4 0d3c a5f5 24bc
000001f0: 7b47 9a3c 1f86 453e b20f 8d3d d139 89bd
00000200: 7a8e 2ebd b7a2 82bd 77c3 993d 5d77 efbd
00000210: 64ab adba 88f1 f8bc c15e f8bc e0b0 2cbe
00000220: 92f0 b0bb b3bb 70bb 5c4f b33c e532 e0bc
00000230: 0fbd 82bd 2a81 a0bd 1d4a f8bc ebc4 92bc
00000240: a71f c03c d6ac e5bd d719 9cbc 6771 12bd
00000250: 995b a53c 2e44 b8bc 21c8 a0bd 03e3 81bc
00000260: c2b4 b63c 02ab a8bc 1580 52bc dbde 6abe
00000270: fc03 a43c fb95 533c 5e50 c93c 11a9 8f3a
00000280: 42f3 4bbe 6453 b4bd 5848 27bd c760 aebc
00000290: 6635 36bb e1b1 49bc d083 783d 8eb8 2e3d
000002a0: 862b c2bc fbf4 7cbc 01aa f8bd 6143 eabb
000002b0: b7b3 633b ccc0 40bc 5175 c0bc 597e 8cbc
000002c0: 2fc1 0b3c 02ac debc b154 04bc 27cc 61bc
000002d0: e329 4fbd 1ce8 fcbc fc5c a13c e6fb 7dbc
000002e0: e9f3 6fbc 9b0d 2b3c 64e1 ecbc 0c0c 0ebd
000002f0: a7cd d8bc 3391 b63c 9959 1ebe 6454 81bd
00000300: 6e06 35bc b68c 09bd c396 923b 737b 12be
00000310: c943 ac3c 7921 0fbd bc97 a13c baf5 3ebc
00000320: 900d 6ebd c883 00bd 2919 943c d181 253a
00000330: 97a8 c6bc 0be9 b3bd 7728 13bd d843 e6bc
00000340: 6e35 88bb 770a 963c f4e9 1fbe fb90 ddbb
00000350: 607e bdbb 5bb1 a93c a0bf a43c 6d7e d03d
00000360: 2a05 27bd b0a1 09bd 67b7 ac3c b1fe c4bc
00000370: 842a 92bb 3f94 a13c edd6 593c 86a2 d6bc
00000380: 45c0 3b3c 1188 29be a881 0bbe d533 adbd
00000390: 2305 8bbd 5013 c6bc b620 de3c a5d1 87bd
000003a0: ed67 0cbd a271 67bb ecec a43c a31d 00be
000003b0: 73c1 dbbc e8c4 83bc fc62 13bd 0e99 19bd
000003c0: 7099 28bd 5a45 4dbb f1be 7cbc 324c fcbc
000003d0: dd54 18bd d430 68be a3d0 1bbd 030c 5fbc
000003e0: 42bc 4f3c 1aae b83b 869e 12be 16c4 00bd
000003f0: 6454 03bb 194a 8cbc 2440 f33a 6a53 c6bd
-0.059132576 -0.07105285 -0.0343565 0.0017411017 -0.029030772 -0.033758387 0.00036131573 -0.016598627
-0.011579469 -0.03407942 -0.037142843 -0.09883503 0.010066916 -0.011362362 -0.03627504 -0.10210153
0.014170149 -0.05544777 -0.06625372 0.0053368653 -0.13071603 -0.047371272 -0.020856248 0.021129811
-0.033221338 -0.016421027 0.010320594 -0.006440033 -0.010148287 -0.015463533 -0.1815779 -0.036444873
-0.03568593 -0.010021037 -0.029003298 -0.07591799 0.10547897 -0.1517579 0.013870536 0.014871894
-0.04918994 -0.01585079 0.020702431 -0.024642048 0.0037738865 -0.12079654 -0.042627014 0.004313756
-0.013708829 0.017019643 -0.10467949 0.0044003334 0.0019133342 -0.033231195 -0.020928873 -0.09569302
0.008533602 -0.008525284 -0.013061118 0.016372332 -0.091111906 -0.024431989 0.0022822015 0.009477422
-0.019300414 -0.17589313 -0.033488117 -0.02153399 -0.030352317 0.003359604 -0.09661179 -0.0017963201
-0.018098025 -0.0046472475 0.0013626195 -0.25890994 0.012708414 0.005799439 -0.013356877 0.013948396
-0.124765545 -0.028987503 0.017240744 -0.03123541 0.014547468 -0.13785057 -0.019296406 0.014782243
-0.035861846 -0.015403107 0.035348188 -0.07632465 -0.059057448 -0.032107975 -0.012133252 -0.1400021
-0.031518128 0.0054390263 0.009855206 -0.022142788 0.0011907927 0.003491482 -0.026831513 0.006868987
-0.02769654 0.05528172 -0.16582218 -0.05838551 -0.019976495 -0.022624994 -0.0631922 -0.09349302
0.010073534 0.0024319217 0.006168189 -0.1475002 -0.053994562 0.0039029908 0.0056705982 0.012615254
-0.16229758 -0.0432439 0.008656726 -0.010068332 0.018832913 0.19289444 0.06887759 -0.06700481
-0.042616345 -0.06378692 0.07507985 -0.116926886 -0.0013249931 -0.030388609 -0.03031862 -0.16864347
-0.005399772 -0.0036732971 0.021888427 -0.027368018 -0.06383716 -0.07837136 -0.030308777 -0.017916163
0.023452593 -0.112146065 -0.01905529 -0.03575268 0.020185279 -0.022493448 -0.078506716 -0.015855318
0.022302989 -0.020589355 -0.01284792 -0.22936575 0.020021431 0.012914176 0.024574455 0.001096042
-0.19917014 -0.08804968 -0.040840477 -0.021286381 -0.0027802824 -0.012310476 0.06067258 0.042656474
-0.023702394 -0.015439267 -0.12141801 -0.0071491455 0.003474457 -0.011764716 -0.02349344 -0.017150091
0.008529945 -0.02718163 -0.008076833 -0.013781584 -0.050577056 -0.030872397 0.019697659 -0.015501952
-0.014645555 0.0104402555 -0.028916068 -0.034679458 -0.02646525 0.022286033 -0.15463866 -0.06314924
-0.011048896 -0.033581458 0.0044735386 -0.14304905 0.021028416 -0.03494403 0.019725673 -0.011655265
-0.058118403 -0.031375676 0.018078404 0.00063135946 -0.024250312 -0.08784684 -0.035927262 -0.028108522
-0.00415676 0.018315537 -0.1561659 -0.006761668 -0.0057828873 0.020714452 0.020110905 0.10180364
-0.04077641 -0.033601463 0.021083547 -0.024047228 -0.0044606347 0.01972401 0.013295871 -0.026200544
0.011459415 -0.16555811 -0.13623679 -0.08457152 -0.06788089 -0.02417913 0.027115207 -0.066317834
-0.0342788 -0.0035315533 0.020132504 -0.12511306 -0.026825642 -0.016085103 -0.03598307 -0.03749948
-0.041161954 -0.0031321854 -0.015426383 -0.030798052 -0.037190307 -0.22674876 -0.03804077 -0.013613704
0.0126791615 0.005635989 -0.14318284 -0.031437002 -0.0020039314 -0.017125176 0.0018558544 -0.09683879

fc_s.bias f4 [64]
00000000: d400 aebd 6e28 293e 72b6 eebd 31d8 0c3f
00000010: e3c1 40be 5e9a 27be 0861 45be 23e3 433e
00000020: a34b 67be 9c17 d23e 7fa3 c53e dcaf 1d3e
00000030: 37be c23e 25b6 f3bd e8d9 b2bc 2517 f13c
00000040: c9bb 1abe 8916 44be 9cf5 b2be 7a4d 673e
00000050: 9663 ab3b 07c5 01be 22ae 80be d27a c63e
00000060: 06c5 513e af5e 24be 5e1a 19be 8cde bbbd
00000070: 911d f4bd a093 c13d d731 ebbd 9777 843e
00000080: cf7d 2a3d 04b3 20bd 1957 de3d 2518 803e
00000090: 14b5 983e c621 6b3d a446 233e 87f8 b33e
000000a0: 3634 803d c7a7 873d 7e96 77be a5c8 1cbe
000000b0: e8fc 7b3e cc8a 51be a370 683e 19a1 94bd
000000c0: 9185 da3e 9a10 0b3e fb7a 073f 1612 fcbd
000000d0: 2382 98bb 3a1b af3e 61e3 043f 1626 59be
000000e0: 8f5f 6abd 76b6 c43b 16d6 ed3d be6d 5b3d
000000f0: 1d03 783d 2c98 4a3d 2002 953d 392a 233e
-0.08496252 0.16519329 -0.116558924 0.5501738 -0.18823962 -0.1636748 -0.19275296 0.19129615
-0.22587447 0.41033638 0.386013 0.15399116 0.38035747 -0.11899976 -0.021832421 0.029429981
-0.15110697 -0.19149221 -0.3495301 0.22588149 0.0052303774 -0.12672816 -0.25132853 0.3876558
0.20485315 -0.16051744 -0.14951465 -0.09173307 -0.11919702 0.09451985 -0.114841156 0.2587249
0.041623887 -0.039233223 0.10856456 0.2501842 0.29825652 0.057405256 0.15944916 0.3515055
0.062599584 0.06623798 -0.24178502 -0.15310915 0.24608195 -0.20463103 0.22699217 -0.072572894
0.42680028 0.13580552 0.5292203 -0.12308137 -0.0046541854 0.3420046 0.5190945 -0.21205935
-0.057220038 0.0060031964 0.11613099 0.053571455 0.060549844 0.04946153 0.07275796 0.15934075

fc_a.weight f4 [64, 106]
00000000: e3a9 c33d 6c98 0dbe 87e3 25bd 17d0 1e3a
00000010: 741e 253d aad3 0fbd d62f 8f3d 36a9 623c
00000020: b765 2d3d b218 9cbc e34a 9cbc cc7f e1bd
00000030: c22d d2bd 66d0 a7bd 7a77 1fbe 334c 7cbd
00000040: fa80 56bd bbde 513d 2a4a 9cbd d927 f8bc
00000050: 8386 06bc 40b8 e9bc 93ac 10be 86e1 e6bc
00000060: d1ae 113c a564 09be 6448 cb3d 43c9 853d
00000070: 661e 8abd fb3b 28bc 8352 d03d 2fa9 cfbc
00000080: ea2e 77bd a97f 663d cb0d 16bc 9ce3 ea3c
00000090: 5625 08be 81f1 313d feda 933c fc51 a2bc
000000a0: dc15 5abd ba75 d3bc 21a1 753d 9af2 b9bd
000000b0: a319 dcbd c61e 0ab9 9f8d 8dbd 9cc1 67bd
000000c0: 325c 5fbd c5ff edbc ae35 a4bd 0c78 b43d
000000d0: 77dc a6bd 9622 3dbd b5d1 35bc 3e1e d63d
000000e0: bb85 18bd 8df4 473d 799a ab3d e81c 0c3d
000000f0: 7dd7 df3c c573 94bc 811d 5abd d972 92bd
00000100: c211 b0bb ffe2 b13d 3a6b 87bd ed1e b2bc
00000110: 9437 2dbc 7f09 793d 9550 dcbd 9284 3dbd
00000120: 17d8 8dbc 8e56 a33d 0deb c5bc 7829 c83d
00000130: e0da 923d 8b79 5cbd 8f37 2c3d 35c0 ae3b
00000140: 6caf e43c a087 3cbd deb4 89bd b5b0 d33b
00000150: 0bbc cc3c 847a 4539 776c a7bd 0836 993c
00000160: 8318 11bd ace9 7c3d 1061 263d f4ca b93b
00000170: 1561 fa3c 19c3 56bb 5542 3ebd 4356 0e3b
00000180: c859 3d3d cb1b d43c d91b 853d 23b5 72bd
00000190: 7d96 083c 2e23 de3d 4c7d 393d a932 54be
000001a0: b2c1 4fbd ca68 e03d 0f7e 82bd 3ab8 cc3d
000001b0: bdcf a7bd 048b 10bd e58f 92be abe6 3b3e
000001c0: ff8f 10be f301 0dbd 5490 b5bc d9e1 dd3d
000001d0: d4a3 40bd 258e 26be 971c 8fbb b11d 6bbe
000001e0: 8fda 6fbe 0eec 06be c326 433e b058 663e
000001f0: c375 493d 5cb3 57bc 5308 4dbe 2fcf c7bd
00000200: 2872 973d a664 893d a7f8 143d 10f7 a9be
00000210: 0513 743d a4f5 e2bd 1187 713e 1036 7abd
00000220: d2ad 903d 2919 463b 4ecf bebe 7848 cebd
00000230: 37d7 81be 81b8 053d 34ed 393c aab5 233c
00000240: d497 78bd cc67 9dbb d40b 4fbe 40f4 443e
00000250: 9f77 28bd 8061 d1bd 5e3e 2e3d c7fb 84bd
00000260: 7ae3 d1bd 7cf7 17be cf36 5ebe 1eea a1bc
00000270: d46a 1fbd 5c26 353d 06da 0ebd 40d3 2b3e
00000280: cd5d 0e3d 9bcb 53be 1e01 a43d f649 a5bc
00000290: 5e92 79be b299 883d e835 823e 3b73 25be
000002a0: 51b2 c0bc c6a9 eebd be37 4cbe 0783 42be
000002b0: e4f8 5abd d5e9 9cbc 3bfd 59bd 6043 26bd
000002c0: 847d 7c3d d403 c7bd 7453 31be 1259 d5bb
000002d0: 0f43 ba3d 7e87 3b3e 5741 25be 6789 b03e
000002e0: 7e03 f73c ee32 55be 147c 5cbd 2656 e0bd
000002f0: bfb5 bbbd 6e51 60b9 3bda 2a3d 2c5e 37bd
00000300: 43c0 e63d 372b 3c3e cdc4 1d3e 21d6 c93d
00000310: 354a c23c 8d02 e5bc c4a3 28bd cd35 c43c
00000320: 1ac8 113e c1c3 013e 13ec 8abc 8494 de3c
00000330: 93fc 263e df0f c7bd c0cf f43d fd10 443e
00000340: 004d e6bd fceb f13d d403 e1bd ce61 1fbe
00000350: 7506 05be 18a1 c2bd 1b0e 853d 1f02 0fbe
00000360: 1fea d8bd 8af1 a6bd 56ff c8bd e813 acbd
00000370: c4c3 b73d 2c73 88bc bcba 933d 8c3e 6dbc
00000380: c465 b13d e7d0 be3c 62a6 7dbd 1c4a 9a3d
00000390: 0b1a 98bd cc3c b73d 17c6 1dbc 0688 1d3c
000003a0: e24d 203d aefb 5e3c c3ae 92bc 47cb 9abd
000003b0: 4bd3 9d3d 92ae 8cbb f68f 72bc 9552 143d
000003c0: 63f8 833d 7d4e bdba e9e4 043d 43d9 bbbd
000003d0: 8483 643d 26c3 9a3d ae32 a4bb 83dd 9fbd
000003e0: 6d3e e03c e829 913d ca36 643b 41eb cabd
000003f0: ea00 aa3d d134 9bbc af52 093c 302c c3bd
0.09553888 -0.13827676 -0.04050019 0.00060582295 0.040312245 -0.035113968 0.06991546 0.013834288
0.04233333 -0.019054744 -0.019078678 -0.110107034 -0.10262634 -0.08194046 -0.1557292 -0.061596107
-0.052369095 0.051237803 -0.07631333 -0.030292438 -0.008210781 -0.02853024 -0.14128332 -0.02818371
0.008891777 -0.13417299 0.09925917 0.06532528 -0.06744079 -0.010268207 0.10171988 -0.025349228
-0.060347475 0.05627409 -0.009158562 0.028672986 -0.13295493 0.043443207 0.01804876 -0.019814484
-0.053243503 -0.025812972 0.059968118 -0.09079476 -0.10747077 -0.0001317217 -0.06911778 -0.056581125
-0.054531284 -0.029052624 -0.08018051 0.088119596 -0.08147519 -0.04617556 -0.011097361 0.10454987
-0.03723691 0.048817206 0.08379073 0.034207255 0.027324433 -0.01812161 -0.053250793 -0.07150812
-0.0053732106 0.08685874 -0.06612249 -0.021743262 -0.010572333 0.06080007 -0.10757557 -0.046269007
-0.017314954 0.07975493 -0.024159933 0.097735345 0.07170653 -0.05382685 0.042045172 0.0053329715
0.027915679 -0.04602778 -0.06723951 0.006460274 0.02499201 0.00018833025 -0.08174985 0.018702522
-0.035423767 0.061746284 0.04061991 0.005669946 0.03056387 -0.0032770096 -0.046449978 0.0021718896
0.0462282 0.025892159 0.06499452 -0.059254777 0.00833666 0.10846554 0.045285508 -0.2072245
-0.05072183 0.10957487 -0.063717 0.09996076 -0.0819392 -0.035288826 -0.28625408 0.18349712
-0.1411743 -0.034425687 -0.022163548 0.10834093 -0.04703124 -0.16265161 -0.004367422 -0.22960545
-0.23423217 -0.13175985 0.19057755 0.22494769 0.049184572 -0.013165321 -0.20022707 -0.09756314
0.073948205 0.0670865 0.036369946 -0.33196306 0.05958845 -0.110820085 0.2358668 -0.061086714
0.070644036 0.00302274 -0.37267536 -0.10072416 -0.25359508 0.03264666 0.011348058 0.009992043
-0.06069167 -0.0048036333 -0.20219356 0.19233799 -0.041129705 -0.10223675 0.042539947 -0.06493335
-0.10248466 -0.14840502 -0.21700595 -0.019764956 -0.03892024 0.044226035 -0.034875892 0.16779804
0.034757424 -0.20683138 0.080080256 -0.020176869 -0.24372241 0.0666994 0.25431752 -0.16157238
-0.023522528 -0.116534755 -0.19943139 -0.18995295 -0.053460017 -0.019154469 -0.053220015 -0.040591598
0.06164314 -0.09717527 -0.17316991 -0.006510862 0.09094822 0.18313405 -0.16138206 0.3447983
0.030153032 -0.2082021 -0.053829268 -0.109539315 -0.09165525 -0.0002139264 0.041712027 -0.044767544
0.1126714 0.1837586 0.15407105 0.09855295 0.023717025 -0.027955318 -0.041171804 0.023951435
0.14236489 0.1267233 -0.016958272 0.027170427 0.16307287 -0.09719824 0.11953688 0.19147106
-0.11245155 0.118125886 -0.10987058 -0.15564653 -0.12990744 -0.095033824 0.06496831 -0.13965653
-0.1059153 -0.08151539 -0.098143265 -0.08402234 0.08972886 -0.01665648 0.07213351 -0.014480244
0.086619884 0.023292972 -0.061926253 0.075336665 -0.07426842 0.08947143 -0.009629748 0.00961495
0.039136775 0.01360981 -0.017905599 -0.07558303 0.077063166 -0.0042932713 -0.014804831 0.03621157
0.064438604 -0.0014442947 0.03244487 -0.09172299 0.055789486 0.07556753 -0.0050109243 -0.07805922
0.027373517 0.07088071 0.0034822696 -0.09908152 0.083009556 -0.018946083 0.00838153 -0.095299125

fc_a.bias f4 [64]
00000000: 87e0 203f 4a84 9d3d 974c e83e 931d d33e
00000010: 4466 313f 60af 863e c5e7 293d 8893 f43e
00000020: 39e9 053e 0b96 073f 759c 113f e95b 1d3f
00000030: 7c63 20bd 20da 113f 2c15 193f 1d37 e13e
00000040: c4df 113f 3ede 563e 08ff ddba 84ff c83e
00000050: 7675 c53e 28a7 053f 32d9 143f 91d7 113f
00000060: 9179 a63e 8b04 84be ab32 40be f86b 8a3e
00000070: 47c6 e83e f3eb 063f 31bb 683e c25c fd3e
00000080: f6b9 133f 7b66 2abe 25e7 f43e fa06 253e
00000090: 5378 8ebd c71e 173f d936 0b3f 2b10 c83e
000000a0: e95c 25be 5a64 b73e 9649 fe3c f464 0a3f
000000b0: 9d18 1b3f 6c6e ac3d 9691 c63e 8e25 623e
000000c0: 7007 49bc f764 253f ed7c c9bd 4d82 193f
000000d0: 4840 283f 516d 893e 73c1 c93b 150d 0abe
000000e0: e70b 0dbe d1e8 8d3d 5bbe 1c3f e0bb 583e
000000f0: 7d84 603e a029 2d3f dabc 113f 4007 1cbe
0.628426 0.07691248 0.45370933 0.412335 0.6929667 0.26305676 0.0414808 0.47768807
0.13077249 0.5296332 0.5687936 0.6146837 -0.039157376 0.5697346 0.5979793 0.4398736
0.56982064 0.20983216 -0.0016936967 0.39257443 0.38566178 0.52208185 0.58143914 0.56969553
0.32514623 -0.25784716 -0.18769328 0.270355 0.45463774 0.5270378 0.22727658 0.4948483
0.5770563 -0.16640656 0.478326 0.16115943 -0.06956544 0.5903134 0.54380566 0.39074835
-0.16148724 0.3581875 0.031040948 0.5406029 0.6058443 0.08419499 0.38782948 0.22084638
-0.01226984 0.64607185 -0.09838281 0.5996445 0.65723085 0.26841214 0.006157094 -0.13481553
-0.13774072 0.06929172 0.6122796 0.21165419 0.2192554 0.6764164 0.5692879 -0.1523714

fc_q.weight f4 [64, 128]
00000000: e0f6 103e 0f63 d03d bac0 eebd a7be 1c3e
00000010: e45f e7bd f8be 94bd c123 28be e7bd ddbc
00000020: ce29 593e b278 0e3e dfad 463d 68e4 ff3d
00000030: fa8a b93c 9e55 563d 2ad9 e53d 79c0 0d3e
00000040: c91d 70be 938c 42be c0c4 f4bd 0e1c 963e
00000050: a41c f23d c0ff ac3b c915 263d 2fd5 d83d
00000060: 7f4c 033e 6860 f7bb 7f2d 403e f53a 003d
00000070: cddc 98bd a784 04be bdb7 b3bd 715f d83c
00000080: 8c11 b43d fb9d e0bd cc17 073e 853d 263e
00000090: 1241 6d3e 756e c53d e2fe b43d cb50 e53d
000000a0: 67f4 233e 8473 cd3d 34e8 e13d ee2f 8c3d
000000b0: 2ad7 3c3e 1746 12bd b108 1d3e a79c 17be
000000c0: d478 083e 19dc 523d fbef 5b3e 0765 023e
000000d0: b33a dcbd d88c 9d3d 5c98 2f3e e5ec b93d
000000e0: a403 bbbd 5857 a43d 862d ae3d 67b3 66bd
000000f0: 4801 713d bbaf 323d eecb e4bd 1bba 433e
00000100: d55c f8bd 8ecd 7ebe 8203 3bbe b36f cd3d
00000110: a16c 5abe 1a66 08bd 3eeb 993e 8590 18bd
00000120: 6460 51bc fb84 70be 9023 30be 047c 89bd
00000130: 2aeb f1bd 73b0 4dbe e020 d5bd 2704 f53d
00000140: 7a2d 4a3c 5320 ccbd 4107 edbd ae01 163e
00000150: cbad d1bb 2539 e7bd 95d7 1abe ec29 68be
00000160: 0111 02bd 0f77 b23d e2cb 893d df0e 84be
00000170: 9423 bc3c 2855 a7bd aa1b c8bd 8b77 a4bd
00000180: 8efc f3bd 36df f43b f53e 31be d5fe 9c3d
00000190: 5810 4fbd de8d 24be 9a84 c6bc 4853 63bb
000001a0: 441b 1f3e 2c03 3fbe 680d 093e a9d0 4ebe
000001b0: 0015 7abd 4a20 9b3e 5407 943c 58c0 7f3e
000001c0: efc0 8e3d 314f 50be 56a2 9d3d 893c b6bd
000001d0: 526f b8bd 3018 39be cb2c 12be c605 fc3d
000001e0: 7752 06be 98bb 81bb ed3f d5bd 6bbe 03bd
000001f0: d7d9 acbd 023f debd eeb6 04be 1dcc dc3c
00000200: 4cf9 ecbd f744 af3c ce3b 8b3c e699 97bd
00000210: 3c4a e83c 6f15 d1bd 0719 fd3c 93d3 953d
00000220: ab07 cebd 98a8 11bd cb47 b6bc dd95 40bc
00000230: 7ae9 0ebe db1e 703d f572 193d 062b 163d
00000240: f858 4dbd 08c5 123d fd85 52bb 0d4c 4a3c
00000250: b256 73bc 7677 14be 8922 2ebe 29ea cdbd
00000260: aadf 45bc 90a8 bbbd b435 bf3c ed56 c63d
00000270: fb99 adbd 25ef 873c 24ef 323d 3e52 b5bd
00000280: add3 2bbc ee5f ca3c d8cd 913b 69b5 f23c
00000290: 6601 aebd dd71 bb3d 3d69 3c3d edb2 00bd
000002a0: 4ccc e7bd d1e3 dd3d e675 41bd 5b1f 793d
000002b0: 6cd8 8bbc 5e06 82bd cbad a7bd c193 c8bd
000002c0: da10 00bd cbd4 98bb db57 87bd 10bf ed3d
000002d0: b463 61bd abee 213d 121d d5bd f25a 3a3b
000002e0: 2aad 063d f233 ee3b 424f 1bbd aaa9 1fbd
000002f0: e2fd 2fbd 2daf 413d 21a5 a73c 64c8 61b9
00000300: 3774 ad3c 8485 bebd 72d0 68bd e88a 1d3c
00000310: 1348 a03d badb f4bd 787e b9bd efe4 6cbd
00000320: 5c61 843c f639 0e3c 4edc 1ebc 4daa 7cbd
00000330: 0ba9 363e 4ad0 00bd 4c5a c3bb d22f bbbd
00000340: e74f 963d 9fac c3bd 417e 0abd 8b1f 763b
00000350: 0613 d3bb b45e 313d 170f 7bbd 85d0 823d
00000360: 5a37 a73d 5955 e03c 0f5f a7bd a62c 1f3c
00000370: da4a 9abd fc6d a33c 8368 b73c d9f6 0ebd
00000380: c83f 263e af64 38bc bfc1 863d 3f8b 60bd
00000390: 7643 d6ba 94f2 4fbd 7f9b 78bd b96e d3bd
000003a0: 3df9 fb3b 1c62 c33c fc93 023d 7a3c 1a3d
000003b0: bb7a 413c 1534 81ba b59f 95bd ff44 26bd
000003c0: b0e3 823c 2ac6 803d ebb8 9bbd ad79 b8bc
000003d0: 9c15 2d3c 8c47 4cbe ea3c cb3c c37f aa3d
000003e0: d670 f63c 2090 143d 511f 24bd eec5 46bd
000003f0: d7fe 62bc 98ad 043e a963 e4bc a8a1 82bd
0.14156675 0.10175144 -0.116578534 0.15307103 -0.112975866 -0.07262987 -0.16419889 -0.027068092
0.21207353 0.13913229 0.04850566 0.12494737 0.022649277 0.052327745 0.112230614 0.13842954
-0.23448862 -0.18998937 -0.119515896 0.2931828 0.11821869 0.005279511 0.04054812 0.105875365
0.1282215 -0.0075493343 0.18767355 0.031306226 -0.074639894 -0.12941228 -0.0877528 0.026412698
0.08792409 -0.109676324 0.13192672 0.16234405 0.23169354 0.09640209 0.088376775 0.11197051
0.16011201 0.100317985 0.11030617 0.06845079 0.18441454 -0.035711374 0.15335347 -0.14805852
0.13327342 0.051479433 0.21478264 0.12733851 -0.107533835 0.076928794 0.17147964 0.09078387
-0.09131554 0.08024472 0.08504777 -0.056323435 0.058839113 0.04362462 -0.11171709 0.19113962
-0.12127081 -0.248831 -0.18263057 0.100310706 -0.21330501 -0.033300497 0.30062288 -0.0372472
-0.012779329 -0.23488228 -0.17201066 -0.06713107 -0.11812432 -0.20086841 -0.10406661 0.119636826
0.012339944 -0.09967103 -0.11573649 0.14649078 -0.0063988916 -0.11290196 -0.151213 -0.22672242
-0.031754497 0.08714115 0.06728341 -0.25792596 0.022966184 -0.08170539 -0.097709015 -0.080306135
-0.11913405 0.007472898 -0.17309172 0.07665793 -0.050552696 -0.16069743 -0.024233151 -0.003468709
0.15537745 -0.18653554 0.1338402 -0.20196785 -0.061055183 0.30298072 0.0180699 0.24975717
0.06970393 -0.20342709 0.07696979 -0.08898265 -0.09005608 -0.18075633 -0.142749 0.12305789
-0.13117395 -0.0039591305 -0.104125835 -0.03216402 -0.08439987 -0.108518615 -0.12960407 0.026952798
-0.11570987 0.02139519 0.01699629 -0.07402401 0.02835571 -0.10209166 0.030895723 0.07315745
-0.10060056 -0.035561174 -0.02225103 -0.01175448 -0.13956252 0.058623176 0.037463147 0.036662124
-0.050133675 0.035832435 -0.003212332 0.0123472335 -0.014852213 -0.14498696 -0.17005362 -0.10054428
-0.012077251 -0.0916301 0.023341037 0.096845485 -0.08476635 0.016593525 0.043685094 -0.08853577
-0.010487479 0.024703946 0.0044495873 0.029627519 -0.084963605 0.09152577 0.0459988 -0.031420637
-0.113182634 0.10834468 -0.047231577 0.06082092 -0.017070971 -0.06348871 -0.08187445 -0.09793807
-0.03126607 -0.004664039 -0.06608554 0.11608708 -0.055026725 0.039534252 -0.10405935 0.0028435555
0.032879986 0.007269376 -0.037917383 -0.038980164 -0.04296673 0.0472862 0.020464482 -0.00021532323
0.02117358 -0.0930281 -0.056839414 0.009615637 0.07826247 -0.11955972 -0.09057325 -0.057835516
0.016159706 0.008680811 -0.009696079 -0.06168585 0.17837922 -0.03144864 -0.005961692 -0.091399804
0.07339459 -0.09554409 -0.03381181 0.0037555422 -0.0064414768 0.043303207 -0.061293688 0.06387428
0.08164854 0.027384447 -0.08172428 0.009715235 -0.07533808 0.019949906 0.022388702 -0.03490338
0.16235268 -0.011254474 0.06579923 -0.054820295 -0.0016347009 -0.05076845 -0.060695168 -0.10323853
0.0076896236 0.023850493 0.03187941 0.03765533 0.011809046 -0.0009857441 -0.07305852 -0.040593144
0.01597771 0.06287797 -0.0760363 -0.022518957 0.010564234 -0.19949168 0.02480932 0.0832515
0.030083101 0.03627026 -0.04006893 -0.048528604 -0.013854704 0.12956846 -0.027879553 -0.0637849

fc_q.bias f4 [64]
00000000: 3457 74be a717 8f3e bad3 04be 9254 22be
00000010: 6d18 b13e ab61 eb3e fcee a2bd 5bcb 4aba
00000020: 7738 cf3e b569 c73e 04ba 8bbd 0563 98bd
00000030: f229 ecbd 2dd9 fd3e 2886 f03e cb16 453e
00000040: e705 24be 6867 debd 3397 1ebe 0518 ca3e
00000050: ab91 0cbe c26d a6bd 9556 a53e 2499 103f
00000060: d07a c33e 1836 95bd f1f5 bdbd 0913 ebbc
00000070: 3c5e e13e ea18 8dbd fc1a f03e 4fa5 eb3c
00000080: 9b8a 323e 02b4 443d 7503 e4bd ce0b 953e
00000090: af1e eebd 949a fb3e a129 1c3f fa91 6b3e
000000a0: 437d 8d3e dd71 c9bd f6b2 163f f312 54be
000000b0: 1a39 eb3e 4526 56be 6d6b 5ebd ddb7 edbd
000000c0: f388 5bbe 7b53 16bc b57c 0a3f f19a abbd
000000d0: e4d8 1b3f 58ca b23d e236 233d a629 29be
000000e0: 063c 94be 952c a8bc 6c60 9dbe 2b7c 0c3f
000000f0: 4110 073f 4fc2 69be e7e3 0a3f a6aa 80bd
-0.2386139 0.27947733 -0.12971392 -0.15852574 0.34588948 0.45972952 -0.07955739 -0.0007735991
0.40472767 0.38947836 -0.06822589 -0.074407615 -0.11531438 0.49579754 0.46977353 0.19246976
-0.16017877 -0.10859567 -0.15487365 0.3947145 -0.13727443 -0.081264034 0.3229262 0.56483674
0.38179636 -0.07285708 -0.09275425 -0.0286956 0.44017208 -0.068895176 0.46895587 0.028765349
0.17435686 0.04802323 -0.11133472 0.2911057 -0.11626946 0.4914137 0.6100102 0.23004904
0.2763463 -0.09836171 0.5886682 -0.20710354 0.45942003 -0.20913036 -0.054301668 -0.11607335
-0.2143896 -0.009175177 0.5409654 -0.08379162 0.60877824 0.0873 0.039847262 -0.16519794
-0.28952044 -0.02052907 -0.30737627 0.54876965 0.52759176 -0.22828029 0.54254 -0.062825486

fc_out.weight f4 [1, 64]
00000000: dc97 a33c fceb f53b 26d6 993c ddba 3e3c
00000010: cba9 4ebd 4c6e 27be ee1a 45be b21a 29bb
00000020: be04 f6bd 0404 26bd d3e9 28ba e055 30bd
00000030: 5f5f bb3d 7e1a a6bd 106b c1bd 7f3d cbbb
00000040: 91fa 1c3a 8f4e 8d3c ef56 163d 6d48 8ebd
00000050: 2052 6b3d 2e16 223d efa2 6dbd 0393 a5bd
00000060: 04b7 92bd 7476 02ba 641b 123c 5d0d 74bc
00000070: cfa3 cbbd d9f6 cebb ec75 6bbe 6597 9fba
00000080: 3c49 ce3b 352f 52bb f04d ef3a 0243 9dbd
00000090: 3551 a9bb 7920 e4bd 458e 06be 2b18 a1bc
000000a0: 1ca9 c2bd cb08 9f3b 3381 33be ac8e 1b3d
000000b0: 6337 c1bd c3c3 4bbc ad17 e3bb 4442 b03d
000000c0: a87d 2ebc 1324 d53b b948 8cbd 35cd 1b3c
000000d0: d1be e4bd 46a7 8a3c b7b5 5c3d 6029 373c
000000e0: 1be6 a73d 5cab cd3b 37ba 8a3d 4009 0ebe
000000f0: de82 7cbd 46d6 223e 4204 4abe 3d44 2d3e
0.019969873 0.007504938 0.018778872 0.011641231 -0.050454896 -0.16350669 -0.19248554 -0.0025803265
-0.12012623 -0.040531173 -0.0006443534 -0.043050647 0.0914905 -0.08110522 -0.09444249 -0.0062023993
0.0005988265 0.017249374 0.036704 -0.06947408 0.057451367 0.039571933 -0.058016714 -0.08084681
-0.07163814 -0.00049767573 0.008917663 -0.014895764 -0.099433534 -0.0063160476 -0.22994202 -0.0012175856
0.0062953513 -0.0032071595 0.001825748 -0.07678796 -0.0051671513 -0.11139006 -0.13140209 -0.019664844
-0.09504911 0.004853343 -0.17529754 0.03797786 -0.09434392 -0.01243681 -0.0069303126 0.08606389
-0.010650076 0.0065045445 -0.06849808 0.009509374 -0.11169208 0.016925465 0.053884234 0.011179298
0.08198186 0.006276531 0.06773799 -0.13870716 -0.061648242 0.15902051 -0.19728187 0.16920562
