LIRL results/Ablation result/ddpg_mask_multi_run_20_3/run_1_seed_3047/ddpg_mask_q_target_20250905_124138.pth (torch, 96391 bytes, 7 tensors)

fc_s.weight f4 [64, 205]
00000000: 1bfc 6b3d bc7a 89be 25b0 07be 49cc 1d3b
00000010: 78d0 b3bd 7ad2 523d 8dcf 133c 5dc9 5b3d
00000020: d768 31be 0254 5bbe c5d2 0fbb 91ee 1cbe
00000030: a6db 60be e57c 22bd f795 aabc 72e7 e0bc
00000040: 5cc9 e6bd a146 54bb e7ff af3d baba d93d
00000050: b0f4 dcbd 9ce4 a33d 5dc9 833e a37c 383e
00000060: 76f9 0dbe a806 30be 7443 6cbe 068d 19be
00000070: d354 61bc fc1d 70bc d66f 1a3e 0a56 85be
00000080: 8dc5 173d 6e6f 90bd a5b8 0cbe 54d7 2dbc
00000090: 9722 fabd 3e87 eabd 165c c2bd 1292 1bbd
000000a0: 874c 973d 4a45 0d3e a1ce 1a3e c0e8 96bd
000000b0: cf8f 30bd 8f16 a13d 7449 973d e76a 5dbc
000000c0: c07b 86bd 3cf1 6d3d e252 23be 941f a4bc
000000d0: 05c5 24be f1da 70bc 8e12 07bd b636 09bd
000000e0: 5512 fabd 8946 15be 4f21 29be e395 e5bc
000000f0: 804e 63bd 357d f3bd 6aa6 d9be 5d79 8cbd
00000100: 2994 42bc 7fa7 dabc 9958 c1be 0990 77be
00000110: 9dc6 5abc 6649 2f3d e87f 0d3e 83b4 8a3e
00000120: b2fa 613e 7f8a bdbd bf74 bfbd 1f03 703e
00000130: ae8d 5a3e a493 343e e9d3 e5be bded 8fbc
00000140: 58cb 1cbd 673f d0bc ccb5 98bd 72db fbbc
00000150: 8f4c a7be 2654 9cbd b2aa 83be c308 f1bd
00000160: 9963 4ebe 8529 82be ecb4 b7be 8fcc 333d
00000170: ab51 fdbc 4f97 a6bd 0e2b 1ebc 026e 263d
00000180: 270a d93d 28a1 fb3e c3c2 e13e df13 183e
00000190: abfb dfbd 587e 95bd 2b7b 903d 8407 043d
000001a0: a8a6 29bd 7da8 f8bd 73bc 62bd 88ba 39bd
000001b0: 982b fdbc f4db 1d3d 4adb 1cbe fbe9 2bbe
000001c0: 52c1 2bbe 569e 70bd 0a9e eebc 3455 64be
000001d0: 3f60 98bd 3abc 5fbc cf8e 9bbd 1d83 873d
000001e0: f0ed c8bd 7e72 163d ca84 dc3d 5a4d eabd
000001f0: 2de7 d0bb d93c 30be 5501 213d 8f8a cfbd
00000200: 741a 0fbe 9522 393b 9d7d 04be 3197 4bbd
00000210: 44fc fbbd 3257 edbc 085f a3bd 48e6 39bd
00000220: 3bea 68bc be80 9dbd 7158 373c 8c7e 0ebe
00000230: 412d 6dbe 3d12 4cbe bddd 24bc 7694 013e
00000240: 2994 323e 7041 573d afbd 52bd 97ce 26be
00000250: 7988 0d3e d9cd 1bbe e7e3 083d 5baf 91bd
00000260: b7ed 0d3d eb20 3dbe b124 fcbd 8f1c fcbd
00000270: 3fab 933d 4c1d ac3c 031a 0d3e cba8 07be
00000280: 7bde 07be e3bc 6bbe d72f 2ebd 5ab0 0a3c
00000290: c3ec bebd 1e5b 90be db83 ebbc 0d12 85bd
000002a0: bee3 aabd 5a8f c4be aad8 3abe 2825 24bd
000002b0: c2c8 1fbd 386a 333d 2e90 89bc accd a83b
000002c0: f555 75be 39dd 41be cbc6 373e ac58 14bd
000002d0: 98e7 10be 3379 d8be f678 1abe 4375 183c
000002e0: 0e7d 3e3c c93e 33be 3d38 0ebe f99d cabe
000002f0: 3c71 d83d 925c 9bbe 3525 1bbd fde9 80be
00000300: 594a 4dbe 03d3 84be 7e3c 1fbd ffac 38bd
00000310: 0581 82bd 3530 863d 90ae c5bb 7463 ccbd
00000320: fa5f 8f3c 80ff 623d 8476 49be a854 993d
00000330: 073e 143e e18c 41be 6217 5fbd f32c 64bc
00000340: 0fc9 0fbc d3d5 4b3c 63ba 1fbd 0338 32be
00000350: a123 45bd f254 55bc 4564 8cbd 9584 fe3b
00000360: 823a 48be ca30 34bc e056 4a3b f47b 74bb
00000370: 2196 8ebd 7fe8 de3d 7ade 52bc c5c4 173d
00000380: 1822 9bbc 5ff7 a9be 8bbf e6ba 899d db3c
00000390: ae6f 11be 5d02 8bbd 69cb 21be cc39 75be
000003a0: 0e7a 2e3c a86f 46bd 5a82 a2bc f4b8 e33c
000003b0: 1aef 683e c402 9cbd cd26 8dbe de24 98bd
000003c0: efbd 073c 84f9 903d 5cfe 3cbe 8e23 19bd
000003d0: 5704 2fbe db9c 553c 1306 2fbe 4438 f2bc
000003e0: e307 6cbd 8c7b 823d 05db 0cbe cdd5 8dbd
000003f0: fc95 75bd d519 88bd bac5 6c3d b07a 113e
0.057613473 -0.2685145 -0.13250788 0.0024078062 -0.08779997 0.051470257 0.009021652 0.053658832
-0.1732515 -0.21418765 -0.0021945697 -0.15325381 -0.21958789 -0.03966989 -0.020823462 -0.027454112
-0.11268875 -0.003239073 0.085937314 0.106313184 -0.10788858 0.08002588 0.25739565 0.18016295
-0.13864693 -0.17190039 -0.23072606 -0.14995202 -0.013753134 -0.014655586 0.15081725 -0.26042205
0.037053633 -0.070525035 -0.13742311 -0.01061042 -0.12213629 -0.11451577 -0.0949022 -0.0379811
0.07387643 0.13795963 0.15117885 -0.07368612 -0.043105897 0.07865631 0.07387057 -0.013514257
-0.06566572 0.058091387 -0.15949586 -0.020034589 -0.16090782 -0.014700637 -0.03297668 -0.033499442
-0.12210528 -0.14577688 -0.16516612 -0.028025573 -0.055494785 -0.11889116 -0.42509776 -0.06859086
-0.011876144 -0.026691196 -0.37762907 -0.24176039 -0.013353017 0.042794608 0.13818324 0.27090845
0.22068289 -0.09254932 -0.093484394 0.2343869 0.21343109 0.17634445 -0.44888237 -0.017569417
-0.03827986 -0.025420858 -0.0745655 -0.030744288 -0.32675597 -0.076332375 -0.25716168 -0.11769249
-0.20155181 -0.25422302 -0.3588022 0.043896254 -0.030922731 -0.081343286 -0.00965382 0.040632255
0.105976395 0.4914639 0.44093904 0.1485133 -0.10936674 -0.07299489 0.070547424 0.03223373
-0.0414187 -0.121415116 -0.0553555 -0.045343906 -0.030904576 0.03853984 -0.15318027 -0.16788475
-0.16772965 -0.05874475 -0.029128093 -0.22298127 -0.074402325 -0.013655717 -0.07595598 0.06616805
-0.09811008 0.036730282 0.10767515 -0.11440535 -0.0063752146 -0.17210712 0.03930791 -0.1013385
-0.13974935 0.0028249372 -0.12938543 -0.049704734 -0.12303975 -0.028972242 -0.0797711 -0.04538563
-0.014216001 -0.07690571 0.01119052 -0.13915461 -0.23161794 -0.19928832 -0.010062632 0.1265429
0.17439331 0.05255264 -0.051450428 -0.16289745 0.13821591 -0.15215243 0.03342047 -0.071135245
0.03465053 -0.18469588 -0.12311686 -0.123101346 0.07210397 0.021010064 0.13779454 -0.13247983
-0.13268463 -0.23021273 -0.042526092 0.008464897 -0.093225025 -0.28194517 -0.028749397 -0.064975835
-0.083442196 -0.3839062 -0.18246713 -0.040074497 -0.039009817 0.04380247 -0.016792383 0.005151471
-0.23958571 -0.18932046 0.17946927 -0.036217377 -0.14150846 -0.42279968 -0.15085205 0.009305301
0.011626495 -0.1750442 -0.1388864 -0.3957365 0.10568473 -0.30344063 -0.03787728 -0.2517852
-0.20047893 -0.2594224 -0.03887605 -0.045086857 -0.06372265 0.065521635 -0.0060327724 -0.09979907
0.01750182 0.055419445 -0.19674116 0.0748685 0.14476787 -0.18901397 -0.05446566 -0.013926732
-0.008775963 0.012441116 -0.03899611 -0.1740418 -0.04812968 -0.013020741 -0.068550624 0.00776727
-0.19553569 -0.01099796 0.0030874535 -0.0037305327 -0.069622286 0.10884189 -0.012870425 0.03705289
-0.018937156 -0.33196542 -0.0017604692 0.026808517 -0.14202759 -0.0678756 -0.15800251 -0.23947829
0.010649217 -0.048446327 -0.019837547 0.027798153 0.2274746 -0.07617715 -0.27568665 -0.07428907
0.00828503 0.07078841 -0.18456405 -0.037387423 -0.170915 0.013037886 -0.17092161 -0.029567845
-0.05762471 0.06371221 -0.13755424 -0.06925545 -0.05995749 -0.06645552 0.057805754 0.14206958

fc_s.bias f4 [64]
00000000: 16f9 f03d 9c4a 36bd 2319 433e 7e03 7bbc
00000010: 9abb e93d 9eb2 11bd 8df3 92bd f353 213e
00000020: fae4 353d 8147 8abd 928a eaba dae4 153e
00000030: ee46 0f3e 9f28 15be 14f0 783d fc36 c0bd
00000040: 06f8 543e 4720 4bbd 57da fbbd 94c5 083e
00000050: 755f 28be c6a2 f7bd e709 e63d 58aa 47bd
00000060: 1870 02be 350d be3d ee99 363e 7023 f2bd
00000070: 1f7a 403e c6ba bebd 4bf7 eebd c4a8 7b3e
00000080: 5d03 88bd 2c5b 5a3e cc4b 4abd 58cf 62be
00000090: 164f 163e 6c78 ffbc 811c c3bd 3cdd b23d
000000a0: b10b 3f3e e7f8 483a d029 34bd 382e 4fbe
000000b0: a07d c43b 7313 88bd 4fe5 723d 3822 0e3e
000000c0: cf00 f3bd 50b4 ae3c 7a0f a43c 3cc9 8d3e
000000d0: 4ebb 543e 8312 ba3a 050d 86be 3ef4 fb3b
000000e0: 45bd 913d 4d7f a83c f0b7 3ebe 1083 523e
000000f0: 3279 a9bd c773 173e 9c88 29bd 703a 18bd
0.11766259 -0.044504747 0.19052558 -0.015320657 0.11412735 -0.035570733 -0.0717536 0.1575468
0.044407822 -0.067519195 -0.001789408 0.14638081 0.13991901 -0.14566277 0.06077583 -0.093854874
0.20797738 -0.04959133 -0.122975044 0.1335662 -0.16442664 -0.120915934 0.112323575 -0.048746437
-0.12738073 0.09279863 0.17832157 -0.118231654 0.18796586 -0.09312968 -0.11668261 0.24576098
-0.066412665 0.21323842 -0.04938869 -0.22149408 0.14678606 -0.031185351 -0.09526921 0.08733603
0.18656804 0.0007666484 -0.043985188 -0.20232475 0.005996421 -0.06644335 0.059300717 0.13880241
-0.118653886 0.021326214 0.020026911 0.27692592 0.20774576 0.0014196191 -0.26181808 0.007689028
0.071161784 0.020568514 -0.18624854 0.20557809 -0.08275069 0.1479026 -0.041390046 -0.037165105

fc_a.weight f4 [64, 24]
00000000: bae8 12be 435a 09be 0f4f d73c c0b1 3a3e
00000010: 3446 223e e4e9 30be 1758 96bd 4c8a 07bd
00000020: 6d8b a3bd 67fc 4f3e 4281 a6bc ad2b 80bd
00000030: 0d7a 24bd 9100 383e df4e 943d d849 2a3c
00000040: c0d9 823d 5bef e4bd 646e 2e3e f0f8 3b3d
00000050: ce95 f1bc 0063 28bd 9b25 2b3e 893d 8dbd
00000060: ddff 263e 222b 863c 723b 90bd 3e87 843e
00000070: 7597 bb3d 007d 443e 6f72 243e 74a7 42bc
00000080: 6c19 b13d f33d 823e 7387 08be a9f5 853d
00000090: b467 3a3e 72aa 293d 807f 713e c626 543b
000000a0: b7da 923d 846e a73d 3840 1b3e efbb e6bd
000000b0: e787 b0bd 7426 a73b 5b69 2c3e a6f4 383d
000000c0: 242a 40bc 0b37 373e 9652 883d b39c 343d
000000d0: 9cad 26be 2d45 1ebe 9f3f 1cbe ce7c 073e
000000e0: a539 dc3d f495 45bc f436 13bd 769e 873d
000000f0: a8f6 03be fcac f73d fa97 d73d 10bf bebd
00000100: 7531 74bd 506e 3e3d 200d 3d3e 57ce adbd
00000110: 78c1 383e 1086 063e 30f2 e13d b30f 85bc
00000120: 0015 30be 9f6c bd3d 7e40 2fbe cc0f fcbb
00000130: 3030 3fbd 65b7 87be 0231 55be 4322 e5bb
00000140: b26c d0bd 1b6a 68bc a873 bd3c 477b 363a
00000150: e7f9 b03d 8a78 ddbd 6754 3dbe 3737 26be
00000160: 668f 163c 78f5 b1bd 497d d73d 2676 153d
00000170: 78d9 3ebe 4f76 383e ba7a ecbd c597 12be
00000180: bb54 34be befa f1bc 80ff b43d af02 80bd
00000190: ab97 263e 4ae4 013e d0b9 76bc 92f9 32be
000001a0: 37c9 d83c b5c1 9e3d 1403 133e ffb2 253e
000001b0: 3068 243e 97e5 0b3e 5d03 443d 31c7 77bc
000001c0: d88d d93d c7df eebd e0f5 edbd 9532 59bd
000001d0: ef81 063c b4c2 30be faf5 423b 6052 5d3d
000001e0: 9dae 91be 35db 40be 6bb7 d8bd 9284 b03d
000001f0: 9ef0 a2bd 76a5 f73d 76e2 a1be cc28 36be
00000200: fba4 853c f174 e3bd 93ac ec3d 55d8 61bd
00000210: 42f2 503c f42c 773d dd6a 2c3d d220 a33b
00000220: d8a5 0a3d 6b81 96bd 4ab7 113d 2e44 c7bd
00000230: 877d 493e aedd 863d 818c 673d 605b e1bc
00000240: 37cf 323c ca27 4c3e 3205 773c 6b8a 813e
00000250: f0dc 9cbe 77a2 8f3e b9b8 de3e 4d57 eebd
00000260: 9907 6c3c 9613 a83d bfdb f7be 4d4e 3cbe
00000270: 5080 e4be 43d4 333e 19de ccbe 5f92 cbbe
00000280: 4673 99bd 0f8a b1bd bb87 b53c d690 343d
00000290: 2857 c03b a813 01bf c7cc 0c3e 207e 25be
000002a0: 12a9 9d3e 2903 b5be 4901 8bbe fbb4 05bd
000002b0: b1c7 c33d 0daf c3bd 4971 6b3e 9f4f 32bd
000002c0: 287c 9e3d 32fe 30be a5a9 a2bc bb89 683e
000002d0: 0ad7 443e 700b 6bbe 48fe cabe c950 dabd
000002e0: 3db8 043e efea c83d 6b87 1e3e 3019 ae3e
000002f0: 07f7 823e 9700 a13b 0ef5 80bd 6da6 0cbe
00000300: 5547 363e 1f2b f4bb d4e0 343e 2e26 6cbb
00000310: 8d78 9abd ff7d 233e 355d 103e be16 583d
00000320: 7ace 37bd 1de3 1b3e 63c7 e13d befc d5bd
00000330: 0245 513d 2618 503d c230 203c e8a6 0dbe
00000340: caba d43d 660b 7f3d 36ef 223e 9412 133e
00000350: 1d03 c5bd b2aa 0ebb 3aef 9a3d ef07 6e3e
00000360: 4c9c a93e f3bd 2dbe e5bb 21be 974a d9bd
00000370: 10cc e2bd 74e0 a1be 5722 c9be 58d4 b8bd
00000380: 9597 82bd 5126 7cbe 60ab 4abb 0fc7 103e
00000390: 42fb 733e f766 5ebd 33f1 7f3d c18d 34be
000003a0: e5ff 453e e7b8 00bf c3e2 7abe 261e f6bb
000003b0: 1e52 7b3d 5991 c4be c38c 1b3e e968 d33d
000003c0: e7a7 053e 2679 ed3d 7ced ac3d 3b47 b3bd
000003d0: b86c e53d 8897 e2bc 5e95 15be ed84 b53d
000003e0: 7280 babd 1b3d 3f3e 010c 85bd 69ee 303e
000003f0: 9967 c03d 235a 47bd fd39 2e3e 6f31 183e
-0.1434659 -0.13413338 0.026282815 0.18231869 0.15847093 -0.17276722 -0.073410206 -0.033090875
-0.07985578 0.20311128 -0.020325307 -0.062583305 -0.04015546 0.17968966 0.07241606 0.010393582
0.06389189 -0.11178466 0.17034298 0.045891702 -0.029490378 -0.04111004 0.16713564 -0.068965025
0.16308542 0.01637799 -0.07042588 0.25884432 0.091597475 0.19188309 0.16059278 -0.011880744
0.08647427 0.25437889 -0.1333292 0.065409966 0.18203622 0.041422315 0.23583794 0.0032371744
0.07170623 0.08175376 0.15161216 -0.11266314 -0.08619671 0.0051010195 0.16837065 0.04515519
-0.011728797 0.17892091 0.06656377 0.044094753 -0.16277164 -0.15456076 -0.15258645 0.13231203
0.10753182 -0.012059677 -0.03594108 0.06622021 -0.1288706 0.12093541 0.10527034 -0.09313786
-0.05961748 0.04649192 0.18462038 -0.08486622 0.18042552 0.13137078 0.11032522 -0.016242838
-0.17195511 0.092492335 -0.17114446 -0.007692313 -0.046676815 -0.26507106 -0.20819476 -0.0069926097
-0.10176982 -0.014185454 0.023126438 0.0006961119 0.08641415 -0.108140066 -0.18489228 -0.16232
0.009189462 -0.086893976 0.10521943 0.03648963 -0.18637645 0.18013881 -0.11546846 -0.14315708
-0.17610447 -0.029538509 0.08837795 -0.06250512 0.16268794 0.12684742 -0.01505895 -0.17478016
0.026463134 0.077517904 0.14356643 0.16181563 0.1605537 0.136618 0.04785477 -0.0151231745
0.10622758 -0.11663776 -0.116191626 -0.053026754 0.0082096895 -0.17261773 0.0029748664 0.054033637
-0.28453532 -0.18833621 -0.10581859 0.08619036 -0.0795605 0.12092106 -0.31618088 -0.17789
0.01631402 -0.11106289 0.115563534 -0.05513795 0.012753071 0.060345605 0.0420941 0.0049782777
0.033849567 -0.07348903 0.03557519 -0.09729801 0.19676791 0.06585251 0.05653048 -0.027509391
0.010913662 0.19937053 0.015076922 0.25300917 -0.30637312 0.28053638 0.43500307 -0.11637745
0.014406108 0.08206861 -0.4840984 -0.18389244 -0.44629145 0.1756144 -0.40013197 -0.3976011
-0.0749269 -0.08668911 0.022159448 0.04408344 0.005869765 -0.5042062 0.13749991 -0.16161394
0.30793053 -0.35353974 -0.27149418 -0.0326433 0.095595725 -0.09554873 0.22992434 -0.043532964
0.07738525 -0.17284468 -0.019856283 0.2270879 0.19222656 -0.22953582 -0.39647126 -0.1065994
0.12960906 0.09810435 0.15481345 0.34003592 0.25579092 0.0049134004 -0.062967405 -0.13735361
0.17800649 -0.0074514295 0.1766389 -0.00360335 -0.075425245 0.15966032 0.14098056 0.052756064
-0.044874646 0.15223356 0.11024358 -0.10448597 0.0510912 0.05080428 0.00977725 -0.13833201
0.1038719 0.06226673 0.15911564 0.14362556 -0.096197344 -0.0021769223 0.0756516 0.23245214
0.33127058 -0.16966991 -0.15794332 -0.1060993 -0.11074078 -0.31616557 -0.39284012 -0.09024876
-0.06376568 -0.24623992 -0.0030924901 0.14138435 0.23826316 -0.054297414 0.062485885 -0.176322
0.19335897 -0.5028214 -0.24500565 -0.007510918 0.06135761 -0.3839214 0.15190415 0.103227444
0.13052331 0.11595373 0.08443734 -0.087538205 0.11202377 -0.027660146 -0.1460776 0.08863244
-0.0910653 0.18675654 -0.0649643 0.17278446 0.0939476 -0.048669945 0.17014308 0.14862607

fc_a.bias f4 [64]
00000000: 2300 cf3e a474 87be b034 cf3e f58c 86be
00000010: 88c9 883e 9f06 013e 94bd 6ebc 70bb 59be
00000020: d75e 9c3e c657 7ebd e9cc c73e 374e 9c3e
00000030: 6e50 9a3e ab8c 6fbe cbd0 cc3e 0478 c53e
00000040: 0ec5 c43e e98a 31be 9858 dbbd ddf8 d63e
00000050: cfad e73d 1034 353e 9a34 12be 9d94 f3bd
00000060: ec5d a03e 4fe2 f63d 5ae1 a8bc 66cc 0dbe
00000070: 2060 333e 8771 47be 4558 40be 74f1 c23e
00000080: a5c2 82be 6256 f2bd 9ecc 01be c605 cf3e
00000090: 6ab4 f4bd c086 c73e da5a 5dbe 594c df3d
000000a0: fbbb 483e 5f77 933e 68be a2be 88b9 66be
000000b0: 9a56 9d3e a7a9 7c3e 983a 39ba 60df a2bd
000000c0: 1924 15be 3338 ac3e 2643 be3e 12a5 5dbe
000000d0: 4af2 f03e 04d2 dc3e 0e5b 6dbe ac9e 6b3e
000000e0: 85a5 38be d973 e33d 1301 08be c316 8b3e
000000f0: 9775 ce3e ec7e 57be 36aa 40be 4c10 a23e
0.40429792 -0.26456177 0.40469885 -0.26279417 0.26716256 0.12600182 -0.014571566 -0.21262908
0.30541107 -0.062095426 0.39023522 0.30528423 0.30139488 -0.23393504 0.40003046 0.38568127
0.3843159 -0.17338146 -0.10710257 0.41986743 0.11312448 0.17695642 -0.14277878 -0.1189358
0.31321657 0.12054884 -0.020615268 -0.13847503 0.17517138 -0.19476901 -0.18783672 0.3807484
-0.25539127 -0.118328825 -0.12675712 0.40434092 -0.11948474 0.38969994 -0.21616688 0.10903234
0.19602959 0.2880201 -0.31785893 -0.22531712 0.30730134 0.24674092 -0.0007065921 -0.07952762
-0.14564551 0.33636627 0.37160605 -0.21645 0.47059852 0.4312898 -0.23179266 0.23009747
-0.1803189 0.111060806 -0.1328166 0.27165803 0.4032409 -0.2104451 -0.1881493 0.3165306

fc_q.weight f4 [64, 128]
00000000: 5c82 0c3a 33a7 4b3e 54ea 543c ce88 40be
00000010: 3ef1 82bd f57f 183e 66dd 863d 4b9a 363e
00000020: 7c73 183e 2c46 4f3e 3849 ee3d 6ef7 1ebe
00000030: 686e 3abe 6f2f 113d 1381 893e 44af 1c3e
00000040: 546b 0d3c 0d5c c63c 3786 2abc 72f3 89be
00000050: 74f8 89bc 16d8 a63c e76d 883e 2176 9bbd
00000060: 55eb 0bbf 9bf8 513e 0e99 043c a9ea 1cbe
00000070: 50e3 adbd d496 ebbd 24b1 aa3d 53c0 ecbe
00000080: 6b6d 31be 1187 a9bd a912 443e 3d5d 39be
00000090: a1e6 9b3e 0eb5 70bb 3029 80be ccbb 9cbe
000000a0: ed23 1abe 1fce c4bd ca17 79be 4333 08be
000000b0: 3f1c e3bd ad4a 8d3a 8e3a 23be 8035 623d
000000c0: e2a3 4cbe 2603 563c 41f4 8d3d 335c 583e
000000d0: abab fa3c 798d 5abd c888 afba bd61 8cba
000000e0: 7d0e 97bd c510 d9be 252f cfbd 4921 29be
000000f0: 8212 5ebe 8ea7 34be afab 063d 0e27 b73d
00000100: aff8 59bd d863 163e 06e4 c4bb cf95 a03d
00000110: d8d9 22be 2339 a4bd 7606 4dbd 3c18 223d
00000120: 0b94 e0bd 00ea f2bd 148e 223e 03d8 233e
00000130: e628 db3b 2d32 95bd 3efe 2bbe 46d2 aabd
00000140: df8a f4bb 6ba0 adbc d238 713e 64d6 b6bd
00000150: 0e4c bdbd 56fc cbbe 24ba 5cbe c6e3 8bbd
00000160: e718 ee3d fc57 ddbd 30e0 4fbe 2ae1 053e
00000170: 34bb 1b3e f42a 0e3e b137 48be 6aa4 7dbd
00000180: c5c1 8bbc 762d d3bd bb12 8ebe e2ea f0bc
00000190: b420 063f 3415 61be 8620 90bc 7438 6ebe
000001a0: 5753 a0bc 063d fb3c 1d2e 28bd cf49 2d3d
000001b0: 7f80 e63d 66d7 27bd b85b 0b3f 22bb 643d
000001c0: c2aa 72be eae0 1f3e 4bf0 bcbd 7620 9fbd
000001d0: e9c6 74bd b3a0 133d e024 b13d de6c d3bd
000001e0: dc95 3ebd 4ec1 c0bd 3ebe e53d 4bd5 27be
000001f0: e6a0 b6bd 3b38 363d e631 cbbe 73e5 22bd
00000200: 6182 883e 52d7 483e d4c5 283c c938 c63c
00000210: b4b0 b53d 40f5 6d3e 590b 85bd 080c ffbd
00000220: 24cf cc3d 9aed 35be b900 a93d 2756 c03d
00000230: d10e 54be 838f f13b 8e07 bb3e dea1 153d
00000240: b47d 553e eca8 183a ca3a ed3d 16c1 6bbc
00000250: f642 86bd 46de 2fbe 196e 5c3e be31 5d3e
00000260: b1e4 783e 54c4 4c3e 2cf3 85bd c884 c8bb
00000270: 0647 fd3d d2a5 8abe e571 aebd 4466 c73d
00000280: d639 833e 50e0 b3bb 0bec 973d 437b 9c3d
00000290: c953 66be f4a5 83be 2a6e 51be 421f 823d
000002a0: bf2a f93c 045e 303e 1be3 823e a6fa febd
000002b0: cb37 34be c82b 2b3d 308e 9f3d b0b7 d4bd
000002c0: 54aa b33b 49db 6d3e 419e da3d 5b38 7c3d
000002d0: 31fe 063d 81d8 923d 675c 9bbd 11fe 453d
000002e0: 57fa f73c 3a59 833c 064e a2bc 10bd 713d
000002f0: 8318 8cbe 4a51 d63c c349 0a3d 98df 1a3e
00000300: d13b e5bd b570 edbd 7298 1abe 929c edbc
00000310: b141 a4bc 34b0 a23c 1538 86be eaa9 293e
00000320: 2810 10be 8d60 72be 8c61 c2bd b4c2 47bd
00000330: b240 79bc 237a 9fbc e4a0 e4bd 63bc 37be
00000340: c17e 3abe 1089 b13e f7d9 e7be 7e25 e6bc
00000350: 81a3 96bd 3746 11be aa4e d8bd 2bc2 0ebe
00000360: 8413 3fbe 786b 37be 1be0 94be d7d8 d1bd
00000370: 6d39 3dbe 60e1 aa3d a685 8e3e 32f0 f2bd
00000380: 8633 113d ae53 5bbe c69d cfbd 33bd 2dbd
00000390: 76d4 c83d d0d9 8fbd 656c 87bc 5343 43be
000003a0: 6126 82bd b2b9 c5be 648a 85bd 00aa 56be
000003b0: 324e 74be 3d09 abbd 6480 3b3d 5b29 e73d
000003c0: 25a6 29be 65a4 3fbe 8502 d73d 769d 2fbd
000003d0: 7779 26be fa43 d0ba 872e afbd bd2b 11bd
000003e0: a70c 643d 81f1 0bbc 85be 39bd 7802 2e3e
000003f0: de85 3fbd 3953 62be b163 0ebe e896 e5bd
0.0005360001 0.19888 0.012995321 -0.18802187 -0.063936695 0.14892562 0.06585197 0.17832296
0.14887804 0.20241612 0.11635059 -0.15524074 -0.18206179 0.035445627 0.26856288 0.15301234
0.008631546 0.024213815 -0.010407976 -0.26943547 -0.016842104 0.02036671 0.2664635 -0.07590891
-0.54655963 0.20504992 0.008093132 -0.15323891 -0.08490622 -0.115033776 0.08334568 -0.46240482
-0.17326896 -0.08277715 0.19147743 -0.18101974 0.30449393 -0.003672901 -0.25031424 -0.30612028
-0.15052767 -0.09609627 -0.24325481 -0.13300805 -0.11089372 0.0010779701 -0.15940306 0.055226803
-0.19984391 0.013062274 0.06931353 0.21128921 0.030599436 -0.053357575 -0.0013392204 -0.0010710281
-0.0737581 -0.42395607 -0.10116414 -0.16516604 -0.21686748 -0.17642042 0.032878574 0.08942996
-0.05321568 0.14686525 -0.006008628 0.07841074 -0.15903413 -0.080187105 -0.05005499 0.039573893
-0.10965737 -0.11861038 0.15874511 0.1600037 0.006688225 -0.07284961 -0.16796204 -0.08340888
-0.007462844 -0.021194657 0.23556831 -0.089276105 -0.09243022 -0.39840955 -0.21555382 -0.06830554
0.116258435 -0.10807797 -0.20300364 0.13074175 0.15208131 0.13883573 -0.19552495 -0.061924376
-0.01706017 -0.10311405 -0.27748665 -0.029408876 0.5239365 -0.21980745 -0.017593633 -0.23263723
-0.01957099 0.030668747 -0.041059602 0.042306717 0.112549774 -0.040976904 0.54436827 0.055842526
-0.23697951 0.15613142 -0.0922552 -0.07769863 -0.059760008 0.036041927 0.086496115 -0.10323499
-0.046529636 -0.0941187 0.112179264 -0.16389959 -0.08917408 0.04448722 -0.39686507 -0.0397696
0.2666197 0.19613388 0.010301072 0.024197 0.08871594 0.23238087 -0.06496305 -0.12453467
0.100004464 -0.17766419 0.08252091 0.09391432 -0.20708777 0.0073718443 0.365292 0.03653132
0.20848733 0.0005823511 0.11583479 -0.014389297 -0.065557405 -0.17174634 0.21526374 0.21601006
0.24305989 0.19996768 -0.06540522 -0.0061193444 0.12367062 -0.27079636 -0.085178174 0.097363025
0.25630063 -0.0054893866 0.074180685 0.07640698 -0.22492899 -0.2571255 -0.2045218 0.06353618
0.03041589 0.17223364 0.25563893 -0.12450151 -0.17599408 0.0417898 0.07790792 -0.10386598
0.005482951 0.23228182 0.10674716 0.061577182 0.03295726 0.07170201 -0.07585984 0.048338
0.030270739 0.016033757 -0.019812595 0.059018195 -0.2736245 0.026161809 0.03376175 0.15124357
-0.1119305 -0.11593763 -0.15097216 -0.029005323 -0.020050855 0.01985941 -0.26214662 0.16568723
-0.14068663 -0.23669644 -0.09491262 -0.048769668 -0.0152131785 -0.019467419 -0.111635 -0.17942958
-0.18212415 0.34674883 -0.4528348 -0.02809405 -0.07355405 -0.14186941 -0.10561879 -0.13941257
-0.18659788 -0.1791209 -0.2907723 -0.10246437 -0.18478937 0.08343768 0.2783634 -0.1186222
0.035449527 -0.2141864 -0.10137515 -0.042416763 0.09806149 -0.07023966 -0.016531179 -0.19068651
-0.063549764 -0.38618237 -0.065205365 -0.20963287 -0.23857954 -0.083513714 0.04577674 0.11287185
-0.16567285 -0.18715055 0.104985274 -0.042874776 -0.16257273 -0.0015889399 -0.08553796 -0.035442103
0.05567613 -0.008541466 -0.04534771 0.16993129 -0.046758525 -0.2210206 -0.13905217 -0.11210424

fc_q.bias f4 [64]
00000000: 0ea3 feba efcc b9bd e37d 9d3e 6d13 973e
00000010: 6cc3 f1bd 0d89 823e 4df0 923e f4db 7dbc
00000020: c094 873e df3b 913d d0f1 b2bd d701 4f3e
00000030: cbc2 673e ba6e ef3d ed7f 833e c316 92bd
00000040: ed4a 28be 3a9a abbd 3dbc 50bd fc5d 14bd
00000050: cc14 f7bd 0f25 723e 99f6 423e 6384 993e
00000060: d9dd fe3d 7079 513e 20e2 643d 43e0 933e
00000070: 274a 6c3e 4b06 7b3e 6085 fbbd c886 b63d
00000080: 8a0a afbd 8aec 963e eab2 d9bc 683e 80bd
00000090: fdc9 acbd fa93 643e 97dc 4cbe 700a d2bd
000000a0: 6c8c a03e 136a bebd 7df7 30be eba7 03bd
000000b0: e501 3cbe 6b92 883e a423 843e 3b99 37bd
000000c0: 93c8 5c3e e91d af3e e918 04bc b40a b8bd
000000d0: 25d7 a1ba f843 703e dbc7 86bd 629b 3f3e
000000e0: 2123 563d 2ee3 afbc 7a83 2e3d f670 78bd
000000f0: 4609 c9bd b842 cebd c2dc 713e 4f1f 883e
-0.0019427256 -0.09072291 0.30760106 0.29507008 -0.11804852 0.25495186 0.2869896 -0.015494335
0.26480675 0.07091498 -0.08737528 0.20215546 0.22632901 0.11691041 0.25683537 -0.07133248
-0.16434832 -0.08379026 -0.050960768 -0.036222443 -0.120645136 0.23646949 0.19039382 0.29983816
0.12444658 0.20456481 0.055879712 0.28882036 0.23075162 0.2451412 -0.12281299 0.08912426
-0.08546932 0.2947734 -0.02657457 -0.06261903 -0.08436964 0.22322074 -0.20006023 -0.10255897
0.31357133 -0.09297576 -0.1728191 -0.03214256 -0.18360098 0.26674208 0.25808442 -0.044823866
0.21560888 0.34202507 -0.00806258 -0.089864165 -0.0012347443 0.23463428 -0.06581088 0.18711618
0.052279595 -0.021470632 0.042605855 -0.060654603 -0.09816222 -0.10071319 0.23619369 0.26586387

fc_out.weight f4 [1, 64]
00000000: 1932 3abe eacd 003e 2f53 97be a4f9 33bd
00000010: f0c2 293e b3d7 00be 86ac 0abe 75d0 9a3c
00000020: 6145 57be 4467 36be 222e d6bd 5795 e4bd
00000030: 2c07 f8bd c52d 6bbd 6268 21be a80d c33d
00000040: 68f2 733c 37fa 8b3d cd31 a13d c14f a83d
00000050: 5db6 1f3a 1e28 86bd 3d27 e4bd aa28 0dbe
00000060: 05b9 b9bd 8770 21be 88c2 a0bd ab63 d0bd
00000070: 156f 18be ffdf 5abd 040c 103e ee63 093e
00000080: 30bd e13d 5faf 2fbe b6c8 ad3d 8ccb e73d
00000090: 253d 193e ed95 fcbd cd24 943d 2c2b 6ebd
000000a0: b6e4 4fbe 0b69 0d3e 6a0f 163e 8c1e 0e3e
000000b0: fc5a 553d 043c bbbd b67a 3abe 6733 b33d
000000c0: 0345 20be 7c0b 04be 62cd 723e ceac 3b3e
000000d0: 08d8 7b3e dc84 30be 5e4c 823e 2892 02be
000000e0: 502f 06be a1fa 293e e123 a7bd 656f d53d
000000f0: f398 c73d c45d 7b3d bd42 1bbe cdcd 0bbe
-0.18183173 0.1257855 -0.29555652 -0.043939248 0.16578269 -0.12582283 -0.13542375 0.018898228
-0.2102256 -0.1781283 -0.10458018 -0.11161297 -0.12110743 -0.057416696 -0.15762475 0.09524089
0.014889337 0.06834834 0.07870827 0.08218337 0.0006092543 -0.065506205 -0.111402966 -0.13785043
-0.09068493 -0.15765582 -0.07849604 -0.1017526 -0.14886124 -0.053436276 0.14067084 0.13417026
0.11022413 -0.17156743 0.08485548 0.1131812 0.14964731 -0.123332836 0.07233582 -0.05814664
-0.2030209 0.13809602 0.14654317 0.1387884 0.052088723 -0.091423064 -0.18210873 0.087500386
-0.15651326 -0.12895006 0.2371116 0.18327639 0.24594128 -0.17238182 0.2544889 -0.12751067
-0.13103986 0.16599514 -0.0816114 0.104216374 0.097459696 0.06136872 -0.15162177 -0.13652726
