LIRL results/Ablation result/ddpg_mask_multi_run_50_5/run_2_seed_294/ddpg_mask_mu_20250905_114822.pth (torch, 312213 bytes, 9 tensors)

fc1.weight f4 [128, 507]
00000000: ab31 84bc 38c4 5dbd aacd e8bc d8f2 98bd
00000010: 6019 7bbd e6a8 dcbd fe81 ccbd 6387 23bd
00000020: bb45 8bbd f4f9 97bc 1ec9 f9bc da03 2f3b
00000030: f546 91bd 445a e8bd aad1 71bd de24 0fbd
00000040: c9ca 80bc b1fc 8fbd 8023 3dbc 23d8 c0bd
00000050: 30a0 ec3b 1fb6 d0bc 7c76 193c c46e b73c
00000060: 2064 7cbd bfb8 98bc a967 79bb 4edf c5bc
00000070: bc48 9dbd 805a c2bc 038e f33b 1260 683d
00000080: 756c 59bd ce0e 34bd 3e94 a1bd 6165 da3c
00000090: 28a4 a3bd 3ca5 c8bd 2b4a 81bd 9ea3 f0bd
000000a0: 11aa 83bd 416c 273d 2c47 8abd ed93 8ebd
000000b0: 87ad edbc 129c 09bd 0cbe b1bd bf26 a83b
000000c0: 14f0 623a 2cee 60bc b27d 85bd 814f 58bd
000000d0: e826 b0bd c358 86bd 4726 5dbb 25be a8bd
000000e0: b05a a93c e6cc b8bd c026 1abd df23 59bd
000000f0: 0b31 573d 5ad5 10bd f4d2 17bc 2524 97bd
00000100: e3f6 71bc aef4 0fbc 70a6 c0bd 0aaf 69bd
00000110: b49a 66bd 5ea5 abbd c1a9 5dbc 9099 083c
00000120: 7218 e9bc aa37 59bd 4f20 79bd ad12 1ebd
00000130: 1c30 39be 72f5 a5bd e1b7 a5bd 3cd4 0bbe
00000140: cc0f e0bc 092f bdbd e610 f9bb d9a6 dabd
00000150: bb4f 11bd 32d1 8a3b 17aa 0d3d c2de c5bb
00000160: 99ee 4dbd 6f13 16bd f9cc 11bd 317c f7bd
00000170: b084 a0bd cc36 e9bd 2f3e 41bd 6257 a4bc
00000180: 3e01 88bd 864c e8bc 39ff 31bc 6b72 d6bc
00000190: 9265 8dbd 56e9 353b 1b38 04bd 68cb 68bd
000001a0: 93b0 cbbd 7202 9abd 1792 84ba d1ef 0ebd
000001b0: b605 14bd 6f7a 1bbd 36aa 06be e47c bdbd
000001c0: 4e16 17bd c26e 8bbd 57cc d4bd d684 c43b
000001d0: f785 963c b3a2 babc 7301 43bd 6ab8 50bc
000001e0: 7222 03bc 95cb a2bd fd43 83bd faf3 27bd
000001f0: 8700 28bd 9063 d0bd c1c7 98bb 3d5d 17bd
00000200: fb26 3ebd c0a2 8abd 38f5 b9bd 1c30 c7bd
00000210: d0f5 e0bd a9e9 a5bd 9b12 51bd cd24 743c
00000220: ae9e 893d 9a7a 323d da05 1cbc 226c 52bd
00000230: 351d 22bc e93b 30be 1dca 2fbd 423a 3bbd
00000240: c74d c0bd cd08 1f3d 8f61 90bd 6acf b5bd
00000250: e383 3bbd 2f88 bdbd 83b8 90bd 6c8f 8abd
00000260: bdb6 babd 19d9 6abd 5410 6bbd d7fc 78bc
00000270: be5f 3fbd 5c42 19bd ed01 e0bd b953 c5bd
00000280: 1f6d 373d 5358 223d 4ff6 92bd 7952 c73b
00000290: 88fe 65bd 5a18 9cbd a90e c4bd 1459 9abd
000002a0: 2013 95bd e492 a8bd a5ae 8abc d38c bbbd
000002b0: d77e 8dbc 7b14 92bc cccd d5bd 4ffc 24bd
000002c0: 98b1 f5bc 548a 16bd 4e13 8ebd 94e9 c9bc
000002d0: 528a 473c d6c9 6abc 4555 a2bc 2cd7 81bc
000002e0: eed5 c5bd a8ac 853c d57d b3bc 9bfd 9abb
000002f0: 4244 21bc 0b8d fabd 13f9 8b3d 21c4 9cbc
00000300: 2b20 d9bc d54c 6bbd 2331 13bd 352c 9d3b
00000310: c635 dabd d1b4 96bd e02d debd 7707 61bd
00000320: 1083 4bbd e70d a4bd 2c28 89bd efce 2ebd
00000330: 5b4f 4dbd 1120 813c f233 07bd 1aaf 59bd
00000340: d7d7 70bd e4e6 aebd b853 32bb 8a3e 90bd
00000350: 31e1 4bbd 15ee bdbd 092d b4bd 7189 bebc
00000360: 2371 debd 3577 b5bd fa02 11bd 8dfb f5bc
00000370: a2d1 9f3c 5f72 01bd 8923 69bd 7f8c 04be
00000380: 2460 0dbd b803 c8bd c8f0 a9bd 765a 28bd
00000390: 3cef 75bd 6aaa 4cbd 67e8 6cbc 7f71 b3bd
000003a0: ef16 47bd eebc 0abb 27da 28bd 055c 4abd
000003b0: d97c aebd 97f2 8abd 7b2d 78bd df7e 95bd
000003c0: f9e9 173c 4f28 91bd 9229 f8bc 777a e43b
000003d0: 2c59 9cbd 0081 d93c 333f 15bd a4f8 a8bd
000003e0: 0c02 79bd 0a3a 01be 1657 043e 67ee 023e
000003f0: 5bb5 e43d a5ec 023e c895 eb3d 89bd 9fbd
-0.016136965 -0.054142207 -0.02841838 -0.07468194 -0.061303496 -0.10774402 -0.099857315 -0.039924037
-0.068004094 -0.018551804 -0.030491408 0.0026705177 -0.07093612 -0.11345342 -0.05903784 -0.03494727
-0.015721695 -0.07030619 -0.011544108 -0.09416225 0.0072212443 -0.025477467 0.009366628 0.022391684
-0.061618924 -0.018642781 -0.003805617 -0.024154332 -0.076798886 -0.023724794 0.0074327006 0.056732245
-0.05308195 -0.04395943 -0.07889603 0.02665967 -0.07990295 -0.09797141 -0.063129745 -0.117499575
-0.06428922 0.040874723 -0.06751856 -0.06961808 -0.029013408 -0.033596106 -0.08678827 0.005131572
0.000865699 -0.01372866 -0.06518115 -0.052810196 -0.08601171 -0.06559899 -0.003374474 -0.08239392
0.020673126 -0.09023456 -0.03763461 -0.053012725 0.052537005 -0.035359718 -0.009266604 -0.07379941
-0.014768335 -0.0087863635 -0.094067454 -0.057051696 -0.05629988 -0.08381151 -0.013529242 0.008337393
-0.02845404 -0.0530316 -0.060821828 -0.03859203 -0.18084759 -0.081034556 -0.08091713 -0.1365518
-0.027351283 -0.09237487 -0.0076008914 -0.10676355 -0.035476428 0.004236364 0.03458604 -0.0060385177
-0.050276373 -0.036639627 -0.035595868 -0.120842345 -0.07837808 -0.11387405 -0.047178444 -0.020061199
-0.06640862 -0.028356802 -0.0108640725 -0.026177606 -0.069041386 0.0027757487 -0.03228007 -0.05683461
-0.09945788 -0.07519998 -0.0010114339 -0.034896675 -0.03613826 -0.03795856 -0.13150868 -0.092523366
-0.036886506 -0.06808235 -0.10390537 0.0059972806 0.018374426 -0.02278266 -0.047608804 -0.01273928
-0.008003818 -0.079489864 -0.06409452 -0.04100416 -0.041016128 -0.1017524 -0.0046624844 -0.036954153
-0.046423893 -0.06769323 -0.09079975 -0.09725973 -0.10984385 -0.08101208 -0.051043134 0.014901352
0.06719719 0.043573953 -0.0095228795 -0.051372655 -0.009894659 -0.17210354 -0.04291736 -0.045709856
-0.09389835 0.038826752 -0.07049858 -0.08877452 -0.045780074 -0.092544906 -0.07066443 -0.06765637
-0.09116886 -0.057335947 -0.05738862 -0.0151970005 -0.046722166 -0.0374168 -0.10937867 -0.096351095
0.0447818 0.039635014 -0.07175886 0.0060828296 -0.056150943 -0.07621832 -0.09573109 -0.075365216
-0.072790384 -0.08231142 -0.01692898 -0.091577195 -0.017272396 -0.017832031 -0.10439643 -0.040279683
-0.02999191 -0.036753014 -0.06937276 -0.024647512 0.012178974 -0.014330348 -0.01981605 -0.015849672
-0.096599445 0.01631768 -0.021910587 -0.004729939 -0.009842934 -0.12233933 0.068346165 -0.01913649
-0.026504597 -0.05744632 -0.035935532 0.0047965297 -0.10654788 -0.07358707 -0.10848594 -0.05493876
-0.049685538 -0.08010464 -0.06697115 -0.042677816 -0.050124507 0.01576236 -0.033008523 -0.053145505
-0.05879959 -0.08540133 -0.0027210545 -0.070431784 -0.049775306 -0.09273926 -0.08797652 -0.023258897
-0.10861423 -0.088606276 -0.03540323 -0.030027175 0.01950914 -0.031603213 -0.056918655 -0.1294422
-0.034515515 -0.09766334 -0.082978785 -0.041101895 -0.060042605 -0.049967207 -0.014459706 -0.08761882
-0.048605856 -0.002116974 -0.04122367 -0.049404163 -0.085199066 -0.067845516 -0.06059025 -0.07299589
0.009272092 -0.070877664 -0.03029326 0.0069726068 -0.07634196 0.02655077 -0.036437225 -0.082505494
-0.060792968 -0.12619796 0.12923846 0.12786256 0.11167403 0.12785585 0.11503178 -0.07799823

fc1.bias f4 [128]
00000000: ab49 343e 6d91 f4bc 185b 493c f5e2 393d
00000010: e7b3 783e 8f87 483d 2757 d13e 43af 0b3e
00000020: 3cb7 713e ffdf 1f3e 2c5f 9e3d 01b5 203f
00000030: 148a c23d 8094 8f3d c863 4a3d b45f 6b3e
00000040: 617a 2c3e 3681 5d3e f513 293f 4561 b63d
00000050: 55e8 4d3e 9492 ce3e 22dd c43d 3a1e 423e
00000060: 5b6f cfbc e892 b13c db14 423e 3fce c4bb
00000070: eaa5 9e3e 6eed 7e3e e926 133c 7683 bf3e
00000080: 8ac2 ed3d d12b 19bd 9784 2c3d 1ca6 4f3d
00000090: b111 e03e 2297 c73c b1eb b03e 2de2 013f
000000a0: ce3c ea3a 00fc eeba 4310 c93e fd9e a83d
000000b0: 1d68 2f3f 9588 44bd eef9 cf3e 5a2f 3a3e
000000c0: d70e 843d 1f8f a13d 6331 253e 312b 103f
000000d0: 22ea c13c 3cbc 033f 387a 9b3b 7b78 bebd
000000e0: 523a 603e 08f4 dc3e 8a01 333e a0a0 9b3d
000000f0: 3ab5 a53d 65a0 2ebc 05e6 8e3e 0e00 8e3d
00000100: cf45 193f 26b9 a13d 1bb3 353c e7dc a73e
00000110: f605 bf3e bf92 d33e be24 54bc 1644 35bd
00000120: 1d7a 8c3e 8331 c03e bbc4 603d ce71 813d
00000130: 0c16 ba3d d2ad ac3e 5118 15bd 3e1f 003f
00000140: 6ace 213e c142 d43e 006a 1b3f 7a78 d8bc
00000150: 6629 393e 6b23 663e 23d1 f53d 21f1 ce3e
00000160: c265 403e 0381 5c3c 8449 a33e f120 cc3d
00000170: c6b8 ae3d a996 b33e 384e 943d ef99 66bc
00000180: 0b54 95bd 11cc ba3e 5579 9e3d 25e1 483c
00000190: 78c7 063e 1a65 963d e09a c73e 7326 a1bd
000001a0: 9f3f 5c3e ce1b b83e 396d 703e cff6 283e
000001b0: 76eb 7f3e 5c8b b4bd dbec 643d bb1d 473b
000001c0: 539e 313e ea00 f53e 3059 1dbd ab9f a63c
000001d0: 7090 a83d 038c 9f3d 9379 fa3d d3ab 2e3e
000001e0: c1c0 c43d fc7d dd3e e4c0 0a3f 6894 f43e
000001f0: 0f50 f33d 2db6 023d ba57 453d 7eb1 d73d
0.17606227 -0.0298545 0.012289785 0.04538246 0.24287377 0.048957404 0.40886804 0.13641076
0.23605055 0.15612791 0.07732996 0.6277619 0.094989926 0.07010746 0.049411565 0.22985727
0.16843559 0.21631321 0.66046077 0.089052714 0.20108159 0.40346205 0.0961249 0.18956843
-0.025321653 0.021676496 0.18953268 -0.0060060318 0.30985957 0.2489526 0.008981445 0.37404984
0.11609371 -0.037395302 0.042118635 0.050695524 0.43763497 0.024364058 0.34554818 0.5073574
0.0017870904 -0.0018233061 0.3927022 0.082334496 0.6851824 -0.047981817 0.4062037 0.18182126
0.06448143 0.07888626 0.16132121 0.56315905 0.023671214 0.514591 0.004744794 -0.093003236
0.21897247 0.4315493 0.17481056 0.07598996 0.08091207 -0.010658358 0.27909866 0.06933604
0.59872144 0.078966424 0.011090065 0.32785723 0.37309235 0.41322896 -0.012948213 -0.044254385
0.27436915 0.37537774 0.054875117 0.06320535 0.09086236 0.33726364 -0.036400143 0.5004767
0.15801397 0.4145718 0.6070862 -0.026424635 0.18082199 0.22474448 0.1200278 0.40418342
0.18788818 0.013458493 0.31892025 0.099672206 0.085313365 0.35075882 0.072414815 -0.014074787
-0.072914205 0.36483815 0.07737986 0.01226071 0.13162029 0.07343502 0.38985348 -0.07868662
0.21508645 0.35958713 0.23479165 0.165004 0.24992165 -0.08815643 0.055889945 0.003038271
0.17345552 0.4785226 -0.038415134 0.020339807 0.08230674 0.07790377 0.1223022 0.17057733
0.096070774 0.4326018 0.5420058 0.47769475 0.11880504 0.031912018 0.048179366 0.10531901

fc2.weight f4 [64, 128]
00000000: 30fd bfbd 58ff 2cbd 7ce1 4a3d 41f9 03be
00000010: 3b23 3bbd 259f 5abd a7fa d6bd e3e9 f43d
00000020: 1ac4 26bd 7ed6 6a3e 6d42 e5bc 9344 26bd
00000030: 545c 943d e65e a63c 397c be3c 102b 06bd
00000040: cf30 25bc bbf4 ae3c 0ebc 04bd 017e 7d3c
00000050: 175b a0bd 7900 b2bd 9457 c7bd 0cba 233c
00000060: 75f3 8cbd 452d 353d b2b7 113e c3ee f9bd
00000070: 6d77 b7bd 6cf8 883d d427 d13d e6cb fbbd
00000080: cf4d bc3d 0a9e 8ebd ce15 e0bc 43d4 d63d
00000090: 744d 0fbe ada5 f13d ec47 11bd 136e b7bc
000000a0: 3841 a73d 6b45 2ebc 7638 393e 8347 a8bd
000000b0: 351a a33c 4496 60bb e666 063b ad4e 62be
000000c0: 93ae 923c cfba dc3d 14af 4f3b 5988 013e
000000d0: 76ad 48be 2966 17bd 643c 2bbd e3e9 c73d
000000e0: 45b4 2f3e 68e4 343d 47ce eabd 8056 d33d
000000f0: 8869 3fbc bdf0 dfbd 4bb3 79bc 7800 903d
00000100: cf98 233e 7c4f 90bd affb b7bd abd4 fb3c
00000110: bad4 7fbe 92b7 52be cf93 1e3d 221a 9bbd
00000120: 004f 65bd 52cd 1d3d d0af b0bd 0789 a13d
00000130: 5bb9 9dbd 3441 243e 3bac d73c 009b 29bd
00000140: b71a ffbc 38d1 9ebe ee51 393d 3d4c 743d
00000150: 6b69 a4bd 1146 3ebe 02a8 da3d 4b6a 78bd
00000160: bcec 4a3e 36b0 983d dd6d 873d 4699 16be
00000170: 3d4d 77bd 2e2a 95be 057d 8d3d 6904 b83d
00000180: 0ab0 c3bd c2d7 c73d 7b47 efbc 1ceb 063c
00000190: ef72 0ebd 7ec7 eabb 191e 53bc de35 17bd
000001a0: 1bfb 0dbd e279 1abd a6da ecbd 34b6 66bd
000001b0: cdf5 c93d 98ec 37bd 02b0 c93d 035f 523d
000001c0: c0da d33c 4688 123d 7289 27be 0518 a63d
000001d0: f6ed c43d 887b 3dbd 1f5b 9d3d f696 463c
000001e0: ffb2 cf3d 29ad 16be b9db c6bd dbac 053e
000001f0: d617 353e 5068 36bd 9f3d a5bc 7a52 86bc
00000200: b62e 883d 2dca 6bbd 7803 1abe a03b 16bc
00000210: e169 76bd c763 ce3c 7140 d13d 1397 a13d
00000220: aa1e f43d 877e 963d c9ad 9f3a 48bd 92bd
00000230: 40e6 163e 906f 973a af5b 023d 26bb 6cbc
00000240: 8a8a 023e 52b9 4bbc 643c cebd 4c6b 8e3d
00000250: 55b4 7abd f593 35be 033a a8bd 1d5d 34bd
00000260: e7a5 59bd f768 813d 13a1 21be ba22 a1bc
00000270: 389b e8bd d580 7f3d 7f79 f33d a058 f5bd
00000280: 863c 173e 62b9 493e 1cb6 2a3d e1dc 62bc
00000290: 53e5 6bbe d0c9 113d 27e2 a13d bf20 d7bd
000002a0: 08fb 7bbb 2e67 313d a57b 2f3e 83d0 b2bc
000002b0: ffbc 373d 6c79 8cbb 3d05 06bd 58df ad3c
000002c0: 1ab0 d9bd 7d9d 2cbd c00d 4a3d fe32 3cbd
000002d0: 214f 793e abda 86bd dbea e2bc f76d 0c3e
000002e0: 81f6 9c3d c2bc 44bd 8ba6 33bd 3ac3 22bd
000002f0: b1ff 3a3d cd7d a1bb e35b b13c 640d 2a3e
00000300: 2305 30be 9b2c 7fbd 933c cd3d 114f 893d
00000310: 6387 88bd 5007 2ebe 6545 4c3d 17a8 a83d
00000320: ae6b 7ebd 84f9 86bd 82be 903e c54f 9d3e
00000330: ec28 d2bd 707d 24bd 18f5 983d 1173 f8bd
00000340: a948 053e 7856 f7bd 53b1 06be 708e 0f3d
00000350: 5470 9c3d 2479 623d 3f43 2d3d 2f01 38be
00000360: f1da 1b3e fc20 513d 0cce 043e 9ea2 9a3d
00000370: 55e6 b33d e0f0 a1bd db09 a3bc f0f1 de3d
00000380: 8610 d53b 5c16 2fbd d68c be3d 5285 133d
00000390: b3a2 e23d 0a3b 353e ad00 1bbe c340 17bd
000003a0: 14a8 cc3d 7669 f93d e305 9a3c c2f2 b13d
000003b0: 0ca3 f5bc 0952 b63c 26ee 23bb 41d7 103e
000003c0: 8fc4 97bd b765 283c edaa fbbd 6d2c 913d
000003d0: 3351 80be f2f4 17bc 7062 dd3d 2353 3ebe
000003e0: 8b08 f73c 028d 17bd 8bda 493e a4bd 9abd
000003f0: 34a7 47be 597c 133d 2d82 cc3d 463f cc3d
-0.093744636 -0.042235702 0.049531445 -0.12888052 -0.045687895 -0.05337443 -0.10497027 0.11958673
-0.04071436 0.22933385 -0.027985776 -0.04059274 0.07244173 0.020308923 0.023252593 -0.03275591
-0.010082438 0.021356931 -0.032405905 0.015471936 -0.07829874 -0.086914964 -0.09733501 0.0099930875
-0.06882373 0.044232626 0.1423023 -0.12203743 -0.089583255 0.06688008 0.10212675 -0.1229475
0.09194528 -0.06963737 -0.027354147 0.104897045 -0.1399439 0.11799178 -0.03546898 -0.022391355
0.08166736 -0.010636668 0.18087944 -0.08216765 0.019909957 -0.0034269253 0.002050811 -0.22100325
0.01790551 0.107778184 0.0031690048 0.12649669 -0.1959742 -0.036962662 -0.04180564 0.09761407
0.17158611 0.044163138 -0.114651255 0.10319233 -0.011682875 -0.10934589 -0.015240501 0.070313394
0.1597626 -0.070464104 -0.08983552 0.030741056 -0.24983492 -0.20577839 0.03871518 -0.07573344
-0.055983543 0.038525887 -0.086272836 0.07887464 -0.077013694 0.16040498 0.026327243 -0.041407585
-0.031140668 -0.31018996 0.04524415 0.05964302 -0.080279194 -0.18581416 0.10676576 -0.060648244
0.1981687 0.074554846 0.06612752 -0.14706907 -0.060376395 -0.29133743 0.06908611 0.08985216
-0.09555061 0.097579494 -0.02920889 0.008234765 -0.034777578 -0.0071648946 -0.012885594 -0.036916606
-0.0346633 -0.037713893 -0.115651414 -0.056326106 0.09861336 -0.044903368 0.09848024 0.05136014
0.025861144 0.03577449 -0.16361025 0.0811005 0.096157 -0.046260387 0.076833956 0.012120953
0.10141563 -0.14714493 -0.097098775 0.1305422 0.17684874 -0.044533074 -0.020170985 -0.01639675
0.066495344 -0.057565857 -0.15040386 -0.009169489 -0.060159568 0.025194062 0.10217369 0.07890143
0.11919911 0.07348352 0.0012182529 -0.07165009 0.14736271 0.0011553634 0.031825718 -0.014448917
0.12748161 -0.0124343205 -0.10070112 0.06954059 -0.061207134 -0.17732222 -0.0821419 -0.044034112
-0.053136732 0.063188486 -0.15784101 -0.01966988 -0.113577306 0.062378723 0.11888408 -0.119797945
0.14769182 0.19699624 0.04167758 -0.013846607 -0.23036699 0.035592854 0.07904463 -0.10504293
-0.0038449187 0.04331129 0.1713701 -0.021827942 0.044857975 -0.0042869356 -0.03271984 0.021224663
-0.10629292 -0.04214238 0.04932952 -0.045947067 0.24346592 -0.06584676 -0.027699878 0.13713823
0.076642044 -0.048031576 -0.04386 -0.039736964 0.045654003 -0.0049283267 0.02165026 0.1660667
-0.1718946 -0.0622984 0.10021319 0.06704534 -0.06666448 -0.16994977 0.049870867 0.082351856
-0.06211441 -0.0659056 0.28270346 0.30724922 -0.102617115 -0.04015869 0.07468623 -0.12131322
0.13015999 -0.120770395 -0.13153581 0.03504795 0.076386124 0.05529131 0.04230046 -0.17969202
0.15220238 0.051056847 0.12969226 0.07550548 0.08784167 -0.079072714 -0.01990216 0.1088599
0.006502214 -0.042745933 0.09304206 0.036015816 0.11066189 0.17698303 -0.15136977 -0.036926996
0.09992996 0.12178318 0.018801635 0.086888805 -0.029984973 0.022255914 -0.0025013774 0.14144613
-0.074105375 0.010278157 -0.12288461 0.07088552 -0.2506195 -0.009274708 0.10809791 -0.18586402
0.03015544 -0.03699971 0.19712274 -0.07555702 -0.19497377 0.03600726 0.099857666 0.09973006

fc2.bias f4 [64]
00000000: bd82 003d 359f a1bd 02c4 14bd ef5c 963d
00000010: 19bd a43d dc6d 593d 903f 02bd 4240 923e
00000020: 08b6 1e3e 7a71 9c3e 5593 d33d d293 163e
00000030: bdc1 afbe d553 73be e5aa d93d 9152 e9ba
00000040: 883e f3bd 1928 c43d 3843 483e 3b2b d83b
00000050: 952d e43e d86b 9b3e c02c 103e 6ebc 983d
00000060: dbf7 4c3e 64ae 41bd 9cb3 5a3d 9382 993e
00000070: fbb6 6e3e 7769 ff3d 7055 85bd 681d 0c3f
00000080: cd3d 7f3e b6e9 853e 2233 4c3e 17e7 073e
00000090: d74b 863e 0371 31bd 31e2 8e3e 91da 83bd
000000a0: d3ea 6ebe 87ef 313e 4b76 473f f659 2d3e
000000b0: 6206 753e 5738 de3e 9c9c 91be 221a bcbd
000000c0: d8f1 0abd 9e2a 2bbe 586f 183d 5553 3b3e
000000d0: 65b1 ed3e ba9f c53d 70f8 05be 3982 17be
000000e0: 2121 b83e eb56 083f d6f7 0a3f 9a35 29bd
000000f0: 2916 833d 00db 1f3e 569d d4ba e0fa b7bd
0.03137468 -0.078916945 -0.03631974 0.073419444 0.0804388 0.053083286 -0.0317989 0.2856465
0.15499127 0.30555326 0.10330836 0.14704826 -0.34327498 -0.23762448 0.10628299 -0.0017801096
-0.11877161 0.095779605 0.19556892 0.0065969503 0.44566026 0.30355716 0.14079571 0.07457815
0.20016424 -0.047285452 0.053393945 0.29982433 0.23311989 0.12471288 -0.065104365 0.5473237
0.24925919 0.2615487 0.1994138 0.13271748 0.26229736 -0.043320667 0.27906945 -0.064381726
-0.23331766 0.17376529 0.77914876 0.16928849 0.23928216 0.4340236 -0.28439796 -0.09184672
-0.033922046 -0.16715476 0.03721556 0.18293507 0.46424404 0.09649606 -0.13083053 -0.1479577
0.35962775 0.53257626 0.5428442 -0.041310884 0.06400711 0.15610886 -0.0016221206 -0.089833975

job_head.weight f4 [50, 64]
00000000: 9225 533d a6b5 803e 671c 4ebb a10d a43d
00000010: b6a8 33be 9396 abbd 8d52 273d 6c1f eebd
00000020: 3122 57be c4b8 a9bc fe92 71be 85f2 d5bd
00000030: e4be 16bd 760f 983d adef ccbd 74ec d9be
00000040: 6592 263d f7d3 d8bd 8831 3cb9 6fd0 85bc
00000050: 4529 293d f9d3 8fbe 1355 28bd 9abd 8bbd
00000060: 3af1 e0be 9d99 4b3d d4cd 033e 35e7 01bf
00000070: 3d0f 69bc 05a0 b0bd eda0 8a3e 3af1 8abd
00000080: 6e0b d83a 67f3 8fbd bca2 013d dda8 adbd
00000090: f348 4abe 6dfe e1bb daf7 70be 42fe c2be
000000a0: 8368 043e 547a 08bd e2a0 52bd 40c2 b53d
000000b0: 8a57 5abe 459c 73be 1751 43be 1bc1 a93d
000000c0: 73ab 73bd 4487 8bbe 144a ddbd e826 e4bd
000000d0: ec46 cfbd 3f5f babd 5447 923d 5d75 023e
000000e0: ab12 57bd d74a 38bd 5182 1cbe 32be 1bbe
000000f0: ab36 a63d c11f 2d3d 4744 9cbd 7f80 ecbd
00000100: de13 37be ff7f dabc 4a19 6cbe 53c1 0f3e
00000110: f681 70be 4762 63bd d826 603e 252c 09be
00000120: 0c3a 34bf 8437 d8bd 8ace f5bd 1d01 db3d
00000130: 2832 a3be 3cc2 a83d bbb3 993d 69e0 67bd
00000140: 1e13 733d 8b34 2fbd 9cf0 1abd 1c03 1b3e
00000150: e790 bbbd 5600 d6bc b0b7 5bbe 4e1a 17be
00000160: 4edf 3fbe da89 0d3e 6848 813d 5f54 86be
00000170: a789 cbbd ffa4 26be 404d a7bc 0153 493b
00000180: a4a7 5bbc bfd6 d8be f057 9a3d 1c50 8ebc
00000190: 08a6 693d e354 40bd ca20 3abd 9398 c7bd
000001a0: 1853 1abe 76b7 56bd cfc6 41be eb02 52be
000001b0: 4420 81be 5f80 38be c70f 173e 96cd 7cbd
000001c0: a049 be3d f33c 31bd 28e5 9f3d 543e a9bd
000001d0: 23fd dcbd 5f9b 30bd 3c54 94bd 3de4 04bf
000001e0: 651e e3be 70f1 a6be 7715 abbe ffbe b03d
000001f0: 7ad9 ad3c 33cf 103d f84c c83b dfaa 2bbe
00000200: 5856 d7bd dd38 fdbd fef8 9fbe 95b3 1a3e
00000210: 0c92 273d 7612 9fbc cfe6 acbc 6a85 c23d
00000220: 2c83 8b3e 620e 8b3c 768c 073c 88f8 8e3e
00000230: e433 2bbe ac30 253d c879 b8bd 41a7 ab3e
00000240: 1721 073e 7dae ffbd c8b3 173e f937 223e
00000250: 4af0 3a3e a447 923d 54ed 3c3d e13d 59be
00000260: eb7b 85bd 5606 40be 7cfd 49be ebf1 2f3d
00000270: d17a ee3d dbb4 7ebe 29d3 2cbb 3f5c ecbd
00000280: 2732 253e 8083 813d 7a24 52bd fccb 22bd
00000290: dbf2 c5bc d5d4 9cbd f6eb 603d 3224 48bd
000002a0: 37ed 9e3b 66eb 483e 9ab8 c93d f8c4 463d
000002b0: 55f4 2b3e ccb5 203d 8a59 953d 5726 2b3d
000002c0: 068d 0b3d 12b2 2a3e 193f c03d da7a 623d
000002d0: 04a2 293e bfea 55bd 3967 84be 8764 303e
000002e0: 966c 693d 24db 1cbd 4b4e 9d3d 621e 3cbe
000002f0: 9189 dabd 6f8d 13be 0235 423d ef21 023d
00000300: e3dc b6be 7fc7 70be 239a 353e 9a8f 953e
00000310: 3908 09be b5dd e7bc 5a0d d4bd 936c 1cbe
00000320: 56d5 7abf b501 0a3d 8bbc 73bd 0a5c dabe
00000330: 7137 14bd a381 29be 547d 0dbe a78f e53d
00000340: f97c 75be dabe 3cbe a0ce 2abe e59c 143d
00000350: a516 72be 75a2 ccbe 5f6d e3bd 0d8a 15be
00000360: 83d2 a4be 016b 1ebe a513 24be 5170 c0be
00000370: eb08 42be 03d8 21be 80a8 49be 5ee2 5abe
00000380: bc1e 7dbe 7f7a 7fbe 833d 8abe d2e6 00be
00000390: 85bc 1dbd 622d 04be 00d3 13be d1d1 62be
000003a0: bd19 6ebf 5e87 6bbd a8a0 65bd 7ae9 bfbe
000003b0: 4744 2abe c980 00bd 1205 45be 849d cfbc
000003c0: e2ee aabc b1cd 9abd cb87 063c d62d 34be
000003d0: 058a cbbd cdce 8dbe 53d9 05bf 046e c8be
000003e0: 6a42 fbbd bb81 10be 3504 83be 75bc a2bd
000003f0: 34bc e03d 8b24 23bd 5791 babd 1249 9d3d
0.0515495 0.25138587 -0.0031450035 0.08010412 -0.17544827 -0.08378329 0.04085021 -0.11627087
-0.21009137 -0.020717986 -0.2359123 -0.104466476 -0.03680314 0.07424824 -0.10006652 -0.42563212
0.040666956 -0.10587304 -0.00017947529 -0.01633474 0.041299123 -0.2809141 -0.041096758 -0.06823273
-0.4393404 0.049707044 0.12871486 -0.5074342 -0.0142248245 -0.08624271 0.27075902 -0.067842916
0.0016482898 -0.07028847 0.031649336 -0.08479474 -0.1975439 -0.006896785 -0.23532048 -0.38084608
0.12930493 -0.033319786 -0.05142296 0.08874941 -0.21322456 -0.23790081 -0.19073902 0.08288785
-0.05948968 -0.27251637 -0.10805145 -0.11140233 -0.10120949 -0.09100198 0.07142511 0.12740083
-0.052508038 -0.044993248 -0.15284087 -0.15209273 0.08115896 0.04226661 -0.0763021 -0.11547946
-0.17878672 -0.026672361 -0.23056522 0.14038591 -0.23487076 -0.055513646 0.21889818 -0.13395746
-0.7040107 -0.10557464 -0.12002285 0.10693572 -0.31874204 0.08240172 0.07504984 -0.0566105
0.059344403 -0.04277472 -0.03782712 0.15137905 -0.09158497 -0.026123207 -0.2145679 -0.14756128
-0.18737528 0.13822117 0.063126385 -0.26236245 -0.099383645 -0.16273879 -0.020422578 0.003071964
-0.013406668 -0.42351338 0.07536304 -0.017372184 0.057043105 -0.046955954 -0.045441426 -0.09745898
-0.1507076 -0.052421056 -0.18923496 -0.20508926 -0.2521993 -0.1801772 0.14752112 -0.0617195
0.092913866 -0.043271016 0.0780738 -0.08263841 -0.107904695 -0.043116923 -0.07242629 -0.51910764
-0.44359127 -0.32606077 -0.33414814 0.086301796 0.021221865 0.03535385 0.006112691 -0.16764401
-0.10514516 -0.123643614 -0.31244653 0.15107568 0.040910766 -0.019417983 -0.021106152 0.09498103
0.27248514 0.016974632 0.008273235 0.2792399 -0.16719013 0.04032962 -0.09007603 0.33526042
0.13196217 -0.12484453 0.14814675 0.15841664 0.18255726 0.071425706 0.04612477 -0.21215011
-0.06517776 -0.18752417 -0.19725603 0.04295532 0.11644519 -0.24873678 -0.0026370978 -0.11541032
0.16132413 0.0632391 -0.051304318 -0.039745316 -0.024163654 -0.07657782 0.05491253 -0.048862644
0.0048500556 0.19621047 0.09849663 0.048527688 0.16792424 0.039235875 0.07292469 0.04178461
0.034070037 0.16669491 0.09387035 0.05529294 0.1656571 -0.052225824 -0.25860003 0.17225848
0.05698832 -0.038294926 0.07680949 -0.18370965 -0.1067077 -0.14409421 0.047413833 0.031770643
-0.35715398 -0.23513602 0.1773458 0.29211122 -0.13382043 -0.02830396 -0.10354109 -0.15275793
-0.97981775 0.033693034 -0.05950598 -0.42648345 -0.036185686 -0.16553359 -0.1381734 0.1120904
-0.23973455 -0.18432179 -0.16680384 0.03628244 -0.2364145 -0.39967695 -0.11104845 -0.14603443
-0.32191858 -0.15470506 -0.16023119 -0.3758569 -0.18948714 -0.15805058 -0.19693184 -0.21375415
-0.24718755 -0.24949072 -0.27000055 -0.12588051 -0.038509864 -0.12907937 -0.14435959 -0.22150351
-0.93008024 -0.057502143 -0.056061417 -0.37482816 -0.16627608 -0.03137282 -0.19240215 -0.025343664
-0.020865861 -0.07558764 0.0082110865 -0.1759561 -0.099384345 -0.2769684 -0.52284735 -0.39146435
-0.12268527 -0.14111988 -0.25589147 -0.079461016 0.10973397 -0.039829772 -0.091097526 0.07679953

job_head.bias f4 [50]
00000000: 22d4 d0bd 73d1 86be 34fe 9c3d eb20 ddbe
00000010: ce71 1b3c de8c 293b 4fea b6bd 78d8 a6bd
00000020: 5edc 38be 6e04 d9bd e01c f6bd 47af 72be
00000030: b93e 65bd c4de 9cbe 67b8 b5be 6df9 b1bd
00000040: 3616 3fbe c3cb 89be 25ee e2bd 0d2c 56bb
00000050: 3bef d9be dd91 d0bd 4141 92be 46c0 743d
00000060: c417 19be b8ee 9fbe 314e a2bd e1aa cebe
00000070: f431 33be 5136 793c 91de f6be b2ab 4cbd
00000080: 1929 42bd eb45 94be 2ca4 44be fd47 b3bd
00000090: f73e 7cbe 6d7c 33be 57e6 36bd 26e2 a0be
000000a0: ad0a 31be 8f48 1bbe 3d1e 65be 3f5e 93be
000000b0: 4a2f fcbd 1c1d 5a3d ec41 86bd f9f2 48be
000000c0: 533a 49be 685e 3cbe
-0.10196711 -0.26331672 0.07665673 -0.43189177 0.009487582 0.0025871317 -0.089314096 -0.08146757
-0.18052813 -0.10596548 -0.12017226 -0.23699676 -0.05596802 -0.30638707 -0.3549225 -0.08690152
-0.18660817 -0.2691327 -0.11080579 -0.0032680065 -0.4256533 -0.10184071 -0.2856541 0.05975368
-0.14950472 -0.31236815 -0.0792507 -0.40364745 -0.17499524 0.015210704 -0.4821668 -0.04996843
-0.047402475 -0.28959593 -0.19203252 -0.08753965 -0.24633394 -0.17527933 -0.044653263 -0.31422538
-0.17289229 -0.15164398 -0.22374816 -0.28782842 -0.12313707 0.053250417 -0.06555542 -0.19623937
-0.19651155 -0.18395388

robot_head.weight f4 [5, 64]
00000000: 3b87 7abe 3267 f83d cef7 fbbe f971 a4bd
00000010: 9964 4cbe 1d6b 90be 3712 0cbd c3bd 5abd
00000020: 3e40 ccbe 3901 73be 51a5 1bbe 7793 cf3d
00000030: ca4e dcbe aa6e ae3d 8b7c 10be e239 243e
00000040: b820 383d 1553 e43d 74db 903d 3eab b7be
00000050: 781f 67bd 9b11 e3bd 1c43 e2be 683a 92be
00000060: ea63 e2be 628a f5bc 1168 033d 7a82 61be
00000070: 770d 69be f1f9 50be 9bce 5c3e f164 af3d
00000080: 46d0 0abe f34f 4abe 6dd8 99bd 8cc7 843d
00000090: f1f4 8fbe 4256 9cbc ebb4 9cbd 68f7 21bd
000000a0: 4b71 f03d 0e1f c6bb f1b7 06bd 5da9 9bbd
000000b0: ab88 703d ecdd f5bd 9c9d 793d f260 7f3d
000000c0: 9cef a4be 6f67 a1bd 5aa0 22be a947 48bd
000000d0: b2d3 8fbd 4514 88be 51d9 0a3e 011e de3d
000000e0: 890f b2be 7b19 be3d ff29 debd 0536 b3bd
000000f0: 2bed babd 37e6 09bc 9edb 05be 6287 a8be
00000100: 8b6e 89be 3c0e bdbd a2e6 a13d a0b4 51bd
00000110: 93b2 5c3b 17f4 21be c776 42be 8c2d a73a
00000120: 0678 e03d 6834 8bbe 3b3c ddbc f5b0 33bc
00000130: 108c 18bc 4005 24be 940f 863c 9a4f e43d
00000140: 4898 eb3c 0cd0 e4bd 3a48 04bd f3d2 38be
00000150: 51ca 2abe 1a90 2a3d 6915 d4bc c2f7 85be
00000160: 0cdc bb3d 8c1d 43bc 0852 4c3e e82c 96bd
00000170: f34c 11bd 5623 313e aaf6 4a3d eccb bb3d
00000180: 3931 a6bd 1f59 37bb 6cda c8bc 995f 963c
00000190: e7cb 0bbe ce8e 44bd 3c1c 0fbe 24a7 003e
000001a0: ef9d 9b3c 6ec4 00be ce3b abbd 30e5 e2bd
000001b0: ce29 313c 0f93 503b 5ee9 07bc 7a69 f7bd
000001c0: 7a26 de3d 5b92 0dbd d6d4 843d a977 ecbc
000001d0: 395d 72bd 1e24 68be c1a7 283d da45 80be
000001e0: 69cb 68be ceae d0be 0604 3abe eb0d b73d
000001f0: 8a2e eb3c 778e 08be 5b15 7dbe 8294 713c
00000200: 76c9 993d 6e80 debb 6b7c f83d 5382 df3c
00000210: bf6b 833d e8b8 c43d 6ac9 883c 65cf 9ebd
00000220: 249a 01bd 0000 dabc 8eb5 5abd 6b38 94bd
00000230: ebeb ff3a 1bbd 343d 2226 70bd c881 98be
00000240: 7d30 123e 3ff0 a9bc dae9 33be a1e4 85bc
00000250: dd55 5bbd 6636 cfbd f566 d93d de23 153e
00000260: 2d38 22be 600f 193d cfbe b8be a492 cabd
00000270: d45a bcbc 25d5 99be f79b f0bd 40dd 1fbe
00000280: 17ad 51bc 76ae 273d 3e9e e5be 8d5e dcbd
00000290: 9bb6 e3bd ddaa 463d b33a 87bc 2738 12be
000002a0: bab6 403d eeee 3fbd 28e3 41be 1263 b63c
000002b0: c97a d3bd 13a4 a13a 037d 753d b933 aa3d
000002c0: 4c1d 9abc 5d99 9c3c 38d9 373c 7321 4ebc
000002d0: 401e e3bd 7cf5 0ebe 529b 4f3c fb28 21ba
000002e0: 0739 3ebd 4ad4 67be c016 403d d7e3 9a3d
000002f0: 5dde 3bbd 9708 77bc 79fc 19bd 9ccd 833e
00000300: 7e52 afbd 86c8 253d 01b8 8b3c 2ca2 1abe
00000310: b884 b0be c8bb 64bd 72fb 53be ecae 6bbe
00000320: a351 f2be 01a2 05be 4f4f e4bd 3477 9dbe
00000330: a5cb e83a 4fc1 e7be 8f7f 4b3e e999 66be
00000340: 395e 36bd b8cb 61be 6395 1dbe bb03 8dbe
00000350: b778 5d3d f98f 9fbd 6a86 5cbe f62b 99be
00000360: 0b91 9dbd d6e9 02be ee23 00bf c507 a6be
00000370: ab49 14bd 70bd e13d 4695 573e fbfe 4dbe
00000380: 772a 4cbc 88a8 a9be b790 2f3e 104f 3abf
00000390: 6384 3cbe b84a c73d 048d 4fbe 029c 97bd
000003a0: 6724 a3bd 1354 67be 68fb 64bd 2c0c 85bd
000003b0: fe4a 5dbe e4e9 fdbe ba6f 14be d72a 87be
000003c0: 9992 b6bd 5e82 d43d 7ad1 24bf ce53 b9bd
000003d0: 84ba 46be ec50 8abe 7112 8cbe 7d59 debd
000003e0: 98b8 9ebe 048b 62be ebc9 adbe be51 43be
000003f0: aea4 b93d 6e4a 9ebe 2cd5 02be 5232 49be
-0.24465649 0.12129058 -0.49212497 -0.08029551 -0.1996025 -0.2820672 -0.03419706 -0.053403627
-0.39892763 -0.23730935 -0.15199782 0.101355486 -0.4302886 0.08517201 -0.1411001 0.16037706
0.044953078 0.11148659 0.07073107 -0.35872835 -0.056426495 -0.11087342 -0.44191825 -0.28560185
-0.44216853 -0.029973213 0.032081667 -0.22022429 -0.22759043 -0.20407845 0.21563189 0.08564175
-0.13556013 -0.1975706 -0.07511983 0.06483373 -0.28116563 -0.0190841 -0.07651695 -0.039542586
0.11740359 -0.0060461825 -0.032890264 -0.07600663 0.058724087 -0.12005219 0.060941324 0.062348314
-0.32214057 -0.078810565 -0.15881482 -0.048896465 -0.070227996 -0.26577964 0.13559462 0.108455665
-0.34777477 0.09282204 -0.10847854 -0.08750538 -0.091272675 -0.008416704 -0.13072059 -0.3291579
-0.2684215 -0.092312306 0.07905318 -0.051197648 0.0033675774 -0.15815769 -0.18990622 0.0012754663
0.10960393 -0.2718842 -0.02700626 -0.010967483 -0.009310737 -0.16017628 0.01636485 0.11147995
0.028759137 -0.11172494 -0.032295443 -0.1804922 -0.1667874 0.041641332 -0.025889115 -0.26165587
0.0917283 -0.0119089 0.19953167 -0.07332784 -0.035473775 0.17298636 0.049551643 0.091697544
-0.08114857 -0.0027976704 -0.024518214 0.018356131 -0.13652001 -0.04798775 -0.13975614 0.12563759
0.018996207 -0.12574932 -0.08361016 -0.1107887 0.01081319 0.0031825935 -0.008295385 -0.12080665
0.108471826 -0.034563404 0.06485908 -0.028865652 -0.059170935 -0.22670028 0.041175608 -0.25053293
-0.22733845 -0.40758365 -0.18165597 0.089382015 0.028708715 -0.13335596 -0.24715178 0.01474488
0.07509129 -0.0067902124 0.12133106 0.027283823 0.06417035 0.096055806 0.016697604 -0.07754401
-0.03164114 -0.026611328 -0.0533958 -0.072373234 0.0019525265 0.044125658 -0.058630116 -0.29786515
0.1427631 -0.020744441 -0.17569676 -0.01634437 -0.053548682 -0.101177976 0.106153406 0.14564463
-0.15841742 0.03736818 -0.36083075 -0.09891251 -0.022992529 -0.3004543 -0.11748498 -0.15611744
-0.0127976155 0.040937863 -0.44847292 -0.10760222 -0.111188136 0.04850279 -0.016507482 -0.14279233
0.04704926 -0.04685872 -0.1893431 0.022264037 -0.10326154 0.0012332223 0.059933674 0.083106466
-0.018812798 0.019116098 0.011221223 -0.012581217 -0.11089754 -0.13960832 0.012671309 -0.0006147769
-0.046441104 -0.22639576 0.046896696 0.07562988 -0.04586636 -0.015077732 -0.037594292 0.25742805
-0.08560656 0.040474437 0.017055513 -0.15100926 -0.34476256 -0.055843145 -0.20701388 -0.23015946
-0.4732791 -0.13050081 -0.111479394 -0.30755007 0.0017760886 -0.4526467 0.19872878 -0.2251965
-0.04452345 -0.22050369 -0.15389018 -0.2754191 0.0540702 -0.077911325 -0.2153565 -0.29916352
-0.076936804 -0.12784514 -0.50054824 -0.32427803 -0.036203068 0.110224605 0.21053037 -0.20116799
-0.012461296 -0.33136392 0.17145048 -0.7277689 -0.18409877 0.09731048 -0.20268637 -0.07402803
-0.079659276 -0.22590666 -0.055903822 -0.06496462 -0.21610638 -0.49592507 -0.14495745 -0.26399872
-0.0891468 0.10376428 -0.64382136 -0.090491876 -0.19407088 -0.27014863 -0.2735782 -0.10856912
-0.3100021 -0.22123343 -0.33943114 -0.19074151 0.09064613 -0.3091616 -0.12776631 -0.19648102

robot_head.bias f4 [5]
00000000: bcfb 52bd 6d6d 19be 185a a1be fbb4 b2bd
00000010: 6a6f 24be
-0.051509604 -0.14983149 -0.3151405 -0.087259255 -0.16058126

param_head.weight f4 [1, 64]
00000000: 8496 24bd fe50 37be 6f01 693d bbcd 1d3e
00000010: 5236 b7be 0f21 83bc 234b 13be e203 febc
00000020: 9bed bbbe ff0b 3dbc 502a 933c 3baa 253e
00000030: af6d 53be 819d 753d bb63 00bf c6fd be3c
00000040: 1af3 c6be 0c7e c7bd 99b5 1cbd 88d1 81be
00000050: cdb8 c5bc 8e02 2e3d 1732 29be 9760 a2be
00000060: 69a3 573d e5a0 0fbe 7bf6 1fbe 381b abbd
00000070: 2887 3dbe b79e 33bd 81df a5bd d1ea cbbe
00000080: 76fa e4be 684f febd b032 10be af25 f63c
00000090: f0e4 46be 2d0a 073b 4528 55bd 7274 39bd
000000a0: 0589 2cbe f291 2b3c fd65 6ebd 6189 9abe
000000b0: ad1e b83b 9597 43bd 8409 b33d 9f68 babd
000000c0: 49af 8a3d cc1e 58bf 0649 463e a99d bebd
000000d0: 7b04 2dbd ca90 7dbd 66a7 593d e210 07bd
000000e0: 77f2 10bd 97e3 dc3b 0ca2 b8bd ee8f 60be
000000f0: cfcf 3a3d bae9 9cbd f07d 10be f98e f6bd
-0.040182605 -0.1790199 0.056886133 0.15410511 -0.3578363 -0.016006975 -0.14384131 -0.03100771
-0.36704716 -0.011538505 0.017964512 0.16178219 -0.2064731 0.05996466 -0.50152177 0.023314368
-0.38857347 -0.097408384 -0.038259123 -0.25355172 -0.024135971 0.042482905 -0.16523014 -0.31714317
0.052646074 -0.1402622 -0.15621369 -0.08354801 -0.1850859 -0.043852534 -0.080992706 -0.39827588
-0.44722337 -0.12417489 -0.14081836 0.030047266 -0.1942327 0.002060543 -0.052040357 -0.045277067
-0.16849144 0.010471808 -0.058202732 -0.30182937 0.005618891 -0.04775198 0.08742049 -0.09101986
0.06771714 -0.8442199 0.19363794 -0.09307415 -0.0422406 -0.06190566 0.05313816 -0.032975085
-0.035387482 0.006740998 -0.09015283 -0.21929905 0.045608338 -0.07661767 -0.14110541 -0.120389886
